checkpoints/target3/epoch=2.checkpoint.pth.tar (torch, 317876 bytes, 8 tensors)

conv1.weight f4 [16, 3, 5, 5]
00000000: 8170 503e 8074 273e 269c 9b3d e6cd 72be
00000010: d972 7d3d cd20 00be aaef e5bb b11c 53be
00000020: ad81 f3bd 5f30 223e dad5 11bd 67d9 05be
00000030: 4009 efbd ea88 d6bd f42b bfbd 84f2 ca3d
00000040: c24f 4a3e 5e68 e2bc fbb3 abbd 377d 9c3c
00000050: 1295 75bd 0f29 0a3e cd46 ad3d 2384 1f3e
00000060: 45e4 e83d 8736 0c3e 2341 973d 6a7f f73d
00000070: 8dce 66bd c57b 99bb 9d74 e1bc d2ac a73d
00000080: 14dd 39be be9b 09be c16c f0bc d2e5 353e
00000090: ec2c 293d 647b a6bd 6d73 8bbc 81d4 bcbd
000000a0: 2ef8 10be 2bd6 023e 819c cabd 04f5 bbbd
000000b0: 7f80 17be f066 6f3e 9b2b d4bd 1b32 3bbd
000000c0: 138a d2bd f9f1 98bd e8dc 2d3c 4a99 7d3d
000000d0: e94e 82bd 23fe b13d c81d c3bd 7d15 a1bd
000000e0: dd9b 17be 5939 22bd 253c 5cbd e366 5d3d
000000f0: 18bb 0bbc 7f1c 473e b808 1fbe 0c94 c13d
00000100: f614 033e e0b2 d23d c9d6 7d3e 83da 223d
00000110: dce0 ce3b 96bb 21bd 8074 c0bd a13b 183e
00000120: e07b 9bbc 119f 293d 22a0 adbb 7e5c af3c
00000130: f38b 2a3d 944d a8bd 86e1 78be e30e bbbd
00000140: 7a8e e1bc 2f13 66bd f3c4 23be d2f5 acbd
00000150: 471a 093d bb6c e83c 05db b13d 4ced 03bd
00000160: 477f 1c3d 6ba3 8ebd a947 05be c32a f53c
00000170: e14d 57be a31b f0bd 7ed4 e33d ad63 8a3c
00000180: a22a 90be dc17 8d3c c86a 493d 4b5c 9cbc
00000190: 53b9 9b3d 368a 993d f9ba f83d 1daa 1dbd
000001a0: 3afa 1fbc be52 a73d d99d 583d c2e5 ca3c
000001b0: f518 053d 7350 0a3e 959d 743b a481 dabc
000001c0: 4a87 1bbe f95c 60bc 87b7 58bd c3f3 493d
000001d0: 0daf 943d 9e52 1c39 1dc3 32bd 9201 753d
000001e0: dd36 b0bb 0412 c13c ae94 673c caa6 a03d
000001f0: 3f37 ee3d 7c11 7b3d e2ca d13d d92d 8b3d
00000200: a821 5a3e cca4 f43d ca20 fdbd 24a4 b1bd
00000210: 4967 f43b caf3 3a3e e04b aa3d aac9 9b3d
00000220: 2329 083e 03a6 1f3c 82e9 2dbe 677e e43d
00000230: 4393 cabc 6c71 e93d 56b7 8abd c381 8b3d
00000240: 4e5c abbd 9ee1 cc3d ec37 2c3e acff 193e
00000250: 5270 f93c f246 58bc ac7d e8bc 08eb 2d3d
00000260: b330 dd3c 36c7 af3d 5bbd 1ebd d9f3 313e
00000270: 3f29 84be f4c4 71bd 1c7a 09be 6424 a73d
00000280: 27ec 60be 43d6 49b9 c742 47bc 67c5 17bd
00000290: fac2 2f3d de07 babd a950 653b cd3b e1bd
000002a0: 0932 17be 8481 323e 7522 0b3e 5a95 bfb8
000002b0: 40ab 16be 476a d73d b993 003e 05aa 813e
000002c0: 882d 1a3d 38dc e73b 668c c0bd 7485 9bbc
000002d0: 91d5 98bd 3198 25be 4529 03be a3ed 85bd
000002e0: 8c0c 62bd 41f2 2fbe 00f0 5cbe caab 2e3b
000002f0: 27bc ce3d 871b 26bd d20a 7c3d 4b73 783d
00000300: 21ea 333e a059 b0bd 98aa 043e 0eb8 a1bc
00000310: 3b66 f6bd b448 193d b2fb 8b3d 9a27 333e
00000320: 3197 bd3d b5ab 703e f843 6ebd 5a6a d7bd
00000330: a841 bd3c 0af8 f43d 0a62 fa3d 8b12 e73c
00000340: a515 c6bd 2de3 d6bd 28b1 8abd 99f1 a5bd
00000350: 8caf 483b b229 1e3d 7bf0 a9bb cf2d 79be
00000360: e328 5ebd 337c c63d 6728 3cbe f3f3 2c3e
00000370: 7801 343d eb27 72bd 3327 b93d 094f 303e
00000380: cabf 7c3c 687c 393e 74ee f03c 93dc dfbd
00000390: 61c4 a9bd 67cc 05bd c465 5c3d ca30 643e
000003a0: 8676 5ebb d4d6 f8bd fb75 80be 2552 d7bd
000003b0: feb1 953c b419 433c ef3e 44bb 3122 f7bb
000003c0: 42d7 c1bd 8cb4 203d 9494 2dbd 32bc 213d
000003d0: c73a 05be 3964 39bb 2b09 abbc e4eb 1e3e
000003e0: 1b8f eb3d 9aec ecbd fcbb c23d 0944 813d
000003f0: ebeb 4d3d bf8f 053d 399c 4b3c 02ed 063d
0.20355417 0.16353035 0.07598142 -0.23711357 0.061877105 -0.12512513 -0.0070170956 -0.20616414
-0.11889968 0.15838765 -0.035604335 -0.13071214 -0.11671686 -0.10475333 -0.09334555 0.099095374
0.19756988 -0.027637657 -0.08383938 0.019102676 -0.059956618 0.13492225 0.0846077 0.1557775
0.11371664 0.13692676 0.07385471 0.12084849 -0.056349326 -0.004683944 -0.027521426 0.0818726
-0.18150741 -0.13438317 -0.029348733 0.1776345 0.041302606 -0.08129004 -0.017022813 -0.092202194
-0.14157173 0.12777011 -0.09893132 -0.091775924 -0.14795111 0.23379111 -0.103598796 -0.04570208
-0.10280242 -0.074680276 0.01061175 0.061913766 -0.06362707 0.08691051 -0.09527165 -0.07865427
-0.14805551 -0.039605472 -0.053768296 0.0540532 -0.008528493 0.19444464 -0.1553067 0.09452066
0.12800965 0.10288024 0.24788965 0.03975917 0.0063134264 -0.039485537 -0.093972206 0.14866497
-0.018979967 0.041411463 -0.0052986303 0.021406408 0.041637372 -0.08217922 -0.2430478 -0.09133699
-0.027533758 -0.05617064 -0.15993099 -0.08445324 0.033472326 0.02837216 0.08684353 -0.032208726
0.03820732 -0.06964763 -0.13015617 0.029927617 -0.21025802 -0.11724021 0.11124514 0.016893232
-0.28157526 0.017223291 0.0491741 -0.019086977 0.07603707 0.07497065 0.12145037 -0.03849231
-0.0097642485 0.08170079 0.05288491 0.02476776 0.032494504 0.13507251 0.0037325372 -0.026673146
-0.15188327 -0.013694041 -0.0529094 0.049304735 0.07259951 0.00014908097 -0.043643106 0.05981595
-0.005377634 0.02356816 0.014134569 0.078443125 0.11631631 0.06129597 0.10243775 0.06795854
0.21301901 0.11945495 -0.1235977 -0.086738855 0.0074586016 0.1825706 0.08315253 0.07606824
0.13296942 0.00974417 -0.16983607 0.11156922 -0.024728423 0.11398587 -0.0677325 0.068118595
-0.08367215 0.100039706 0.16818208 0.15038937 0.030449066 -0.013200508 -0.028380238 0.04246047
0.02700076 0.08582918 -0.038754802 0.17378177 -0.25812718 -0.05902572 -0.13425487 0.08161238
-0.21965085 -0.00019248672 -0.012161917 -0.037053492 0.042910554 -0.09083532 0.0034990704 -0.10997734
-0.1476518 0.17432219 0.13587363 -9.1354086e-05 -0.14713764 0.10518318 0.12556352 0.25325027
0.03764108 0.0070758127 -0.09401779 -0.018984534 -0.074626096 -0.16171338 -0.12808712 -0.06539466
-0.055187747 -0.17182256 -0.21575928 0.0026652687 0.10094481 -0.040553596 0.061533757 0.060656827
0.17569782 -0.086108446 0.12955701 -0.019741084 -0.12031218 0.03742285 0.068351164 0.17495576
0.09257353 0.23503001 -0.05817029 -0.10518332 0.023102596 0.11961372 0.12225731 0.028207084
-0.09672097 -0.10492549 -0.06772071 -0.08102722 0.0030622212 0.038613982 -0.005186138 -0.24333881
-0.05423821 0.09691658 -0.18374787 0.16889934 0.043946713 -0.0591201 0.0904068 0.1721765
0.015426585 0.18113863 0.029410578 -0.10930743 -0.082894094 -0.032665636 0.05380799 0.22284237
-0.0033945157 -0.1215035 -0.25090012 -0.10513715 0.01827335 0.011907984 -0.0029944738 -0.0075419177
-0.09464885 0.039234683 -0.042378023 0.039486118 -0.13010703 -0.0028288497 -0.020878395 0.15519673
0.115019046 -0.11568566 0.095085114 0.06311805 0.050273817 0.03260779 0.012427383 0.032940872

conv1.bias f4 [16]
00000000: 5dd1 7ebd 8cd0 ec3c 317c 47bd 4161 18bd
00000010: 646d 31bd 5f71 74bd ef54 293c cbc4 b6bc
00000020: a9d8 ebbc ecd5 4c3d ca31 5b3c 1641 dd3c
00000030: 2ab5 b4bb 6949 0dbc 7a60 36bd 7958 063c
-0.062211383 0.028908037 -0.048702423 -0.037202124 -0.043317214 -0.05967843 0.010335191 -0.022310635
-0.028789835 0.0500087 0.01337857 0.027008574 -0.0055147605 -0.008623459 -0.0445256 0.008199804

conv2.weight f4 [64, 16, 5, 5]
00000000: 55a0 be3c 1636 473c b285 2a3c 62a9 c43d
00000010: cf85 7e3d 8f64 dc3b 02dc 1b3a add0 ad3c
00000020: 14b4 b43b e969 8cbc 103b ff3b 5ed6 d03d
00000030: 8767 59bd 85a7 8e3c 5163 953d 5388 043b
00000040: ae13 063d 4548 923d 4b4f cd3d 1b69 6a3d
00000050: c770 0bbc e2d4 893d 2e1f 0c3d 856a 803c
00000060: 0e0b 4cbd 6917 b23c cf5f 07bd 0586 babc
00000070: 9cbe c2bc 98b9 0b3d 8e65 2fbd 4549 dabc
00000080: 7f4e b6ba c2e9 50bd 730a 61bd 12e8 cabc
00000090: 2ece d4bb 6db1 92bd 670c 093d 43a0 bbbd
000000a0: 916a 443d f577 14bc f9c0 6dbd 8a62 b23c
000000b0: 2a34 31bd 4412 aabc b016 743c f5f0 1e3d
000000c0: e983 c1bc 4855 db3b 3799 9dbc 2bcc df3b
000000d0: d51f e4bc 4173 883d 72e3 183d 99d1 e83c
000000e0: 02f4 dfba 97f2 0bbc 548a afbc e267 54bb
000000f0: e1fa 23bc 6c99 1ebc c5b3 fb3c ab39 ce3d
00000100: 9efd 80bd c375 a4ba 816f 023d 4c6b 8a3d
00000110: 80e2 5f3d baa5 093d 9aca 97bc 20c8 d1bc
00000120: 190b 0a3e 8d1e 1dbd 87c3 dd3c 594c 34bd
00000130: 37ad 23bc a721 87bb 4512 16bc 0a13 29bc
00000140: f8ed acbb 42ea d43b 15ee f93c cfbf c63c
00000150: fbfe 3b3d 08c2 81bc 4217 b53d d9de 613b
00000160: 83f2 003c 3228 33bc 6474 d73b 5acc aeba
00000170: 27e2 bd3c 3c04 b73d 998d 24bd 323e 01bc
00000180: fc13 e53c 9696 963c 0acf 573d fb73 813d
00000190: 84e0 21bd 4666 3ebc 7cae b4bc 47ad 6c3d
000001a0: 004e f13c d6c2 b9bc 8bae 4ebd f8d5 e03c
000001b0: 5df8 503c 81d5 413c 61a2 30bd 7f6f 09bd
000001c0: 708a f83c 4693 33bd 1982 c1bd 798f e3bc
000001d0: 7e7b 393d dba8 653d fbc5 823c f23b 833d
000001e0: 020f 743d 597d e93b 0264 ad3b bf38 d83c
000001f0: 184f b93c 585c 293c 8636 e6bc dc7d 99bc
00000200: b38b 963c 8c97 cbbc 36fe e53c f09d 883c
00000210: 1321 82bd 4ccd 463d b76d 1dbc f63e 96bc
00000220: 2ad6 973b ea2d b83c f911 1e3d b54d 4f3d
00000230: 0ee4 a73d 702f f03d f395 fa3c c2ae 2ebc
00000240: d7ae 063c e903 e7bc 2fab 3f3d 84a9 0abd
00000250: fa58 4b3d 8ca9 8f3d 2f80 23bd 07b1 83bc
00000260: 331d 89bc 7c49 283c cd49 f33a 5d39 ceba
00000270: a54b 393c c82a c7bc 64f0 6ebc 094d dd3c
00000280: b8e3 a53c 6df8 313d 79d5 9bbc 25c6 533d
00000290: e9c3 cbbc d6c8 c83c e0b6 f73b 3984 3ebc
000002a0: 867d 1fbb fb5c ba3b 241e 45bc 26f6 05bc
000002b0: 434f 843d bbba 583c 6aff 39bc bcc1 edbc
000002c0: 3551 c53d c37b 35bd 7df4 923d 46ab 83bc
000002d0: 34ee 7fbd b9c6 a4b9 f08e 48bd 038b ef3a
000002e0: 0a2f 6fbc d487 a738 8a32 333d 8c5f 4dbd
000002f0: d356 1f3d 2c09 8fba 5b48 bb3d 72a8 733c
00000300: a619 88bc a59c 5d3d b489 49bc 3ab4 74bc
00000310: f6fc ad3d 7948 403c a431 013d 6465 a63c
00000320: 09ed 683d a48e 193c f7a2 5f3d b60c 883c
00000330: 6823 903d afa5 3a3d 56b6 193c 876e 583c
00000340: 847d 5c3c d709 d8bc 18ee 21bd 5e88 15bc
00000350: 008e 38bd 12e2 2b3c ea83 2dbd 6d2c 383d
00000360: 0186 373d 40d7 5e37 acd1 e93b 6c5e 15bd
00000370: cafe 983c 0b31 223c 4b35 ab3c 16c1 a33d
00000380: 9a93 f3bc 64bf e93b 29b9 083d e0cb 69bd
00000390: 37c9 f83b acaf b33c e409 a73d a676 42bd
000003a0: 3bff 9ebd 6c7e 20bc f9d6 093c 0dcf 86bc
000003b0: b1b7 78bd 3f78 6dbd 1578 5d3d eeb5 b3bd
000003c0: 62c1 c93c 92f0 19bd 2fef 79bd 9035 e73b
000003d0: 53cc 96ba df23 213d 2ae4 7dbd d6cb 393d
000003e0: 947d d53c cdfd 183d a955 c93b 9712 963c
000003f0: bbcb 893a ec28 2bbc 26a1 f9bc 00e8 373d
0.023269812 0.012158891 0.010407852 0.0960262 0.06213933 0.0067258547 0.00059455645 0.021217668
0.005514631 -0.017140346 0.007789023 0.10197137 -0.053077247 0.017413864 0.07294334 0.0020222857
0.03273361 0.071426906 0.100248896 0.057229143 -0.008510775 0.06730057 0.034209423 0.015675792
-0.04981523 0.021739678 -0.033050355 -0.022768984 -0.02377253 0.034112543 -0.04282146 -0.026646266
-0.0013908892 -0.05100418 -0.054941606 -0.024768863 -0.006494305 -0.071627475 0.033459093 -0.09161427
0.047953192 -0.009061803 -0.05804536 0.021775503 -0.04326264 -0.020760663 0.014897987 0.038804013
-0.02362247 0.006693516 -0.019238098 0.0068297586 -0.02784721 0.06662608 0.037326284 0.028420256
-0.001708627 -0.008541725 -0.021428265 -0.0032410552 -0.010008545 -0.009680133 0.03072537 0.10069593
-0.06298374 -0.0012547303 0.03184462 0.067587465 0.054659367 0.033605315 -0.018529225 -0.025608122
0.13480796 -0.038359214 0.027070774 -0.044018123 -0.009990028 -0.0041238847 -0.009159629 -0.010319481
-0.0052773915 0.0064976523 0.030509034 0.024261383 0.045897465 -0.015839592 0.08842327 0.0034465103
0.007870319 -0.010934876 0.006575154 -0.0013336048 0.023179127 0.089363545 -0.0401741 -0.007888364
0.02796363 0.018382352 0.052687682 0.0632095 -0.039520755 -0.011621064 -0.022055857 0.057782438
0.029456139 -0.022675913 -0.050459426 0.027445778 0.012754527 0.011830688 -0.043123607 -0.033553597
0.03033945 -0.043841623 -0.09448642 -0.027778374 0.045283787 0.056069236 0.015963545 0.06407918
0.059584625 0.0071255383 0.005291463 0.026394246 0.022620723 0.010336958 -0.02810217 -0.018736772
0.01837716 -0.024852537 0.028075319 0.016676873 -0.06353965 0.04853563 -0.009608678 -0.018340569
0.0046336846 0.022482831 0.03859136 0.050611217 0.08197795 0.11727798 0.03058908 -0.010661783
0.008220396 -0.028200107 0.046794113 -0.03385307 0.0496454 0.070147604 -0.039917167 -0.016075624
-0.016737556 0.010271426 0.0018561423 -0.0015733648 0.011309539 -0.024312392 -0.014583681 0.027014272
0.020250186 0.043449808 -0.01902269 0.051702637 -0.02487369 0.024509829 0.007559642 -0.011628204
-0.0024336292 0.0056873537 -0.012031112 -0.008176362 0.064604305 0.013228114 -0.011352399 -0.029023044
0.0963463 -0.04430748 0.07175539 -0.01607288 -0.062483028 -0.00031428577 -0.04896444 0.0018275682
-0.014598617 7.9884805e-05 0.04374937 -0.05013995 0.03890116 -0.0010912768 0.0914466 0.014871703
-0.016613793 0.054104466 -0.012300897 -0.0149355475 0.08495514 0.011736029 0.03154148 0.020312019
0.05686668 0.009372387 0.054598775 0.016607624 0.07038003 0.045568164 0.009381851 0.0132099455
0.01345766 -0.02637188 -0.039533705 -0.009126751 -0.045057297 0.010490911 -0.04236213 0.044964243
0.04480553 1.3282348e-05 0.0071355905 -0.036467 0.01867618 0.009899388 0.020899436 0.079958126
-0.029733468 0.0071334112 0.033379707 -0.057079196 0.007592346 0.021934353 0.08156183 -0.047476433
-0.07763525 -0.009795766 0.00841307 -0.016456151 -0.060722057 -0.057976004 0.054069597 -0.08774935
0.024628345 -0.03758294 -0.06101912 0.0070559457 -0.0011504985 0.03934085 -0.061985172 0.04536041
0.026060857 0.03735142 0.0061442447 0.018319411 0.0010512987 -0.010446768 -0.03047235 0.044898987

conv2.bias f4 [64]
00000000: 3bf0 56bd 8343 723b 79c7 b83c eb22 0cbd
00000010: 679c 54bc 97f1 debc d588 4f3c ba53 07bd
00000020: 0294 b9bb 08fa 283d 9a1e 38bd 7122 20bc
00000030: 785b 27bd 9658 323d 613e 9fbc 23d4 063c
00000040: ea52 efbc 2801 c9bc 2baf c4bc 144d f2bb
00000050: 32bf 4cbd 5672 143c b81c 88bc 30d7 c839
00000060: e07c 4e3b 685d 1fbc 1fc4 edbb eb08 50bd
00000070: e725 603d 9533 553c 4fe0 3d3c 39b7 bc3b
00000080: ddff 713d 2d87 0f3c 63ab 12bc b644 373d
00000090: 8301 09bd 807e d9bc 98ea 0b3d b237 073d
000000a0: 512a a23b 7839 5f3d 889f d3ba 4669 87bc
000000b0: c558 9c3c 25b9 1a3c 7a2e 68bd e5fb 4dbc
000000c0: 9fd3 72b9 aedf 4ebd 0d71 adbb 16d2 0e3d
000000d0: c8b4 6e3d 44a2 01bd bd21 5ebc acfd 65bb
000000e0: 3ba6 0bbd d77c 273d 053a f0bc 5c71 ce3c
000000f0: 9d6b 5dbc 550c 9b3d 9e18 fabb 4353 053d
-0.052475195 0.003696651 0.022556053 -0.034212988 -0.012976742 -0.027214808 0.012666901 -0.033038832
-0.005663396 0.041254073 -0.04495106 -0.0097738365 -0.040858716 0.043541513 -0.019438924 0.008229288
-0.029214341 -0.024536684 -0.024009308 -0.0073944423 -0.049987026 0.009060463 -0.016615257 0.000383073
0.0031507537 -0.00972686 -0.0072560455 -0.050789755 0.054723646 0.013012786 0.011589124 0.0057591465
0.0590819 0.008760256 -0.008951995 0.044743262 -0.033448707 -0.026549578 0.034159273 0.0330121
0.004948892 0.054498166 -0.0016145566 -0.01652969 0.019085297 0.009443556 -0.05668495 -0.012572263
-0.00023157753 -0.050506286 -0.0052930177 0.034868322 0.058277875 -0.03164889 -0.0135578485 -0.0035093827
-0.034094077 0.04089054 -0.02932454 0.025200538 -0.013514427 0.075707115 -0.007632329 0.032550108

conv3.weight f4 [32, 64, 5, 5]
00000000: 25f0 cd3b de54 3b3b f798 a53b c293 173a
00000010: 7fc0 cbb9 8d0b e93b 22ca ca3b 5d45 f83b
00000020: 79c9 b33b 7483 4f3a 2b30 153d 1f1f 473b
00000030: 1e0c 263d a41d 683c 1b5f dc3c 4267 0c3d
00000040: 6783 993c a324 193d 5eb5 183d ebe8 2abc
00000050: f629 ef39 7e84 bb3c 5d33 7f3c 7a4a 843d
00000060: d029 5d3c 606c 30ba e49e 3bbb 48d0 c9bb
00000070: cc54 abbb 059f 34b9 64e3 45bb 70a3 743b
00000080: 1bdd bf3a c4ae 4fbb 18d9 2138 2d62 033d
00000090: 5074 793c 21f5 6d3c 684c 2a3a c6a2 4a3d
000000a0: 0e02 1ebc 0b25 313b 58c9 203d 41c8 983c
000000b0: 3126 ac3c 681b 143c 5593 d2bb 88ce 143b
000000c0: 29e4 1b3d 87fc 963c bb5d 85bb 3439 acba
000000d0: af92 85bb 860f a9ba 6a7e 43b9 a90a afbb
000000e0: 03f0 f0ba 6806 39bb 0ae5 bdbb 35e5 5739
000000f0: a14d 8fbc b983 c93c 25e0 973c 8077 a93c
00000100: fd53 d0ba 5943 0cbb 7bb6 033b 7a3a 9ebc
00000110: bca4 ca3b a173 0f3d 5195 90bc 8bfb 9f3c
00000120: ebde 72bc eadd 97bc 10b7 1a3d 5a08 b13b
00000130: 8189 d53b 0adc 9a3b e5b0 d43b 1cba 19ba
00000140: 2d13 be3a 7c34 273b 2cda 0e3b d537 fe3b
00000150: 4cd8 0f39 62f1 0bbc 6f0a e0bb e472 3a3a
00000160: b418 f33c 780c 0d3d 875c b23b 8e25 c7bb
00000170: 0dc5 dd3c 63df 873c 1921 6cbb 7b13 9cbb
00000180: 3ca8 54bc 96f5 19bd 3dc2 453c d655 c5bc
00000190: 40d4 793b 289f f73b 96b6 6b3b 11d4 ea3b
000001a0: 7e42 4139 6a75 c1ba 5f19 1338 a5da 9039
000001b0: 4333 f63b 353c 6c39 ef94 ef3c fc67 823b
000001c0: 5d5b b33c 9fb3 3f3c 9b26 0a3c 403b 163c
000001d0: 44aa 23bd 154a a03c b6fb bc3b 2357 1ebc
000001e0: 80ff 83bc 41df 88bb ac92 c23b 832f 0f3d
000001f0: 1c68 c13c 666a 68bb 4597 9abb 701f 3fbb
00000200: d254 6cbb 144f cc39 b4fe acbb 285c 633b
00000210: 661e cc3b 3463 823a 2198 eb39 5a39 5b3b
00000220: c7bf 193d 9259 9fbc 1231 3c3d 841f bc3b
00000230: d7b8 aebc 8dbf c63c 235c b3bc 88a2 553b
00000240: 1d47 673c fe15 6bbb 45e9 b6bb a7b8 c33b
00000250: 3e22 083d 0eb9 253d 7d3f 453b ec3f 063c
00000260: 766d c43b 74b9 0a3c 594f 353b 99eb d03b
00000270: 29f0 ae3b 198d 2eba d4da 193c bb76 d73a
00000280: 81d0 583d e26d 93ba fc7e 833c b42e 173d
00000290: 6a10 393d 5232 f13a fda3 483d 2b10 e83c
000002a0: a353 2d3b 86bc b9bc 1600 3e3b d04b b53c
000002b0: bd65 d4bc a944 eebb 8706 1dbd 870e e03b
000002c0: 0a24 cb3b fb54 ba3b 5d1b 0d3c 1390 9cb9
000002d0: d60d bf3b 5b9e 643b a8b1 053c 31b3 003c
000002e0: 0ee2 79ba 3766 c23c 5e7e 873b 0cd7 213c
000002f0: 6f25 793c 286d 00bc 99d7 1c3d ee8f 693b
00000300: 7747 883c 2b3b 803c e4e6 43bc c95f 38bc
00000310: 6759 923c 98f8 983c 0410 d63b 15e5 11bd
00000320: 4a18 6a39 44d8 9fbb ce56 783b 9a87 e9ba
00000330: 8dcb 88b9 9fec e0bb fc8b 65ba 1b2d b63b
00000340: d889 103b 9695 78ba ef97 bdbb 0207 bd3c
00000350: 6b39 0c3b a0cd 553c 29c5 e63c aabe f23b
00000360: aebd 3e3d 784f 4d3c 3949 693c 524b b93b
00000370: d4ac 1a3c 2092 10bc 9dff fa3c 8e41 7cbc
00000380: 5b9a a23c 4ff7 c93b 1e0f c83b 952b ae3b
00000390: deaf 863b ee23 72ba 596e 803b a53c b83b
000003a0: 602e 92bb ea74 9f3b a815 d4b9 dc15 2a3d
000003b0: d39b 38bc 29b8 083d c078 853c 14a2 4a3c
000003c0: 2c8c 873c 12de 84bb 8c1d d2ba 6ddc a53c
000003d0: f669 943a 2e33 013c cee6 45bb f652 4d3c
000003e0: eaa2 acbc 6327 923c 534a d7bb 24af 043b
000003f0: 9656 d4b9 6a01 83bb 009c 6eb9 24bb d8b9
0.006284731 0.002858452 0.005053635 0.00057822105 -0.00038862598 0.0071119727 0.006188647 0.007576628
0.005486664 0.00079160114 0.03642289 0.003038354 0.0405389 0.014167223 0.026900819 0.03427816
0.018739415 0.037388455 0.03728234 -0.0104315085 0.00045616896 0.022890326 0.015576211 0.06459518
0.013498738 -0.00067300163 -0.0028628642 -0.0061588623 -0.0052286144 -0.00017225377 -0.003019535 0.0037328862
0.0014638038 -0.0031689862 3.8587576e-05 0.03207605 0.015225485 0.014523775 0.0006496371 0.04947164
-0.009644045 0.0027030136 0.039254516 0.018650176 0.021014305 0.009039737 -0.0064262548 0.002270611
0.038059387 0.018430961 -0.0040700114 -0.0013139606 -0.004076324 -0.0012898303 -0.00018643742 -0.005341847
-0.0018382076 -0.0028232578 -0.005795126 0.00020589384 -0.017493071 0.024598943 0.018539498 0.020686865
-0.0015894171 -0.0021402447 0.002009778 -0.019314993 0.0061841886 0.03502238 -0.017649325 0.019529125
-0.014823656 -0.018538434 0.03777224 0.005402607 0.006516636 0.0047259377 0.006490814 -0.0005864219
0.0014501564 0.002551346 0.002179752 0.0077581205 0.0001371812 -0.008541437 -0.0068371813 0.0007112457
0.029674865 0.03443572 0.005443159 -0.006077475 0.0270715 0.016586011 -0.003603047 -0.0047630644
-0.012979563 -0.037587725 0.012070236 -0.024088781 0.0038120896 0.0075568147 0.0035966984 0.0071663936
0.00018430685 -0.0014759724 3.507116e-05 0.00027628723 0.007513435 0.00022529143 0.029245822 0.003979681
0.021894151 0.01170054 0.008432056 0.0091694 -0.0399573 0.019566575 0.005767311 -0.00966433
-0.016113043 -0.0041770046 0.005937895 0.03495742 0.023609214 -0.003546381 -0.0047177398 -0.0029163025
-0.00360613 0.0003896883 -0.0052793864 0.003469238 0.0062292097 0.0009947778 0.00044936038 0.0033450932
0.03753641 -0.01945189 0.045945235 0.0057410616 -0.021328373 0.02426126 -0.02189452 0.0032598097
0.014116076 -0.0035871263 -0.005582007 0.00597294 0.03323578 0.040459685 0.0030097656 0.008193951
0.005994494 0.008467067 0.0027665703 0.0063757417 0.005338688 -0.00066585984 0.009390552 0.0016438583
0.05293322 -0.0011247958 0.016051762 0.036909774 0.04518167 0.0018401837 0.048984516 0.028328022
0.0026447556 -0.022672903 0.002899175 0.022130877 -0.025927419 -0.0072713685 -0.038336303 0.0068376693
0.0061993646 0.0056864 0.008612481 -0.00029861982 0.005830507 0.0034884426 0.008160032 0.007855223
-0.0009532281 0.02373038 0.004134937 0.009877931 0.015206679 -0.007838525 0.038291547 0.0035638767
0.01663564 0.015653213 -0.011956904 -0.011253306 0.017864896 0.018673226 0.006532671 -0.03561886
0.00022325027 -0.004878076 0.0037893537 -0.0017816902 -0.000260916 -0.006864145 -0.0008756516 0.005559576
0.0022054818 -0.0009482739 -0.005785934 0.02307463 0.0021396528 0.013049513 0.028170185 0.007407983
0.04656761 0.012531154 0.014238649 0.005654731 0.0094406195 -0.008823901 0.030639464 -0.015396489
0.019848993 0.0061635147 0.0061053177 0.005315254 0.0041103205 -0.00092369213 0.0039194045 0.0056224638
-0.0044610947 0.004866232 -0.00040451926 0.041524753 -0.01126762 0.033378754 0.01629293 0.012367744
0.016546331 -0.004054793 -0.0016030534 0.020246709 0.0011323083 0.007885737 -0.0030197385 0.012531986
-0.021073777 0.017841047 -0.0065701394 0.0020245994 -0.00040500303 -0.0039979713 -0.00022755563 -0.0004133816

conv3.bias f4 [32]
00000000: 99c8 51bc f2cb 003c 5814 fdbc 4ea1 933a
00000010: d724 97b9 00b6 203b aaf3 173b 9307 0eba
00000020: 61fb 1abd 3c51 0b3d 6d57 ccbb 41f3 2f3d
00000030: f309 ec3b 910f b5bc 079f a63c 1f4e 2dbd
00000040: 8d35 593d 9d7b 863c eea9 a7bc 597b aa3c
00000050: 731b 723b da9d 46bc 7aa9 203a 0bb5 013d
00000060: b6a0 4939 7e98 a33c 4bb0 f23a 3b0f 793d
00000070: f20d e0bc 86ea b13c fa88 873b 5c93 6b3d
-0.012804174 0.007861124 -0.03089349 0.0011263283 -0.00028828412 0.0024522543 0.0023186007 -0.0005417999
-0.03783739 0.034013018 -0.006236008 0.042956594 0.0072033345 -0.02210215 0.020339502 -0.04231083
0.053029586 0.016416365 -0.020466771 0.02081077 0.003694263 -0.012122596 0.00061287696 0.031666797
0.00019228723 0.019970175 0.0018515674 0.06080554 -0.0273504 0.021718275 0.004136202 0.05751358

fc_1.weight f4 [8, 32]
00000000: 8750 803d 9182 883e fb49 72be 54ef c53e
00000010: 66f0 e2bd 5876 2bbb 7d09 a43c ecbd 373e
00000020: a21a b83c 6c54 20bd 527f 92bd 8334 003e
00000030: 305b 42bd 65d6 06be 4858 46bd 803a 99be
00000040: 364e fe3c 20f4 7d3e 6f53 17bd 1bbb ef3d
00000050: ebf0 b63d e558 283e 1d10 913a 675e bb3e
00000060: 3e10 aabb 8baa 03be 532e 753d 3d9d dc3c
00000070: d807 c1be f57a 1e3c 7e0b f33e 6eb0 8bbd
00000080: 3f36 013e f48c 963d f35d b0bd 81e1 2fbe
00000090: de89 afbd e4b1 3b3e 6d9c fe3a a103 5e3b
000000a0: a7e7 55be f0a4 e13d 6fb3 883c eedf 2e3d
000000b0: 0b76 6d3d e755 833b c3f5 82bd 1b22 23be
000000c0: 001e b33e bd2b cabd cc4f 8bbe 45e2 d43e
000000d0: e07b 8cbd c3be 19be 4473 ee3c 9cd5 fc3c
000000e0: e988 4a3d d867 dfba ae8e 743b 0af0 153e
000000f0: 6777 753d c5be 57bd f49e 51bd 2ab0 7b3e
00000100: ac5c 4c3d 4c7e c33d db8c 1b3d ef57 403e
00000110: a17b 6bbc dda8 923e 7c09 36bc cf31 253b
00000120: 8f57 943e ebcb 1bbd eac5 27be 18e3 63bd
00000130: c118 88be 0adc e53d d007 24bf fede bb3c
00000140: ebb4 eabd 4098 393e 7f01 6dbe 31c0 563d
00000150: 2f02 a7bc ed04 d53d f9b2 dcbd 06ec 4d3d
00000160: 99c9 79bd c417 9cbe bdf3 7dbb ee26 85be
00000170: 8f08 02bb a403 6bbd 0429 943e acfc 90be
00000180: 0f46 233e 661c ccbd 6e5f 02bd c456 463e
00000190: eb18 d23d ca56 9cbd a43f fa3d aa57 e237
000001a0: 085c 8ebd 4168 5fbe d8f3 9ab9 fb1a 64be
000001b0: 8c10 fc3d 5faa c9bc 4095 a83e d936 073d
000001c0: 16ab 32bd db43 4bbe ba31 5a3e 8d8c 70be
000001d0: ac89 a1bb 55dd f5bd 60f7 e53c fc8e a0bd
000001e0: 7cea 613e 7908 14be 8463 f9ba cff1 a9be
000001f0: e41d 0bbc f6d0 3fbe f700 c7be fe16 8f3c
00000200: 5921 3c3e d7e0 1c3d 5083 2c3e 0a5d 30bd
00000210: 2246 7fbe e0a6 e5bb ea5f 24bc 4f2a 96bd
00000220: 01b6 adbd b78d c9be b7c6 46be 85df 7ebe
00000230: 5f09 533e 66df 99bc 0999 5e3e d3ab d33d
00000240: 0b09 5bbe 9c54 bbbd 031e 63bc 722c 25bd
00000250: aeb2 17bd 2b85 873d 50bb 7438 dfea 743e
00000260: 5727 da3d b0b2 2cbe 287d 31be 575a 4cbe
00000270: 4fb8 16be b2c1 c3be d50d 8d3d 2046 cfbe
00000280: 04a2 d73d a146 38be bc2a ce3e 006c a63d
00000290: 4bbc 943d be6e 95be 7b35 cabd b1df 89ba
000002a0: c2d1 17bb 742e fb3d 148c de3e 7ebb 8a3c
000002b0: b4bb 17bd b81c f3bc 98bc 0ebe 0b10 133e
000002c0: ad60 2abe be7c a33d a1bc 08be 24fa a6be
000002d0: c359 17bc dcab 1dbc 3e26 cd3d d0ac 8bbd
000002e0: 12bb 363e afc0 b83d 291f 88bd 2811 9bbd
000002f0: f837 f5bd aa21 f73d 0997 263e f703 29be
00000300: d57a 65bd f3b9 b1be 00ca 06bd 91c7 c1bc
00000310: c82b 99bd abfa 643e a6e0 deba 9b4a 3938
00000320: 7314 df3d 07e1 26be f1c0 21bd f6a8 2abe
00000330: 9b6f 6bbe efab 833e 9691 cf3d 3406 7ebe
00000340: 4c55 113c 9ef9 ba3e 686a 76bd d82d acbe
00000350: a283 19bc 8da0 34be 8b8b 103c 5edf 943e
00000360: 0d3b 1b3b 7e9a 22bd aa6e a8ba 47fe 17bd
00000370: f7b2 acbc d6f0 b53d 9cc3 36be e6f0 97bd
00000380: 692b dcbd 5c01 e5bd 49b0 dd3d 6ba6 e33e
00000390: e773 aa3e 5eb7 afbe 4123 b4bb 1042 733c
000003a0: febd d2bd 416c 9c3e 4369 2dbd b40e a63b
000003b0: 1ba7 80bd aacc 90be 44b3 b23d 8c73 843d
000003c0: 2e6d bc3e 1a5d 033d bf82 59be 46c8 84be
000003d0: 289a b5bb eb70 b5be 57f9 dfbc 614f aa3d
000003e0: 316e 1c3e cfe3 3a3e be05 05be 4fb8 ff3d
000003f0: f9ed 26be 6b93 0a3e 91d4 843d 36b0 9e3d
0.06265359 0.26662114 -0.23661034 0.38659155 -0.110810086 -0.0026163068 0.020024056 0.17943543
0.022473637 -0.03914301 -0.07153191 0.12520032 -0.047450244 -0.13167723 -0.048424035 -0.29927444
0.031043153 0.24800158 -0.036944803 0.117056094 0.0893267 0.1644016 0.0011067424 0.3659546
-0.0051899245 -0.12858026 0.05985863 0.026930446 -0.37701297 0.00967287 0.47469705 -0.06820761
0.1261835 0.073511034 -0.086116694 -0.17175867 -0.08571218 0.18329579 0.0019425281 0.0033876675
-0.2088915 0.110177875 0.016687123 0.042694025 0.057973903 0.004008043 -0.063945316 -0.15930979
0.34983826 -0.09871624 -0.27209318 0.4157888 -0.06859565 -0.15014176 0.029107697 0.030863576
0.049446974 -0.0017044498 0.003731649 0.14642349 0.059928324 -0.052672166 -0.05117698 0.2457892
0.049893066 0.095455736 0.037976127 0.18783544 -0.014372737 0.28644457 -0.01111066 0.002520669
0.28973052 -0.03803627 -0.16384092 -0.055636495 -0.26581386 0.1122361 -0.6407442 0.02293348
-0.114602886 0.18124485 -0.23145102 0.05242938 -0.020386783 0.1040133 -0.10776324 0.050273918
-0.060983274 -0.30486882 -0.0038750016 -0.26006263 -0.0019841527 -0.05737652 0.28937542 -0.28317773
0.15944694 -0.09966354 -0.03182929 0.19369036 0.10258659 -0.07633741 0.1221917 2.6982121e-05
-0.06951147 -0.21817113 -0.00029554847 -0.22275917 0.123078436 -0.024617372 0.3292637 0.03301129
-0.04362019 -0.19850104 0.21308032 -0.23491116 -0.004929742 -0.12005106 0.02807206 -0.07839772
0.22062105 -0.14456357 -0.001902685 -0.33192298 -0.008491013 -0.18732056 -0.38867924 0.017467018
0.18372096 0.03830036 0.16846967 -0.04305748 -0.24929097 -0.0070084184 -0.010032633 -0.073322885
-0.0848198 -0.39365932 -0.19411741 -0.24889953 0.20609044 -0.018783282 0.21738066 0.10335507
-0.21390168 -0.09146997 -0.013862136 -0.04032559 -0.037035637 0.06617197 5.834858e-05 0.23917721
0.10652035 -0.16865039 -0.173329 -0.19956337 -0.14718746 -0.38233715 0.06887404 -0.4048319
0.10528949 -0.17995693 0.4026698 0.08126068 0.072624765 -0.29186052 -0.09873482 -0.0010518936
-0.0023165797 0.122647196 0.43466246 0.016935106 -0.037044242 -0.02967678 -0.1393913 0.14361589
-0.16638441 0.07982777 -0.13353206 -0.32612717 -0.009237709 -0.009623494 0.1001706 -0.06820071
0.17844799 0.090211265 -0.06646568 -0.07571632 -0.11973566 0.12066968 0.16268553 -0.16505419
-0.056025345 -0.3471218 -0.032907486 -0.023654731 -0.07479054 0.22361247 -0.0017004206 4.417692e-05
0.10892572 -0.16296779 -0.039490644 -0.16666016 -0.22991793 0.25717112 0.1013519 -0.24807054
0.008870434 0.36518568 -0.06016007 -0.33628726 -0.009369763 -0.1763937 0.008822332 0.29076666
0.002368632 -0.039698116 -0.0012850363 -0.037107732 -0.02108143 0.088838264 -0.17848057 -0.074189946
-0.10750467 -0.111819 0.10824639 0.44462904 0.3329155 -0.34319586 -0.0054973667 0.0148472935
-0.102901444 0.3055134 -0.042336714 0.0050676707 -0.06281873 -0.28281146 0.087255985 0.06467351
0.36802047 0.03207121 -0.21241282 -0.25934047 -0.0055420585 -0.35437712 -0.027340574 0.083159216
0.1527641 0.18250965 -0.12990472 0.12486326 -0.16301717 0.13532798 0.06485856 0.07748453

fc_1.bias f4 [8]
00000000: 78fb fe3c 661d 003d e16e 36bd 4424 adbc
00000010: 9f88 d3bc aa08 88bc fea0 dd3b abfc e13b
0.031125769 0.031278037 -0.044539336 -0.021135457 -0.025821982 -0.016605694 0.0067635765 0.0068965754
