checkpoints/target3/epoch=11.checkpoint.pth.tar (torch, 320896 bytes, 8 tensors)

conv1.weight f4 [16, 3, 5, 5]
0.20355417 0.16353035 0.07598142 -0.23711357 0.061877105 -0.12512513 -0.0070170956 -0.20616414
-0.11889968 0.15838765 -0.035604335 -0.13071214 -0.11671686 -0.10475333 -0.09334555 0.099095374
0.19756988 -0.027637657 -0.08383938 0.019102676 -0.059956618 0.13492225 0.0846077 0.1557775
0.11371664 0.13692676 0.07385471 0.12084849 -0.056349326 -0.004683944 -0.027521426 0.0818726
-0.18150741 -0.13438317 -0.029348733 0.1776345 0.041302606 -0.08129004 -0.017022813 -0.092202194
-0.14157173 0.12777011 -0.09893132 -0.091775924 -0.14795111 0.23379111 -0.103598796 -0.04570208
-0.10280242 -0.074680276 0.01061175 0.061913766 -0.06362707 0.08691051 -0.09527165 -0.07865427
-0.14805551 -0.039605472 -0.053768296 0.0540532 -0.008528493 0.19444464 -0.1553067 0.09452066
0.12800965 0.10288024 0.24788965 0.03975917 0.0063134264 -0.039485537 -0.093972206 0.14866497
-0.018979967 0.041411463 -0.0052986303 0.021406408 0.041637372 -0.08217922 -0.2430478 -0.09133699
-0.027533758 -0.05617064 -0.15993099 -0.08445324 0.033472326 0.02837216 0.08684353 -0.032208726
0.03820732 -0.06964763 -0.13015617 0.029927617 -0.21025802 -0.11724021 0.11124514 0.016893232
-0.28157526 0.017223291 0.0491741 -0.019086977 0.07603707 0.07497065 0.12145037 -0.03849231
-0.0097642485 0.08170079 0.05288491 0.02476776 0.032494504 0.13507251 0.0037325372 -0.026673146
-0.15188327 -0.013694041 -0.0529094 0.049304735 0.07259951 0.00014908097 -0.043643106 0.05981595
-0.005377634 0.02356816 0.014134569 0.078443125 0.11631631 0.06129597 0.10243775 0.06795854
0.21301901 0.11945495 -0.1235977 -0.086738855 0.0074586016 0.1825706 0.08315253 0.07606824
0.13296942 0.00974417 -0.16983607 0.11156922 -0.024728423 0.11398587 -0.0677325 0.068118595
-0.08367215 0.100039706 0.16818208 0.15038937 0.030449066 -0.013200508 -0.028380238 0.04246047
0.02700076 0.08582918 -0.038754802 0.17378177 -0.25812718 -0.05902572 -0.13425487 0.08161238
-0.21965085 -0.00019248672 -0.012161917 -0.037053492 0.042910554 -0.09083532 0.0034990704 -0.10997734
-0.1476518 0.17432219 0.13587363 -9.1354086e-05 -0.14713764 0.10518318 0.12556352 0.25325027
0.03764108 0.0070758127 -0.09401779 -0.018984534 -0.074626096 -0.16171338 -0.12808712 -0.06539466
-0.055187747 -0.17182256 -0.21575928 0.0026652687 0.10094481 -0.040553596 0.061533757 0.060656827
0.17569782 -0.086108446 0.12955701 -0.019741084 -0.12031218 0.03742285 0.068351164 0.17495576
0.09257353 0.23503001 -0.05817029 -0.10518332 0.023102596 0.11961372 0.12225731 0.028207084
-0.09672097 -0.10492549 -0.06772071 -0.08102722 0.0030622212 0.038613982 -0.005186138 -0.24333881
-0.05423821 0.09691658 -0.18374787 0.16889934 0.043946713 -0.0591201 0.0904068 0.1721765
0.015426585 0.18113863 0.029410578 -0.10930743 -0.082894094 -0.032665636 0.05380799 0.22284237
-0.0033945157 -0.1215035 -0.25090012 -0.10513715 0.01827335 0.011907984 -0.0029944738 -0.0075419177
-0.09464885 0.039234683 -0.042378023 0.039486118 -0.13010703 -0.0028288497 -0.020878395 0.15519673
0.115019046 -0.11568566 0.095085114 0.06311805 0.050273817 0.03260779 0.012427383 0.032940872
00000000: 8170 503e 8074 273e 269c 9b3d e6cd 72be
00000010: d972 7d3d cd20 00be aaef e5bb b11c 53be
00000020: ad81 f3bd 5f30 223e dad5 11bd 67d9 05be
00000030: 4009 efbd ea88 d6bd f42b bfbd 84f2 ca3d
00000040: c24f 4a3e 5e68 e2bc fbb3 abbd 377d 9c3c
00000050: 1295 75bd 0f29 0a3e cd46 ad3d 2384 1f3e
00000060: 45e4 e83d 8736 0c3e 2341 973d 6a7f f73d
00000070: 8dce 66bd c57b 99bb 9d74 e1bc d2ac a73d
00000080: 14dd 39be be9b 09be c16c f0bc d2e5 353e
00000090: ec2c 293d 647b a6bd 6d73 8bbc 81d4 bcbd
000000a0: 2ef8 10be 2bd6 023e 819c cabd 04f5 bbbd
000000b0: 7f80 17be f066 6f3e 9b2b d4bd 1b32 3bbd
000000c0: 138a d2bd f9f1 98bd e8dc 2d3c 4a99 7d3d
000000d0: e94e 82bd 23fe b13d c81d c3bd 7d15 a1bd
000000e0: dd9b 17be 5939 22bd 253c 5cbd e366 5d3d
000000f0: 18bb 0bbc 7f1c 473e b808 1fbe 0c94 c13d
00000100: f614 033e e0b2 d23d c9d6 7d3e 83da 223d
00000110: dce0 ce3b 96bb 21bd 8074 c0bd a13b 183e
00000120: e07b 9bbc 119f 293d 22a0 adbb 7e5c af3c
00000130: f38b 2a3d 944d a8bd 86e1 78be e30e bbbd
00000140: 7a8e e1bc 2f13 66bd f3c4 23be d2f5 acbd
00000150: 471a 093d bb6c e83c 05db b13d 4ced 03bd
00000160: 477f 1c3d 6ba3 8ebd a947 05be c32a f53c
00000170: e14d 57be a31b f0bd 7ed4 e33d ad63 8a3c
00000180: a22a 90be dc17 8d3c c86a 493d 4b5c 9cbc
00000190: 53b9 9b3d 368a 993d f9ba f83d 1daa 1dbd
000001a0: 3afa 1fbc be52 a73d d99d 583d c2e5 ca3c
000001b0: f518 053d 7350 0a3e 959d 743b a481 dabc
000001c0: 4a87 1bbe f95c 60bc 87b7 58bd c3f3 493d
000001d0: 0daf 943d 9e52 1c39 1dc3 32bd 9201 753d
000001e0: dd36 b0bb 0412 c13c ae94 673c caa6 a03d
000001f0: 3f37 ee3d 7c11 7b3d e2ca d13d d92d 8b3d
00000200: a821 5a3e cca4 f43d ca20 fdbd 24a4 b1bd
00000210: 4967 f43b caf3 3a3e e04b aa3d aac9 9b3d
00000220: 2329 083e 03a6 1f3c 82e9 2dbe 677e e43d
00000230: 4393 cabc 6c71 e93d 56b7 8abd c381 8b3d
00000240: 4e5c abbd 9ee1 cc3d ec37 2c3e acff 193e
00000250: 5270 f93c f246 58bc ac7d e8bc 08eb 2d3d
00000260: b330 dd3c 36c7 af3d 5bbd 1ebd d9f3 313e
00000270: 3f29 84be f4c4 71bd 1c7a 09be 6424 a73d
00000280: 27ec 60be 43d6 49b9 c742 47bc 67c5 17bd
00000290: fac2 2f3d de07 babd a950 653b cd3b e1bd
000002a0: 0932 17be 8481 323e 7522 0b3e 5a95 bfb8
000002b0: 40ab 16be 476a d73d b993 003e 05aa 813e
000002c0: 882d 1a3d 38dc e73b 668c c0bd 7485 9bbc
000002d0: 91d5 98bd 3198 25be 4529 03be a3ed 85bd
000002e0: 8c0c 62bd 41f2 2fbe 00f0 5cbe caab 2e3b
000002f0: 27bc ce3d 871b 26bd d20a 7c3d 4b73 783d
00000300: 21ea 333e a059 b0bd 98aa 043e 0eb8 a1bc
00000310: 3b66 f6bd b448 193d b2fb 8b3d 9a27 333e
00000320: 3197 bd3d b5ab 703e f843 6ebd 5a6a d7bd
00000330: a841 bd3c 0af8 f43d 0a62 fa3d 8b12 e73c
00000340: a515 c6bd 2de3 d6bd 28b1 8abd 99f1 a5bd
00000350: 8caf 483b b229 1e3d 7bf0 a9bb cf2d 79be
00000360: e328 5ebd 337c c63d 6728 3cbe f3f3 2c3e
00000370: 7801 343d eb27 72bd 3327 b93d 094f 303e
00000380: cabf 7c3c 687c 393e 74ee f03c 93dc dfbd
00000390: 61c4 a9bd 67cc 05bd c465 5c3d ca30 643e
000003a0: 8676 5ebb d4d6 f8bd fb75 80be 2552 d7bd
000003b0: feb1 953c b419 433c ef3e 44bb 3122 f7bb
000003c0: 42d7 c1bd 8cb4 203d 9494 2dbd 32bc 213d
000003d0: c73a 05be 3964 39bb 2b09 abbc e4eb 1e3e
000003e0: 1b8f eb3d 9aec ecbd fcbb c23d 0944 813d
000003f0: ebeb 4d3d bf8f 053d 399c 4b3c 02ed 063d

conv1.bias f4 [16]
-0.062211383 0.028908037 -0.048702423 -0.037202124 -0.043317214 -0.05967843 0.010335191 -0.022310635
-0.028789835 0.0500087 0.01337857 0.027008574 -0.0055147605 -0.008623459 -0.0445256 0.008199804
00000000: 5dd1 7ebd 8cd0 ec3c 317c 47bd 4161 18bd
00000010: 646d 31bd 5f71 74bd ef54 293c cbc4 b6bc
00000020: a9d8 ebbc ecd5 4c3d ca31 5b3c 1641 dd3c
00000030: 2ab5 b4bb 6949 0dbc 7a60 36bd 7958 063c

conv2.weight f4 [64, 16, 5, 5]
0.023269812 0.012158891 0.010407852 0.0960262 0.06213933 0.0067258547 0.00059455645 0.021217668
0.005514631 -0.017140346 0.007789023 0.10197137 -0.053077247 0.017413864 0.07294334 0.0020222857
0.03273361 0.071426906 0.100248896 0.057229143 -0.008510775 0.06730057 0.034209423 0.015675792
-0.04981523 0.021739678 -0.033050355 -0.022768984 -0.02377253 0.034112543 -0.04282146 -0.026646266
-0.0013908892 -0.05100418 -0.054941606 -0.024768863 -0.006494305 -0.071627475 0.033459093 -0.09161427
0.047953192 -0.009061803 -0.05804536 0.021775503 -0.04326264 -0.020760663 0.014897987 0.038804013
-0.02362247 0.006693516 -0.019238098 0.0068297586 -0.02784721 0.06662608 0.037326284 0.028420256
-0.001708627 -0.008541725 -0.021428265 -0.0032410552 -0.010008545 -0.009680133 0.03072537 0.10069593
-0.06298374 -0.0012547303 0.03184462 0.067587465 0.054659367 0.033605315 -0.018529225 -0.025608122
0.13480796 -0.038359214 0.027070774 -0.044018123 -0.009990028 -0.0041238847 -0.009159629 -0.010319481
-0.0052773915 0.0064976523 0.030509034 0.024261383 0.045897465 -0.015839592 0.08842327 0.0034465103
0.007870319 -0.010934876 0.006575154 -0.0013336048 0.023179127 0.089363545 -0.0401741 -0.007888364
0.02796363 0.018382352 0.052687682 0.0632095 -0.039520755 -0.011621064 -0.022055857 0.057782438
0.029456139 -0.022675913 -0.050459426 0.027445778 0.012754527 0.011830688 -0.043123607 -0.033553597
0.03033945 -0.043841623 -0.09448642 -0.027778374 0.045283787 0.056069236 0.015963545 0.06407918
0.059584625 0.0071255383 0.005291463 0.026394246 0.022620723 0.010336958 -0.02810217 -0.018736772
0.01837716 -0.024852537 0.028075319 0.016676873 -0.06353965 0.04853563 -0.009608678 -0.018340569
0.0046336846 0.022482831 0.03859136 0.050611217 0.08197795 0.11727798 0.03058908 -0.010661783
0.008220396 -0.028200107 0.046794113 -0.03385307 0.0496454 0.070147604 -0.039917167 -0.016075624
-0.016737556 0.010271426 0.0018561423 -0.0015733648 0.011309539 -0.024312392 -0.014583681 0.027014272
0.020250186 0.043449808 -0.01902269 0.051702637 -0.02487369 0.024509829 0.007559642 -0.011628204
-0.0024336292 0.0056873537 -0.012031112 -0.008176362 0.064604305 0.013228114 -0.011352399 -0.029023044
0.0963463 -0.04430748 0.07175539 -0.01607288 -0.062483028 -0.00031428577 -0.04896444 0.0018275682
-0.014598617 7.9884805e-05 0.04374937 -0.05013995 0.03890116 -0.0010912768 0.0914466 0.014871703
-0.016613793 0.054104466 -0.012300897 -0.0149355475 0.08495514 0.011736029 0.03154148 0.020312019
0.05686668 0.009372387 0.054598775 0.016607624 0.07038003 0.045568164 0.009381851 0.0132099455
0.01345766 -0.02637188 -0.039533705 -0.009126751 -0.045057297 0.010490911 -0.04236213 0.044964243
0.04480553 1.3282348e-05 0.0071355905 -0.036467 0.01867618 0.009899388 0.020899436 0.079958126
-0.029733468 0.0071334112 0.033379707 -0.057079196 0.007592346 0.021934353 0.08156183 -0.047476433
-0.07763525 -0.009795766 0.00841307 -0.016456151 -0.060722057 -0.057976004 0.054069597 -0.08774935
0.024628345 -0.03758294 -0.06101912 0.0070559457 -0.0011504985 0.03934085 -0.061985172 0.04536041
0.026060857 0.03735142 0.0061442447 0.018319411 0.0010512987 -0.010446768 -0.03047235 0.044898987
00000000: 55a0 be3c 1636 473c b285 2a3c 62a9 c43d
00000010: cf85 7e3d 8f64 dc3b 02dc 1b3a add0 ad3c
00000020: 14b4 b43b e969 8cbc 103b ff3b 5ed6 d03d
00000030: 8767 59bd 85a7 8e3c 5163 953d 5388 043b
00000040: ae13 063d 4548 923d 4b4f cd3d 1b69 6a3d
00000050: c770 0bbc e2d4 893d 2e1f 0c3d 856a 803c
00000060: 0e0b 4cbd 6917 b23c cf5f 07bd 0586 babc
00000070: 9cbe c2bc 98b9 0b3d 8e65 2fbd 4549 dabc
00000080: 7f4e b6ba c2e9 50bd 730a 61bd 12e8 cabc
00000090: 2ece d4bb 6db1 92bd 670c 093d 43a0 bbbd
000000a0: 916a 443d f577 14bc f9c0 6dbd 8a62 b23c
000000b0: 2a34 31bd 4412 aabc b016 743c f5f0 1e3d
000000c0: e983 c1bc 4855 db3b 3799 9dbc 2bcc df3b
000000d0: d51f e4bc 4173 883d 72e3 183d 99d1 e83c
000000e0: 02f4 dfba 97f2 0bbc 548a afbc e267 54bb
000000f0: e1fa 23bc 6c99 1ebc c5b3 fb3c ab39 ce3d
00000100: 9efd 80bd c375 a4ba 816f 023d 4c6b 8a3d
00000110: 80e2 5f3d baa5 093d 9aca 97bc 20c8 d1bc
00000120: 190b 0a3e 8d1e 1dbd 87c3 dd3c 594c 34bd
00000130: 37ad 23bc a721 87bb 4512 16bc 0a13 29bc
00000140: f8ed acbb 42ea d43b 15ee f93c cfbf c63c
00000150: fbfe 3b3d 08c2 81bc 4217 b53d d9de 613b
00000160: 83f2 003c 3228 33bc 6474 d73b 5acc aeba
00000170: 27e2 bd3c 3c04 b73d 998d 24bd 323e 01bc
00000180: fc13 e53c 9696 963c 0acf 573d fb73 813d
00000190: 84e0 21bd 4666 3ebc 7cae b4bc 47ad 6c3d
000001a0: 004e f13c d6c2 b9bc 8bae 4ebd f8d5 e03c
000001b0: 5df8 503c 81d5 413c 61a2 30bd 7f6f 09bd
000001c0: 708a f83c 4693 33bd 1982 c1bd 798f e3bc
000001d0: 7e7b 393d dba8 653d fbc5 823c f23b 833d
000001e0: 020f 743d 597d e93b 0264 ad3b bf38 d83c
000001f0: 184f b93c 585c 293c 8636 e6bc dc7d 99bc
00000200: b38b 963c 8c97 cbbc 36fe e53c f09d 883c
00000210: 1321 82bd 4ccd 463d b76d 1dbc f63e 96bc
00000220: 2ad6 973b ea2d b83c f911 1e3d b54d 4f3d
00000230: 0ee4 a73d 702f f03d f395 fa3c c2ae 2ebc
00000240: d7ae 063c e903 e7bc 2fab 3f3d 84a9 0abd
00000250: fa58 4b3d 8ca9 8f3d 2f80 23bd 07b1 83bc
00000260: 331d 89bc 7c49 283c cd49 f33a 5d39 ceba
00000270: a54b 393c c82a c7bc 64f0 6ebc 094d dd3c
00000280: b8e3 a53c 6df8 313d 79d5 9bbc 25c6 533d
00000290: e9c3 cbbc d6c8 c83c e0b6 f73b 3984 3ebc
000002a0: 867d 1fbb fb5c ba3b 241e 45bc 26f6 05bc
000002b0: 434f 843d bbba 583c 6aff 39bc bcc1 edbc
000002c0: 3551 c53d c37b 35bd 7df4 923d 46ab 83bc
000002d0: 34ee 7fbd b9c6 a4b9 f08e 48bd 038b ef3a
000002e0: 0a2f 6fbc d487 a738 8a32 333d 8c5f 4dbd
000002f0: d356 1f3d 2c09 8fba 5b48 bb3d 72a8 733c
00000300: a619 88bc a59c 5d3d b489 49bc 3ab4 74bc
00000310: f6fc ad3d 7948 403c a431 013d 6465 a63c
00000320: 09ed 683d a48e 193c f7a2 5f3d b60c 883c
00000330: 6823 903d afa5 3a3d 56b6 193c 876e 583c
00000340: 847d 5c3c d709 d8bc 18ee 21bd 5e88 15bc
00000350: 008e 38bd 12e2 2b3c ea83 2dbd 6d2c 383d
00000360: 0186 373d 40d7 5e37 acd1 e93b 6c5e 15bd
00000370: cafe 983c 0b31 223c 4b35 ab3c 16c1 a33d
00000380: 9a93 f3bc 64bf e93b 29b9 083d e0cb 69bd
00000390: 37c9 f83b acaf b33c e409 a73d a676 42bd
000003a0: 3bff 9ebd 6c7e 20bc f9d6 093c 0dcf 86bc
000003b0: b1b7 78bd 3f78 6dbd 1578 5d3d eeb5 b3bd
000003c0: 62c1 c93c 92f0 19bd 2fef 79bd 9035 e73b
000003d0: 53cc 96ba df23 213d 2ae4 7dbd d6cb 393d
000003e0: 947d d53c cdfd 183d a955 c93b 9712 963c
000003f0: bbcb 893a ec28 2bbc 26a1 f9bc 00e8 373d

conv2.bias f4 [64]
-0.054059245 0.005682845 0.031772543 -0.030080253 -0.0014853249 -0.0073543685 0.008183882 -0.032608155
0.013568836 0.059901483 -0.0413217 -0.017958445 -0.02914758 0.05106055 -0.0060189995 0.017491238
-0.020745154 -0.025424903 -0.023944058 0.013592317 -0.04006176 0.01374789 -0.016751075 -0.0076796394
-0.004744379 0.0031087552 0.00068944565 -0.047216125 0.050263196 0.037398648 0.02262307 0.05662234
0.06045234 0.015770987 -0.013244753 0.06958793 -0.034877464 -0.0072206855 0.03905793 0.053126216
0.006442544 0.056932718 0.02496435 -0.024916122 0.038342305 0.021384198 -0.06144832 -0.017195798
0.0075151953 -0.050537806 -0.007963465 0.03427572 0.05804924 -0.028943494 -0.004383361 1.7228747e-05
-0.030503256 0.04743263 -0.0046865526 0.015925875 -0.01676047 0.082476445 -0.0035725466 0.052340996
00000000: 3a6d 5dbd 2937 ba3b ed23 023d dd6a f6bc
00000010: 3caf c2ba eafc f0bb b015 063c 2190 05bd
00000020: d34f 5e3c 425b 753d f140 29bd 971d 93bc
00000030: e8c6 eebc de24 513d 073b c5bb c949 8f3c
00000040: bef1 a9bc e347 d0bc 5426 c4bc 4fb2 5e3c
00000050: cd17 24bd d43e 613c 8d39 89bc 7ca5 fbbb
00000060: bc76 9bbb 42bc 4b3b eabb 343a b265 41bd
00000070: c8e0 4d3d 532f 193d 0454 b93c d4ec 673d
00000080: df9c 773d 2832 813c 8500 59bc 1e84 8e3d
00000090: acdb 0ebd 809b ecbb 35fb 1f3d e09a 593d
000000a0: fa1b d33b 4832 693d 0982 cc3c e51c ccbc
000000b0: d20c 1d3d ea2d af3c 3cb1 7bbd 34de 8cbc
000000c0: 0742 f63b bb00 4fbd 3179 02bc b364 0c3d
000000d0: 0ac5 6d3d e81a edbc 4ca2 8fbb 7486 9037
000000e0: f7e1 f9bc b848 423d a791 99bb fb76 823c
000000f0: 414d 89bc 69e9 a83d 6321 6abb 8363 563d

conv3.weight f4 [32, 64, 5, 5]
-0.00012352446 -0.0010704563 0.00035243746 0.0010486593 -1.2490271e-05 0.00044025294 0.0064003696 0.003196968
0.002499424 3.143305e-06 0.031135434 0.00020306211 0.040619537 0.017477328 0.018593479 0.03186192
0.023089578 0.02616164 0.032932762 0.00016964339 -0.0017860525 0.013538994 0.013726839 0.05509625
0.012275244 -0.0054750247 -0.0057226927 -0.005293265 -0.0029137933 -2.0182733e-07 -0.0034608156 0.009284686
0.0015635637 -0.004158495 1.9725362e-06 0.029425917 0.009154288 0.010677889 0.006458649 0.041551027
0.0036732266 0.0037890002 0.03313638 0.019168846 0.017632179 0.011097935 -0.012102442 0.00022838268
0.034407966 0.013492783 -0.0060226982 -0.00404323 -0.0037625602 2.2892407e-05 -5.626e-06 -0.0044396613
-0.0018029396 -0.0018620427 -0.002043535 -6.55779e-07 0.0005875495 0.01991554 0.009027739 0.014745703
-0.0020824764 0.004946624 -0.010324545 -0.019095352 0.012665828 0.02122741 -0.014187522 0.0061027254
-0.016127862 -0.01449865 0.019973328 -0.0027153103 -0.004506388 -0.0038771294 -0.004071706 6.547446e-06
-0.0030095172 -0.0069343704 -0.006172948 -0.0009894914 -7.8235416e-08 -0.012793821 0.0020939133 -0.0025943234
0.015694825 0.024231998 -0.0054930663 -0.010153823 0.02279557 0.017106485 -0.004923862 0.0052085677
-0.0097892815 -0.035914667 0.0030396637 -0.02076788 -0.0016900691 0.002053447 0.0013334424 0.0030575832
1.1498958e-06 -0.003734467 0.005270641 -0.0010283563 -0.002127151 -2.4923022e-06 0.041467316 0.0023986958
0.025454562 0.025455363 0.0035607289 0.021457098 -0.039190784 0.023055011 0.013755791 -0.0069853417
0.0013747531 -0.005549725 0.0059404336 0.040472537 0.014489012 -0.002971403 -0.0055669863 -0.0040521654
-0.0026396604 -5.7389952e-06 -0.0026847015 -0.0012112716 -0.0016224572 0.0028051191 -1.7669677e-06 -0.000411661
0.017524995 -0.021843934 0.035234608 0.011508085 -0.014396981 0.029253464 -0.023418676 0.007783963
0.013717369 -0.009794543 -0.0022590398 0.0082411235 0.023210663 0.030862141 -0.0008359257 0.0020029189
0.0006104531 0.0014099092 -3.114598e-05 0.005846995 -0.00046269147 -0.0034231653 0.002863758 -1.560793e-05
0.04044437 0.00020778077 0.018470127 0.028926367 0.03525632 0.0018992554 0.03941355 0.02387644
0.00020182444 -0.018088087 0.008956715 0.011673491 -0.02182087 -0.0028902395 -0.029451402 0.0018607376
0.0053011426 0.0033187876 0.002453686 -7.1554223e-06 0.00057009835 -0.00067831384 0.0028565694 0.0035797646
-9.325427e-06 0.017767068 0.005802699 0.0054255617 0.013459137 -0.006894793 0.03478293 0.00705383
0.014156451 0.02473225 -0.0072036297 -0.005219495 0.0045339726 0.0073233563 0.007829442 -0.026136829
-0.0018013455 -0.0012479653 -0.003741708 -0.004359757 2.7099638e-06 -0.0017393657 0.00083440886 0.0005287109
-0.00049949304 9.284059e-06 -0.020743087 -0.003942056 -0.016095938 0.021287797 0.011242063 -0.0015919236
0.04176081 0.01590437 0.022923706 0.0074925763 0.00032706972 -0.0048006447 0.027224718 -0.01287381
0.013584015 0.0017342062 0.002740282 -0.0022514267 -0.0004379823 -9.326844e-06 -6.339872e-05 0.0040091234
4.201902e-05 0.0016857209 -3.5847818e-06 0.030143302 -0.0038548596 0.029316815 0.03041274 0.010059867
0.023002733 -0.014509212 0.015848456 0.035499472 0.00133484 0.029371375 0.0032876416 0.012425932
0.0068402966 0.005796902 -0.004545064 -0.0045323567 -0.004135055 -0.0032047469 -5.9933604e-06 -0.00011024429
00000000: 5886 01b9 8e4e 8cba 5bc7 b839 2b73 893a
00000010: 4e8d 51b7 c0d1 e639 31ba d13b 3984 513b
00000020: 60cd 233b 92f1 5236 bd0f ff3c 12ed 5439
00000030: ac60 263d 9d2c 8f3c 5a51 983c a581 023d
00000040: 5b26 bd3c f050 d63c 81e4 063d 4de2 3139
00000050: fa19 eaba a8d2 5d3c 89e6 603c 9bac 613d
00000060: 1b1e 493c d667 b3bb 6d85 bbbb 2073 adbb
00000070: 57f5 3ebb e0b5 58b4 dace 62bb cc1e 183c
00000080: 7ef0 cc3a fc43 88bb ea5f 0436 9f0e f13c
00000090: defb 153c 50f2 2e3c 13a3 d33b 6931 2a3d
000000a0: 84ba 703b e050 783b 03ba 073d fc07 9d3c
000000b0: 5c71 903c 1dd4 353c 5249 46bc 027a 6f39
000000c0: 5eef 0c3d d510 5d3c 0e5a c5bb 127d 84bb
000000d0: 4995 76bb 1209 c037 f9c6 bcb6 947a 91bb
000000e0: 9d50 ecba c90f f4ba d4ec 05bb ca08 30b5
000000f0: c805 1a3a ea25 a33c 15e9 133c f697 713c
00000100: 287a 08bb 4a17 a23b 4828 29bc db6d 9cbc
00000110: 5584 4f3c 1be5 ad3c c872 68bc 5ff9 c73b
00000120: 941e 84bc bf8b 6dbc 1b9f a33c 59f3 31bb
00000130: 53aa 93bb 7017 7ebb f26b 85bb 22b2 db36
00000140: 523b 45bb b739 e3bb 7146 cabb d2b1 81ba
00000150: 6002 a8b3 2d9d 51bc 093a 093b 8605 2abb
00000160: 6f92 803c 2f82 c63c 2eff b3bb 385c 26bc
00000170: c6bd ba3c e622 8c3c 5958 a1bb a2ac aa3b
00000180: 3963 20bc 421b 13bd 1835 473b 6721 aabc
00000190: 4f85 ddba 2093 063b e7c6 ae3a bc61 483b
000001a0: 1e56 9a35 f6bd 74bb 57b5 ac3b e9c9 86ba
000001b0: ac67 0bbb 6d41 27b6 a2d9 293d 7033 1d3b
000001c0: 1686 d03c c487 d03c 1e5b 693b ccc6 af3c
000001d0: 8486 20bd dddd bc3c f85f 613c 4be5 e4bb
000001e0: 0f31 b43a 78da b5bb f8a7 c23b 88c6 253d
000001f0: 5263 6d3c dfbb 42bb 446b b6bb 07c8 84bb
00000200: 27fe 2cbb 9891 c0b6 d1f1 2fbb 88c3 9eba
00000210: a1a8 d4ba 17d6 373b 8c28 edb5 34d4 d7b9
00000220: 9490 8f3c 0df2 b2bc 2a52 103d 688c 3c3c
00000230: 51e1 6bbc f6a4 ef3c 86d8 bfbc 9d10 ff3b
00000240: d1be 603c 4a79 20bc 660c 14bb c705 073c
00000250: 4a24 be3c 9ad2 fc3c 0622 5bba 6743 033b
00000260: d006 203a b4cc b83a bea2 02b8 2698 bf3b
00000270: 6695 f2b9 2f57 60bb e3ad 3b3b c6ed 82b7
00000280: ffa8 253d badf 5939 aa4e 973c fdf6 ec3c
00000290: ee68 103d 70f0 f83a 1a70 213d 8698 c33c
000002a0: d6a0 5339 782d 94bc 30bf 123c 2c42 3f3c
000002b0: aec1 b2bc 2c6a 3dbb 1144 f1bc fee3 f33a
000002c0: 35b5 ad3b 0480 593b 05ce 203b 9c18 f0b6
000002d0: a772 153a dfd0 31ba 4835 3b3b 7c9a 6a3b
000002e0: 6774 1cb7 3e8c 913c 9124 be3b e9c8 b13b
000002f0: b683 5c3c b7ed e1bb 8c78 0e3d d123 e73b
00000300: 76f0 673c 4a9b ca3c 6d0c ecbb 4c08 abbb
00000310: b891 943b c4f8 ef3b 0f47 003c e71c d6bc
00000320: 201b ecba c492 a3ba 7137 75bb 4bdc 8ebb
00000330: d3dc 3536 6efb e3ba 3bbc 5a3a 3099 0a3a
00000340: 69f0 02ba bbc2 1b37 68ed a9bc 5d2c 81bb
00000350: a1db 83bc bf63 ae3c a130 383c 18a8 d0ba
00000360: 620d 2b3d e249 823c 7fca bb3c 4984 f53b
00000370: 8e7a ab39 ba4e 9dbb 5f06 df3c acec 52bc
00000380: 7d8f 5e3c 4e4e e33a 4e96 333b ac8c 13bb
00000390: fda0 e5b9 7d7a 1cb7 eef4 84b8 f75e 833b
000003a0: 943d 3038 68f3 dc3a 1592 70b6 16ef f63c
000003b0: d0a1 7cbb d129 f03c 2324 f93c 24d2 243c
000003c0: 3a70 bc3c 0cb8 6dbc 9fd4 813c e567 113d
000003d0: ccf5 ae3a 3d9c f03c 7975 573b 2396 4b3c
000003e0: 9124 e03b f0f3 bd3b c3ee 94bb 2a84 94bb
000003f0: 5b7f 87bb bb06 52bb 931a c9b6 f432 e7b8

conv3.bias f4 [32]
-0.014444574 0.011728493 -0.032572214 0.008934205 -0.001766232 -0.00080235244 0.013884813 -0.0016322646
-0.03515575 0.023936862 -0.0012213618 0.044729654 0.0024493986 -0.021012995 0.020117193 -0.042992383
0.047762785 0.023093404 -0.012766958 0.01966381 0.013327039 -0.004075906 -4.6303257e-06 0.03806177
-0.0018775105 0.011163021 0.0119323395 0.05798355 -0.031734917 0.025925653 0.011961324 0.052641492
00000000: efa8 6cbc dd28 403c 716a 05bd c660 123c
00000010: e980 e7ba f654 52ba 207d 633c b6f1 d5ba
00000020: 7aff 0fbd 3d17 c43c 1a16 a0ba 7136 373d
00000030: 1786 203b 7223 acbc d0cc a43c c818 30bd
00000040: e9a2 433d 612e bd3c 812c 51bc 0016 a13c
00000050: a759 5a3c 2d8f 85bb 325e 9bb6 a9e6 1b3d
00000060: cc16 f6ba 1be5 363c dc7f 433c 2980 6d3d
00000070: 79fc 01bd 0962 d43c 6ef9 433c 9b9e 573d

fc_1.weight f4 [8, 32]
0.06296318 0.26824215 -0.2335245 0.39701238 -0.10858619 -0.0053584976 0.056752134 0.1066976
0.028600361 -0.051104408 -0.0122253345 0.12884024 -0.05304146 -0.14131244 -0.04988074 -0.2982901
0.026758358 0.26810157 -0.018112129 0.11407452 0.12138002 0.16995308 0.0048736786 0.37497434
0.0015657833 -0.13100225 0.089963384 0.02945882 -0.3813953 0.019213842 0.4791796 -0.068976
0.12771204 0.0730248 -0.08520644 -0.18431802 -0.08376622 0.1878318 -0.034965955 0.0008298399
-0.21022387 0.12593867 -0.004745486 0.040276337 0.06758552 0.0131006325 -0.059959553 -0.15557858
0.3554076 -0.11386228 -0.28459287 0.4194322 -0.10057612 -0.15346508 0.012129526 0.023027733
0.028962035 0.008393894 -0.02874633 0.1449617 0.07053239 -0.06277917 -0.056090064 0.24791533
0.04732054 0.09226743 0.0359542 0.18330498 -0.015440338 0.28231806 -0.005870515 -1.699573e-05
0.2848207 -0.039011743 -0.08768292 -0.057240453 -0.26437768 0.10964464 -0.62981695 0.021111151
-0.11519231 0.17583463 -0.22993799 0.049344044 -0.0068796175 0.10128365 -0.038611412 0.04765998
-0.007086759 -0.29961005 -0.0061966823 -0.25887683 -0.0036934258 -0.058029093 0.28034 -0.27975973
0.15408605 -0.096840434 -0.03199748 0.18732783 0.09796213 -0.07558993 0.050431456 2.7887907e-07
-0.06866866 -0.19599904 -0.00060430984 -0.21463153 0.117654525 -0.02506359 0.32028714 0.03157529
-0.04309455 -0.18385679 0.20804186 -0.22565533 -0.00060289336 -0.118733026 -0.00032079776 -0.07677395
0.1405732 -0.13909392 -0.00011048345 -0.31097543 -0.00936367 -0.18149479 -0.33044586 0.015509654
0.17849712 0.034998797 0.16391897 -0.043589924 -0.23440626 -0.009010113 -0.0017523873 -0.013792789
-0.084157325 -0.37018716 -0.1155665 -0.24571575 0.20059171 -0.01997279 0.21167128 0.100722395
-0.20972873 -0.089617684 -0.015161437 -0.041805804 -0.0020303621 0.06342334 -3.8837425e-07 0.23382619
0.03763049 -0.16349253 -0.09618916 -0.1971181 -0.1471283 -0.36856714 0.06383351 -0.38895676
0.10203911 -0.17646936 0.39563376 0.07844342 0.0697629 -0.28799087 -0.031695884 -2.6034268e-06
-0.003394912 0.11700246 0.3495987 0.015091135 -0.037793946 -0.030407544 -0.1374211 0.14123563
-0.16375752 0.07481988 -0.13177595 -0.31810594 -0.0008691769 -0.010902708 0.032633066 -0.06820562
0.10085091 0.087256975 -0.010114175 -0.075485855 -0.11987382 0.11732676 0.1509845 -0.16184923
-0.0559942 -0.33435968 -0.033070393 -0.024034588 -0.06779493 0.21710461 -0.0014813123 2.1407016e-07
0.10528361 -0.14714158 -0.000556176 -0.16316316 -0.21964756 0.252276 0.097819895 -0.24527912
0.006861838 0.35118312 -0.059922576 -0.31788376 -0.0011123107 -0.17463264 -3.3630542e-05 0.28328934
2.1287455e-05 -0.039175004 -0.0010448545 -0.03726938 -0.021896025 0.08508302 -0.15647714 -0.071406364
-0.1086433 -0.11268031 0.10570809 0.43789184 0.3268662 -0.34078142 -0.0073830066 0.00014229905
-0.10263232 0.29722342 -0.0029401188 0.0025451975 -0.06422012 -0.28031865 0.0837604 0.06281306
0.36110878 0.028658252 -0.21077922 -0.257845 -0.010040829 -0.35273874 0.00030358788 0.078768246
0.07734792 0.17897913 -0.058576435 0.120349206 -0.16347605 0.13241228 0.058745828 0.073883556
00000000: d7f2 803d 0957 893e 0c21 6fbe 3545 cb3e
00000010: 7062 debd 5696 afbb ed74 683d 4584 da3d
00000020: 4e4b ea3c db52 51bd c54c 48bc b2ee 033e
00000030: 0142 59bd 35b4 10be bf4f 4cbd 7bb9 98be
00000040: 5834 db3c 9c44 893e e35f 94bc e79f e93d
00000050: 1796 f83d 2e08 2e3e 61b3 9f3b a3fc bf3e
00000060: f83a cd3a 7425 06be b93e b83d a053 f13c
00000070: 3f46 c3be 5966 9d3c 0757 f53e 4a43 8dbd
00000080: f2c6 023e 078e 953d b780 aebd ddbd 3cbe
00000090: a08d abbd fb56 403e 7638 0fbd 9d89 593a
000000a0: ed44 57be 11f6 003e 0680 9bbb cdf8 243d
000000b0: 476a 8a3d 09a4 563c 2698 75bd fe4f 1fbe
000000c0: fcf7 b53e a130 e9bd 28b6 91be d1bf d63e
000000d0: dafa cdbd f325 1dbe ebba 463c a8a4 bc3c
000000e0: ca41 ed3c 8b86 093c 6c7d ebbc d770 143e
000000f0: 4973 903d 5e92 80bd b2be 65bd 84dd 7d3e
00000100: 2fd3 413d b5f6 bc3d b644 133d 4db4 3b3e
00000110: 79f9 7cbc fe8b 903e 735d c0bb 0d92 8eb7
00000120: 05d4 913e c7ca 1fbd 1a93 b3bd f774 6abd
00000130: 835c 87be 5e8d e03d af3b 21bf 4bf1 ac3c
00000140: f2e9 ebbd fe0d 343e dd74 6bbe fb1c 4a3d
00000150: 6a6e e1bb cd6d cf3d 0027 1ebd 1c37 433d
00000160: 0b38 e8bb 7d66 99be 8a0d cbbb 818b 84be
00000170: 670d 72bb eaaf 6dbd b988 8f3e ab3c 8fbe
00000180: bcc8 1d3e 4754 c6bd ca0f 03bd ded2 3f3e
00000190: 5fa0 c83d e5ce 9abd 3791 4e3d d9b8 9534
000001a0: 28a2 8cbd f9b3 48be 8c6a 1eba 5ec8 5bbe
000001b0: dbf4 f03d 2852 cdbc adfc a33e 1755 013d
000001c0: e983 30bd f444 3cbe ed08 553e 3112 67be
000001d0: 7d0b 1eba 4d2a f3bd bf30 a8b9 a93b 9dbd
000001e0: 6cf2 0f3e a36e 0ebe 5ab3 e7b8 2c38 9fbe
000001f0: 146a 19bc c5d9 39be 3330 a9be 341c 7e3c
00000200: f3c7 363e e65a 0f3d 60da 273e 598b 32bd
00000210: 3208 70be 279f 13bc 5cb0 e5ba 26fb 61bc
00000220: ad5a acbd 2c89 bdbe 21ae ecbd e99c 7bbe
00000230: ea67 4d3e fa9d a3bc 5bc0 583e 8b47 ce3d
00000240: 21c3 56be 7a89 b7bd ad67 78bc 903c 2bbd
00000250: d30f 05bb 19e4 813d c081 d0b4 2270 6f3e
00000260: 6e22 1a3d 966a 27be d3fe c4bd 54d9 49be
00000270: cda8 16be d5b4 bcbe 25bb 823d 5725 c7be
00000280: e2f9 d03d 62b4 34be 8290 ca3e f2a6 a03d
00000290: dadf 8e3d 8a73 93be 8bd3 01bd 88b6 2eb6
000002a0: 2c7d 5ebb fc9e ef3d 9afe b23e cf40 773c
000002b0: d3cd 1abd 3e19 f9bc 1eb8 0cbe 13a0 103e
000002c0: 0db0 27be 2a3b 993d 46f0 06be c8de a2be
000002d0: 79d9 63ba 46a1 32bc 40aa 053d 63af 8bbd
000002e0: ec8a ce3d c9b3 b23d edb5 25bc 5498 9abd
000002f0: 6880 f5bd 0349 f03d ae9b 1a3e cebb 25be
00000300: 2d5a 65bd 3131 abbe d274 07bd 2fe4 c4bc
00000310: 11d8 8abd ac50 5e3e 9828 c2ba 28db 6534
00000320: ef9e d73d 48ac 16be 57cc 11ba 3e14 27be
00000330: 4aeb 60be 522a 813e cc55 c83d 732a 7bbe
00000340: 45d9 e03b 46ce b33e 6071 75bd a9c1 a2be
00000350: f4ca 91ba e6d2 32be 850e 0db8 4d0b 913e
00000360: 7692 b237 f875 20bd 80f3 88ba c7a7 18bd
00000370: 4b5f b3bc 0240 ae3d 8b3b 20be 803d 92bd
00000380: 6180 debd efc4 e6bd 7c7d d83d 5c33 e03e
00000390: 025b a73e e77a aebe 26ed f1bb 1c36 1539
000003a0: e530 d2bd ab2d 983e 02af 40bb 54cd 263b
000003b0: d785 83bd ed85 8fbe 938a ab3d 22a4 803d
000003c0: 40e3 b83e b6c4 ea3c 82d6 57be 4304 84be
000003d0: 4a82 24bc 2c9a b4be e02a 9f39 3f51 a13d
000003e0: 9668 9e3d 4e46 373e d8ed 6fbd a579 f63d
000003f0: 4466 27be 1697 073e 779f 703d 4350 973d

fc_1.bias f4 [8]
0.037036736 0.02688717 -0.04546989 -0.021100376 -0.026729632 -0.017359477 0.0051116804 0.004720098
00000000: d5b3 173d 7b42 dc3c a33e 3abd b2da acbc
00000010: 1af8 dabc 7635 8ebc e27f a73b 0dab 9a3b
