checkpoints/target3/epoch=12.checkpoint.pth.tar (torch, 321216 bytes, 8 tensors)

conv1.weight f4 [16, 3, 5, 5]
00000000: 8170 503e 8074 273e 269c 9b3d e6cd 72be
00000010: d972 7d3d cd20 00be aaef e5bb b11c 53be
00000020: ad81 f3bd 5f30 223e dad5 11bd 67d9 05be
00000030: 4009 efbd ea88 d6bd f42b bfbd 84f2 ca3d
00000040: c24f 4a3e 5e68 e2bc fbb3 abbd 377d 9c3c
00000050: 1295 75bd 0f29 0a3e cd46 ad3d 2384 1f3e
00000060: 45e4 e83d 8736 0c3e 2341 973d 6a7f f73d
00000070: 8dce 66bd c57b 99bb 9d74 e1bc d2ac a73d
00000080: 14dd 39be be9b 09be c16c f0bc d2e5 353e
00000090: ec2c 293d 647b a6bd 6d73 8bbc 81d4 bcbd
000000a0: 2ef8 10be 2bd6 023e 819c cabd 04f5 bbbd
000000b0: 7f80 17be f066 6f3e 9b2b d4bd 1b32 3bbd
000000c0: 138a d2bd f9f1 98bd e8dc 2d3c 4a99 7d3d
000000d0: e94e 82bd 23fe b13d c81d c3bd 7d15 a1bd
000000e0: dd9b 17be 5939 22bd 253c 5cbd e366 5d3d
000000f0: 18bb 0bbc 7f1c 473e b808 1fbe 0c94 c13d
00000100: f614 033e e0b2 d23d c9d6 7d3e 83da 223d
00000110: dce0 ce3b 96bb 21bd 8074 c0bd a13b 183e
00000120: e07b 9bbc 119f 293d 22a0 adbb 7e5c af3c
00000130: f38b 2a3d 944d a8bd 86e1 78be e30e bbbd
00000140: 7a8e e1bc 2f13 66bd f3c4 23be d2f5 acbd
00000150: 471a 093d bb6c e83c 05db b13d 4ced 03bd
00000160: 477f 1c3d 6ba3 8ebd a947 05be c32a f53c
00000170: e14d 57be a31b f0bd 7ed4 e33d ad63 8a3c
00000180: a22a 90be dc17 8d3c c86a 493d 4b5c 9cbc
00000190: 53b9 9b3d 368a 993d f9ba f83d 1daa 1dbd
000001a0: 3afa 1fbc be52 a73d d99d 583d c2e5 ca3c
000001b0: f518 053d 7350 0a3e 959d 743b a481 dabc
000001c0: 4a87 1bbe f95c 60bc 87b7 58bd c3f3 493d
000001d0: 0daf 943d 9e52 1c39 1dc3 32bd 9201 753d
000001e0: dd36 b0bb 0412 c13c ae94 673c caa6 a03d
000001f0: 3f37 ee3d 7c11 7b3d e2ca d13d d92d 8b3d
00000200: a821 5a3e cca4 f43d ca20 fdbd 24a4 b1bd
00000210: 4967 f43b caf3 3a3e e04b aa3d aac9 9b3d
00000220: 2329 083e 03a6 1f3c 82e9 2dbe 677e e43d
00000230: 4393 cabc 6c71 e93d 56b7 8abd c381 8b3d
00000240: 4e5c abbd 9ee1 cc3d ec37 2c3e acff 193e
00000250: 5270 f93c f246 58bc ac7d e8bc 08eb 2d3d
00000260: b330 dd3c 36c7 af3d 5bbd 1ebd d9f3 313e
00000270: 3f29 84be f4c4 71bd 1c7a 09be 6424 a73d
00000280: 27ec 60be 43d6 49b9 c742 47bc 67c5 17bd
00000290: fac2 2f3d de07 babd a950 653b cd3b e1bd
000002a0: 0932 17be 8481 323e 7522 0b3e 5a95 bfb8
000002b0: 40ab 16be 476a d73d b993 003e 05aa 813e
000002c0: 882d 1a3d 38dc e73b 668c c0bd 7485 9bbc
000002d0: 91d5 98bd 3198 25be 4529 03be a3ed 85bd
000002e0: 8c0c 62bd 41f2 2fbe 00f0 5cbe caab 2e3b
000002f0: 27bc ce3d 871b 26bd d20a 7c3d 4b73 783d
00000300: 21ea 333e a059 b0bd 98aa 043e 0eb8 a1bc
00000310: 3b66 f6bd b448 193d b2fb 8b3d 9a27 333e
00000320: 3197 bd3d b5ab 703e f843 6ebd 5a6a d7bd
00000330: a841 bd3c 0af8 f43d 0a62 fa3d 8b12 e73c
00000340: a515 c6bd 2de3 d6bd 28b1 8abd 99f1 a5bd
00000350: 8caf 483b b229 1e3d 7bf0 a9bb cf2d 79be
00000360: e328 5ebd 337c c63d 6728 3cbe f3f3 2c3e
00000370: 7801 343d eb27 72bd 3327 b93d 094f 303e
00000380: cabf 7c3c 687c 393e 74ee f03c 93dc dfbd
00000390: 61c4 a9bd 67cc 05bd c465 5c3d ca30 643e
000003a0: 8676 5ebb d4d6 f8bd fb75 80be 2552 d7bd
000003b0: feb1 953c b419 433c ef3e 44bb 3122 f7bb
000003c0: 42d7 c1bd 8cb4 203d 9494 2dbd 32bc 213d
000003d0: c73a 05be 3964 39bb 2b09 abbc e4eb 1e3e
000003e0: 1b8f eb3d 9aec ecbd fcbb c23d 0944 813d
000003f0: ebeb 4d3d bf8f 053d 399c 4b3c 02ed 063d
0.20355417 0.16353035 0.07598142 -0.23711357 0.061877105 -0.12512513 -0.0070170956 -0.20616414
-0.11889968 0.15838765 -0.035604335 -0.13071214 -0.11671686 -0.10475333 -0.09334555 0.099095374
0.19756988 -0.027637657 -0.08383938 0.019102676 -0.059956618 0.13492225 0.0846077 0.1557775
0.11371664 0.13692676 0.07385471 0.12084849 -0.056349326 -0.004683944 -0.027521426 0.0818726
-0.18150741 -0.13438317 -0.029348733 0.1776345 0.041302606 -0.08129004 -0.017022813 -0.092202194
-0.14157173 0.12777011 -0.09893132 -0.091775924 -0.14795111 0.23379111 -0.103598796 -0.04570208
-0.10280242 -0.074680276 0.01061175 0.061913766 -0.06362707 0.08691051 -0.09527165 -0.07865427
-0.14805551 -0.039605472 -0.053768296 0.0540532 -0.008528493 0.19444464 -0.1553067 0.09452066
0.12800965 0.10288024 0.24788965 0.03975917 0.0063134264 -0.039485537 -0.093972206 0.14866497
-0.018979967 0.041411463 -0.0052986303 0.021406408 0.041637372 -0.08217922 -0.2430478 -0.09133699
-0.027533758 -0.05617064 -0.15993099 -0.08445324 0.033472326 0.02837216 0.08684353 -0.032208726
0.03820732 -0.06964763 -0.13015617 0.029927617 -0.21025802 -0.11724021 0.11124514 0.016893232
-0.28157526 0.017223291 0.0491741 -0.019086977 0.07603707 0.07497065 0.12145037 -0.03849231
-0.0097642485 0.08170079 0.05288491 0.02476776 0.032494504 0.13507251 0.0037325372 -0.026673146
-0.15188327 -0.013694041 -0.0529094 0.049304735 0.07259951 0.00014908097 -0.043643106 0.05981595
-0.005377634 0.02356816 0.014134569 0.078443125 0.11631631 0.06129597 0.10243775 0.06795854
0.21301901 0.11945495 -0.1235977 -0.086738855 0.0074586016 0.1825706 0.08315253 0.07606824
0.13296942 0.00974417 -0.16983607 0.11156922 -0.024728423 0.11398587 -0.0677325 0.068118595
-0.08367215 0.100039706 0.16818208 0.15038937 0.030449066 -0.013200508 -0.028380238 0.04246047
0.02700076 0.08582918 -0.038754802 0.17378177 -0.25812718 -0.05902572 -0.13425487 0.08161238
-0.21965085 -0.00019248672 -0.012161917 -0.037053492 0.042910554 -0.09083532 0.0034990704 -0.10997734
-0.1476518 0.17432219 0.13587363 -9.1354086e-05 -0.14713764 0.10518318 0.12556352 0.25325027
0.03764108 0.0070758127 -0.09401779 -0.018984534 -0.074626096 -0.16171338 -0.12808712 -0.06539466
-0.055187747 -0.17182256 -0.21575928 0.0026652687 0.10094481 -0.040553596 0.061533757 0.060656827
0.17569782 -0.086108446 0.12955701 -0.019741084 -0.12031218 0.03742285 0.068351164 0.17495576
0.09257353 0.23503001 -0.05817029 -0.10518332 0.023102596 0.11961372 0.12225731 0.028207084
-0.09672097 -0.10492549 -0.06772071 -0.08102722 0.0030622212 0.038613982 -0.005186138 -0.24333881
-0.05423821 0.09691658 -0.18374787 0.16889934 0.043946713 -0.0591201 0.0904068 0.1721765
0.015426585 0.18113863 0.029410578 -0.10930743 -0.082894094 -0.032665636 0.05380799 0.22284237
-0.0033945157 -0.1215035 -0.25090012 -0.10513715 0.01827335 0.011907984 -0.0029944738 -0.0075419177
-0.09464885 0.039234683 -0.042378023 0.039486118 -0.13010703 -0.0028288497 -0.020878395 0.15519673
0.115019046 -0.11568566 0.095085114 0.06311805 0.050273817 0.03260779 0.012427383 0.032940872

conv1.bias f4 [16]
00000000: 5dd1 7ebd 8cd0 ec3c 317c 47bd 4161 18bd
00000010: 646d 31bd 5f71 74bd ef54 293c cbc4 b6bc
00000020: a9d8 ebbc ecd5 4c3d ca31 5b3c 1641 dd3c
00000030: 2ab5 b4bb 6949 0dbc 7a60 36bd 7958 063c
-0.062211383 0.028908037 -0.048702423 -0.037202124 -0.043317214 -0.05967843 0.010335191 -0.022310635
-0.028789835 0.0500087 0.01337857 0.027008574 -0.0055147605 -0.008623459 -0.0445256 0.008199804

conv2.weight f4 [64, 16, 5, 5]
00000000: 55a0 be3c 1636 473c b285 2a3c 62a9 c43d
00000010: cf85 7e3d 8f64 dc3b 02dc 1b3a add0 ad3c
00000020: 14b4 b43b e969 8cbc 103b ff3b 5ed6 d03d
00000030: 8767 59bd 85a7 8e3c 5163 953d 5388 043b
00000040: ae13 063d 4548 923d 4b4f cd3d 1b69 6a3d
00000050: c770 0bbc e2d4 893d 2e1f 0c3d 856a 803c
00000060: 0e0b 4cbd 6917 b23c cf5f 07bd 0586 babc
00000070: 9cbe c2bc 98b9 0b3d 8e65 2fbd 4549 dabc
00000080: 7f4e b6ba c2e9 50bd 730a 61bd 12e8 cabc
00000090: 2ece d4bb 6db1 92bd 670c 093d 43a0 bbbd
000000a0: 916a 443d f577 14bc f9c0 6dbd 8a62 b23c
000000b0: 2a34 31bd 4412 aabc b016 743c f5f0 1e3d
000000c0: e983 c1bc 4855 db3b 3799 9dbc 2bcc df3b
000000d0: d51f e4bc 4173 883d 72e3 183d 99d1 e83c
000000e0: 02f4 dfba 97f2 0bbc 548a afbc e267 54bb
000000f0: e1fa 23bc 6c99 1ebc c5b3 fb3c ab39 ce3d
00000100: 9efd 80bd c375 a4ba 816f 023d 4c6b 8a3d
00000110: 80e2 5f3d baa5 093d 9aca 97bc 20c8 d1bc
00000120: 190b 0a3e 8d1e 1dbd 87c3 dd3c 594c 34bd
00000130: 37ad 23bc a721 87bb 4512 16bc 0a13 29bc
00000140: f8ed acbb 42ea d43b 15ee f93c cfbf c63c
00000150: fbfe 3b3d 08c2 81bc 4217 b53d d9de 613b
00000160: 83f2 003c 3228 33bc 6474 d73b 5acc aeba
00000170: 27e2 bd3c 3c04 b73d 998d 24bd 323e 01bc
00000180: fc13 e53c 9696 963c 0acf 573d fb73 813d
00000190: 84e0 21bd 4666 3ebc 7cae b4bc 47ad 6c3d
000001a0: 004e f13c d6c2 b9bc 8bae 4ebd f8d5 e03c
000001b0: 5df8 503c 81d5 413c 61a2 30bd 7f6f 09bd
000001c0: 708a f83c 4693 33bd 1982 c1bd 798f e3bc
000001d0: 7e7b 393d dba8 653d fbc5 823c f23b 833d
000001e0: 020f 743d 597d e93b 0264 ad3b bf38 d83c
000001f0: 184f b93c 585c 293c 8636 e6bc dc7d 99bc
00000200: b38b 963c 8c97 cbbc 36fe e53c f09d 883c
00000210: 1321 82bd 4ccd 463d b76d 1dbc f63e 96bc
00000220: 2ad6 973b ea2d b83c f911 1e3d b54d 4f3d
00000230: 0ee4 a73d 702f f03d f395 fa3c c2ae 2ebc
00000240: d7ae 063c e903 e7bc 2fab 3f3d 84a9 0abd
00000250: fa58 4b3d 8ca9 8f3d 2f80 23bd 07b1 83bc
00000260: 331d 89bc 7c49 283c cd49 f33a 5d39 ceba
00000270: a54b 393c c82a c7bc 64f0 6ebc 094d dd3c
00000280: b8e3 a53c 6df8 313d 79d5 9bbc 25c6 533d
00000290: e9c3 cbbc d6c8 c83c e0b6 f73b 3984 3ebc
000002a0: 867d 1fbb fb5c ba3b 241e 45bc 26f6 05bc
000002b0: 434f 843d bbba 583c 6aff 39bc bcc1 edbc
000002c0: 3551 c53d c37b 35bd 7df4 923d 46ab 83bc
000002d0: 34ee 7fbd b9c6 a4b9 f08e 48bd 038b ef3a
000002e0: 0a2f 6fbc d487 a738 8a32 333d 8c5f 4dbd
000002f0: d356 1f3d 2c09 8fba 5b48 bb3d 72a8 733c
00000300: a619 88bc a59c 5d3d b489 49bc 3ab4 74bc
00000310: f6fc ad3d 7948 403c a431 013d 6465 a63c
00000320: 09ed 683d a48e 193c f7a2 5f3d b60c 883c
00000330: 6823 903d afa5 3a3d 56b6 193c 876e 583c
00000340: 847d 5c3c d709 d8bc 18ee 21bd 5e88 15bc
00000350: 008e 38bd 12e2 2b3c ea83 2dbd 6d2c 383d
00000360: 0186 373d 40d7 5e37 acd1 e93b 6c5e 15bd
00000370: cafe 983c 0b31 223c 4b35 ab3c 16c1 a33d
00000380: 9a93 f3bc 64bf e93b 29b9 083d e0cb 69bd
00000390: 37c9 f83b acaf b33c e409 a73d a676 42bd
000003a0: 3bff 9ebd 6c7e 20bc f9d6 093c 0dcf 86bc
000003b0: b1b7 78bd 3f78 6dbd 1578 5d3d eeb5 b3bd
000003c0: 62c1 c93c 92f0 19bd 2fef 79bd 9035 e73b
000003d0: 53cc 96ba df23 213d 2ae4 7dbd d6cb 393d
000003e0: 947d d53c cdfd 183d a955 c93b 9712 963c
000003f0: bbcb 893a ec28 2bbc 26a1 f9bc 00e8 373d
0.023269812 0.012158891 0.010407852 0.0960262 0.06213933 0.0067258547 0.00059455645 0.021217668
0.005514631 -0.017140346 0.007789023 0.10197137 -0.053077247 0.017413864 0.07294334 0.0020222857
0.03273361 0.071426906 0.100248896 0.057229143 -0.008510775 0.06730057 0.034209423 0.015675792
-0.04981523 0.021739678 -0.033050355 -0.022768984 -0.02377253 0.034112543 -0.04282146 -0.026646266
-0.0013908892 -0.05100418 -0.054941606 -0.024768863 -0.006494305 -0.071627475 0.033459093 -0.09161427
0.047953192 -0.009061803 -0.05804536 0.021775503 -0.04326264 -0.020760663 0.014897987 0.038804013
-0.02362247 0.006693516 -0.019238098 0.0068297586 -0.02784721 0.06662608 0.037326284 0.028420256
-0.001708627 -0.008541725 -0.021428265 -0.0032410552 -0.010008545 -0.009680133 0.03072537 0.10069593
-0.06298374 -0.0012547303 0.03184462 0.067587465 0.054659367 0.033605315 -0.018529225 -0.025608122
0.13480796 -0.038359214 0.027070774 -0.044018123 -0.009990028 -0.0041238847 -0.009159629 -0.010319481
-0.0052773915 0.0064976523 0.030509034 0.024261383 0.045897465 -0.015839592 0.08842327 0.0034465103
0.007870319 -0.010934876 0.006575154 -0.0013336048 0.023179127 0.089363545 -0.0401741 -0.007888364
0.02796363 0.018382352 0.052687682 0.0632095 -0.039520755 -0.011621064 -0.022055857 0.057782438
0.029456139 -0.022675913 -0.050459426 0.027445778 0.012754527 0.011830688 -0.043123607 -0.033553597
0.03033945 -0.043841623 -0.09448642 -0.027778374 0.045283787 0.056069236 0.015963545 0.06407918
0.059584625 0.0071255383 0.005291463 0.026394246 0.022620723 0.010336958 -0.02810217 -0.018736772
0.01837716 -0.024852537 0.028075319 0.016676873 -0.06353965 0.04853563 -0.009608678 -0.018340569
0.0046336846 0.022482831 0.03859136 0.050611217 0.08197795 0.11727798 0.03058908 -0.010661783
0.008220396 -0.028200107 0.046794113 -0.03385307 0.0496454 0.070147604 -0.039917167 -0.016075624
-0.016737556 0.010271426 0.0018561423 -0.0015733648 0.011309539 -0.024312392 -0.014583681 0.027014272
0.020250186 0.043449808 -0.01902269 0.051702637 -0.02487369 0.024509829 0.007559642 -0.011628204
-0.0024336292 0.0056873537 -0.012031112 -0.008176362 0.064604305 0.013228114 -0.011352399 -0.029023044
0.0963463 -0.04430748 0.07175539 -0.01607288 -0.062483028 -0.00031428577 -0.04896444 0.0018275682
-0.014598617 7.9884805e-05 0.04374937 -0.05013995 0.03890116 -0.0010912768 0.0914466 0.014871703
-0.016613793 0.054104466 -0.012300897 -0.0149355475 0.08495514 0.011736029 0.03154148 0.020312019
0.05686668 0.009372387 0.054598775 0.016607624 0.07038003 0.045568164 0.009381851 0.0132099455
0.01345766 -0.02637188 -0.039533705 -0.009126751 -0.045057297 0.010490911 -0.04236213 0.044964243
0.04480553 1.3282348e-05 0.0071355905 -0.036467 0.01867618 0.009899388 0.020899436 0.079958126
-0.029733468 0.0071334112 0.033379707 -0.057079196 0.007592346 0.021934353 0.08156183 -0.047476433
-0.07763525 -0.009795766 0.00841307 -0.016456151 -0.060722057 -0.057976004 0.054069597 -0.08774935
0.024628345 -0.03758294 -0.06101912 0.0070559457 -0.0011504985 0.03934085 -0.061985172 0.04536041
0.026060857 0.03735142 0.0061442447 0.018319411 0.0010512987 -0.010446768 -0.03047235 0.044898987

conv2.bias f4 [64]
00000000: ca72 5cbd 044c be3b 7302 033d 7895 f9bc
00000010: 234c 4b3a 1fa6 b2bb bf7f f63b 7b54 04bd
00000020: 560b 703c 6c9e 7e3d 0208 29bd 58e4 93bc
00000030: 489f dfbc edf7 523d 7f53 c5bb fd40 973c
00000040: bba3 9dbc 3739 c9bc 0eb4 b9bc 2b6d 843c
00000050: da0d 22bd 27b8 5f3c 5ffb 86bc 6c54 f1bb
00000060: d41f aebb 3502 5b3b cb84 873a f4aa 41bd
00000070: 15ec 4d3d b7e5 1d3d 0253 af3c 9124 783d
00000080: c298 783d 7921 863c e2b9 73bc 63ae 8f3d
00000090: d848 0bbd 6b8f d3bb aca4 1f3d a04e 5e3d
000000a0: b062 e83b 7122 693d 7814 cf3c fcca ccbc
000000b0: daf1 1e3d 63d4 af3c e314 79bd 327c 87bc
000000c0: 0a5e ea3b af06 4fbd 31f4 e2bb 0880 0d3d
000000d0: 2ab9 6d3d d212 e2bc 9121 9bbb 1111 1f37
000000e0: 55d6 fabc 7e17 493d 5861 c3ba 0e26 833c
000000f0: 1afe 87bc bbb6 aa3d 0ee7 85bb 99af 573d
-0.05382041 0.0058074016 0.031984758 -0.03046678 0.00077551807 -0.005451932 0.0075225527 -0.03230713
0.01465114 0.0621628 -0.041267402 -0.018053219 -0.02729763 0.05150597 -0.0060219164 0.018463606
-0.019243112 -0.024563415 -0.022668865 0.016165337 -0.03956399 0.013654745 -0.016477285 -0.0073648
-0.005313853 0.0033418064 0.0010339258 -0.047282174 0.050273973 0.03854915 0.021401886 0.060581747
0.060692556 0.016373383 -0.014875861 0.070156835 -0.034005016 -0.0064563057 0.038975403 0.0542742
0.0070918426 0.05691761 0.025278315 -0.024999134 0.038804866 0.021463579 -0.060810935 -0.016538713
0.0071523236 -0.050543483 -0.0069260825 0.03454593 0.058037914 -0.027596865 -0.004734226 9.481112e-06
-0.03061978 0.04909467 -0.001490633 0.016009357 -0.016600657 0.08335634 -0.0040863818 0.052657697

conv3.weight f4 [32, 64, 5, 5]
00000000: df3b 93ba 7aa3 0dbb 0b69 1eba 0dd6 bf39
00000010: 1fa0 0837 f179 b8ba e7f8 a03b a5de de3a
00000020: ffc7 b53a 0071 1c33 bdb9 fa3c 6438 6c39
00000030: f895 253d e700 8f3c bbf2 8f3c ecf9 023d
00000040: b5af bf3c 5c92 d03c 20d7 053d 39f4 9e3a
00000050: a89d 98ba d022 593c ec35 653c 42d9 5f3d
00000060: edf8 473c ef25 a7bb 8bb2 aabb 3a79 8ebb
00000070: ba0f 16bb 3699 d234 388b 1ebb c290 083c
00000080: 1c6c d83a 38da 68bb acca 8eb5 d82b f13c
00000090: 4d86 173c 904b 2c3c 1650 e33b c964 253d
000000a0: ec31 a43b 0fec 913b eb69 063d 6d58 9e3c
000000b0: 9bb3 8b3c 4b43 373c 54e6 3dbc 25be 413a
000000c0: 7d54 0c3d 59a7 513c 3ac8 9dbb 4b11 3abb
000000d0: 24d4 09bb 2f95 1138 b0d7 4db6 a986 64bb
000000e0: bb94 1eba bf96 caba 93c1 8cba e09b a335
000000f0: 4869 0f3b afc7 a23c 0065 0f3c 9f1e 713c
00000100: 0721 0bbb 3ae5 c53b d30e 26bc 28a6 99bc
00000110: 431b 5c3c e2c3 a03c dfca 51bc 796b bf3b
00000120: 3a65 7bbc f7e0 58bc c3be 943c 643b 6cbb
00000130: d079 b7bb b2b4 99bb 9cdb 9abb e2c8 0c36
00000140: 0c5a 60bb e8d8 e8bb f50d e4bb fe36 00bb
00000150: d11e 2d35 0acc 50bc 258b 453b 238d 14bb
00000160: a70f 743c 9ce8 bc3c 102f c1bb 0d01 22bc
00000170: 52bd b83c e720 8c3c 7064 a3bb a186 d03b
00000180: 1e46 10bc dcf6 0ebd c7df 283b 1443 a4bc
00000190: d825 04bb 9520 963a 2005 2e3a cee8 df3a
000001a0: e6c2 68b5 ede5 3dbb 07a6 9c3b 6561 edba
000001b0: c832 20bb 5946 b535 ac93 2d3d 496b 263b
000001c0: 1834 d13c 9338 d43c d1f3 483b be8f b33c
000001d0: 42fa 1dbd 1b03 c03c 0c0a 6a3c b480 d8bb
000001e0: e573 393b a46e 94bb 6cd7 d03b 16fb 253d
000001f0: 46a9 5f3c 0ff2 f6ba df25 92bb 087f 37bb
00000200: 9262 8eba cf5d eeb5 2f26 27bb 3bd3 11bb
00000210: 2dfc cfba fd5b 623b 5041 43b4 91a0 49b9
00000220: 44a9 883c f0d9 b3bc 2ec2 0b3d 9f58 423c
00000230: 8c0f 56bc 3ba1 f23c 2c16 bfbc 3e13 033c
00000240: d28d 5c3c 29f1 13bc 9c5e cbba a6d8 0b3c
00000250: eb67 b83c 268e f13c 1864 ddba d54f 3a3a
00000260: 2228 4cba b675 1a38 bfca 4837 f291 913b
00000270: 5690 b5ba 278e 91bb 1b13 9f3a 442e a336
00000280: 5c6d 213d 18bc 0d3a c1ed 9a3c ca3b e83c
00000290: 151a 0b3d 25c4 0c3b 2597 1e3d 897f c33c
000002a0: a4eb f339 e82b 8ebc bd65 1d3c d028 353c
000002b0: 79c6 a8bc 0a6e f0ba 7f6b e6bc 66c9 983a
000002c0: 61d6 833b ebe7 f33a 7223 703a 1eb2 a735
000002d0: d528 a638 fdaf baba 1a6c 9d3a a100 be3a
000002e0: 533b aa36 1395 8c3c 5b40 c33b c0d7 aa3b
000002f0: b0b1 553c 2eef d8bb 9dd7 093d ce19 f23b
00000300: f2bf 6a3c 48ca cf3c 7f41 dabb 4162 93bb
00000310: e6b0 8a3b 13e3 e33b 649b 063c f1c4 cabc
00000320: cbb4 8dba 2728 c738 5b48 2ebb 1b35 42bb
00000330: 86ef 20b5 a476 05bb 6f19 ef39 98e6 7cb9
00000340: 2455 3db9 6be4 02b6 595b a4bc 3aa0 a1bb
00000350: ce0b 8bbc 7085 ad3c 7976 233c f31f 00bb
00000360: 8ee8 253d 1a6a 833c 99eb be3c ecce ef3b
00000370: a534 81b9 633f 6dbb 5a15 df3c 0767 46bc
00000380: a645 513c 4a57 f23a fa01 353b 2b82 c5ba
00000390: cdf7 48ba d24f ee35 5e75 d339 5abb 6a3b
000003a0: 10fd d538 5290 003a 6815 8e36 6045 eb3c
000003b0: 74ec 52bb 3d61 e93c 7baf fd3c 67bd 1b3c
000003c0: e09b bc3c 310e 7dbc b44f 8d3c c9ef 133d
000003d0: 182f 9f3a 1203 f93c b4e5 713b e3d9 4f3c
000003e0: 4f8e 133c 6630 a33b 4707 a2bb eb11 85bb
000003f0: 4abb 4dbb a36d f9ba 9c7a a436 9b80 a5ba
-0.0011233053 -0.0021612332 -0.00060428743 0.0003658984 8.143513e-06 -0.0014074427 0.004912484 0.0017003609
0.0013868808 3.6424353e-08 0.030606145 0.00022527721 0.040426224 0.017456485 0.017571798 0.031976625
0.023399213 0.025460415 0.032675862 0.0012127227 -0.0011643665 0.013252929 0.013989907 0.054650553
0.012205345 -0.0051009576 -0.0052092723 -0.0043479474 -0.0022897557 3.9227024e-07 -0.0024191868 0.008335294
0.0016511711 -0.003553046 -1.063881e-06 0.029439852 0.009248328 0.010516062 0.006937037 0.04037932
0.005010834 0.004453189 0.032815855 0.019329274 0.017053416 0.0111854775 -0.011590559 0.00073906995
0.03426026 0.012796246 -0.0048151286 -0.0028391655 -0.0021030987 3.4709632e-05 -3.0672927e-06 -0.0034870303
-0.0006049384 -0.0015456303 -0.0010738842 1.2189812e-06 0.002188282 0.019870607 0.008752108 0.014716773
-0.0021229403 0.006039289 -0.01013537 -0.018755987 0.013434234 0.019624654 -0.012804716 0.005841669
-0.0153439585 -0.01323723 0.018157369 -0.0036046142 -0.005599238 -0.00469073 -0.0047258865 2.0978555e-06
-0.003423336 -0.0071059354 -0.0069596716 -0.0019564028 6.4492366e-07 -0.012743959 0.003014275 -0.0022667132
0.01489631 0.023060136 -0.005895503 -0.009887946 0.022551212 0.017105533 -0.0049863383 0.0063637053
-0.00880578 -0.034903392 0.0025768147 -0.020051517 -0.0020164158 0.0011453802 0.0006638337 0.0017082931
-8.671035e-07 -0.0028976158 0.004780534 -0.0018110691 -0.002444433 1.3506025e-06 0.04237716 0.0025393537
0.025537536 0.025905883 0.0030662904 0.021919128 -0.038568743 0.02343898 0.014284622 -0.0066071395
0.0028297838 -0.004529791 0.0063733365 0.040522657 0.013651198 -0.001884045 -0.004460081 -0.00279993
-0.0010863116 -1.7759684e-06 -0.0025504937 -0.0022251147 -0.0015868001 0.0034539693 -1.8184551e-07 -0.0001922867
0.016682275 -0.021954507 0.03412073 0.011861949 -0.01306523 0.029617896 -0.023326002 0.008000193
0.013461547 -0.009029665 -0.0015515867 0.00853554 0.02251049 0.029486727 -0.0016890792 0.0007107233
-0.00077879627 3.6826088e-05 1.19681345e-05 0.004442447 -0.001385222 -0.0044419947 0.0012136431 4.8631646e-06
0.039410934 0.00054067513 0.018912198 0.028348822 0.03396042 0.0021479216 0.03871836 0.023864524
0.00046524138 -0.01735492 0.009606776 0.011057094 -0.020602452 -0.0018343341 -0.02812743 0.0011656701
0.0040233587 0.0018608546 0.0009160555 1.2494309e-06 7.9231024e-05 -0.0014243122 0.0012010366 0.0014496037
5.073301e-06 0.017160928 0.0059585995 0.0052137077 0.013042852 -0.0066203093 0.03365289 0.00738833
0.01432799 0.02536501 -0.00666064 -0.0044977968 0.0042325137 0.0069545596 0.008215759 -0.024752112
-0.0010811327 9.4965384e-05 -0.002659342 -0.0029633704 -5.99532e-07 -0.0020364905 0.00045604582 -0.00024118496
-0.00018056162 -1.9504466e-06 -0.02006309 -0.0049324306 -0.016973402 0.021181792 0.009976977 -0.0019550293
0.040504985 0.016041804 0.023305701 0.007318368 -0.0002464402 -0.0036201112 0.02723186 -0.012109525
0.012772953 0.0018489149 0.0027619586 -0.00150687 -0.000766632 1.7755613e-06 0.00040332502 0.0035817237
0.00010203768 0.0004904318 4.234422e-06 0.028719604 -0.0032184394 0.02848875 0.030967465 0.009505606
0.023023546 -0.015445278 0.01724992 0.03611735 0.0012144772 0.030396972 0.0036910595 0.012686226
0.009006097 0.004980135 -0.004944715 -0.004060974 -0.003139215 -0.0019029867 4.9018545e-06 -0.0012626828

conv3.bias f4 [32]
00000000: 2508 66bc 430e 3f3c 300a 05bd ec2f 0c3c
00000010: 6718 e6ba 6f49 3cba ec05 593c 615b bcba
00000020: fd1e 10bd dcbf c23c 8bdf 17bb 651b 363d
00000030: e263 253b 15f9 a6bc b3dd a23c 746b 2fbd
00000040: 7624 433d cb25 bb3c 3c99 4dbc 5230 a13c
00000050: 51a1 563c eb73 87bb ac9d a738 f2d2 1a3d
00000060: 26fb beba 1794 333c 6ecf 3c3c ba59 6c3d
00000070: 0ee7 00bd 7e63 ce3c f2d9 413c 0114 573d
-0.014040028 0.011661115 -0.03248042 0.008556347 -0.001755488 -0.00071825733 0.013246041 -0.0014370495
-0.035185803 0.023773126 -0.0023174013 0.04445972 0.0025236537 -0.020382443 0.019881105 -0.042827085
0.047642194 0.02284517 -0.012548741 0.019676361 0.013099984 -0.0041336915 7.992549e-05 0.03779883
-0.0014570698 0.0109606 0.0115240645 0.057702757 -0.03147035 0.025193926 0.011831747 0.05250931

fc_1.weight f4 [8, 32]
00000000: 64fc 7e3d 292d 893e a0f7 6ebe c7b2 cb3e
00000010: 6c27 debd 8d5d cdbb 2742 773d 1858 cc3d
00000020: ceb2 f03c 2fcf 5abd bfcf febb 5d90 033e
00000030: 3f36 5fbd 99ab 12be 0c32 4ebd 15cf 98be
00000040: 8893 d03c 934a 8a3e 8d20 84bc b63e e73d
00000050: 502e fe3d 5517 2e3e fded 913b 0f24 c03e
00000060: 5ed1 c13a a020 07be 5c94 bf3d 32c0 ea3c
00000070: 3ac4 c3be 27c1 a43c 6e89 f53e 9201 8fbd
00000080: 3083 033e a308 963d a454 aebd ef0b 3ebe
00000090: e50d abbd 4333 413e 3404 1ebd ba94 0e3a
000000a0: 16b7 57be 0f90 033e 8ecf 14bc 9574 263d
000000b0: 9b09 8e3d 1694 6d3c 6f6c 73bd e2cc 1ebe
000000c0: 9b99 b63e 65e2 ecbd 467e 92be 4150 d73e
000000d0: 3692 d3bd 6c30 1dbe 5624 363c ae30 b93c
000000e0: b481 e03c 55a4 2d3c 09f5 04bd f74a 153e
000000f0: f182 933d 07f0 82bd c45b 68bd 18bf 7e3e
00000100: 5568 413d 618b bc3d c303 133d a644 3b3e
00000110: 12b7 7bbc 7b5d 903e 1e22 02bc 733b 8837
00000120: 2891 913e 413e 1fbd e604 a6bd f445 6abd
00000130: e719 87be 7a3b e03d dbbe 20bf 6bc3 ac3c
00000140: 867f ebbd e379 333e adf5 6abe 1a60 493d
00000150: c24d ffbb d923 cf3d 9d28 09bd 4dbd 423d
00000160: fd76 a3bb 34e1 98be b710 0dbc d54d 84be
00000170: ef5f 72bb d41c 6dbd 07fc 8e3e edd0 8ebe
00000180: 5124 1d3e c512 c5bd 868d 02bd 4a00 3f3e
00000190: d07b c73d 8138 9abd 0821 373d 37d9 a5b4
000001a0: 6b16 8cbd 3554 45be 728a 1dba 7657 5abe
000001b0: 3ca9 ef3d e7aa ccbc 7c5e a33e 1f13 013d
000001c0: 8772 2fbd c2ec 39be 9165 543e 157a 65be
000001d0: 6ebd 22ba d869 f2bd 38ef 21b9 3657 9cbd
000001e0: 5f16 083e a473 0dbe eb6d 39ba ca8e 9dbe
000001f0: 1d26 19bc 4acf 38be d976 a5be c825 7c3c
00000200: bd4b 363e 71ac 0e3d d763 273e 54c8 31bd
00000210: e599 6dbe 46a1 13bc 5d6f 15bb 6132 2fbc
00000220: 7db6 abbd 39a6 bbbe 01c7 ddbd 6dc9 7abe
00000230: 3cdc 4c3e 8a48 a3bc 341f 583e 19fb cd3d
00000240: 90c5 55be 3068 b6bd 58c0 77bc 95c5 2abd
00000250: 6a4c 0bbb 989d 813d 453e 1eb7 e8e7 6e3e
00000260: a15f 053d c363 26be 89c5 b6bd e41b 49be
00000270: f863 16be ff8c bbbe f2dd 813d 40c3 c5be
00000280: a26c d03d 32ec 33be 531d ca3e 382c a03d
00000290: 1d55 8e3d fc09 93be cda1 ddbc 9917 bf36
000002a0: 6ae9 5dbb 0e4e ee3d 1c74 ae3e 9a54 763c
000002b0: 875e 1abd 1d8d f8bc 7a3b 0cbe 7073 103e
000002c0: 910e 27be 7321 983d 057d 06be 0022 a2be
000002d0: 0383 77ba 8e56 32bc 9646 e43c 5435 8bbd
000002e0: 8004 c03d b024 b23d 0a0b fabb f606 9abd
000002f0: fa28 f5bd 2b9b ef3d 641c 193e 6a04 25be
00000300: e87d 64bd 6f1d aabe 4adb 06bd dcf2 c3bc
00000310: ff75 88bd f382 5d3e 009c d8ba 2219 6634
00000320: 39d3 d63d 9029 14be 1296 ddb9 2f55 26be
00000330: 5c24 5fbe 9ede 803e e093 c73d 868d 7abe
00000340: d111 de3b e6d3 b23e 68a0 74bd 0646 a1be
00000350: c4d3 b4ba 1c5c 32be 4628 79b8 4b90 903e
00000360: 219a b7b7 bc74 1fbd 4815 a3ba 30dd 17bd
00000370: 9feb b2bc 7f70 ad3d 05e1 1cbe 97f3 90bd
00000380: 863c debd 4b55 e6bd c522 d83d 6bcb df3e
00000390: a8fc a63e 4724 aebe 6781 18bc 459c 8538
000003a0: 3dba d1bd 89aa 973e 7d6b 6fbb 6650 213b
000003b0: 465d 83bd 953b 8fbe 27f0 aa3d c283 803d
000003c0: a67f b83e fee3 e83c bd5a 57be 8bba 83be
000003d0: eb4a 24bc 4455 b4be 33c7 0739 f5a4 a03d
000003e0: 35f0 903d ebef 363e bc2b 59bd 21c1 f53d
000003f0: fb3e 27be 5e5a 073e 007d 6e3d e9cc 963d
0.062252417 0.26792267 -0.23336649 0.39784834 -0.10847363 -0.0062672556 0.060365822 0.0997774
0.029382136 -0.053420242 -0.00777623 0.12848039 -0.054495092 -0.14323272 -0.050340697 -0.2984549
0.025460973 0.2701002 -0.016128803 0.11291258 0.12411177 0.17001088 0.0044534192 0.3752751
0.0014787128 -0.13196039 0.09354469 0.028656099 -0.38235646 0.020111633 0.47956413 -0.069827214
0.12843013 0.07325866 -0.08512238 -0.1855924 -0.083522595 0.18867211 -0.038578227 0.0005439032
-0.21065935 0.12847923 -0.009082688 0.040638525 0.06935426 0.0145006385 -0.059429582 -0.15507844
0.35664067 -0.11566619 -0.28611964 0.42053416 -0.10330622 -0.15350503 0.011117062 0.02260622
0.027405597 0.010598262 -0.032460246 0.14579378 0.072027095 -0.06393438 -0.05672814 0.24877584
0.04721864 0.09206272 0.03589226 0.18287906 -0.015363472 0.2819632 -0.0079427045 1.6240147e-05
0.28431058 -0.03887773 -0.08106403 -0.05719562 -0.2638695 0.10948844 -0.6279122 0.021089276
-0.114989325 0.17526965 -0.2294528 0.049163915 -0.007791252 0.10114259 -0.033485997 0.047543813
-0.0049885497 -0.29859316 -0.008609942 -0.2584063 -0.003698345 -0.05788882 0.27926657 -0.27893773
0.15345885 -0.09622721 -0.03187325 0.18652454 0.09740412 -0.075303085 0.044709235 -3.089169e-07
-0.068402134 -0.19270404 -0.00060097047 -0.21322426 0.11702201 -0.024983836 0.31908023 0.031512376
-0.04283383 -0.18156722 0.2074187 -0.22409852 -0.0006208037 -0.11836594 -0.00015443272 -0.07633822
0.13289784 -0.13813645 -0.0007073569 -0.30773002 -0.009347466 -0.18047825 -0.32317236 0.015389867
0.1780233 0.03483242 0.1634668 -0.04340394 -0.23203237 -0.009010619 -0.0022801973 -0.010693164
-0.08384416 -0.36650255 -0.108289726 -0.244909 0.20005888 -0.01993205 0.21105653 0.10057659
-0.20876145 -0.08906591 -0.015121542 -0.041692335 -0.0021255263 0.06328887 -9.432032e-06 0.23330653
0.032561902 -0.16248994 -0.089243956 -0.19639546 -0.14686573 -0.3663101 0.06341161 -0.38625526
0.1017697 -0.1757057 0.39475498 0.07820934 0.06949828 -0.28718555 -0.027054692 5.6949907e-06
-0.003386105 0.116359815 0.3407296 0.015034819 -0.037687805 -0.030340726 -0.13694564 0.14106536
-0.1631415 0.07428255 -0.13133629 -0.31666565 -0.00094418245 -0.010884894 0.02786569 -0.06797281
0.09375858 0.08698404 -0.0076307105 -0.07520859 -0.11970706 0.11699518 0.14952236 -0.16114965
-0.055784136 -0.3322558 -0.032923974 -0.023919515 -0.06663131 0.21631984 -0.0016525984 2.1429562e-07
0.10489506 -0.1446898 -0.00042264216 -0.16243432 -0.21791214 0.25169843 0.09745002 -0.2446805
0.006777026 0.3492729 -0.059723288 -0.31498736 -0.0013796021 -0.1741795 -5.9403734e-05 0.28235087
-2.1887072e-05 -0.038929686 -0.0012442255 -0.037076175 -0.021840869 0.084687226 -0.15320213 -0.07077711
-0.10851388 -0.11246737 0.10553507 0.43709883 0.32614636 -0.34012052 -0.009308196 6.371042e-05
-0.102406 0.29622295 -0.0036532574 0.0024614572 -0.06414275 -0.27975145 0.08346587 0.06275131
0.36034888 0.028429028 -0.21030708 -0.25728258 -0.010027627 -0.35221303 0.00012948811 0.07843963
0.07077066 0.17864959 -0.053020224 0.11999727 -0.16332619 0.13218066 0.058224678 0.07363302

fc_1.bias f4 [8]
00000000: a64d 173d dcb7 dc3c 30b4 39bd 2d7e abbc
00000010: 58c9 d9bc 1875 8dbc 329e a53b 6195 983b
0.036939286 0.02694314 -0.045337856 -0.020934189 -0.026585266 -0.017267749 0.0050542587 0.004656479
