checkpoints/target3/epoch=8.checkpoint.pth.tar (torch, 319796 bytes, 8 tensors)

conv1.weight f4 [16, 3, 5, 5]
0	0x3e507081	0.20355417
1	0x3e277480	0.16353035
2	0x3d9b9c26	0.07598142
3	0xbe72cde6	-0.23711357
4	0x3d7d72d9	0.061877105
5	0xbe0020cd	-0.12512513
6	0xbbe5efaa	-0.0070170956
7	0xbe531cb1	-0.20616414
8	0xbdf381ad	-0.11889968
9	0x3e22305f	0.15838765
10	0xbd11d5da	-0.035604335
11	0xbe05d967	-0.13071214
12	0xbdef0940	-0.11671686
13	0xbdd688ea	-0.10475333
14	0xbdbf2bf4	-0.09334555
15	0x3dcaf284	0.099095374
16	0x3e4a4fc2	0.19756988
17	0xbce2685e	-0.027637657
18	0xbdabb3fb	-0.08383938
19	0x3c9c7d37	0.019102676
20	0xbd759512	-0.059956618
21	0x3e0a290f	0.13492225
22	0x3dad46cd	0.0846077
23	0x3e1f8423	0.1557775
24	0x3de8e445	0.11371664
25	0x3e0c3687	0.13692676
26	0x3d974123	0.07385471
27	0x3df77f6a	0.12084849
28	0xbd66ce8d	-0.056349326
29	0xbb997bc5	-0.004683944
30	0xbce1749d	-0.027521426
31	0x3da7acd2	0.0818726
32	0xbe39dd14	-0.18150741
33	0xbe099bbe	-0.13438317
34	0xbcf06cc1	-0.029348733
35	0x3e35e5d2	0.1776345
36	0x3d292cec	0.041302606
37	0xbda67b64	-0.08129004
38	0xbc8b736d	-0.017022813
39	0xbdbcd481	-0.092202194
40	0xbe10f82e	-0.14157173
41	0x3e02d62b	0.12777011
42	0xbdca9c81	-0.09893132
43	0xbdbbf504	-0.091775924
44	0xbe17807f	-0.14795111
45	0x3e6f66f0	0.23379111
46	0xbdd42b9b	-0.103598796
47	0xbd3b321b	-0.04570208
48	0xbdd28a13	-0.10280242
49	0xbd98f1f9	-0.074680276
50	0x3c2ddce8	0.01061175
51	0x3d7d994a	0.061913766
52	0xbd824ee9	-0.06362707
53	0x3db1fe23	0.08691051
54	0xbdc31dc8	-0.09527165
55	0xbda1157d	-0.07865427
56	0xbe179bdd	-0.14805551
57	0xbd223959	-0.039605472
58	0xbd5c3c25	-0.053768296
59	0x3d5d66e3	0.0540532
60	0xbc0bbb18	-0.008528493
61	0x3e471c7f	0.19444464
62	0xbe1f08b8	-0.1553067
63	0x3dc1940c	0.09452066
64	0x3e0314f6	0.12800965
65	0x3dd2b2e0	0.10288024
66	0x3e7dd6c9	0.24788965
67	0x3d22da83	0.03975917
68	0x3bcee0dc	0.0063134264
69	0xbd21bb96	-0.039485537
70	0xbdc07480	-0.093972206
71	0x3e183ba1	0.14866497
72	0xbc9b7be0	-0.018979967
73	0x3d299f11	0.041411463
74	0xbbada022	-0.0052986303
75	0x3caf5c7e	0.021406408
76	0x3d2a8bf3	0.041637372
77	0xbda84d94	-0.08217922
78	0xbe78e186	-0.2430478
79	0xbdbb0ee3	-0.09133699
80	0xbce18e7a	-0.027533758
81	0xbd66132f	-0.05617064
82	0xbe23c4f3	-0.15993099
83	0xbdacf5d2	-0.08445324
84	0x3d091a47	0.033472326
85	0x3ce86cbb	0.02837216
86	0x3db1db05	0.08684353
87	0xbd03ed4c	-0.032208726
88	0x3d1c7f47	0.03820732
89	0xbd8ea36b	-0.06964763
90	0xbe0547a9	-0.13015617
91	0x3cf52ac3	0.029927617
92	0xbe574de1	-0.21025802
93	0xbdf01ba3	-0.11724021
94	0x3de3d47e	0.11124514
95	0x3c8a63ad	0.016893232
96	0xbe902aa2	-0.28157526
97	0x3c8d17dc	0.017223291
98	0x3d496ac8	0.0491741
99	0xbc9c5c4b	-0.019086977
100	0x3d9bb953	0.07603707
101	0x3d998a36	0.07497065
102	0x3df8baf9	0.12145037
103	0xbd1daa1d	-0.03849231
104	0xbc1ffa3a	-0.0097642485
105	0x3da752be	0.08170079
106	0x3d589dd9	0.05288491
107	0x3ccae5c2	0.02476776
108	0x3d0518f5	0.032494504
109	0x3e0a5073	0.13507251
110	0x3b749d95	0.0037325372
111	0xbcda81a4	-0.026673146
112	0xbe1b874a	-0.15188327
113	0xbc605cf9	-0.013694041
114	0xbd58b787	-0.0529094
115	0x3d49f3c3	0.049304735
116	0x3d94af0d	0.07259951
117	0x391c529e	0.00014908097
118	0xbd32c31d	-0.043643106
119	0x3d750192	0.05981595
120	0xbbb036dd	-0.005377634
121	0x3cc11204	0.02356816
122	0x3c6794ae	0.014134569
123	0x3da0a6ca	0.078443125
124	0x3dee373f	0.11631631
125	0x3d7b117c	0.06129597
126	0x3dd1cae2	0.10243775
127	0x3d8b2dd9	0.06795854
128	0x3e5a21a8	0.21301901
129	0x3df4a4cc	0.11945495
130	0xbdfd20ca	-0.1235977
131	0xbdb1a424	-0.086738855
132	0x3bf46749	0.0074586016
133	0x3e3af3ca	0.1825706
134	0x3daa4be0	0.08315253
135	0x3d9bc9aa	0.07606824
136	0x3e082923	0.13296942
137	0x3c1fa603	0.00974417
138	0xbe2de982	-0.16983607
139	0x3de47e67	0.11156922
140	0xbcca9343	-0.024728423
141	0x3de9716c	0.11398587
142	0xbd8ab756	-0.0677325
143	0x3d8b81c3	0.068118595
144	0xbdab5c4e	-0.08367215
145	0x3dcce19e	0.100039706
146	0x3e2c37ec	0.16818208
147	0x3e19ffac	0.15038937
148	0x3cf97052	0.030449066
149	0xbc5846f2	-0.013200508
150	0xbce87dac	-0.028380238
151	0x3d2deb08	0.04246047
152	0x3cdd30b3	0.02700076
153	0x3dafc736	0.08582918
154	0xbd1ebd5b	-0.038754802
155	0x3e31f3d9	0.17378177
156	0xbe84293f	-0.25812718
157	0xbd71c4f4	-0.05902572
158	0xbe097a1c	-0.13425487
159	0x3da72464	0.08161238
160	0xbe60ec27	-0.21965085
161	0xb949d643	-0.00019248672
162	0xbc4742c7	-0.012161917
163	0xbd17c567	-0.037053492
164	0x3d2fc2fa	0.042910554
165	0xbdba07de	-0.09083532
166	0x3b6550a9	0.0034990704
167	0xbde13bcd	-0.10997734
168	0xbe173209	-0.1476518
169	0x3e328184	0.17432219
170	0x3e0b2275	0.13587363
171	0xb8bf955a	-9.1354086e-05
172	0xbe16ab40	-0.14713764
173	0x3dd76a47	0.10518318
174	0x3e0093b9	0.12556352
175	0x3e81aa05	0.25325027
176	0x3d1a2d88	0.03764108
177	0x3be7dc38	0.0070758127
178	0xbdc08c66	-0.09401779
179	0xbc9b8574	-0.018984534
180	0xbd98d591	-0.074626096
181	0xbe259831	-0.16171338
182	0xbe032945	-0.12808712
183	0xbd85eda3	-0.06539466
184	0xbd620c8c	-0.055187747
185	0xbe2ff241	-0.17182256
186	0xbe5cf000	-0.21575928
187	0x3b2eabca	0.0026652687
188	0x3dcebc27	0.10094481
189	0xbd261b87	-0.040553596
190	0x3d7c0ad2	0.061533757
191	0x3d78734b	0.060656827
192	0x3e33ea21	0.17569782
193	0xbdb059a0	-0.086108446
194	0x3e04aa98	0.12955701
195	0xbca1b80e	-0.019741084
196	0xbdf6663b	-0.12031218
197	0x3d1948b4	0.03742285
198	0x3d8bfbb2	0.068351164
199	0x3e33279a	0.17495576
200	0x3dbd9731	0.09257353
201	0x3e70abb5	0.23503001
202	0xbd6e43f8	-0.05817029
203	0xbdd76a5a	-0.10518332
204	0x3cbd41a8	0.023102596
205	0x3df4f80a	0.11961372
206	0x3dfa620a	0.12225731
207	0x3ce7128b	0.028207084
208	0xbdc615a5	-0.09672097
209	0xbdd6e32d	-0.10492549
210	0xbd8ab128	-0.06772071
211	0xbda5f199	-0.08102722
212	0x3b48af8c	0.0030622212
213	0x3d1e29b2	0.038613982
214	0xbba9f07b	-0.005186138
215	0xbe792dcf	-0.24333881
216	0xbd5e28e3	-0.05423821
217	0x3dc67c33	0.09691658
218	0xbe3c2867	-0.18374787
219	0x3e2cf3f3	0.16889934
220	0x3d340178	0.043946713
221	0xbd7227eb	-0.0591201
222	0x3db92733	0.0904068
223	0x3e304f09	0.1721765
224	0x3c7cbfca	0.015426585
225	0x3e397c68	0.18113863
226	0x3cf0ee74	0.029410578
227	0xbddfdc93	-0.10930743
228	0xbda9c461	-0.082894094
229	0xbd05cc67	-0.032665636
230	0x3d5c65c4	0.05380799
231	0x3e6430ca	0.22284237
232	0xbb5e7686	-0.0033945157
233	0xbdf8d6d4	-0.1215035
234	0xbe8075fb	-0.25090012
235	0xbdd75225	-0.10513715
236	0x3c95b1fe	0.01827335
237	0x3c4319b4	0.011907984
238	0xbb443eef	-0.0029944738
239	0xbbf72231	-0.0075419177
240	0xbdc1d742	-0.09464885
241	0x3d20b48c	0.039234683
242	0xbd2d9494	-0.042378023
243	0x3d21bc32	0.039486118
244	0xbe053ac7	-0.13010703
245	0xbb396439	-0.0028288497
246	0xbcab092b	-0.020878395
247	0x3e1eebe4	0.15519673
248	0x3deb8f1b	0.115019046
249	0xbdecec9a	-0.11568566
250	0x3dc2bbfc	0.095085114
251	0x3d814409	0.06311805
252	0x3d4debeb	0.050273817
253	0x3d058fbf	0.03260779
254	0x3c4b9c39	0.012427383
255	0x3d06ed02	0.032940872

conv1.bias f4 [16]
0	0xbd7ed15d	-0.062211383
1	0x3cecd08c	0.028908037
2	0xbd477c31	-0.048702423
3	0xbd186141	-0.037202124
4	0xbd316d64	-0.043317214
5	0xbd74715f	-0.05967843
6	0x3c2954ef	0.010335191
7	0xbcb6c4cb	-0.022310635
8	0xbcebd8a9	-0.028789835
9	0x3d4cd5ec	0.0500087
10	0x3c5b31ca	0.01337857
11	0x3cdd4116	0.027008574
12	0xbbb4b52a	-0.0055147605
13	0xbc0d4969	-0.008623459
14	0xbd36607a	-0.0445256
15	0x3c065879	0.008199804

conv2.weight f4 [64, 16, 5, 5]
0	0x3cbea055	0.023269812
1	0x3c473616	0.012158891
2	0x3c2a85b2	0.010407852
3	0x3dc4a962	0.0960262
4	0x3d7e85cf	0.06213933
5	0x3bdc648f	0.0067258547
6	0x3a1bdc02	0.00059455645
7	0x3cadd0ad	0.021217668
8	0x3bb4b414	0.005514631
9	0xbc8c69e9	-0.017140346
10	0x3bff3b10	0.007789023
11	0x3dd0d65e	0.10197137
12	0xbd596787	-0.053077247
13	0x3c8ea785	0.017413864
14	0x3d956351	0.07294334
15	0x3b048853	0.0020222857
16	0x3d0613ae	0.03273361
17	0x3d924845	0.071426906
18	0x3dcd4f4b	0.100248896
19	0x3d6a691b	0.057229143
20	0xbc0b70c7	-0.008510775
21	0x3d89d4e2	0.06730057
22	0x3d0c1f2e	0.034209423
23	0x3c806a85	0.015675792
24	0xbd4c0b0e	-0.04981523
25	0x3cb21769	0.021739678
26	0xbd075fcf	-0.033050355
27	0xbcba8605	-0.022768984
28	0xbcc2be9c	-0.02377253
29	0x3d0bb998	0.034112543
30	0xbd2f658e	-0.04282146
31	0xbcda4945	-0.026646266
32	0xbab64e7f	-0.0013908892
33	0xbd50e9c2	-0.05100418
34	0xbd610a73	-0.054941606
35	0xbccae812	-0.024768863
36	0xbbd4ce2e	-0.006494305
37	0xbd92b16d	-0.071627475
38	0x3d090c67	0.033459093
39	0xbdbba043	-0.09161427
40	0x3d446a91	0.047953192
41	0xbc1477f5	-0.009061803
42	0xbd6dc0f9	-0.05804536
43	0x3cb2628a	0.021775503
44	0xbd31342a	-0.04326264
45	0xbcaa1244	-0.020760663
46	0x3c7416b0	0.014897987
47	0x3d1ef0f5	0.038804013
48	0xbcc183e9	-0.02362247
49	0x3bdb5548	0.006693516
50	0xbc9d9937	-0.019238098
51	0x3bdfcc2b	0.0068297586
52	0xbce41fd5	-0.02784721
53	0x3d887341	0.06662608
54	0x3d18e372	0.037326284
55	0x3ce8d199	0.028420256
56	0xbadff402	-0.001708627
57	0xbc0bf297	-0.008541725
58	0xbcaf8a54	-0.021428265
59	0xbb5467e2	-0.0032410552
60	0xbc23fae1	-0.010008545
61	0xbc1e996c	-0.009680133
62	0x3cfbb3c5	0.03072537
63	0x3dce39ab	0.10069593
64	0xbd80fd9e	-0.06298374
65	0xbaa475c3	-0.0012547303
66	0x3d026f81	0.03184462
67	0x3d8a6b4c	0.067587465
68	0x3d5fe280	0.054659367
69	0x3d09a5ba	0.033605315
70	0xbc97ca9a	-0.018529225
71	0xbcd1c820	-0.025608122
72	0x3e0a0b19	0.13480796
73	0xbd1d1e8d	-0.038359214
74	0x3cddc387	0.027070774
75	0xbd344c59	-0.044018123
76	0xbc23ad37	-0.009990028
77	0xbb8721a7	-0.0041238847
78	0xbc161245	-0.009159629
79	0xbc29130a	-0.010319481
80	0xbbacedf8	-0.0052773915
81	0x3bd4ea42	0.0064976523
82	0x3cf9ee15	0.030509034
83	0x3cc6bfcf	0.024261383
84	0x3d3bfefb	0.045897465
85	0xbc81c208	-0.015839592
86	0x3db51742	0.08842327
87	0x3b61ded9	0.0034465103
88	0x3c00f283	0.007870319
89	0xbc332832	-0.010934876
90	0x3bd77464	0.006575154
91	0xbaaecc5a	-0.0013336048
92	0x3cbde227	0.023179127
93	0x3db7043c	0.089363545
94	0xbd248d99	-0.0401741
95	0xbc013e32	-0.007888364
96	0x3ce513fc	0.02796363
97	0x3c969696	0.018382352
98	0x3d57cf0a	0.052687682
99	0x3d8173fb	0.0632095
100	0xbd21e084	-0.039520755
101	0xbc3e6646	-0.011621064
102	0xbcb4ae7c	-0.022055857
103	0x3d6cad47	0.057782438
104	0x3cf14e00	0.029456139
105	0xbcb9c2d6	-0.022675913
106	0xbd4eae8b	-0.050459426
107	0x3ce0d5f8	0.027445778
108	0x3c50f85d	0.012754527
109	0x3c41d581	0.011830688
110	0xbd30a261	-0.043123607
111	0xbd096f7f	-0.033553597
112	0x3cf88a70	0.03033945
113	0xbd339346	-0.043841623
114	0xbdc18219	-0.09448642
115	0xbce38f79	-0.027778374
116	0x3d397b7e	0.045283787
117	0x3d65a8db	0.056069236
118	0x3c82c5fb	0.015963545
119	0x3d833bf2	0.06407918
120	0x3d740f02	0.059584625
121	0x3be97d59	0.0071255383
122	0x3bad6402	0.005291463
123	0x3cd838bf	0.026394246
124	0x3cb94f18	0.022620723
125	0x3c295c58	0.010336958
126	0xbce63686	-0.02810217
127	0xbc997ddc	-0.018736772
128	0x3c968bb3	0.01837716
129	0xbccb978c	-0.024852537
130	0x3ce5fe36	0.028075319
131	0x3c889df0	0.016676873
132	0xbd822113	-0.06353965
133	0x3d46cd4c	0.04853563
134	0xbc1d6db7	-0.009608678
135	0xbc963ef6	-0.018340569
136	0x3b97d62a	0.0046336846
137	0x3cb82dea	0.022482831
138	0x3d1e11f9	0.03859136
139	0x3d4f4db5	0.050611217
140	0x3da7e40e	0.08197795
141	0x3df02f70	0.11727798
142	0x3cfa95f3	0.03058908
143	0xbc2eaec2	-0.010661783
144	0x3c06aed7	0.008220396
145	0xbce703e9	-0.028200107
146	0x3d3fab2f	0.046794113
147	0xbd0aa984	-0.03385307
148	0x3d4b58fa	0.0496454
149	0x3d8fa98c	0.070147604
150	0xbd23802f	-0.039917167
151	0xbc83b107	-0.016075624
152	0xbc891d33	-0.016737556
153	0x3c28497c	0.010271426
154	0x3af349cd	0.0018561423
155	0xbace395d	-0.0015733648
156	0x3c394ba5	0.011309539
157	0xbcc72ac8	-0.024312392
158	0xbc6ef064	-0.014583681
159	0x3cdd4d09	0.027014272
160	0x3ca5e3b8	0.020250186
161	0x3d31f86d	0.043449808
162	0xbc9bd579	-0.01902269
163	0x3d53c625	0.051702637
164	0xbccbc3e9	-0.02487369
165	0x3cc8c8d6	0.024509829
166	0x3bf7b6e0	0.007559642
167	0xbc3e8439	-0.011628204
168	0xbb1f7d86	-0.0024336292
169	0x3bba5cfb	0.0056873537
170	0xbc451e24	-0.012031112
171	0xbc05f626	-0.008176362
172	0x3d844f43	0.064604305
173	0x3c58babb	0.013228114
174	0xbc39ff6a	-0.011352399
175	0xbcedc1bc	-0.029023044
176	0x3dc55135	0.0963463
177	0xbd357bc3	-0.04430748
178	0x3d92f47d	0.07175539
179	0xbc83ab46	-0.01607288
180	0xbd7fee34	-0.062483028
181	0xb9a4c6b9	-0.00031428577
182	0xbd488ef0	-0.04896444
183	0x3aef8b03	0.0018275682
184	0xbc6f2f0a	-0.014598617
185	0x38a787d4	7.9884805e-05
186	0x3d33328a	0.04374937
187	0xbd4d5f8c	-0.05013995
188	0x3d1f56d3	0.03890116
189	0xba8f092c	-0.0010912768
190	0x3dbb485b	0.0914466
191	0x3c73a872	0.014871703
192	0xbc8819a6	-0.016613793
193	0x3d5d9ca5	0.054104466
194	0xbc4989b4	-0.012300897
195	0xbc74b43a	-0.0149355475
196	0x3dadfcf6	0.08495514
197	0x3c404879	0.011736029
198	0x3d0131a4	0.03154148
199	0x3ca66564	0.020312019
200	0x3d68ed09	0.05686668
201	0x3c198ea4	0.009372387
202	0x3d5fa2f7	0.054598775
203	0x3c880cb6	0.016607624
204	0x3d902368	0.07038003
205	0x3d3aa5af	0.045568164
206	0x3c19b656	0.009381851
207	0x3c586e87	0.0132099455
208	0x3c5c7d84	0.01345766
209	0xbcd809d7	-0.02637188
210	0xbd21ee18	-0.039533705
211	0xbc15885e	-0.009126751
212	0xbd388e00	-0.045057297
213	0x3c2be212	0.010490911
214	0xbd2d83ea	-0.04236213
215	0x3d382c6d	0.044964243
216	0x3d378601	0.04480553
217	0x375ed740	1.3282348e-05
218	0x3be9d1ac	0.0071355905
219	0xbd155e6c	-0.036467
220	0x3c98feca	0.01867618
221	0x3c22310b	0.009899388
222	0x3cab354b	0.020899436
223	0x3da3c116	0.079958126
224	0xbcf3939a	-0.029733468
225	0x3be9bf64	0.0071334112
226	0x3d08b929	0.033379707
227	0xbd69cbe0	-0.057079196
228	0x3bf8c937	0.007592346
229	0x3cb3afac	0.021934353
230	0x3da709e4	0.08156183
231	0xbd4276a6	-0.047476433
232	0xbd9eff3b	-0.07763525
233	0xbc207e6c	-0.009795766
234	0x3c09d6f9	0.00841307
235	0xbc86cf0d	-0.016456151
236	0xbd78b7b1	-0.060722057
237	0xbd6d783f	-0.057976004
238	0x3d5d7815	0.054069597
239	0xbdb3b5ee	-0.08774935
240	0x3cc9c162	0.024628345
241	0xbd19f092	-0.03758294
242	0xbd79ef2f	-0.06101912
243	0x3be73590	0.0070559457
244	0xba96cc53	-0.0011504985
245	0x3d2123df	0.03934085
246	0xbd7de42a	-0.061985172
247	0x3d39cbd6	0.04536041
248	0x3cd57d94	0.026060857
249	0x3d18fdcd	0.03735142
250	0x3bc955a9	0.0061442447
251	0x3c961297	0.018319411
252	0x3a89cbbb	0.0010512987
253	0xbc2b28ec	-0.010446768
254	0xbcf9a126	-0.03047235
255	0x3d37e800	0.044898987

conv2.bias f4 [64]
0	0xbd5e5ad4	-0.05428584
1	0x3b933338	0.0044921897
2	0x3cda9d48	0.026686326
3	0xbd024d91	-0.031812254
4	0xbb935954	-0.0044967327
5	0xbc7a0af0	-0.015261397
6	0x3c26cdc8	0.010180898
7	0xbd08577a	-0.03328655
8	0x3bf655b3	0.0075175404
9	0x3d615620	0.055013776
10	0xbd32a6e3	-0.043616187
11	0xbc80feb4	-0.015746452
12	0xbcff6bce	-0.031179335
13	0x3d4b2bb0	0.04960221
14	0xbc1326d8	-0.008981429
15	0x3c4e1739	0.012578779
16	0xbcd4583c	-0.02592098
17	0xbcd236c2	-0.025660876
18	0xbcd0a1a3	-0.0254677
19	0x3beb9d44	0.0071903784
20	0xbd33aa06	-0.04386332
21	0x3c60645b	0.013695802
22	0xbc8d2bc9	-0.017232792
23	0xbbc95cb5	-0.0061450847
24	0xbb131cc0	-0.0022447556
25	0xbadcd656	-0.0016848545
26	0xbac0b36b	-0.0014701908
27	0xbd479a27	-0.048730996
28	0x3d4fcbce	0.050731473
29	0x3d0253d5	0.03181823
30	0x3cd5c57f	0.02609515
31	0x3d211099	0.03932247
32	0x3d79a092	0.060944147
33	0x3c61ba75	0.013777365
34	0xbc5744c0	-0.01313895
35	0x3d7e2f65	0.062056918
36	0xbd0e0d62	-0.03468073
37	0xbc735fd9	-0.014854395
38	0x3d1e8420	0.038700223
39	0x3d3f5d76	0.04671999
40	0x3bbb2dbe	0.00571224
41	0x3d66a3e1	0.05630863
42	0x3cbe8cc5	0.023260484
43	0xbcbb37a4	-0.02285368
44	0x3d05183a	0.032493807
45	0x3c8ea738	0.01741372
46	0xbd781eec	-0.060576364
47	0xbc88da28	-0.016705588
48	0x3b981d6a	0.0046421783
49	0xbd52f9ee	-0.051507883
50	0xbbd75a17	-0.006572019
51	0x3d0c373c	0.034232363
52	0x3d6ef19a	0.058335878
53	0xbcf689a9	-0.030094938
54	0xbbe511fb	-0.006990669
55	0xb7b08b1e	-2.1045616e-05
56	0xbd03ea5b	-0.03220592
57	0x3d387f44	0.045043245
58	0xbc3d41ee	-0.011551363
59	0x3c9ae04a	0.018905777
60	0xbc71340f	-0.014721884
61	0x3da77e0c	0.081783384
62	0xbbcad115	-0.0061894753
63	0x3d3d901f	0.046280023

conv3.weight f4 [32, 64, 5, 5]
0	0x3ae0e0b2	0.0017156808
1	0x3a80a4cd	0.000981474
2	0x3b6d18d4	0.0036178129
3	0x3b8ef123	0.004362242
4	0x3852cecc	5.0260496e-05
5	0x3b917d10	0.0044399574
6	0x3c014114	0.007889051
7	0x3bb03514	0.005377421
8	0x3ba9c99e	0.0051815053
9	0xb8a08790	-7.654645e-05
10	0x3d0a3a60	0.033747077
11	0x3ac55c4a	0.0015057412
12	0x3d29656e	0.041356497
13	0x3c95c1de	0.01828092
14	0x3cacc66f	0.021090714
15	0x3d08420d	0.033266116
16	0x3cb9a038	0.022659406
17	0x3cf48d9a	0.029852677
18	0x3d0f010b	0.034913104
19	0xbb5d99fb	-0.0033813703
20	0xba5796ee	-0.00082240894
21	0x3c8ac6f6	0.016940575
22	0x3c65153b	0.0139821125
23	0x3d6d551b	0.05794249
24	0x3c5ac94f	0.01335366
25	0xbb57d16f	-0.0032931229
26	0xbb809e51	-0.003925123
27	0xbb522a43	-0.0032068647
28	0xbafd834c	-0.0019341498
29	0x36f3717e	7.2551766e-06
30	0xbbafe927	-0.00536837
31	0x3c1ba422	0.0094995815
32	0x3b7da0d0	0.0038700588
33	0xbac2406c	-0.0014820225
34	0xb6df1eb0	-6.6494904e-06
35	0x3d053819	0.032524202
36	0x3c4e6b72	0.012598859
37	0x3c5b5048	0.01338584
38	0x3bd0884c	0.006363904
39	0x3d368d2e	0.044568233
40	0x3b0c8e5b	0.0021447155
41	0x3b8ab95e	0.0042335233
42	0x3d119ec2	0.035551794
43	0x3ca5d6c3	0.020244008
44	0x3c99a444	0.018755086
45	0x3c3e80c8	0.0116273835
46	0xbc31ab5d	-0.010844079
47	0x3a9f7027	0.0012164161
48	0x3d1781f3	0.036989164
49	0x3c7e5d32	0.015525149
50	0xbbaf5699	-0.0053508994
51	0xbbbf041b	-0.005829347
52	0xbbb6d719	-0.005579841
53	0xb929f787	-0.00016209307
54	0x3583bb68	9.814803e-07
55	0xbb5596b6	-0.0032591051
56	0xbaa42b81	-0.0012525172
57	0x3a9cf58d	0.0011975035
58	0xbb30b89f	-0.0026965511
59	0x31866000	3.910827e-09
60	0xbaf8c9e9	-0.0018981072
61	0x3cbbf3f4	0.022943474
62	0x3c605ec5	0.01369447
63	0x3c8dc120	0.017304003
64	0xbb04df18	-0.0020274576
65	0x3b6fe41c	0.003660447
66	0xbc01f8c3	-0.007932845
67	0xbc97574e	-0.018474247
68	0x3c2efb88	0.010680087
69	0x3cd36a27	0.025807453
70	0xbc86d4ce	-0.016458895
71	0x3c04dc53	0.00810917
72	0xbc8652e7	-0.016396953
73	0xbc822532	-0.015886877
74	0x3ccca2e5	0.024980018
75	0xba63ff52	-0.00086974085
76	0xba24e9b8	-0.00062909303
77	0xbabb2559	-0.0014278098
78	0xba982c41	-0.0011609868
79	0x3814052d	3.529077e-05
80	0xbb597d10	-0.0033186115
81	0xbb9bd5e4	-0.0047557224
82	0xbadf0189	-0.0017014007
83	0x3b4882ff	0.0030595658
84	0xb6831eaa	-3.907674e-06
85	0xbc3d1ebb	-0.011542971
86	0x3863b2fc	5.428771e-05
87	0xbacd1234	-0.0015645684
88	0x3ca6ffe8	0.020385697
89	0x3ce57170	0.028008193
90	0xbb09517d	-0.0020953112
91	0xbc0401eb	-0.008057098
92	0x3cc24eac	0.023719154
93	0x3c8efcd3	0.01745454
94	0xbb98446d	-0.004646829
95	0x3b989ea4	0.0046575833
96	0xbc22e4c7	-0.00994224
97	0xbd17a626	-0.037023686
98	0x3bc51fc1	0.0060157483
99	0xbcba0742	-0.022708539
100	0x38930cea	7.011912e-05
101	0x3b459aca	0.0030152076
102	0x3b3a8c70	0.0028465055
103	0x3bb5d76f	0.0055493633
104	0x3723b62e	9.757974e-06
105	0xbb83cb47	-0.0040220353
106	0x3b7a4646	0.003818886
107	0x399d9740	0.00030058064
108	0x39938421	0.0002813647
109	0xb6ffbb19	-7.6213732e-06
110	0x3d2cdbd0	0.042201817
111	0x3b6d3675	0.003619579
112	0x3cda4e52	0.026648674
113	0x3cc8483d	0.024448508
114	0x3bb251d0	0.0054418817
115	0x3cb1a51d	0.021685177
116	0xbd228c6a	-0.03968469
117	0x3cbfe686	0.023425352
118	0x3c4bcb12	0.012438552
119	0xbc05c531	-0.00816469
120	0xbaeb067a	-0.0017931007
121	0xbb800e25	-0.003907936
122	0x3be3ccd6	0.0069519086
123	0x3d294ab9	0.041331027
124	0x3c8d35ed	0.017237628
125	0xbb1dfdbf	-0.0024107543
126	0xbb85c2d6	-0.004082064
127	0xbb8e3402	-0.004339696
128	0xbb73a2c9	-0.0037175885
129	0x37e0ff10	2.6821654e-05
130	0xba415133	-0.00073744653
131	0x3acbd83b	0.0015552113
132	0xba73ccfa	-0.0009300258
133	0x3b40291b	0.0029321376
134	0xb795e8cf	-1.7870594e-05
135	0x38acc4d6	8.238263e-05
136	0x3cc1d1c2	0.02365959
137	0xbcaef9e0	-0.021359384
138	0x3d237e19	0.039915178
139	0x3c143983	0.009046915
140	0xbc8caed7	-0.017173214
141	0x3cf3cc05	0.02976037
142	0xbcb901b6	-0.022583824
143	0x3c04cc37	0.008105329
144	0x3c5774d6	0.013150414
145	0xbc11d155	-0.008900006
146	0xbb3e36a5	-0.002902427
147	0x3c02ed6f	0.007991179
148	0x3cdec72e	0.027194586
149	0x3d0f0007	0.034912135
150	0xba12dbf4	-0.00056022336
151	0x3b698500	0.0035632253
152	0x3b088596	0.0020831577
153	0x3b5f5e1b	0.003408319
154	0xb910dce0	-0.00013815193
155	0x3bf66e75	0.0075204917
156	0x3b572e8a	0.0032834136
157	0xbb2b62f2	-0.0026151505
158	0x3bb5d1b9	0.0055486825
159	0x385bb14c	5.237879e-05
160	0x3d346f31	0.044051353
161	0xb9c67962	-0.0003785594
162	0x3c8b628a	0.01701476
163	0x3cff0a7c	0.031132929
164	0x3d21d455	0.039509136
165	0x3b5f9471	0.0034115578
166	0x3d313f07	0.043273
167	0x3cd813ef	0.026376693
168	0x3a33bb86	0.0006856251
169	0xbca2a22e	-0.019852724
170	0x3c0c345a	0.008557403
171	0x3c7b5bae	0.015341682
172	0xbcc06a01	-0.023488047
173	0xbb9c22e4	-0.0047649015
174	0xbd090060	-0.033447623
175	0x3b6f8f95	0.0036554087
176	0x3bd32eff	0.0064448114
177	0x3bac0501	0.00524962
178	0x3be35859	0.006938022
179	0xb74d0479	-1.2219994e-05
180	0x3adc9d9a	0.0016831637
181	0x3a748126	0.0009327106
182	0x3ba1948a	0.0049310373
183	0x3c08b8b3	0.008344817
184	0xb81cef86	-3.7416372e-05
185	0x3cb84e3f	0.022498248
186	0x3bf678be	0.007521718
187	0x3c02b9ff	0.007978915
188	0x3c7df5b8	0.015500478
189	0xbbeb2055	-0.007175485
190	0x3d23b8fc	0.039971337
191	0x3c03b939	0.008039766
192	0x3c83be98	0.016082093
193	0x3cbe1528	0.023203447
194	0xbc141a33	-0.0090394495
195	0xbb8f9e24	-0.0043828655
196	0x3c184cf0	0.009295687
197	0x3c2b40b0	0.010452434
198	0x3c033584	0.008008365
199	0xbcf86450	-0.03032127
200	0xba3e6ab7	-0.00072638266
201	0xbadbd704	-0.0016772454
202	0xbb369308	-0.0027858634
203	0xbba012b8	-0.004885044
204	0xb76137c4	-1.3424029e-05
205	0xbac96aae	-0.0015366876
206	0xba40e557	-0.0007358393
207	0x3b24fd5c	0.0025175428
208	0x3912f896	0.0001401625
209	0xb807a62a	-3.234126e-05
210	0xbca642b2	-0.020295475
211	0x3ac2dcfc	0.0014866884
212	0xbc490e66	-0.012271499
213	0x3cb308db	0.021854809
214	0x3c72c606	0.01481772
215	0x3b0ea843	0.0021767772
216	0x3d3cfaab	0.046137493
217	0x3c805105	0.015663633
218	0x3cb7d1f7	0.022438986
219	0x3bf19357	0.0073723006
220	0x3b676895	0.0035310138
221	0xbbabd42d	-0.005243799
222	0x3cf2600e	0.029586818
223	0xbc5fc2ab	-0.013657252
224	0x3c832a33	0.016011333
225	0x3b14e053	0.0022716715
226	0x3ae32fe5	0.0017332999
227	0xbb40afa7	-0.0029401572
228	0x39d7a2fa	0.00041129423
229	0xb7b1e6c3	-2.1207501e-05
230	0x39186136	0.00014532064
231	0x3b99f98b	0.0046989373
232	0x398a99b5	0.00026435932
233	0x3a9779f3	0.001155673
234	0x36e6f91c	6.8835343e-06
235	0x3d1c7a8b	0.038202804
236	0xbb8e3130	-0.0043393597
237	0x3d04ac37	0.0323908
238	0x3ce55d50	0.027998596
239	0x3c431437	0.011906675
240	0x3ccab7ff	0.02474594
241	0xbc268b7e	-0.0101650935
242	0x3c52d8a8	0.012869038
243	0x3d0842d3	0.033266854
244	0x3ad9a203	0.0016604069
245	0x3cd4ca4d	0.02597537
246	0x3b499121	0.003075667
247	0x3c61e485	0.013787393
248	0x3a308d7f	0.0006734952
249	0x3c0c120c	0.008549225
250	0xbb056f49	-0.002036052
251	0xbb1f2a71	-0.0024286772
252	0xba6a6d70	-0.0008942699
253	0xbb4293b4	-0.0029690089
254	0x37dfcc90	2.6678928e-05
255	0x3ac18007	0.0014762887

conv3.bias f4 [32]
0	0xbc66c7df	-0.014085739
1	0x3c36e7c9	0.01116366
2	0xbd0663a8	-0.032809883
3	0x3bdc4372	0.0067219073
4	0xbaead200	-0.0017915368
5	0x397b633e	0.00023974196
6	0x3c2feade	0.010737149
7	0xbb1580a9	-0.0022812283
8	0xbd16a930	-0.036782444
9	0x3cda6ed7	0.02666418
10	0xba8d6024	-0.0010786098
11	0x3d381962	0.044946082
12	0x3b82bcb2	0.0039897794
13	0xbcaef25c	-0.0213558
14	0x3ca94475	0.020662526
15	0xbd317c93	-0.043331694
16	0x3d4b097d	0.049569596
17	0x3cb0ead3	0.021596348
18	0xbc73606f	-0.0148545345
19	0x3ca6d5f5	0.020365695
20	0x3c3ba966	0.011453962
21	0xbbbba09e	-0.005725934
22	0xbab83e1a	-0.0014056594
23	0x3d17aafc	0.037028298
24	0xbb6aa7e5	-0.003580564
25	0x3c5bbaa0	0.013411194
26	0x3c0cd148	0.008594818
27	0x3d7385d0	0.059453785
28	0xbcfc3cca	-0.030790705
29	0x3cd4ab59	0.025960611
30	0x3c2b0ee9	0.010440567
31	0x3d5ede10	0.054410994

fc_1.weight f4 [8, 32]
0	0x3d827107	0.063692145
1	0x3e8901b1	0.26759103
2	0xbe6f932c	-0.23395985
3	0x3ec92381	0.392849
4	0xbddf04d0	-0.1088959
5	0xbb8d3915	-0.004309783
6	0x3d32ab0f	0.043620165
7	0x3e041847	0.12899886
8	0x3cd08c25	0.025457451
9	0xbd3805b9	-0.044927333
10	0xbcd49342	-0.025949124
11	0x3e035f49	0.12829317
12	0xbd4c1162	-0.049821265
13	0xbe0c311a	-0.13690606
14	0xbd4b8d8f	-0.049695548
15	0xbe98885d	-0.29791537
16	0x3cedb6c2	0.02901781
17	0x3e851b4a	0.25997382
18	0xbcca17e9	-0.024669604
19	0x3dec6685	0.115429915
20	0x3de33ec1	0.11095954
21	0x3e2c3b46	0.16819486
22	0x3bca62bc	0.006176321
23	0x3ebe9c38	0.3722856
24	0x3aebdaeb	0.001799432
25	0xbe0389d4	-0.12845546
26	0x3d9ac0f9	0.07556338
27	0x3cf49ff8	0.029861435
28	0xbec22c90	-0.37924623
29	0x3c8693c8	0.01642789
30	0x3ef3bae4	0.47603524
31	0xbd8b3c25	-0.06798581
32	0x3e02144c	0.12703055
33	0x3d9762ec	0.07391915
34	0xbdaef825	-0.085434236
35	0xbe3683ec	-0.17823762
36	0xbdacea43	-0.084431194
37	0x3e3f6afe	0.18693158
38	0xbcb2aeee	-0.021811929
39	0x3b18f20f	0.0023337638
40	0xbe5543b8	-0.20826614
41	0x3df3e8a8	0.1190961
42	0xba3f2bf9	-0.0007292624
43	0x3d279b8a	0.040919818
44	0x3d82346a	0.063576534
45	0x3c21efd6	0.0098838415
46	0xbd7756e7	-0.06038561
47	0xbe209928	-0.15683424
48	0x3eb4ef65	0.35338894
49	0xbddaaab6	-0.10677092
50	0xbe8f166a	-0.27946788
51	0x3ed6338d	0.41836205
52	0xbdb89d07	-0.090143256
53	0xbe1b505a	-0.1516737
54	0x3c7bba0a	0.015364179
55	0x3cd5686d	0.02605077
56	0x3d09d5d2	0.03365118
57	0x3b1983f6	0.0023424602
58	0xbc63971f	-0.013891011
59	0x3e140aaa	0.14457193
60	0x3d895cdc	0.06707165
61	0xbd723690	-0.059134066
62	0xbd55a039	-0.052154753
63	0x3e7cea3e	0.24698731
64	0x3d42f52f	0.047597107
65	0x3dbe157f	0.09281444
66	0x3d13f9d3	0.036126923
67	0x3e3ce29e	0.18445823
68	0xbc802cea	-0.015646417
69	0x3e910a2c	0.28328073
70	0xbbe9612a	-0.0071221786
71	0xb8aaa9f6	-8.1378894e-05
72	0x3e9289f9	0.2862089
73	0xbd214a18	-0.039377302
74	0xbde12321	-0.109930284
75	0xbd6b0015	-0.057373125
76	0xbe881205	-0.26576248
77	0x3de16ba4	0.11006859
78	0xbf229151	-0.63502985
79	0x3cad74dc	0.021173887
80	0xbded1029	-0.11575348
81	0x3e359e6d	0.17736216
82	0xbe6cd004	-0.23126227
83	0x3d4c0fc9	0.04981974
84	0xbbd4d3f7	-0.0064949947
85	0x3dd03520	0.10166383
86	0xbd69eb9c	-0.05710946
87	0x3d447ba2	0.047969468
88	0xbc8f24a4	-0.017473526
89	0xbe9ad201	-0.30238345
90	0xbbb25367	-0.0054420712
91	0xbe853579	-0.2601736
92	0xbb71161a	-0.0036786855
93	0xbd6f4112	-0.058411665
94	0x3e91074b	0.28325877
95	0xbe906416	-0.2820136
96	0x3e1f8a62	0.15580133
97	0xbdc9c6cb	-0.0985237
98	0xbd0470b3	-0.03233404
99	0x3e421306	0.1895257
100	0x3dcbc335	0.09949342
101	0xbd9c68f7	-0.07637208
102	0x3d901680	0.070355415
103	0xb556ed48	-8.00665e-07
104	0xbd8e1e7d	-0.06939409
105	0xbe523a5e	-0.20530078
106	0xb7943b46	-1.7670576e-05
107	0xbe5fbe6b	-0.21849982
108	0x3df48170	0.11938751
109	0xbccf17bc	-0.025279872
110	0x3ea5ad4d	0.3235878
111	0x3d020b26	0.031748913
112	0xbd3371ea	-0.04380981
113	0xbe42cccb	-0.19023435
114	0x3e56c6eb	0.20974319
115	0xbe6b7572	-0.2299402
116	0xba1c32e2	-0.000595851
117	0xbdf53654	-0.11973253
118	0xb88e4fd1	-6.7859546e-05
119	0xbd9fad4f	-0.07796728
120	0x3e2914a3	0.16511779
121	0xbe111f7f	-0.14172171
122	0xb97ca686	-0.00024094628
123	0xbea3db85	-0.32003418
124	0xbc1a1b77	-0.009405962
125	0xbe3cb393	-0.18427877
126	0xbeb4444a	-0.3520835
127	0x3c81c017	0.015838666
128	0x3e381d3e	0.17979905
129	0x3d11404f	0.03546172
130	0x3e291e86	0.1651555
131	0xbd349c5a	-0.04409442
132	0xbe76c629	-0.2409903
133	0xbc137ab3	-0.009001422
134	0xbb447728	-0.002997825
135	0xbcddc616	-0.027071994
136	0xbdae190d	-0.08500872
137	0xbec2cdf3	-0.38047752
138	0xbe0e9486	-0.13923845
139	0xbe7ddbbf	-0.24790858
140	0x3e4ee6a2	0.20205167
141	0xbca48319	-0.020082043
142	0x3e5a7978	0.21335399
143	0x3dcf197e	0.10112284
144	0xbe5976d6	-0.21236739
145	0xbdbaa1c2	-0.09112884
146	0xbc7a16f3	-0.015264261
147	0xbd2c7771	-0.042106096
148	0xbb8ef026	-0.004362124
149	0x3d82a732	0.06379546
150	0xb7c6c45a	-2.3694873e-05
151	0x3e70e4ef	0.23524831
152	0x3d654fa9	0.055984173
153	0xbe2a39f1	-0.16623665
154	0xbdf3dafe	-0.11907004
155	0xbe4bdbf8	-0.1990813
156	0xbe176313	-0.14783888
157	0xbebfe29a	-0.3747757
158	0x3d851f20	0.06500077
159	0xbecaf6b1	-0.39641336
160	0x3dd27c0b	0.102775656
161	0xbe36d7c4	-0.17855746
162	0x3ecbcab7	0.39803097
163	0x3da1f6a6	0.079083726
164	0x3d905c27	0.07048827
165	0xbe949317	-0.2901847
166	0xbd48d731	-0.049033348
167	0xb85811bd	-5.1514933e-05
168	0xbb5fe53f	-0.003416374
169	0x3df33b1e	0.1187651
170	0x3ec0fc0d	0.376923
171	0x3c79c99c	0.015245821
172	0xbd1bfab9	-0.038080905
173	0xbcfa9223	-0.030587262
174	0xbe0e0bbb	-0.13871662
175	0x3e111a2f	0.14170144
176	0xbe2968c0	-0.16543865
177	0x3d9c412a	0.076296166
178	0xbe082a37	-0.13297354
179	0xbea4e3d7	-0.32205078
180	0xba8544cc	-0.0010167598
181	0xbc33635a	-0.01094898
182	0x3d4dcbfc	0.050243363
183	0xbd8cfbc9	-0.06883962
184	0x3dfe057a	0.12403388
185	0x3db43b8e	0.08800422
186	0xbcb1dbc1	-0.021711232
187	0xbd9c2545	-0.07624296
188	0xbdf66cb2	-0.12032451
189	0x3df2243e	0.11823319
190	0x3e1ebeea	0.15502515
191	0xbe27b0e1	-0.16376068
192	0xbd67b572	-0.056569524
193	0xbeae29cf	-0.34016272
194	0xbd091544	-0.033467546
195	0xbcc77a4e	-0.024350312
196	0xbd918223	-0.071049
197	0x3e6081d6	0.21924528
198	0xba6832fe	-0.0008857696
199	0x35a03c80	1.1938537e-06
200	0x3dd9cbcf	0.106345765
201	0xbe1dbb8e	-0.15403578
202	0xbb8232fb	-0.0039733625
203	0xbe29206e	-0.16516277
204	0xbe65d35d	-0.2244391
205	0x3e81f89d	0.2538499
206	0x3dca6739	0.098829694
207	0xbe7cd556	-0.24690756
208	0x3be8370d	0.0070866407
209	0x3eb67db9	0.35642794
210	0xbd77ab17	-0.0604659
211	0xbea6e26c	-0.3259462
212	0xbab0a92e	-0.0013478154
213	0xbe3416c9	-0.17586817
214	0x3985712e	0.00025452062
215	0x3e925ac3	0.2858487
216	0xb85c9a81	-5.259598e-05
217	0xbd2334f3	-0.03984542
218	0xba00dd5a	-0.00049157965
219	0xbd1ae058	-0.037811607
220	0xbcb4991d	-0.022045666
221	0x3db0781d	0.0861666
222	0xbe29cafc	-0.16581339
223	0xbd95d060	-0.07315135
224	0xbddf2ef5	-0.10897628
225	0xbde7ec94	-0.113244206
226	0x3dd97628	0.1061824
227	0x3ee14e69	0.44005135
228	0x3ea85c6d	0.32883015
229	0xbeaf6534	-0.342569
230	0xbc2180c3	-0.009857359
231	0xba0a682f	-0.0005279807
232	0xbdd37211	-0.10324491
233	0x3e999504	0.29996502
234	0xbbaefd22	-0.0053402344
235	0x3b369a77	0.0027863064
236	0xbd83ecf2	-0.06441678
237	0xbe9050be	-0.281866
238	0x3dad35bf	0.08457517
239	0x3d80fdd5	0.062984146
240	0x3eb9f3fa	0.36318952
241	0x3cefe3d0	0.029283434
242	0xbe59258d	-0.2120573
243	0xbe84cb12	-0.2593618
244	0xbc31b65d	-0.010846701
245	0xbeb55481	-0.35416034
246	0x39658304	0.00021887949
247	0x3da32d4a	0.079676226
248	0x3dcb6757	0.0993182
249	0x3e3832f1	0.17988183
250	0xbda04e31	-0.07827414
251	0x3df878a1	0.12132383
252	0xbe27d035	-0.16388018
253	0x3e083e21	0.1330495
254	0x3d7690cc	0.060196683
255	0x3d98bd59	0.0745799

fc_1.bias f4 [8]
0	0x3d1368cf	0.035988625
1	0x3ce75331	0.028237911
2	0xbd3bbb01	-0.045832638
3	0xbcb09672	-0.021556113
4	0xbcde2a3c	-0.027119748
5	0xbc903f8c	-0.017608427
6	0x3baca210	0.005268343
7	0x3ba09e55	0.004901687
