checkpoints/target3/epoch=1.checkpoint.pth.tar (torch, 317620 bytes, 8 tensors)

conv1.weight f4 [16, 3, 5, 5]
0	0x3e507081	0.20355417
1	0x3e277480	0.16353035
2	0x3d9b9c26	0.07598142
3	0xbe72cde6	-0.23711357
4	0x3d7d72d9	0.061877105
5	0xbe0020cd	-0.12512513
6	0xbbe5efaa	-0.0070170956
7	0xbe531cb1	-0.20616414
8	0xbdf381ad	-0.11889968
9	0x3e22305f	0.15838765
10	0xbd11d5da	-0.035604335
11	0xbe05d967	-0.13071214
12	0xbdef0940	-0.11671686
13	0xbdd688ea	-0.10475333
14	0xbdbf2bf4	-0.09334555
15	0x3dcaf284	0.099095374
16	0x3e4a4fc2	0.19756988
17	0xbce2685e	-0.027637657
18	0xbdabb3fb	-0.08383938
19	0x3c9c7d37	0.019102676
20	0xbd759512	-0.059956618
21	0x3e0a290f	0.13492225
22	0x3dad46cd	0.0846077
23	0x3e1f8423	0.1557775
24	0x3de8e445	0.11371664
25	0x3e0c3687	0.13692676
26	0x3d974123	0.07385471
27	0x3df77f6a	0.12084849
28	0xbd66ce8d	-0.056349326
29	0xbb997bc5	-0.004683944
30	0xbce1749d	-0.027521426
31	0x3da7acd2	0.0818726
32	0xbe39dd14	-0.18150741
33	0xbe099bbe	-0.13438317
34	0xbcf06cc1	-0.029348733
35	0x3e35e5d2	0.1776345
36	0x3d292cec	0.041302606
37	0xbda67b64	-0.08129004
38	0xbc8b736d	-0.017022813
39	0xbdbcd481	-0.092202194
40	0xbe10f82e	-0.14157173
41	0x3e02d62b	0.12777011
42	0xbdca9c81	-0.09893132
43	0xbdbbf504	-0.091775924
44	0xbe17807f	-0.14795111
45	0x3e6f66f0	0.23379111
46	0xbdd42b9b	-0.103598796
47	0xbd3b321b	-0.04570208
48	0xbdd28a13	-0.10280242
49	0xbd98f1f9	-0.074680276
50	0x3c2ddce8	0.01061175
51	0x3d7d994a	0.061913766
52	0xbd824ee9	-0.06362707
53	0x3db1fe23	0.08691051
54	0xbdc31dc8	-0.09527165
55	0xbda1157d	-0.07865427
56	0xbe179bdd	-0.14805551
57	0xbd223959	-0.039605472
58	0xbd5c3c25	-0.053768296
59	0x3d5d66e3	0.0540532
60	0xbc0bbb18	-0.008528493
61	0x3e471c7f	0.19444464
62	0xbe1f08b8	-0.1553067
63	0x3dc1940c	0.09452066
64	0x3e0314f6	0.12800965
65	0x3dd2b2e0	0.10288024
66	0x3e7dd6c9	0.24788965
67	0x3d22da83	0.03975917
68	0x3bcee0dc	0.0063134264
69	0xbd21bb96	-0.039485537
70	0xbdc07480	-0.093972206
71	0x3e183ba1	0.14866497
72	0xbc9b7be0	-0.018979967
73	0x3d299f11	0.041411463
74	0xbbada022	-0.0052986303
75	0x3caf5c7e	0.021406408
76	0x3d2a8bf3	0.041637372
77	0xbda84d94	-0.08217922
78	0xbe78e186	-0.2430478
79	0xbdbb0ee3	-0.09133699
80	0xbce18e7a	-0.027533758
81	0xbd66132f	-0.05617064
82	0xbe23c4f3	-0.15993099
83	0xbdacf5d2	-0.08445324
84	0x3d091a47	0.033472326
85	0x3ce86cbb	0.02837216
86	0x3db1db05	0.08684353
87	0xbd03ed4c	-0.032208726
88	0x3d1c7f47	0.03820732
89	0xbd8ea36b	-0.06964763
90	0xbe0547a9	-0.13015617
91	0x3cf52ac3	0.029927617
92	0xbe574de1	-0.21025802
93	0xbdf01ba3	-0.11724021
94	0x3de3d47e	0.11124514
95	0x3c8a63ad	0.016893232
96	0xbe902aa2	-0.28157526
97	0x3c8d17dc	0.017223291
98	0x3d496ac8	0.0491741
99	0xbc9c5c4b	-0.019086977
100	0x3d9bb953	0.07603707
101	0x3d998a36	0.07497065
102	0x3df8baf9	0.12145037
103	0xbd1daa1d	-0.03849231
104	0xbc1ffa3a	-0.0097642485
105	0x3da752be	0.08170079
106	0x3d589dd9	0.05288491
107	0x3ccae5c2	0.02476776
108	0x3d0518f5	0.032494504
109	0x3e0a5073	0.13507251
110	0x3b749d95	0.0037325372
111	0xbcda81a4	-0.026673146
112	0xbe1b874a	-0.15188327
113	0xbc605cf9	-0.013694041
114	0xbd58b787	-0.0529094
115	0x3d49f3c3	0.049304735
116	0x3d94af0d	0.07259951
117	0x391c529e	0.00014908097
118	0xbd32c31d	-0.043643106
119	0x3d750192	0.05981595
120	0xbbb036dd	-0.005377634
121	0x3cc11204	0.02356816
122	0x3c6794ae	0.014134569
123	0x3da0a6ca	0.078443125
124	0x3dee373f	0.11631631
125	0x3d7b117c	0.06129597
126	0x3dd1cae2	0.10243775
127	0x3d8b2dd9	0.06795854
128	0x3e5a21a8	0.21301901
129	0x3df4a4cc	0.11945495
130	0xbdfd20ca	-0.1235977
131	0xbdb1a424	-0.086738855
132	0x3bf46749	0.0074586016
133	0x3e3af3ca	0.1825706
134	0x3daa4be0	0.08315253
135	0x3d9bc9aa	0.07606824
136	0x3e082923	0.13296942
137	0x3c1fa603	0.00974417
138	0xbe2de982	-0.16983607
139	0x3de47e67	0.11156922
140	0xbcca9343	-0.024728423
141	0x3de9716c	0.11398587
142	0xbd8ab756	-0.0677325
143	0x3d8b81c3	0.068118595
144	0xbdab5c4e	-0.08367215
145	0x3dcce19e	0.100039706
146	0x3e2c37ec	0.16818208
147	0x3e19ffac	0.15038937
148	0x3cf97052	0.030449066
149	0xbc5846f2	-0.013200508
150	0xbce87dac	-0.028380238
151	0x3d2deb08	0.04246047
152	0x3cdd30b3	0.02700076
153	0x3dafc736	0.08582918
154	0xbd1ebd5b	-0.038754802
155	0x3e31f3d9	0.17378177
156	0xbe84293f	-0.25812718
157	0xbd71c4f4	-0.05902572
158	0xbe097a1c	-0.13425487
159	0x3da72464	0.08161238
160	0xbe60ec27	-0.21965085
161	0xb949d643	-0.00019248672
162	0xbc4742c7	-0.012161917
163	0xbd17c567	-0.037053492
164	0x3d2fc2fa	0.042910554
165	0xbdba07de	-0.09083532
166	0x3b6550a9	0.0034990704
167	0xbde13bcd	-0.10997734
168	0xbe173209	-0.1476518
169	0x3e328184	0.17432219
170	0x3e0b2275	0.13587363
171	0xb8bf955a	-9.1354086e-05
172	0xbe16ab40	-0.14713764
173	0x3dd76a47	0.10518318
174	0x3e0093b9	0.12556352
175	0x3e81aa05	0.25325027
176	0x3d1a2d88	0.03764108
177	0x3be7dc38	0.0070758127
178	0xbdc08c66	-0.09401779
179	0xbc9b8574	-0.018984534
180	0xbd98d591	-0.074626096
181	0xbe259831	-0.16171338
182	0xbe032945	-0.12808712
183	0xbd85eda3	-0.06539466
184	0xbd620c8c	-0.055187747
185	0xbe2ff241	-0.17182256
186	0xbe5cf000	-0.21575928
187	0x3b2eabca	0.0026652687
188	0x3dcebc27	0.10094481
189	0xbd261b87	-0.040553596
190	0x3d7c0ad2	0.061533757
191	0x3d78734b	0.060656827
192	0x3e33ea21	0.17569782
193	0xbdb059a0	-0.086108446
194	0x3e04aa98	0.12955701
195	0xbca1b80e	-0.019741084
196	0xbdf6663b	-0.12031218
197	0x3d1948b4	0.03742285
198	0x3d8bfbb2	0.068351164
199	0x3e33279a	0.17495576
200	0x3dbd9731	0.09257353
201	0x3e70abb5	0.23503001
202	0xbd6e43f8	-0.05817029
203	0xbdd76a5a	-0.10518332
204	0x3cbd41a8	0.023102596
205	0x3df4f80a	0.11961372
206	0x3dfa620a	0.12225731
207	0x3ce7128b	0.028207084
208	0xbdc615a5	-0.09672097
209	0xbdd6e32d	-0.10492549
210	0xbd8ab128	-0.06772071
211	0xbda5f199	-0.08102722
212	0x3b48af8c	0.0030622212
213	0x3d1e29b2	0.038613982
214	0xbba9f07b	-0.005186138
215	0xbe792dcf	-0.24333881
216	0xbd5e28e3	-0.05423821
217	0x3dc67c33	0.09691658
218	0xbe3c2867	-0.18374787
219	0x3e2cf3f3	0.16889934
220	0x3d340178	0.043946713
221	0xbd7227eb	-0.0591201
222	0x3db92733	0.0904068
223	0x3e304f09	0.1721765
224	0x3c7cbfca	0.015426585
225	0x3e397c68	0.18113863
226	0x3cf0ee74	0.029410578
227	0xbddfdc93	-0.10930743
228	0xbda9c461	-0.082894094
229	0xbd05cc67	-0.032665636
230	0x3d5c65c4	0.05380799
231	0x3e6430ca	0.22284237
232	0xbb5e7686	-0.0033945157
233	0xbdf8d6d4	-0.1215035
234	0xbe8075fb	-0.25090012
235	0xbdd75225	-0.10513715
236	0x3c95b1fe	0.01827335
237	0x3c4319b4	0.011907984
238	0xbb443eef	-0.0029944738
239	0xbbf72231	-0.0075419177
240	0xbdc1d742	-0.09464885
241	0x3d20b48c	0.039234683
242	0xbd2d9494	-0.042378023
243	0x3d21bc32	0.039486118
244	0xbe053ac7	-0.13010703
245	0xbb396439	-0.0028288497
246	0xbcab092b	-0.020878395
247	0x3e1eebe4	0.15519673
248	0x3deb8f1b	0.115019046
249	0xbdecec9a	-0.11568566
250	0x3dc2bbfc	0.095085114
251	0x3d814409	0.06311805
252	0x3d4debeb	0.050273817
253	0x3d058fbf	0.03260779
254	0x3c4b9c39	0.012427383
255	0x3d06ed02	0.032940872

conv1.bias f4 [16]
0	0xbd7ed15d	-0.062211383
1	0x3cecd08c	0.028908037
2	0xbd477c31	-0.048702423
3	0xbd186141	-0.037202124
4	0xbd316d64	-0.043317214
5	0xbd74715f	-0.05967843
6	0x3c2954ef	0.010335191
7	0xbcb6c4cb	-0.022310635
8	0xbcebd8a9	-0.028789835
9	0x3d4cd5ec	0.0500087
10	0x3c5b31ca	0.01337857
11	0x3cdd4116	0.027008574
12	0xbbb4b52a	-0.0055147605
13	0xbc0d4969	-0.008623459
14	0xbd36607a	-0.0445256
15	0x3c065879	0.008199804

conv2.weight f4 [64, 16, 5, 5]
0	0x3cbea055	0.023269812
1	0x3c473616	0.012158891
2	0x3c2a85b2	0.010407852
3	0x3dc4a962	0.0960262
4	0x3d7e85cf	0.06213933
5	0x3bdc648f	0.0067258547
6	0x3a1bdc02	0.00059455645
7	0x3cadd0ad	0.021217668
8	0x3bb4b414	0.005514631
9	0xbc8c69e9	-0.017140346
10	0x3bff3b10	0.007789023
11	0x3dd0d65e	0.10197137
12	0xbd596787	-0.053077247
13	0x3c8ea785	0.017413864
14	0x3d956351	0.07294334
15	0x3b048853	0.0020222857
16	0x3d0613ae	0.03273361
17	0x3d924845	0.071426906
18	0x3dcd4f4b	0.100248896
19	0x3d6a691b	0.057229143
20	0xbc0b70c7	-0.008510775
21	0x3d89d4e2	0.06730057
22	0x3d0c1f2e	0.034209423
23	0x3c806a85	0.015675792
24	0xbd4c0b0e	-0.04981523
25	0x3cb21769	0.021739678
26	0xbd075fcf	-0.033050355
27	0xbcba8605	-0.022768984
28	0xbcc2be9c	-0.02377253
29	0x3d0bb998	0.034112543
30	0xbd2f658e	-0.04282146
31	0xbcda4945	-0.026646266
32	0xbab64e7f	-0.0013908892
33	0xbd50e9c2	-0.05100418
34	0xbd610a73	-0.054941606
35	0xbccae812	-0.024768863
36	0xbbd4ce2e	-0.006494305
37	0xbd92b16d	-0.071627475
38	0x3d090c67	0.033459093
39	0xbdbba043	-0.09161427
40	0x3d446a91	0.047953192
41	0xbc1477f5	-0.009061803
42	0xbd6dc0f9	-0.05804536
43	0x3cb2628a	0.021775503
44	0xbd31342a	-0.04326264
45	0xbcaa1244	-0.020760663
46	0x3c7416b0	0.014897987
47	0x3d1ef0f5	0.038804013
48	0xbcc183e9	-0.02362247
49	0x3bdb5548	0.006693516
50	0xbc9d9937	-0.019238098
51	0x3bdfcc2b	0.0068297586
52	0xbce41fd5	-0.02784721
53	0x3d887341	0.06662608
54	0x3d18e372	0.037326284
55	0x3ce8d199	0.028420256
56	0xbadff402	-0.001708627
57	0xbc0bf297	-0.008541725
58	0xbcaf8a54	-0.021428265
59	0xbb5467e2	-0.0032410552
60	0xbc23fae1	-0.010008545
61	0xbc1e996c	-0.009680133
62	0x3cfbb3c5	0.03072537
63	0x3dce39ab	0.10069593
64	0xbd80fd9e	-0.06298374
65	0xbaa475c3	-0.0012547303
66	0x3d026f81	0.03184462
67	0x3d8a6b4c	0.067587465
68	0x3d5fe280	0.054659367
69	0x3d09a5ba	0.033605315
70	0xbc97ca9a	-0.018529225
71	0xbcd1c820	-0.025608122
72	0x3e0a0b19	0.13480796
73	0xbd1d1e8d	-0.038359214
74	0x3cddc387	0.027070774
75	0xbd344c59	-0.044018123
76	0xbc23ad37	-0.009990028
77	0xbb8721a7	-0.0041238847
78	0xbc161245	-0.009159629
79	0xbc29130a	-0.010319481
80	0xbbacedf8	-0.0052773915
81	0x3bd4ea42	0.0064976523
82	0x3cf9ee15	0.030509034
83	0x3cc6bfcf	0.024261383
84	0x3d3bfefb	0.045897465
85	0xbc81c208	-0.015839592
86	0x3db51742	0.08842327
87	0x3b61ded9	0.0034465103
88	0x3c00f283	0.007870319
89	0xbc332832	-0.010934876
90	0x3bd77464	0.006575154
91	0xbaaecc5a	-0.0013336048
92	0x3cbde227	0.023179127
93	0x3db7043c	0.089363545
94	0xbd248d99	-0.0401741
95	0xbc013e32	-0.007888364
96	0x3ce513fc	0.02796363
97	0x3c969696	0.018382352
98	0x3d57cf0a	0.052687682
99	0x3d8173fb	0.0632095
100	0xbd21e084	-0.039520755
101	0xbc3e6646	-0.011621064
102	0xbcb4ae7c	-0.022055857
103	0x3d6cad47	0.057782438
104	0x3cf14e00	0.029456139
105	0xbcb9c2d6	-0.022675913
106	0xbd4eae8b	-0.050459426
107	0x3ce0d5f8	0.027445778
108	0x3c50f85d	0.012754527
109	0x3c41d581	0.011830688
110	0xbd30a261	-0.043123607
111	0xbd096f7f	-0.033553597
112	0x3cf88a70	0.03033945
113	0xbd339346	-0.043841623
114	0xbdc18219	-0.09448642
115	0xbce38f79	-0.027778374
116	0x3d397b7e	0.045283787
117	0x3d65a8db	0.056069236
118	0x3c82c5fb	0.015963545
119	0x3d833bf2	0.06407918
120	0x3d740f02	0.059584625
121	0x3be97d59	0.0071255383
122	0x3bad6402	0.005291463
123	0x3cd838bf	0.026394246
124	0x3cb94f18	0.022620723
125	0x3c295c58	0.010336958
126	0xbce63686	-0.02810217
127	0xbc997ddc	-0.018736772
128	0x3c968bb3	0.01837716
129	0xbccb978c	-0.024852537
130	0x3ce5fe36	0.028075319
131	0x3c889df0	0.016676873
132	0xbd822113	-0.06353965
133	0x3d46cd4c	0.04853563
134	0xbc1d6db7	-0.009608678
135	0xbc963ef6	-0.018340569
136	0x3b97d62a	0.0046336846
137	0x3cb82dea	0.022482831
138	0x3d1e11f9	0.03859136
139	0x3d4f4db5	0.050611217
140	0x3da7e40e	0.08197795
141	0x3df02f70	0.11727798
142	0x3cfa95f3	0.03058908
143	0xbc2eaec2	-0.010661783
144	0x3c06aed7	0.008220396
145	0xbce703e9	-0.028200107
146	0x3d3fab2f	0.046794113
147	0xbd0aa984	-0.03385307
148	0x3d4b58fa	0.0496454
149	0x3d8fa98c	0.070147604
150	0xbd23802f	-0.039917167
151	0xbc83b107	-0.016075624
152	0xbc891d33	-0.016737556
153	0x3c28497c	0.010271426
154	0x3af349cd	0.0018561423
155	0xbace395d	-0.0015733648
156	0x3c394ba5	0.011309539
157	0xbcc72ac8	-0.024312392
158	0xbc6ef064	-0.014583681
159	0x3cdd4d09	0.027014272
160	0x3ca5e3b8	0.020250186
161	0x3d31f86d	0.043449808
162	0xbc9bd579	-0.01902269
163	0x3d53c625	0.051702637
164	0xbccbc3e9	-0.02487369
165	0x3cc8c8d6	0.024509829
166	0x3bf7b6e0	0.007559642
167	0xbc3e8439	-0.011628204
168	0xbb1f7d86	-0.0024336292
169	0x3bba5cfb	0.0056873537
170	0xbc451e24	-0.012031112
171	0xbc05f626	-0.008176362
172	0x3d844f43	0.064604305
173	0x3c58babb	0.013228114
174	0xbc39ff6a	-0.011352399
175	0xbcedc1bc	-0.029023044
176	0x3dc55135	0.0963463
177	0xbd357bc3	-0.04430748
178	0x3d92f47d	0.07175539
179	0xbc83ab46	-0.01607288
180	0xbd7fee34	-0.062483028
181	0xb9a4c6b9	-0.00031428577
182	0xbd488ef0	-0.04896444
183	0x3aef8b03	0.0018275682
184	0xbc6f2f0a	-0.014598617
185	0x38a787d4	7.9884805e-05
186	0x3d33328a	0.04374937
187	0xbd4d5f8c	-0.05013995
188	0x3d1f56d3	0.03890116
189	0xba8f092c	-0.0010912768
190	0x3dbb485b	0.0914466
191	0x3c73a872	0.014871703
192	0xbc8819a6	-0.016613793
193	0x3d5d9ca5	0.054104466
194	0xbc4989b4	-0.012300897
195	0xbc74b43a	-0.0149355475
196	0x3dadfcf6	0.08495514
197	0x3c404879	0.011736029
198	0x3d0131a4	0.03154148
199	0x3ca66564	0.020312019
200	0x3d68ed09	0.05686668
201	0x3c198ea4	0.009372387
202	0x3d5fa2f7	0.054598775
203	0x3c880cb6	0.016607624
204	0x3d902368	0.07038003
205	0x3d3aa5af	0.045568164
206	0x3c19b656	0.009381851
207	0x3c586e87	0.0132099455
208	0x3c5c7d84	0.01345766
209	0xbcd809d7	-0.02637188
210	0xbd21ee18	-0.039533705
211	0xbc15885e	-0.009126751
212	0xbd388e00	-0.045057297
213	0x3c2be212	0.010490911
214	0xbd2d83ea	-0.04236213
215	0x3d382c6d	0.044964243
216	0x3d378601	0.04480553
217	0x375ed740	1.3282348e-05
218	0x3be9d1ac	0.0071355905
219	0xbd155e6c	-0.036467
220	0x3c98feca	0.01867618
221	0x3c22310b	0.009899388
222	0x3cab354b	0.020899436
223	0x3da3c116	0.079958126
224	0xbcf3939a	-0.029733468
225	0x3be9bf64	0.0071334112
226	0x3d08b929	0.033379707
227	0xbd69cbe0	-0.057079196
228	0x3bf8c937	0.007592346
229	0x3cb3afac	0.021934353
230	0x3da709e4	0.08156183
231	0xbd4276a6	-0.047476433
232	0xbd9eff3b	-0.07763525
233	0xbc207e6c	-0.009795766
234	0x3c09d6f9	0.00841307
235	0xbc86cf0d	-0.016456151
236	0xbd78b7b1	-0.060722057
237	0xbd6d783f	-0.057976004
238	0x3d5d7815	0.054069597
239	0xbdb3b5ee	-0.08774935
240	0x3cc9c162	0.024628345
241	0xbd19f092	-0.03758294
242	0xbd79ef2f	-0.06101912
243	0x3be73590	0.0070559457
244	0xba96cc53	-0.0011504985
245	0x3d2123df	0.03934085
246	0xbd7de42a	-0.061985172
247	0x3d39cbd6	0.04536041
248	0x3cd57d94	0.026060857
249	0x3d18fdcd	0.03735142
250	0x3bc955a9	0.0061442447
251	0x3c961297	0.018319411
252	0x3a89cbbb	0.0010512987
253	0xbc2b28ec	-0.010446768
254	0xbcf9a126	-0.03047235
255	0x3d37e800	0.044898987

conv2.bias f4 [64]
0	0xbd4d1e99	-0.05007801
1	0x3b52fc81	0.003219396
2	0x3ca85815	0.020549813
3	0xbd02f784	-0.03197433
4	0xbc676d86	-0.0141252335
5	0xbcd388d2	-0.025822077
6	0x3c51dfca	0.012809703
7	0xbcf8aba2	-0.030355278
8	0xbba65ed5	-0.005077223
9	0x3d17a89a	0.037026025
10	0xbd2df4e4	-0.042469874
11	0xbc16cf1c	-0.009204652
12	0xbd2e41af	-0.04254311
13	0x3d251c39	0.04031012
14	0xbca803f3	-0.020509696
15	0x3bad4dba	0.0052888067
16	0xbcd6023b	-0.02612411
17	0xbcbc56fa	-0.022990692
18	0xbcc43d6b	-0.023955068
19	0xbc3e88a0	-0.011629254
20	0xbd43c3ce	-0.047794156
21	0x3babbb31	0.005240821
22	0xbc6972d9	-0.014248573
23	0xbb6f6744	-0.0036530057
24	0x3a40abaa	0.00073497987
25	0xbc42ed40	-0.011897385
26	0xbc1418b0	-0.009039089
27	0xbd46e7e1	-0.04856098
28	0x3d54d838	0.051964015
29	0x3c0ff59c	0.008786585
30	0x3ba55e85	0.005046668
31	0x3ae84678	0.0017721197
32	0x3d696054	0.05697663
33	0x3baad781	0.0052136783
34	0xbc11c04e	-0.008895947
35	0x3d2705ea	0.040777124
36	0xbd02248c	-0.031773135
37	0xbcdc1fa0	-0.026870549
38	0x3d011b09	0.031519923
39	0x3cfb869c	0.030703835
40	0x3b2794e3	0.002557092
41	0x3d551d0f	0.052029666
42	0xbbc68221	-0.006057993
43	0xbc8e9de5	-0.017409274
44	0x3c8c261e	0.01710802
45	0x3bceda7b	0.006312666
46	0xbd5da1b5	-0.054109294
47	0xbc51a257	-0.0127950525
48	0xbb00e5e2	-0.001966827
49	0xbd45d4e8	-0.048298746
50	0xbb9ce48f	-0.0047879885
51	0x3d003811	0.03130347
52	0x3d639812	0.055564947
53	0xbcf76a3a	-0.03020202
54	0xbc6bc16c	-0.014389377
55	0xbc3fea0c	-0.011713516
56	0xbd05febe	-0.032713644
57	0x3d16154a	0.036641397
58	0xbcee0a29	-0.02905758
59	0x3cb60c2e	0.022222605
60	0xbc2d0677	-0.010560623
61	0x3d96c255	0.07361285
62	0xbc132ab6	-0.008982351
63	0x3cf315eb	0.029673537

conv3.weight f4 [32, 64, 5, 5]
0	0x3bd5dc6c	0.0065265205
1	0x3af53bf1	0.001870988
2	0x3b1749dd	0.0023084797
3	0xbb03e016	-0.002012258
4	0x3b05a778	0.0020394009
5	0x3b09bf9a	0.0021018744
6	0x3b3aace2	0.0028484394
7	0x3b6b9084	0.0035944292
8	0x3ae86434	0.0017730058
9	0x3ae06c78	0.001712217
10	0x3d110456	0.035404526
11	0xba971294	-0.0011525922
12	0x3d167afd	0.036738385
13	0x3c1f8d2c	0.009738248
14	0x3ce292ad	0.027657831
15	0x3d004ee7	0.031325247
16	0x3c676fcb	0.014125775
17	0x3d0e2ffd	0.034713734
18	0x3d096bfb	0.033550244
19	0xbc39dcd8	-0.011344157
20	0xbaf5112c	-0.0018697134
21	0x3ca5ef3c	0.020255677
22	0x3c5dfb55	0.013548692
23	0x3d82b06c	0.06381306
24	0x3c495fac	0.012290876
25	0x3a51b23b	0.00079992757
26	0xb99fc583	-0.00030474
27	0xbbabc72e	-0.00524225
28	0xbba87c95	-0.0051418045
29	0xb9a1aca6	-0.00030836946
30	0x39a99c3b	0.00032350593
31	0x3a5f691c	0.00085224374
32	0x3a0ea18c	0.00054409425
33	0xbbc779d1	-0.0060875197
34	0x393fff12	0.000183102
35	0x3cecd067	0.028907968
36	0x3c5559b8	0.013021879
37	0x3c5b8ce6	0.013400292
38	0xbaa6ce8b	-0.001272635
39	0x3d5117ec	0.051048204
40	0xbc71f446	-0.014767712
41	0xb97a9032	-0.00023895575
42	0x3d1c033f	0.038089033
43	0x3c912a7d	0.017720455
44	0x3cb3fc22	0.021970812
45	0x3be368cf	0.0069399844
46	0xbc068120	-0.008209497
47	0x38f1d764	0.00011531895
48	0x3d170369	0.036868487
49	0x3c9dc00c	0.019256614
50	0xbb5368e3	-0.0032258562
51	0x3849205c	4.795227e-05
52	0xbaba8bec	-0.0014232374
53	0xbab7db39	-0.0014027125
54	0xb8f89080	-0.00011852477
55	0xbb40d36c	-0.0029422892
56	0xba3049d6	-0.00067248696
57	0xbb385d51	-0.0028131793
58	0xbb8874e2	-0.004164324
59	0x399bfe29	0.00029753268
60	0xbcb91f34	-0.022597887
61	0x3cc7bda1	0.024382414
62	0x3c9f5289	0.019448536
63	0x3cb689f6	0.022282582
64	0xb8915948	-6.930769e-05
65	0xbb400f83	-0.002930612
66	0x3b034c80	0.0020034611
67	0xbca125c8	-0.019671336
68	0x3bfc07e4	0.0076913703
69	0x3d1d340f	0.038379725
70	0xbc94fd08	-0.018187061
71	0x3c91f448	0.017816678
72	0xbc85eaf0	-0.016347378
73	0xbc9ba5da	-0.018999983
74	0x3d2c888b	0.042122405
75	0x3adcf833	0.0016858637
76	0x3b0d1aba	0.0021530823
77	0xb9e85a7c	-0.00044317904
78	0x3b310a19	0.0027014075
79	0x3a7c213c	0.00096179894
80	0x3b2d8598	0.0026477333
81	0x3b9e568d	0.004832095
82	0x39a135b3	0.00030748322
83	0x3b7a3a82	0.0038181846
84	0x398a0005	0.00026321426
85	0xbc35129d	-0.011051801
86	0xbc2da587	-0.010598547
87	0xba9b28fe	-0.0011837778
88	0x3ceab54d	0.028650904
89	0x3d0dbe52	0.03460533
90	0x3bae9cbf	0.005328744
91	0xbbbb4192	-0.0057146037
92	0x3ced858f	0.02899435
93	0x3c84a2cb	0.016190907
94	0xbb45d042	-0.0030183946
95	0xbbf0e4fa	-0.007351515
96	0xbc4fe916	-0.012689849
97	0xbd127ea8	-0.03576532
98	0x3c6baa31	0.0143838385
99	0xbcb7cee5	-0.022437522
100	0x3b49c737	0.0030788907
101	0x3b7917e4	0.0038008625
102	0x3a353c4a	0.0006913586
103	0x3af342ea	0.0018559371
104	0x399ed229	0.0003029269
105	0x3b4155a2	0.0029500504
106	0xb9c044e4	-0.0003667242
107	0x3b1cd9e7	0.002393359
108	0x3b5ae554	0.003340085
109	0x39a75f36	0.0003192366
110	0x3cbe52a0	0.023232758
111	0x3b5609a1	0.0032659548
112	0x3ca25eff	0.019820688
113	0x3bfbb7a4	0.007681804
114	0x3c0bb9ec	0.008528214
115	0x3b3112c1	0.0027019235
116	0xbd2942bf	-0.04132342
117	0x3c9ab565	0.018885324
118	0x3b970eda	0.0046099247
119	0xbc17ecc3	-0.009272757
120	0xbca388f6	-0.019962769
121	0xbbb7bc2c	-0.0056071486
122	0x3bbbb258	0.0057280473
123	0x3d0b6fd2	0.034042187
124	0x3cd2797e	0.025692698
125	0xbadec1c1	-0.0016994999
126	0xbb0e38bd	-0.00217013
127	0x395aa526	0.00020851623
128	0xba45425a	-0.0007524841
129	0xb92552e8	-0.00015766511
130	0xbae61e16	-0.0017556574
131	0x3b601d62	0.00341972
132	0x3afea432	0.0019427596
133	0x39a0a804	0.0003064276
134	0xba0f1782	-0.000545852
135	0x3ba15218	0.0049231164
136	0x3d12ef83	0.035872947
137	0xbca023ba	-0.019548286
138	0x3d422a77	0.04740378
139	0x3c0c41f7	0.008560649
140	0xbcadf1ae	-0.021233406
141	0x3c9b63b2	0.018968437
142	0xbccd4d69	-0.025061326
143	0xbafd690d	-0.0019333676
144	0x3c88ed92	0.016714845
145	0xbb4b9da0	-0.0031069294
146	0xbc1cd80e	-0.009572996
147	0x3b4f5988	0.0031639058
148	0x3cfc4715	0.030795613
149	0x3d25b741	0.040457968
150	0xbac5d6cf	-0.0015093925
151	0x3b723a8d	0.0036961169
152	0x3ac0071e	0.0014650559
153	0x3b867b0a	0.004104023
154	0xbac5ac12	-0.0015081188
155	0x3b15dcfa	0.0022867308
156	0x3b3da9e2	0.002894037
157	0xb910fe0c	-0.0001382755
158	0x3bb0c5bf	0.005394667
159	0x3a93b0c0	0.0011267886
160	0x3d5035dd	0.050832618
161	0xbba27393	-0.004957625
162	0x3c51e806	0.012811666
163	0x3d0bb734	0.034110263
164	0x3d3180fd	0.043335903
165	0xbb10ce79	-0.0022095724
166	0x3d3f4329	0.04669491
167	0x3cdf657d	0.027270073
168	0x3aaea206	0.0013323433
169	0xbcbeda7f	-0.023297546
170	0xbb0e9362	-0.0021755327
171	0x3ca3c05d	0.019989187
172	0xbce1844e	-0.027528908
173	0xbc029452	-0.007969933
174	0xbd1b6fb3	-0.03794832
175	0x3b58cb27	0.0033080073
176	0x3b27ed65	0.0025623676
177	0x3ad3eaae	0.0016167962
178	0x3b849b17	0.0040468085
179	0x3a28d718	0.0006440743
180	0x3bbc7bfc	0.005752085
181	0x3b7ee9a2	0.003889658
182	0x3c13e9d1	0.009027914
183	0x3b3f5b7c	0.0029198816
184	0x3acaee75	0.0015482443
185	0x3caa3fa3	0.020782297
186	0xb8a3df08	-7.8139885e-05
187	0x3c0981b3	0.008392739
188	0x3c47d4d4	0.012196738
189	0xbc14325a	-0.009045208
190	0x3d0d6bed	0.034526754
191	0x3aeced88	0.0018076161
192	0x3c84abdc	0.01619523
193	0x3c5e3f5a	0.013564909
194	0xbc493c58	-0.0122824535
195	0xbc801c80	-0.01563859
196	0x3c9a7721	0.018855633
197	0x3ca54f51	0.020179423
198	0x3bd02426	0.0063519655
199	0xbd0f72aa	-0.03502146
200	0x3b0f22e5	0.0021840867
201	0xba51ec11	-0.0008007894
202	0x3b2e4329	0.0026590324
203	0xbacc4322	-0.0015583972
204	0xb930df17	-0.00016867775
205	0xbb25796e	-0.002524938
206	0x3b0d2474	0.002153662
207	0x3b052b37	0.0020319948
208	0xbaed18cd	-0.0018089056
209	0x3aec6beb	0.0018037533
210	0xbbedd57d	-0.007258116
211	0x3ce6211b	0.028091958
212	0x3b6c0be7	0.0036017837
213	0x3c225396	0.009907624
214	0x3d0b4e65	0.03401031
215	0x3bf31ce1	0.007419214
216	0x3d39ff74	0.045409635
217	0x3c2e68cd	0.010645104
218	0x3c281084	0.010257844
219	0x3ba9ac60	0.0051780194
220	0x3c1a7815	0.009428044
221	0xbc3957bf	-0.011312424
222	0x3ce9f499	0.028559016
223	0xbc8b05b6	-0.016970497
224	0x3ca2ca55	0.01987187
225	0x3b107b10	0.0022046007
226	0x3b1e676a	0.0024170526
227	0x3b0aae36	0.0021160967
228	0xbaf8bb9f	-0.0018976814
229	0x3abfea05	0.0014641887
230	0x3b31687f	0.0027070341
231	0x3b594980	0.0033155382
232	0xbb60f7ce	-0.003432739
233	0x3ae83344	0.0017715474
234	0x3a468f3c	0.0007574444
235	0x3d13b5e0	0.03606212
236	0xbc6c3d59	-0.014418923
237	0x3cfd427c	0.030915491
238	0x3c3d44ae	0.011552019
239	0x3c2dbf01	0.010604621
240	0x3c41e603	0.011834624
241	0xbbd8d066	-0.00661664
242	0xbba3fda2	-0.0050046006
243	0x3c8cbea9	0.017180758
244	0xb82ac8e0	-4.0718238e-05
245	0x3a9b4c7a	0.0011848353
246	0xbc0107b8	-0.007875375
247	0x3c223943	0.009901348
248	0xbcd26e80	-0.025687456
249	0x3ca5432d	0.020173633
250	0xbb3e364c	-0.0029024063
251	0x3b789d00	0.0037935376
252	0xbaa28a86	-0.0012400902
253	0xba7012c4	-0.000915807
254	0x3b05163e	0.0020307447
255	0x3a6baf0b	0.0008990622

conv3.bias f4 [32]
0	0xbc72ff95	-0.014831443
1	0x3baedb36	0.0053361906
2	0xbce57d52	-0.028013859
3	0x3a62be4f	0.0008649574
4	0x3b0c7124	0.0021429742
5	0x3a84d12b	0.0010133138
6	0x3ac372a8	0.001491149
7	0x3a93ef40	0.0011286512
8	0xbd0fbc0d	-0.03509145
9	0x3d097736	0.033560954
10	0xbbb67e3b	-0.005569247
11	0x3d252f74	0.040328458
12	0x3ba89ea1	0.005145863
13	0xbcb32479	-0.021867977
14	0x3c9b77d9	0.018978046
15	0xbd222ddc	-0.039594516
16	0x3d519143	0.051163923
17	0x3c7b775c	0.015348282
18	0xbca4c6ad	-0.020114267
19	0x3c9801cd	0.018555546
20	0x3ab96b72	0.0014146401
21	0xbc6bbffb	-0.014389033
22	0x3ad5d952	0.0016315377
23	0x3cf00170	0.02929756
24	0x3b05662d	0.002035509
25	0x3cb8b064	0.022545047
26	0x3aa6a098	0.0012712656
27	0x3d6ed68a	0.05831007
28	0xbcca014d	-0.024658823
29	0x3cb390c4	0.021919616
30	0x3b02faf6	0.001998601
31	0x3d628dc5	0.055310983

fc_1.weight f4 [8, 32]
0	0x3d7b637a	0.061374165
1	0x3e883d59	0.26609305
2	0xbe757481	-0.23970224
3	0x3ec45022	0.38342386
4	0xbde7d4fa	-0.11319919
5	0xbb4e339e	-0.0031463872
6	0x3cc17e7d	0.023619885
7	0x3e41b5a5	0.18916948
8	0x3cad3b34	0.021146394
9	0xbd255e23	-0.04037298
10	0xbda63a8e	-0.08116637
11	0x3dfc9760	0.1233356
12	0xbd4ae97d	-0.049539078
13	0xbe06f05f	-0.13177632
14	0xbd458b8c	-0.048228785
15	0xbe9ac4a6	-0.30228156
16	0x3cf080ae	0.029358234
17	0x3e7aa0ad	0.24475355
18	0xbd1e63c6	-0.03866937
19	0x3dec4a0d	0.115375616
20	0x3dae97ab	0.08525022
21	0x3e265be3	0.1624599
22	0xbbbd57b4	-0.0057782773
23	0x3ebac8cb	0.36481318
24	0xbc59977c	-0.013280746
25	0xbe05a48a	-0.13051048
26	0x3d82162d	0.06351886
27	0x3cc5d4bb	0.02414929
28	0xbec22390	-0.37917757
29	0x3becac57	0.007222693
30	0x3ef22e54	0.4730097
31	0xbd8fbc0d	-0.0701829
32	0x3dfcebc3	0.123496555
33	0x3d906b8a	0.070517614
34	0xbdb23efd	-0.0870342
35	0xbe3033d9	-0.17207278
36	0xbdb0d68a	-0.0863467
37	0x3e383cc9	0.17991938
38	0xb9204830	-0.00015285681
39	0xb9d6c92a	-0.0004096714
40	0xbe58a5b5	-0.21156962
41	0x3ddba53c	0.10724875
42	0x3cd2562f	0.025675861
43	0x3d2951ae	0.04133766
44	0x3d666415	0.05624779
45	0x3a39c738	0.0007086876
46	0xbd8a7dfc	-0.06762311
47	0xbe245fcf	-0.16052173
48	0x3eb2242f	0.3479323
49	0xbdcc128d	-0.09964476
50	0xbe8c768d	-0.27434197
51	0x3ed467de	0.41485494
52	0xbd84abe8	-0.06478101
53	0xbe1bf48a	-0.15230003
54	0x3d1dee21	0.038557176
55	0x3ce74d45	0.028235087
56	0x3d71cbb0	0.059032142
57	0xbb66be6f	-0.0035208722
58	0x3afe0d1a	0.0019382567
59	0x3e161bda	0.14659062
60	0x3d6bd9ac	0.057580635
61	0xbd5d3c0c	-0.054012343
62	0xbd56bd58	-0.052426666
63	0x3e7aa1ac	0.24475735
64	0x3d58d01a	0.052932836
65	0x3dc9af96	0.098479435
66	0x3d261de1	0.04055584
67	0x3e43565c	0.19075912
68	0xbc42f6a2	-0.011899622
69	0x3e942ec0	0.28941917
70	0xbc96b418	-0.018396422
71	0xba89c44c	-0.0010510772
72	0x3e95b5f1	0.29240373
73	0xbd100442	-0.03516031
74	0xbe31e48e	-0.17372343
75	0xbd5779c9	-0.052606378
76	0xbe86a2f1	-0.2629619
77	0x3deb1ccd	0.11480103
78	0xbf237b6b	-0.63860196
79	0x3cd1c61b	0.02560716
80	0xbde48608	-0.11158377
81	0x3e3c94d4	0.18416148
82	0xbe6a67c3	-0.22891144
83	0x3d637f43	0.055541288
84	0xbc82bef3	-0.015960192
85	0x3ddb02fe	0.1069393
86	0xbdf0d125	-0.11758641
87	0x3d5a3337	0.0532715
88	0xbd90c44f	-0.07068693
89	0xbe9b0f95	-0.30285326
90	0x3afa0e14	0.0019077682
91	0xbe83a7d5	-0.25713983
92	0x3a35252c	0.0006910141
93	0xbd60cf8e	-0.05488544
94	0x3e95e9a1	0.29279807
95	0xbe8f785f	-0.28021523
96	0x3e256ae7	0.16154061
97	0xbdc867e5	-0.09785441
98	0xbcf839dc	-0.030301027
99	0x3e4847a3	0.19558577
100	0x3dd566c5	0.10419992
101	0xbd98ce81	-0.074612625
102	0x3e0736c7	0.1320449
103	0xb9891275	-0.00026144428
104	0xbd8b89c6	-0.068133876
105	0xbe5ea85e	-0.21743914
106	0x3a2c88d6	0.00065816694
107	0xbe62754c	-0.22115058
108	0x3e00326e	0.12519237
109	0xbcbd2dfc	-0.023093216
110	0x3ea990c8	0.33118272
111	0x3d0df094	0.03465326
112	0xbd2b2e4f	-0.04179221
113	0xbe4a33c2	-0.19746307
114	0x3e5be585	0.21474274
115	0xbe6f1d7d	-0.23351093
116	0x3a21362a	0.00061497337
117	0xbdf285a9	-0.118419
118	0x3d19a1cd	0.03750782
119	0xbd9cb5bc	-0.076518506
120	0x3e6c1070	0.23053145
121	0xbe12d316	-0.14338335
122	0x3abd28cb	0.0014431713
123	0xbea944e8	-0.33060384
124	0xbbe36efc	-0.0069407206
125	0xbe3e9a14	-0.18613464
126	0xbec7986e	-0.38983482
127	0x3c9e4db0	0.019324154
128	0x3e3f8a84	0.18705183
129	0x3d2ab1a2	0.04167331
130	0x3e2f33e4	0.17109638
131	0xbd254e83	-0.040358078
132	0xbe7de158	-0.24792993
133	0xbb81500f	-0.0039463113
134	0xbc9120f3	-0.017715907
135	0xbdaa1ca1	-0.08306242
136	0xbda95356	-0.08267848
137	0xbec88756	-0.39165753
138	0xbe50e9dd	-0.20401712
139	0xbe7bd035	-0.24591143
140	0x3e565275	0.20929892
141	0xbc86f748	-0.016475335
142	0x3e616777	0.22012125
143	0x3dd930b9	0.10604996
144	0xbe57df42	-0.2108126
145	0xbdb5d92c	-0.08879313
146	0xbc3bb098	-0.011455677
147	0xbd179f29	-0.03701702
148	0xbd193fdf	-0.037414428
149	0x3d8d84f1	0.06910122
150	0xb9ccc663	-0.00039057722
151	0x3e7820b4	0.24231225
152	0x3dee4483	0.11634161
153	0xbe2a9578	-0.1665858
154	0xbe3b8d4d	-0.1831562
155	0xbe4907ba	-0.19631854
156	0xbe141d45	-0.1446429
157	0xbec2fa75	-0.3808171
158	0x3d942d41	0.07235194
159	0xbecdd7df	-0.4020376
160	0x3ddc95bb	0.10770746
161	0xbe35f5c7	-0.17769538
162	0x3ecf5246	0.40492457
163	0x3daab78a	0.083357885
164	0x3d98839a	0.07446976
165	0xbe9463d0	-0.289824
166	0xbdde3f63	-0.10851934
167	0x3ad4afff	0.0016226767
168	0xba0603af	-0.0005112243
169	0x3e000216	0.12500796
170	0x3ee3a48b	0.44461474
171	0x3c9dfe6d	0.019286359
172	0xbd0e7969	-0.034783754
173	0xbce406d9	-0.027835296
174	0xbe0cfd5e	-0.13768527
175	0x3e152c27	0.14567624
176	0xbe28398b	-0.16428201
177	0x3da86e44	0.082241565
178	0xbe07035d	-0.13184877
179	0xbea5f013	-0.32409725
180	0xbc1cf023	-0.009578737
181	0xbbf2ef7e	-0.0074138036
182	0x3de13deb	0.10998138
183	0xbd86d058	-0.06582707
184	0x3e40dbb7	0.18833815
185	0x3dbcabde	0.092124686
186	0xbd9bf8a1	-0.076157816
187	0xbd960b8e	-0.07326423
188	0xbdf150eb	-0.11783012
189	0x3dfb1b6c	0.1226109
190	0x3e29f879	0.16598691
191	0xbe26ea79	-0.16300382
192	0xbd5ce081	-0.05392504
193	0xbeb0e731	-0.34551385
194	0xbcff4489	-0.03116061
195	0xbcb30f9a	-0.021858025
196	0xbd96780e	-0.07347117
197	0x3e6763ab	0.22596614
198	0xb9a91c40	-0.0003225524
199	0xb9ed6e62	-0.00045286404
200	0x3de2d761	0.110762365
201	0xbe2580e5	-0.1616245
202	0xbd48f782	-0.049064167
203	0xbe28ad9c	-0.16472477
204	0xbe69a31d	-0.22816129
205	0x3e84a88d	0.25909844
206	0x3dd359b3	0.10319843
207	0xbe7c57d8	-0.24642885
208	0x3c37e630	0.011224315
209	0x3ebc481f	0.36773774
210	0xbd6f9dea	-0.058500208
211	0xbeab6e79	-0.3348272
212	0xbc9000d6	-0.017578524
213	0xbe32c424	-0.17457634
214	0x3c905fdb	0.017623832
215	0x3e96118d	0.29310265
216	0xbb5c1be2	-0.0033585955
217	0xbd1bb31b	-0.038012605
218	0xba1cd0e5	-0.00059820554
219	0xbd0e9270	-0.034807622
220	0xbc9d7081	-0.019218685
221	0x3db9e366	0.09076576
222	0xbe354354	-0.17701465
223	0xbd938512	-0.072031155
224	0xbdd64e48	-0.1046415
225	0xbdde70db	-0.10861369
226	0x3de2578a	0.11051853
227	0x3ee5020a	0.44728118
228	0x3eaba1fc	0.33522022
229	0xbeae599c	-0.34052742
230	0xb936407c	-0.00017380895
231	0x3cc4e1ed	0.024033511
232	0xbdcede07	-0.10100942
233	0x3e9ddb7c	0.30831516
234	0xbd54d934	-0.051964954
235	0x3c0339a9	0.008009353
236	0xbd75dbae	-0.060023956
237	0xbe8fdcae	-0.28098053
238	0x3db7903d	0.08963058
239	0x3d893363	0.06699254
240	0x3ebe026e	0.3711123
241	0x3d0f9ef6	0.035063706
242	0xbe575bf0	-0.21031165
243	0xbe833a82	-0.25630575
244	0x3adbbe8a	0.0016765159
245	0xbeb41e0f	-0.35179183
246	0xbd16969b	-0.036764722
247	0x3db14034	0.08654824
248	0x3e268a3e	0.16263673
249	0x3e3d2fea	0.18475309
250	0xbe0ee79b	-0.13955538
251	0x3e033e8a	0.12816826
252	0xbe24a5c6	-0.16078863
253	0x3e0ce4a7	0.13759099
254	0x3d8ce143	0.06878903
255	0x3da4c096	0.08044545

fc_1.bias f4 [8]
0	0x3ce934f6	0.028467637
1	0x3cf22e07	0.029562963
2	0xbd2ad9e6	-0.04171171
3	0xbc9fa240	-0.019486547
4	0xbcbc491e	-0.022984084
5	0xbc6d3473	-0.014477837
6	0x3c102692	0.008798258
7	0x3c1cfa24	0.009581123
