checkpoints/target3/epoch=10.checkpoint.pth.tar (torch, 320512 bytes, 8 tensors)

conv1.weight f4 [16, 3, 5, 5]
0.20355417 0.16353035 0.07598142 -0.23711357 0.061877105 -0.12512513 -0.0070170956 -0.20616414
-0.11889968 0.15838765 -0.035604335 -0.13071214 -0.11671686 -0.10475333 -0.09334555 0.099095374
0.19756988 -0.027637657 -0.08383938 0.019102676 -0.059956618 0.13492225 0.0846077 0.1557775
0.11371664 0.13692676 0.07385471 0.12084849 -0.056349326 -0.004683944 -0.027521426 0.0818726
-0.18150741 -0.13438317 -0.029348733 0.1776345 0.041302606 -0.08129004 -0.017022813 -0.092202194
-0.14157173 0.12777011 -0.09893132 -0.091775924 -0.14795111 0.23379111 -0.103598796 -0.04570208
-0.10280242 -0.074680276 0.01061175 0.061913766 -0.06362707 0.08691051 -0.09527165 -0.07865427
-0.14805551 -0.039605472 -0.053768296 0.0540532 -0.008528493 0.19444464 -0.1553067 0.09452066
0.12800965 0.10288024 0.24788965 0.03975917 0.0063134264 -0.039485537 -0.093972206 0.14866497
-0.018979967 0.041411463 -0.0052986303 0.021406408 0.041637372 -0.08217922 -0.2430478 -0.09133699
-0.027533758 -0.05617064 -0.15993099 -0.08445324 0.033472326 0.02837216 0.08684353 -0.032208726
0.03820732 -0.06964763 -0.13015617 0.029927617 -0.21025802 -0.11724021 0.11124514 0.016893232
-0.28157526 0.017223291 0.0491741 -0.019086977 0.07603707 0.07497065 0.12145037 -0.03849231
-0.0097642485 0.08170079 0.05288491 0.02476776 0.032494504 0.13507251 0.0037325372 -0.026673146
-0.15188327 -0.013694041 -0.0529094 0.049304735 0.07259951 0.00014908097 -0.043643106 0.05981595
-0.005377634 0.02356816 0.014134569 0.078443125 0.11631631 0.06129597 0.10243775 0.06795854
0.21301901 0.11945495 -0.1235977 -0.086738855 0.0074586016 0.1825706 0.08315253 0.07606824
0.13296942 0.00974417 -0.16983607 0.11156922 -0.024728423 0.11398587 -0.0677325 0.068118595
-0.08367215 0.100039706 0.16818208 0.15038937 0.030449066 -0.013200508 -0.028380238 0.04246047
0.02700076 0.08582918 -0.038754802 0.17378177 -0.25812718 -0.05902572 -0.13425487 0.08161238
-0.21965085 -0.00019248672 -0.012161917 -0.037053492 0.042910554 -0.09083532 0.0034990704 -0.10997734
-0.1476518 0.17432219 0.13587363 -9.1354086e-05 -0.14713764 0.10518318 0.12556352 0.25325027
0.03764108 0.0070758127 -0.09401779 -0.018984534 -0.074626096 -0.16171338 -0.12808712 -0.06539466
-0.055187747 -0.17182256 -0.21575928 0.0026652687 0.10094481 -0.040553596 0.061533757 0.060656827
0.17569782 -0.086108446 0.12955701 -0.019741084 -0.12031218 0.03742285 0.068351164 0.17495576
0.09257353 0.23503001 -0.05817029 -0.10518332 0.023102596 0.11961372 0.12225731 0.028207084
-0.09672097 -0.10492549 -0.06772071 -0.08102722 0.0030622212 0.038613982 -0.005186138 -0.24333881
-0.05423821 0.09691658 -0.18374787 0.16889934 0.043946713 -0.0591201 0.0904068 0.1721765
0.015426585 0.18113863 0.029410578 -0.10930743 -0.082894094 -0.032665636 0.05380799 0.22284237
-0.0033945157 -0.1215035 -0.25090012 -0.10513715 0.01827335 0.011907984 -0.0029944738 -0.0075419177
-0.09464885 0.039234683 -0.042378023 0.039486118 -0.13010703 -0.0028288497 -0.020878395 0.15519673
0.115019046 -0.11568566 0.095085114 0.06311805 0.050273817 0.03260779 0.012427383 0.032940872
00000000: 8170 503e 8074 273e 269c 9b3d e6cd 72be
00000010: d972 7d3d cd20 00be aaef e5bb b11c 53be
00000020: ad81 f3bd 5f30 223e dad5 11bd 67d9 05be
00000030: 4009 efbd ea88 d6bd f42b bfbd 84f2 ca3d
00000040: c24f 4a3e 5e68 e2bc fbb3 abbd 377d 9c3c
00000050: 1295 75bd 0f29 0a3e cd46 ad3d 2384 1f3e
00000060: 45e4 e83d 8736 0c3e 2341 973d 6a7f f73d
00000070: 8dce 66bd c57b 99bb 9d74 e1bc d2ac a73d
00000080: 14dd 39be be9b 09be c16c f0bc d2e5 353e
00000090: ec2c 293d 647b a6bd 6d73 8bbc 81d4 bcbd
000000a0: 2ef8 10be 2bd6 023e 819c cabd 04f5 bbbd
000000b0: 7f80 17be f066 6f3e 9b2b d4bd 1b32 3bbd
000000c0: 138a d2bd f9f1 98bd e8dc 2d3c 4a99 7d3d
000000d0: e94e 82bd 23fe b13d c81d c3bd 7d15 a1bd
000000e0: dd9b 17be 5939 22bd 253c 5cbd e366 5d3d
000000f0: 18bb 0bbc 7f1c 473e b808 1fbe 0c94 c13d
00000100: f614 033e e0b2 d23d c9d6 7d3e 83da 223d
00000110: dce0 ce3b 96bb 21bd 8074 c0bd a13b 183e
00000120: e07b 9bbc 119f 293d 22a0 adbb 7e5c af3c
00000130: f38b 2a3d 944d a8bd 86e1 78be e30e bbbd
00000140: 7a8e e1bc 2f13 66bd f3c4 23be d2f5 acbd
00000150: 471a 093d bb6c e83c 05db b13d 4ced 03bd
00000160: 477f 1c3d 6ba3 8ebd a947 05be c32a f53c
00000170: e14d 57be a31b f0bd 7ed4 e33d ad63 8a3c
00000180: a22a 90be dc17 8d3c c86a 493d 4b5c 9cbc
00000190: 53b9 9b3d 368a 993d f9ba f83d 1daa 1dbd
000001a0: 3afa 1fbc be52 a73d d99d 583d c2e5 ca3c
000001b0: f518 053d 7350 0a3e 959d 743b a481 dabc
000001c0: 4a87 1bbe f95c 60bc 87b7 58bd c3f3 493d
000001d0: 0daf 943d 9e52 1c39 1dc3 32bd 9201 753d
000001e0: dd36 b0bb 0412 c13c ae94 673c caa6 a03d
000001f0: 3f37 ee3d 7c11 7b3d e2ca d13d d92d 8b3d
00000200: a821 5a3e cca4 f43d ca20 fdbd 24a4 b1bd
00000210: 4967 f43b caf3 3a3e e04b aa3d aac9 9b3d
00000220: 2329 083e 03a6 1f3c 82e9 2dbe 677e e43d
00000230: 4393 cabc 6c71 e93d 56b7 8abd c381 8b3d
00000240: 4e5c abbd 9ee1 cc3d ec37 2c3e acff 193e
00000250: 5270 f93c f246 58bc ac7d e8bc 08eb 2d3d
00000260: b330 dd3c 36c7 af3d 5bbd 1ebd d9f3 313e
00000270: 3f29 84be f4c4 71bd 1c7a 09be 6424 a73d
00000280: 27ec 60be 43d6 49b9 c742 47bc 67c5 17bd
00000290: fac2 2f3d de07 babd a950 653b cd3b e1bd
000002a0: 0932 17be 8481 323e 7522 0b3e 5a95 bfb8
000002b0: 40ab 16be 476a d73d b993 003e 05aa 813e
000002c0: 882d 1a3d 38dc e73b 668c c0bd 7485 9bbc
000002d0: 91d5 98bd 3198 25be 4529 03be a3ed 85bd
000002e0: 8c0c 62bd 41f2 2fbe 00f0 5cbe caab 2e3b
000002f0: 27bc ce3d 871b 26bd d20a 7c3d 4b73 783d
00000300: 21ea 333e a059 b0bd 98aa 043e 0eb8 a1bc
00000310: 3b66 f6bd b448 193d b2fb 8b3d 9a27 333e
00000320: 3197 bd3d b5ab 703e f843 6ebd 5a6a d7bd
00000330: a841 bd3c 0af8 f43d 0a62 fa3d 8b12 e73c
00000340: a515 c6bd 2de3 d6bd 28b1 8abd 99f1 a5bd
00000350: 8caf 483b b229 1e3d 7bf0 a9bb cf2d 79be
00000360: e328 5ebd 337c c63d 6728 3cbe f3f3 2c3e
00000370: 7801 343d eb27 72bd 3327 b93d 094f 303e
00000380: cabf 7c3c 687c 393e 74ee f03c 93dc dfbd
00000390: 61c4 a9bd 67cc 05bd c465 5c3d ca30 643e
000003a0: 8676 5ebb d4d6 f8bd fb75 80be 2552 d7bd
000003b0: feb1 953c b419 433c ef3e 44bb 3122 f7bb
000003c0: 42d7 c1bd 8cb4 203d 9494 2dbd 32bc 213d
000003d0: c73a 05be 3964 39bb 2b09 abbc e4eb 1e3e
000003e0: 1b8f eb3d 9aec ecbd fcbb c23d 0944 813d
000003f0: ebeb 4d3d bf8f 053d 399c 4b3c 02ed 063d

conv1.bias f4 [16]
-0.062211383 0.028908037 -0.048702423 -0.037202124 -0.043317214 -0.05967843 0.010335191 -0.022310635
-0.028789835 0.0500087 0.01337857 0.027008574 -0.0055147605 -0.008623459 -0.0445256 0.008199804
00000000: 5dd1 7ebd 8cd0 ec3c 317c 47bd 4161 18bd
00000010: 646d 31bd 5f71 74bd ef54 293c cbc4 b6bc
00000020: a9d8 ebbc ecd5 4c3d ca31 5b3c 1641 dd3c
00000030: 2ab5 b4bb 6949 0dbc 7a60 36bd 7958 063c

conv2.weight f4 [64, 16, 5, 5]
0.023269812 0.012158891 0.010407852 0.0960262 0.06213933 0.0067258547 0.00059455645 0.021217668
0.005514631 -0.017140346 0.007789023 0.10197137 -0.053077247 0.017413864 0.07294334 0.0020222857
0.03273361 0.071426906 0.100248896 0.057229143 -0.008510775 0.06730057 0.034209423 0.015675792
-0.04981523 0.021739678 -0.033050355 -0.022768984 -0.02377253 0.034112543 -0.04282146 -0.026646266
-0.0013908892 -0.05100418 -0.054941606 -0.024768863 -0.006494305 -0.071627475 0.033459093 -0.09161427
0.047953192 -0.009061803 -0.05804536 0.021775503 -0.04326264 -0.020760663 0.014897987 0.038804013
-0.02362247 0.006693516 -0.019238098 0.0068297586 -0.02784721 0.06662608 0.037326284 0.028420256
-0.001708627 -0.008541725 -0.021428265 -0.0032410552 -0.010008545 -0.009680133 0.03072537 0.10069593
-0.06298374 -0.0012547303 0.03184462 0.067587465 0.054659367 0.033605315 -0.018529225 -0.025608122
0.13480796 -0.038359214 0.027070774 -0.044018123 -0.009990028 -0.0041238847 -0.009159629 -0.010319481
-0.0052773915 0.0064976523 0.030509034 0.024261383 0.045897465 -0.015839592 0.08842327 0.0034465103
0.007870319 -0.010934876 0.006575154 -0.0013336048 0.023179127 0.089363545 -0.0401741 -0.007888364
0.02796363 0.018382352 0.052687682 0.0632095 -0.039520755 -0.011621064 -0.022055857 0.057782438
0.029456139 -0.022675913 -0.050459426 0.027445778 0.012754527 0.011830688 -0.043123607 -0.033553597
0.03033945 -0.043841623 -0.09448642 -0.027778374 0.045283787 0.056069236 0.015963545 0.06407918
0.059584625 0.0071255383 0.005291463 0.026394246 0.022620723 0.010336958 -0.02810217 -0.018736772
0.01837716 -0.024852537 0.028075319 0.016676873 -0.06353965 0.04853563 -0.009608678 -0.018340569
0.0046336846 0.022482831 0.03859136 0.050611217 0.08197795 0.11727798 0.03058908 -0.010661783
0.008220396 -0.028200107 0.046794113 -0.03385307 0.0496454 0.070147604 -0.039917167 -0.016075624
-0.016737556 0.010271426 0.0018561423 -0.0015733648 0.011309539 -0.024312392 -0.014583681 0.027014272
0.020250186 0.043449808 -0.01902269 0.051702637 -0.02487369 0.024509829 0.007559642 -0.011628204
-0.0024336292 0.0056873537 -0.012031112 -0.008176362 0.064604305 0.013228114 -0.011352399 -0.029023044
0.0963463 -0.04430748 0.07175539 -0.01607288 -0.062483028 -0.00031428577 -0.04896444 0.0018275682
-0.014598617 7.9884805e-05 0.04374937 -0.05013995 0.03890116 -0.0010912768 0.0914466 0.014871703
-0.016613793 0.054104466 -0.012300897 -0.0149355475 0.08495514 0.011736029 0.03154148 0.020312019
0.05686668 0.009372387 0.054598775 0.016607624 0.07038003 0.045568164 0.009381851 0.0132099455
0.01345766 -0.02637188 -0.039533705 -0.009126751 -0.045057297 0.010490911 -0.04236213 0.044964243
0.04480553 1.3282348e-05 0.0071355905 -0.036467 0.01867618 0.009899388 0.020899436 0.079958126
-0.029733468 0.0071334112 0.033379707 -0.057079196 0.007592346 0.021934353 0.08156183 -0.047476433
-0.07763525 -0.009795766 0.00841307 -0.016456151 -0.060722057 -0.057976004 0.054069597 -0.08774935
0.024628345 -0.03758294 -0.06101912 0.0070559457 -0.0011504985 0.03934085 -0.061985172 0.04536041
0.026060857 0.03735142 0.0061442447 0.018319411 0.0010512987 -0.010446768 -0.03047235 0.044898987
00000000: 55a0 be3c 1636 473c b285 2a3c 62a9 c43d
00000010: cf85 7e3d 8f64 dc3b 02dc 1b3a add0 ad3c
00000020: 14b4 b43b e969 8cbc 103b ff3b 5ed6 d03d
00000030: 8767 59bd 85a7 8e3c 5163 953d 5388 043b
00000040: ae13 063d 4548 923d 4b4f cd3d 1b69 6a3d
00000050: c770 0bbc e2d4 893d 2e1f 0c3d 856a 803c
00000060: 0e0b 4cbd 6917 b23c cf5f 07bd 0586 babc
00000070: 9cbe c2bc 98b9 0b3d 8e65 2fbd 4549 dabc
00000080: 7f4e b6ba c2e9 50bd 730a 61bd 12e8 cabc
00000090: 2ece d4bb 6db1 92bd 670c 093d 43a0 bbbd
000000a0: 916a 443d f577 14bc f9c0 6dbd 8a62 b23c
000000b0: 2a34 31bd 4412 aabc b016 743c f5f0 1e3d
000000c0: e983 c1bc 4855 db3b 3799 9dbc 2bcc df3b
000000d0: d51f e4bc 4173 883d 72e3 183d 99d1 e83c
000000e0: 02f4 dfba 97f2 0bbc 548a afbc e267 54bb
000000f0: e1fa 23bc 6c99 1ebc c5b3 fb3c ab39 ce3d
00000100: 9efd 80bd c375 a4ba 816f 023d 4c6b 8a3d
00000110: 80e2 5f3d baa5 093d 9aca 97bc 20c8 d1bc
00000120: 190b 0a3e 8d1e 1dbd 87c3 dd3c 594c 34bd
00000130: 37ad 23bc a721 87bb 4512 16bc 0a13 29bc
00000140: f8ed acbb 42ea d43b 15ee f93c cfbf c63c
00000150: fbfe 3b3d 08c2 81bc 4217 b53d d9de 613b
00000160: 83f2 003c 3228 33bc 6474 d73b 5acc aeba
00000170: 27e2 bd3c 3c04 b73d 998d 24bd 323e 01bc
00000180: fc13 e53c 9696 963c 0acf 573d fb73 813d
00000190: 84e0 21bd 4666 3ebc 7cae b4bc 47ad 6c3d
000001a0: 004e f13c d6c2 b9bc 8bae 4ebd f8d5 e03c
000001b0: 5df8 503c 81d5 413c 61a2 30bd 7f6f 09bd
000001c0: 708a f83c 4693 33bd 1982 c1bd 798f e3bc
000001d0: 7e7b 393d dba8 653d fbc5 823c f23b 833d
000001e0: 020f 743d 597d e93b 0264 ad3b bf38 d83c
000001f0: 184f b93c 585c 293c 8636 e6bc dc7d 99bc
00000200: b38b 963c 8c97 cbbc 36fe e53c f09d 883c
00000210: 1321 82bd 4ccd 463d b76d 1dbc f63e 96bc
00000220: 2ad6 973b ea2d b83c f911 1e3d b54d 4f3d
00000230: 0ee4 a73d 702f f03d f395 fa3c c2ae 2ebc
00000240: d7ae 063c e903 e7bc 2fab 3f3d 84a9 0abd
00000250: fa58 4b3d 8ca9 8f3d 2f80 23bd 07b1 83bc
00000260: 331d 89bc 7c49 283c cd49 f33a 5d39 ceba
00000270: a54b 393c c82a c7bc 64f0 6ebc 094d dd3c
00000280: b8e3 a53c 6df8 313d 79d5 9bbc 25c6 533d
00000290: e9c3 cbbc d6c8 c83c e0b6 f73b 3984 3ebc
000002a0: 867d 1fbb fb5c ba3b 241e 45bc 26f6 05bc
000002b0: 434f 843d bbba 583c 6aff 39bc bcc1 edbc
000002c0: 3551 c53d c37b 35bd 7df4 923d 46ab 83bc
000002d0: 34ee 7fbd b9c6 a4b9 f08e 48bd 038b ef3a
000002e0: 0a2f 6fbc d487 a738 8a32 333d 8c5f 4dbd
000002f0: d356 1f3d 2c09 8fba 5b48 bb3d 72a8 733c
00000300: a619 88bc a59c 5d3d b489 49bc 3ab4 74bc
00000310: f6fc ad3d 7948 403c a431 013d 6465 a63c
00000320: 09ed 683d a48e 193c f7a2 5f3d b60c 883c
00000330: 6823 903d afa5 3a3d 56b6 193c 876e 583c
00000340: 847d 5c3c d709 d8bc 18ee 21bd 5e88 15bc
00000350: 008e 38bd 12e2 2b3c ea83 2dbd 6d2c 383d
00000360: 0186 373d 40d7 5e37 acd1 e93b 6c5e 15bd
00000370: cafe 983c 0b31 223c 4b35 ab3c 16c1 a33d
00000380: 9a93 f3bc 64bf e93b 29b9 083d e0cb 69bd
00000390: 37c9 f83b acaf b33c e409 a73d a676 42bd
000003a0: 3bff 9ebd 6c7e 20bc f9d6 093c 0dcf 86bc
000003b0: b1b7 78bd 3f78 6dbd 1578 5d3d eeb5 b3bd
000003c0: 62c1 c93c 92f0 19bd 2fef 79bd 9035 e73b
000003d0: 53cc 96ba df23 213d 2ae4 7dbd d6cb 393d
000003e0: 947d d53c cdfd 183d a955 c93b 9712 963c
000003f0: bbcb 893a ec28 2bbc 26a1 f9bc 00e8 373d

conv2.bias f4 [64]
-0.053984523 0.0050994987 0.029548682 -0.030939907 -0.0018712247 -0.009558893 0.0089842 -0.0327021
0.0111391535 0.05847365 -0.042415116 -0.016859945 -0.029528376 0.050643224 -0.0072129536 0.015577221
-0.022280985 -0.025040738 -0.023842731 0.011823364 -0.041491184 0.01356455 -0.016628565 -0.0065335003
-0.0034458595 0.0015997494 -0.00014670528 -0.047716994 0.050437354 0.034664366 0.022355579 0.051298548
0.060782205 0.014822621 -0.013165034 0.06653415 -0.034186233 -0.009944467 0.038297467 0.051117167
0.0066297576 0.056626927 0.024072269 -0.023900995 0.036106784 0.020217521 -0.060686916 -0.016691525
0.006431607 -0.050918393 -0.008355197 0.03503499 0.058052506 -0.029420143 -0.0052308957 0.0001433923
-0.031095486 0.04708664 -0.006573236 0.017452005 -0.015096128 0.0823814 -0.0043092472 0.050333384
00000000: e01e 5dbd b219 a73b 1410 f23c b075 fdbc
00000010: e243 f5ba e79c 1cbc 7732 133c a3f2 05bd
00000020: ff80 363c 1182 6f3d 79bb 2dbd de1d 8abc
00000030: 7ee5 f1bc 456f 4f3d a45a ecbb 9a37 7f3c
00000040: 9d86 b6bc 3c22 cdbc d551 c3bc c8b6 413c
00000050: a9f2 29bd d93d 5e3c a138 88bc f916 d6bb
00000060: eed3 61bb afae d13a e6d4 19b9 e572 43bd
00000070: 6697 4e3d 39fc 0d3d 0c23 b73c 6d1e 523d
00000080: c3f6 783d 94da 723c 28b2 57bc 0e43 883d
00000090: dd06 0cbd 1eee 22bc cedd 1c3d 3c60 513d
000000a0: 703e d93b a3f1 673d 3533 c53c 05cc c3bc
000000b0: b5e4 133d 379f a53c d892 78bd aabc 88bc
000000c0: 3bc0 d23b ce8f 50bd 3ce4 08bc da80 0f3d
000000d0: 77c8 6d3d 8302 f1bc ef67 abbb 945b 1639
000000e0: f6bb febc ecdd 403d 4d64 d7bb 82f7 8e3c
000000f0: c055 77bc 94b7 a83d 9634 8dbb 612a 4e3d

conv3.weight f4 [32, 64, 5, 5]
0.0021807929 0.0019287022 0.003528073 0.0042672246 1.8897883e-05 0.0046036956 0.008466242 0.005821738
0.005161208 -1.2430549e-05 0.03223053 0.001273446 0.041719075 0.01847557 0.018599715 0.032683264
0.023411544 0.027976464 0.034348432 -0.002039438 -0.0008823564 0.015133114 0.014162784 0.056138825
0.012221348 -0.0029155808 -0.0034149454 -0.0031156517 -0.0019402256 3.6481947e-07 -0.0011109376 0.011128717
0.0037710653 -0.0031108933 -3.317224e-06 0.030687764 0.010678226 0.011960977 0.006442326 0.042185813
0.0034197748 0.004287985 0.034523465 0.019822162 0.0174815 0.011558519 -0.011272541 0.00094938045
0.035331726 0.013675367 -0.003044563 -0.0018530235 -0.0040211785 -0.00012114758 1.936426e-06 -0.0016787866
0.0004561753 -4.5990797e-05 -0.0019339158 -2.489545e-06 8.3837105e-05 0.021248149 0.010727467 0.015423971
-0.002097203 0.00458976 -0.00899309 -0.018373918 0.012175564 0.022530051 -0.015102001 0.0070419717
-0.015920522 -0.0151050165 0.020524016 -0.0010117001 -0.001857695 -0.0018510368 -0.0016749329 -1.1380336e-05
-0.0019071115 -0.0053021037 -0.0030823213 0.0018412366 -2.294045e-06 -0.012096566 0.0020510314 -0.001999498
0.017408837 0.025087748 -0.0039613233 -0.009329534 0.02270399 0.016877886 -0.004994359 0.0052290997
-0.009863071 -0.036551844 0.003725452 -0.021808427 0.0002631809 0.003569708 0.0018516805 0.0037389193
-5.619272e-07 -0.003583547 0.006208566 0.00086939614 -0.00052218157 1.1850186e-06 0.042049795 0.0034814125
0.026001183 0.024950271 0.0041183247 0.021926658 -0.038700633 0.023220003 0.012947034 -0.007815509
0.00084236637 -0.0045578335 0.0061673005 0.039996456 0.0153271295 -0.0009935758 -0.0031039114 -0.0017654081
-0.0015177586 -6.5154463e-06 -0.00019704741 0.0023923484 0.001125677 0.0037166108 -5.9671092e-06 -0.000455253
0.020128788 -0.02102357 0.03682239 0.009573622 -0.015024055 0.029806344 -0.022639515 0.008456213
0.0124253975 -0.009234559 -0.0024652947 0.0085339025 0.025101746 0.03100555 0.0004911575 0.0038764714
0.002520034 0.0035920436 1.9603049e-05 0.0077916877 0.0019502242 -0.0013493889 0.005662838 3.4197565e-05
0.041991133 0.0004457559 0.018195061 0.030083345 0.036218114 0.0029837976 0.041219633 0.024831316
0.00048972515 -0.018892553 0.009087483 0.013491219 -0.022082103 -0.0036627483 -0.031253044 0.0032122494
0.0065164748 0.0044151656 0.0044365176 -2.582135e-06 0.0014626301 0.0010705002 0.0047531025 0.0062987437
6.2582712e-06 0.019636441 0.0066621415 0.0065660323 0.01453171 -0.007147557 0.037204467 0.0075812363
0.014940993 0.02416002 -0.008305743 -0.004511698 0.0063742707 0.0084299445 0.0075818286 -0.028014062
-0.00063337473 -0.00046986603 -0.0014288878 -0.0027352814 2.8015627e-06 -0.000503452 0.0013858839 0.0024888632
0.00094169716 -1.8618552e-05 -0.021069326 -0.0016524872 -0.014039264 0.022044994 0.011348913 -0.00024148633
0.04341821 0.016078725 0.023310605 0.0068124 0.0018814596 -0.0053500477 0.027944883 -0.013071793
0.01401436 0.0029553832 0.0035872904 -0.001794439 0.00018989937 1.32254345e-05 0.00072876445 0.006540368
-0.00021794 0.0012045882 -1.0258295e-05 0.033322006 -0.0033021679 0.030144716 0.02938012 0.010670682
0.023792408 -0.012337424 0.014645627 0.034640696 0.0014222208 0.02831796 0.003358976 0.013033042
0.0044964515 0.0066431467 -0.0012648244 -0.0022821422 -0.0004329789 -0.001963262 7.888343e-06 0.0027986865
00000000: a2eb 0e3b 82cc fc3a 3e37 673b 13d4 8b3b
00000010: e586 9e37 99da 963b feb5 0a3c 47c4 be3b
00000020: 5a1f a93b cd8c 50b7 2904 043d c2e9 a63a
00000030: 9fe1 2a3d 145a 973c 6e5e 983c e3de 053d
00000040: 91c9 bf3c e62e e53c f1b0 0c3d 18a8 05bb
00000050: f04d 67ba e1f0 773c 060b 683c d3f1 653d
00000060: 0c3c 483c 5413 3fbb 47cd 5fbb f62f 4cbb
00000070: 2b4f feba 68dc c334 e19c 91ba 3955 363c
00000080: fa23 773b 21e0 4bbb 799d 5eb6 e864 fb3c
00000090: baf3 2e3c f9f7 433c 261a d33b 08cb 2c3d
000000a0: 4d1e 603b 3a82 8c3b 7a68 0d3d 1662 a23c
000000b0: 5d35 8f3c f15f 3d3c 77b0 38bc d8df 783a
000000c0: 00b8 103d a60e 603c 4b87 47bb 27e1 f2ba
000000d0: 17c4 83bb 9d10 feb8 8cf3 0136 bb0a dcba
000000e0: d02a ef39 3ee6 40b8 727b fdba 0f12 27b6
000000f0: b4d1 af38 9910 ae3c 42c2 2f3c d3b4 7c3c
00000100: 3a71 09bb b365 963b c157 13bc e684 96bc
00000110: 047c 473c f190 b83c 626e 77bc 57c0 e63b
00000120: c16b 82bc 087b 77bc fb21 a83c 069b 84ba
00000130: e77d f3ba 7d9e f2ba 6c89 dbba 2cee 3eb7
00000140: 0bf8 f9ba 45bd adbb c500 4abb a655 f13a
00000150: 65f3 19b6 ad30 46bc 996a 063b 030a 03bb
00000160: fa9c 8e3c d284 cd3c fdcd 81bb e7da 18bc
00000170: b8fd b93c 7e43 8a3c b8a7 a3bb de58 ab3b
00000180: b898 21bc 63b7 15bd b726 743b 96a7 b2bc
00000190: 8bfb 8939 c3f1 693b 16b4 f23a a808 753b
000001a0: 58d7 16b5 f1d9 6abb 3a71 cb3b 30e8 633a
000001b0: 03e3 08ba ee0c 9f35 683c 2c3d 6928 643b
000001c0: 6f00 d53c 8364 cc3c 03f3 863b 899f b33c
000001d0: 8e84 1ebd e037 be3c cc1f 543c 9f0c 00bc
000001e0: 40d2 5c3a e159 95bb 1117 ca3b 53d3 233d
000001f0: a41e 7b3c df3a 82ba fe6a 4bbb 4465 e7ba
00000200: 87ef c6ba 429f dab6 839e 4eb9 f2c8 1c3b
00000210: 748b 933a 6292 733b 1439 c8b6 06af eeb9
00000220: 21e5 a43c 9f39 acbc 13d3 163d aeda 1c3c
00000230: 7427 76bc 6f2c f43c 8176 b9bc ee8b 0a3c
00000240: e593 4b3c 8c4c 17bc c890 21bb c8d1 0b3c
00000250: 2da2 cd3c 5aff fd3c 06c1 003a 660c 7e3b
00000260: 2827 253b 7e68 6b3b 3a71 a437 6a51 ff3b
00000270: aa9e ff3a fadd b0ba 548f b93b 5b6f 0f38
00000280: e5fe 2b3d 58b4 e939 cf0d 953c 5971 f63c
00000290: 7259 143d d18b 433b ebd5 283d 0b6b cb3c
000002a0: e660 003a 8ec4 9abc abe3 143c 460a 5d3c
000002b0: 87e5 b4bc b80a 70bb 3103 00bd 9a84 523b
000002c0: 2788 d53b 18ad 903b 3560 913b be48 2db6
000002d0: b9b5 bf3a 0750 8c3a eabf 9b3b b165 ce3b
000002e0: 24fe d136 9adc a03c 184e da3b df27 d73b
000002f0: 6916 6e3c 0e36 eabb b663 183d 056c f83b
00000300: 11cb 743c 3ceb c53c d014 08bc ded6 93bb
00000310: 42df d03b c01d 0a3c fd70 f83b bf7d e5bc
00000320: 0f09 26ba 5a58 f6b9 8549 bbba 6842 33bb
00000330: 7b02 3c36 18fa 03ba 8ca6 b53a 321c 233b
00000340: 3adc 763a 092f 9cb7 9499 acbc 4598 d8ba
00000350: f104 66bc b497 b43c cbf0 393c 7e37 7db9
00000360: 4bd7 313d 88b7 833c e2f5 be3c 8e3a df3b
00000370: 4f9b f63a 744f afbb abec e43c 132b 56bc
00000380: 7c9c 653c 1aaf 413b bf18 6b3b 6233 ebba
00000390: b91f 4739 cfe2 5d37 8e0a 3f3a 9550 d63b
000003a0: d386 64b9 46e3 9d3a 0b1b 2cb7 a87c 083d
000003b0: 2f69 58bb 0df2 f63c 94ae f03c 16d4 2e3c
000003c0: 4ce8 c23c e822 4abc 36f4 6f3c 67e3 0d3d
000003d0: d069 ba3a 11fb e73c 4422 5c3b 8a88 553c
000003e0: f856 933b c1ae d93b 77c8 a5ba fe8f 15bb
000003f0: 7201 e3b9 12aa 00bb 2d58 0437 2b6a 373b

conv3.bias f4 [32]
-0.014110477 0.011432127 -0.032658093 0.008255724 -0.0017762638 -0.00026624132 0.012231083 -0.001840469
-0.0358512 0.02518602 0.0011222523 0.04473681 0.0032237542 -0.02090438 0.020297414 -0.043019485
0.048586205 0.022423152 -0.013778674 0.0200114 0.012317435 -0.00487749 -0.00023291775 0.037471786
-0.0023755576 0.012380739 0.010490969 0.058593776 -0.031145593 0.025647994 0.0111919865 0.053442553
00000000: a12f 67bc d14d 3b3c 7ec4 05bd 0443 073c
00000010: 86d1 e8ba 4e96 8bb9 e164 483c e43b f1ba
00000020: b5d8 12bd ea52 ce3c 8a18 933a f23d 373d
00000030: 9f45 533b aa3f abbc c346 a63c 3335 30bd
00000040: 5402 473d c2b0 b73c f3bf 61bc f3ee a33c
00000050: 11cf 493c 5ad3 9fbb 623b 74b9 047c 193d
00000060: 3eaf 1bbb 95d8 4a3c 50e2 2b3c 0700 703d
00000070: 0b25 ffbc be1b d23c 985e 373c 94e6 5a3d

fc_1.weight f4 [8, 32]
0.06284063 0.26763064 -0.23367578 0.39548597 -0.10869386 -0.0053168605 0.052614402 0.11388121
0.02739105 -0.04931938 -0.020344902 0.12838233 -0.052318823 -0.14022349 -0.05022443 -0.29814634
0.027169975 0.26552254 -0.0204956 0.11410553 0.118032224 0.16914846 0.005306762 0.3735733
0.0016514667 -0.13042086 0.08557177 0.029119706 -0.38063744 0.018057764 0.47798723 -0.068935014
0.12787685 0.07371834 -0.08528645 -0.18211998 -0.083999164 0.18783146 -0.03082144 0.0012158562
-0.20945281 0.12398053 0.003230529 0.040784966 0.06668822 0.0122799035 -0.059713893 -0.15603656
0.35509902 -0.11157797 -0.2827066 0.41952896 -0.09722527 -0.1526395 0.01317786 0.02454209
0.030526966 0.0069695134 -0.024215097 0.14533381 0.06931957 -0.061265677 -0.054627195 0.24791913
0.047416568 0.09245913 0.03601364 0.18370876 -0.015513683 0.2826552 -0.0057958676 -1.3698304e-05
0.28530738 -0.039139934 -0.094561175 -0.05728793 -0.2648644 0.10979319 -0.63164276 0.021132471
-0.11538935 0.17636935 -0.23040406 0.04951042 -0.0065285815 0.10141629 -0.04425151 0.04776741
-0.009806394 -0.30058262 -0.0048541785 -0.2593322 -0.0036888118 -0.0581644 0.28136078 -0.28054997
0.15468684 -0.097428 -0.03211614 0.18809691 0.09849714 -0.075863935 0.056609847 1.0623829e-06
-0.0689234 -0.19920482 -0.0003374521 -0.2159823 0.11826109 -0.025139794 0.3214427 0.031635713
-0.04334396 -0.18607064 0.20863776 -0.22715056 -0.00034705646 -0.119083814 -0.00047585965 -0.07719164
0.1485032 -0.1400125 -0.00064323616 -0.3141147 -0.009378858 -0.182469 -0.33770418 0.015625162
0.178951 0.035157897 0.16435146 -0.04376816 -0.23669647 -0.009009349 -0.001892602 -0.0175215
-0.08445659 -0.37375456 -0.1231121 -0.24648759 0.2011014 -0.020011898 0.21225922 0.100861914
-0.21065496 -0.09014808 -0.015199532 -0.04191435 -0.0022744662 0.06355201 2.5973897e-05 0.23432274
0.043217737 -0.16445316 -0.103480205 -0.19780974 -0.14737894 -0.37073562 0.064237855 -0.39155754
0.10229762 -0.17719899 0.39647374 0.07866751 0.07001624 -0.28875995 -0.036890946 -8.338668e-06
-0.0034028662 0.11761924 0.3585958 0.015146045 -0.03789458 -0.030471127 -0.13787532 0.14139849
-0.16434559 0.07533589 -0.132196 -0.31948468 -0.0005468127 -0.01091905 0.037943155 -0.068427555
0.108262464 0.087518305 -0.013226023 -0.07574957 -0.12003262 0.11764412 0.15239358 -0.16251767
-0.05619577 -0.3363838 -0.033210337 -0.024145523 -0.068922654 0.21785462 -0.00076729595 -7.206337e-07
0.10565529 -0.14952348 -0.0008962836 -0.16386294 -0.22131796 0.2528277 0.098173335 -0.24585086
0.0069414927 0.3530151 -0.060113635 -0.32068345 -0.0011393569 -0.17506629 0.000105570056 0.28418598
4.097217e-05 -0.03940994 -0.00067510136 -0.037457723 -0.021948881 0.08546177 -0.15968323 -0.07201378
-0.108761944 -0.11287797 0.105873615 0.43864882 0.32755417 -0.34140888 -0.0067867176 0.00014463894
-0.10284742 0.2981846 -0.0016489554 0.0026281374 -0.06429011 -0.28086042 0.08404442 0.06287298
0.36183846 0.02887534 -0.21122962 -0.2583784 -0.010227128 -0.35323876 0.00048788168 0.07908398
0.08429926 0.1792953 -0.06464831 0.12068962 -0.16361783 0.13263458 0.059247594 0.0741271
00000000: 97b2 803d e206 893e b448 6fbe 237d ca3e
00000010: e39a debd 0f39 aebb 3382 573d 8d3a e93d
00000020: 3263 e03c 1e03 4abd 5aaa a6bc a876 033e
00000030: 434c 56bd bf96 0fbe 22b8 4dbd a3a6 98be
00000040: 9193 de3c 92f2 873e 63e6 a7bc 29b0 e93d
00000050: e1ba f13d 4135 2d3e 59e4 ad3b 0045 bf3e
00000060: 0776 d83a 0c8d 05be 4140 af3d 738c ee3c
00000070: e9e2 c2be e0ed 933c beba f43e cd2d 8dbd
00000080: 26f2 023e a4f9 963d aaaa aebd a97d 3abe
00000090: c107 acbd e456 403e 3f7d fcbc 5d5d 9f3a
000000a0: cc7a 56be 81e9 fd3d 48b7 533b 230e 273d
000000b0: d593 883d a631 493c 8e96 74bd 0cc8 1fbe
000000c0: 8acf b53e fe82 e4bd ebbe 90be 80cc d63e
000000d0: 0b1e c7bd 874d 1cbe f3e7 573c 7e0c c93c
000000e0: b013 fa3c 8460 e43b bd5e c6bc 63d2 143e
000000f0: 6bf7 8d3d b8f1 7abd c4c0 5fbd 83de 7d3e
00000100: e037 423d 365b bd3d 0a83 133d 261e 3c3e
00000110: 1a2d 7ebc 2fb8 903e 43eb bdbb c5d1 65b7
00000120: cf13 923e 3251 20bd 4aa9 c1bd c0a6 6abd
00000130: 4e9c 87be 41db e03d 57b3 21bf 011e ad3c
00000140: 4051 ecbd 2b9a 343e 0bef 6bbe 70cb 4a3d
00000150: b6ed d5bb 58b3 cf3d 1241 35bd c2a7 433d
00000160: ffaa 20bc f7e5 99be cd0f 9fbb 31c7 84be
00000170: febf 71bb cb3d 6ebd 850e 903e 3fa4 8fbe
00000180: 3a66 1e3e 5588 c7bd 378c 03bd 7a9c 403e
00000190: deb8 c93d 8d5e 9bbd badf 673d 3397 8e35
000001a0: b627 8dbd 59fc 4bbe 0eec b0b9 772a 5dbe
000001b0: df32 f23d f8f1 cdbc 2394 a43e 7394 013d
000001c0: 7089 31bd 4d89 3ebe 23a5 553e 289a 68be
000001d0: 21f5 b5b9 37e2 f3bd cd7c f9b9 a716 9ebd
000001e0: 3911 183e 705f 0fbe d99e 28ba a4d3 a0be
000001f0: c8a9 19bc 27d9 3abe 90e7 acbe 5700 803c
00000200: ee3e 373e ba01 103d c04b 283e 3e46 33bd
00000210: 8f60 72be f39b 13bc 2f11 f8ba 4089 8fbc
00000220: 94f7 acbd c25c bfbe 3222 fcbd 3e67 7cbe
00000230: 87ed 4d3e feef a3bc 7b5a 593e b190 ce3d
00000240: efb5 57be 8e9f b8bd 7507 79bc 62ae 2bbd
00000250: 360f 15bb 8e27 823d 85e2 d937 4df2 6f3e
00000260: 1505 313d 6966 28be 6eed d3bd a38e 4abe
00000270: 81ea 16be 0fd1 bdbe 238f 833d 3b7a c8be
00000280: 6a81 d13d a773 35be 9bfe ca3e 6e1c a13d
00000290: ad64 8f3d 58d8 93be f61a 17bd 4ee6 0bb7
000002a0: 9f02 5fbb 5be2 f03d de99 b73e 1e27 783c
000002b0: 5937 1bbd 969e f9bc 302f 0dbe c4ca 103e
000002c0: 364a 28be b449 9a3d 635e 07be 7f93 a3be
000002d0: fb57 0fba d1e5 32bc 486a 1b3d bf23 8cbd
000002e0: b6b8 dd3d cc3c b33d f6b1 58bc 9722 9bbd
000002f0: aad3 f5bd 66ef f03d 100d 1c3e 086b 26be
00000300: 892d 66bd 7f3a acbe 9007 08bd d5cc c5bc
00000310: 5227 8dbd 4815 5f3e 5c24 49ba 9271 41b5
00000320: cd61 d83d af1c 19be 93f4 6aba b0cb 27be
00000330: 2da1 62be a272 813e 1a0f c93d 54c0 7bbe
00000340: 7675 e33b 65be b43e b739 76bd 9f30 a4be
00000350: 7956 95ba 9444 33be 7e65 dd38 d380 913e
00000360: 88d9 2b38 516c 21bd 49f9 30ba 456d 19bd
00000370: 24ce b3bc 9506 af3d 0084 23be f67b 93bd
00000380: 95be debd 912c e7bd 44d4 d83d 9496 e03e
00000390: 2eb5 a73e 25cd aebe 1d63 debb 38aa 1739
000003a0: aba1 d2bd a7ab 983e c321 d8ba d43c 2c3b
000003b0: 88aa 83bd f0cc 8fbe 7b1f ac3d 8dc3 803d
000003c0: e442 b93e fa8b ec3c 944c 58be 2c4a 84be
000003d0: af8f 27bc b6db b4be 5fca ff39 c8f6 a13d
000003e0: 17a5 ac3d 3099 373e 5566 84bd 1f2c f73d
000003f0: 6f8b 27be 5cd1 073e 9bad 723d f3cf 973d

fc_1.bias f4 [8]
0.036498178 0.027554268 -0.045597833 -0.021259727 -0.02686791 -0.017446695 0.0051661343 0.0047829617
00000000: 1d7f 153d 7db9 e13c cbc4 3abd e128 aebc
00000010: 171a dcbc 5fec 8ebc ad48 a93b 64ba 9c3b
