checkpoints/target0/epoch=9.checkpoint.pth.tar (torch, 320180 bytes, 8 tensors)

conv1.weight f4 [16, 3, 5, 5]
00000000: 1657 433e c6ab 193e 2409 a13d 9135 62be
00000010: dccd 943d f2b1 05be fafa 8ebc a990 44be
00000020: d5bf dabd 08a6 2a3e e33c 2bbd 52ce 09be
00000030: 8ee7 d1bd f466 bdbd e7cf 9ebd 0634 bb3d
00000040: 68c6 403e c59a b4bc ea6e 8bbd 5675 0c3d
00000050: ecb2 83bd a2ad 023e e9e8 a93d 3d21 223e
00000060: 5442 013e b381 003e ed13 883d 2998 f73d
00000070: eede 4cbd be35 293b 5097 0bbd 2573 973d
00000080: a2df 30be e3c1 00be dc79 a7bc f9f5 2b3e
00000090: 1fc8 123d 194c 96bd dbb7 2bbc 8646 a9bd
000000a0: abdf 12be 6957 f73d 2fc7 b8bd aed3 a9bd
000000b0: 2fc7 0abe 3467 663e 8575 d7bd e8ab 2abd
000000c0: c656 b6bd 9716 73bd 30b1 4f3c 6c08 893d
000000d0: 1501 45bd 4525 c83d 3058 9dbd 1cab 96bd
000000e0: 74eb 0bbe a5f4 dabc 42bd 25bd 5bf2 8c3d
000000f0: 9402 c7bb ec7c 453e 0c97 0dbe 1c80 d53d
00000100: ca43 0e3e 845f d03d 9cf8 793e 6d8a 4f3d
00000110: a5ba a33c e050 b8bc 4977 bbbd 77b8 163e
00000120: 4039 0abc c210 663d 3511 743c efbe b03c
00000130: 4e9c 273d 1dd1 9dbd 7db4 6fbe 2605 bbbd
00000140: 9fbd d3bc 668d 62bd 9d76 1cbe 679b a6bd
00000150: d36a fb3c e5c1 ed3c d685 aa3d 22b3 f3bc
00000160: 0b4c 1d3d 2dd6 8cbd dbe4 fcbd 4ca8 023d
00000170: 0bb7 49be 35ac dfbd 34cd dd3d 8c40 a03c
00000180: 37bf 89be 6143 bb3c d624 4f3d 9177 a1bc
00000190: 7b5c 9b3d 516d 9a3d 1cb5 f93d 6daf 07bd
000001a0: c205 1dbc db55 a63d f4c7 533d e272 db3c
000001b0: 3af1 0c3d 6fbd 063e de35 df3b e9df c8bc
000001c0: 12e5 11be ca6d 06bc 290c 4bbd aec8 563d
000001d0: fd9f 993d 2a79 f83b 6459 11bd 8bc4 793d
000001e0: 6482 dbb8 587d ea3c b5cd b03c 4fc5 a53d
000001f0: 1d49 e83d 4584 843d a653 d93d 84d9 983d
00000200: 6ee4 5c3e f383 f63d 5db1 eabd fbdb a2bd
00000210: d09e 733c 6401 3e3e 057a b03d d933 a53d
00000220: 9b90 093e d6da 8c3c 0100 1fbe 4caf ea3d
00000230: 69df 88bc ea54 f33d 1efa 60bd 9558 9d3d
00000240: a145 97bd 3501 d63d b25d 2f3e 3d64 203e
00000250: 8ce4 1c3d 6a71 02bc 1db9 0bbd c548 183d
00000260: 1cc3 d03c 056e a93d afbd 27bd bd7c 2f3e
00000270: 07d3 7dbe 5d2a 5ebd 1ebb 01be 29f2 9a3d
00000280: 042c 57be ecd5 8d3b 5077 efbb f1cb 01bd
00000290: 2025 123d 70b7 aabd a86a f43b 3aca cfbd
000002a0: d6d7 17be a348 273e baa3 0c3e 2e92 8a3b
000002b0: 35bd 0fbe bce2 c73d 0ae6 f13d a822 7a3e
000002c0: dced 263d 0e39 553c 00a8 abbd 3d51 1bbc
000002d0: 48ea 85bd f781 1abe cf85 f0bd 42ba 5ebd
000002e0: 5561 26bd d62b 25be 2f2e 51be 330a 343c
000002f0: 1bea dd3d 82ee 00bd 0c76 8b3d 85a9 873d
00000300: 5d3b 363e 385d a3bd 5114 ff3d 5d5a 2cbc
00000310: a31e e2bd 2b8a 283d a5fa 873d 7493 2d3e
00000320: ee55 c03d e51e 6e3e bb67 3fbd b4d9 b8bd
00000330: daf9 0f3d a6d1 003e 71a9 033e 689e 1d3d
00000340: 4d64 a5bd e6c9 afbd 886c 69bd df50 8fbd
00000350: 7438 663c c94c 523d 6756 bd3b 6007 69be
00000360: ed30 34bd a92b d53d d475 2fbe c8a8 293e
00000370: 0eea 5c3d 6213 47bd d1ad c13d ec66 2e3e
00000380: 5ec1 7c3c 92ab 273e c5ce 853c a282 e5bd
00000390: c05f a1bd e516 c3bc 019b 243d e4af 523e
000003a0: d925 22bc 422d e3bd 24ab 6fbe 1333 e9bd
000003b0: 237c 023c 2076 ab3b 4a0d 5ebb 6865 d5b7
000003c0: c629 d1bd 0b4c f43c 8925 43bd e030 fb3c
000003d0: ecf5 f4bd 3e17 5bbc 0bb1 f7bc 03eb 123e
000003e0: aa6a cd3d 5bf4 d9bd 37ef ac3d ffeb 603d
000003f0: b518 473d b814 203d 6bfb b53c ebe3 ca3c
0.1907619 0.15006933 0.078630716 -0.22090746 0.07265827 -0.13056162 -0.01745366 -0.19195808
-0.1068112 0.16664898 -0.041806113 -0.13457611 -0.10249244 -0.092481524 -0.07754498 0.09140782
0.18825686 -0.022046456 -0.068082646 0.034291588 -0.06430611 0.12761548 0.08296377 0.15832992
0.12622958 0.12549476 0.066444255 0.12089569 -0.05001729 0.0025819386 -0.03407985 0.07395009
-0.17272809 -0.12573962 -0.02044385 0.1679305 0.03583538 -0.07338733 -0.010480846 -0.082654044
-0.14343135 0.12077219 -0.09022366 -0.08292328 -0.13552545 0.22500306 -0.10520462 -0.04166785
-0.089032695 -0.059347715 0.012676522 0.066910595 -0.048096735 0.097727336 -0.07682836 -0.07356855
-0.13664037 -0.026727984 -0.040463693 0.06882163 -0.0060733054 0.19285935 -0.13827151 0.104248255
0.13893047 0.10174468 0.24411243 0.050669122 0.01998646 -0.022499502 -0.09153611 0.14718805
-0.008436501 0.056168325 0.014896681 0.02157542 0.04092055 -0.07705901 -0.23408695 -0.09131841
-0.025847254 -0.05531063 -0.15279622 -0.081351094 0.030690586 0.02902312 0.083263084 -0.029748503
0.0384026 -0.06876788 -0.12348338 0.03189878 -0.19698732 -0.10921518 0.10830155 0.019562028
-0.26903698 0.022859277 0.05057224 -0.019710334 0.075859986 0.07540382 0.12192747 -0.033126283
-0.009583892 0.081218444 0.051704362 0.026788179 0.03440974 0.131582 0.0068118414 -0.024520831
-0.1424754 -0.008204887 -0.049572144 0.052437477 0.075012185 0.0075828033 -0.03548564 0.060978454
-0.00010467021 0.028624222 0.021582464 0.08094274 0.1134207 0.06470541 0.10611658 0.07463363
0.21571514 0.12036886 -0.114596106 -0.07952114 0.014869407 0.18555218 0.086170234 0.0806653
0.13434069 0.017194193 -0.15527345 0.114592165 -0.016708093 0.118814304 -0.05492603 0.07682911
-0.073863275 0.10449449 0.17125586 0.15663238 0.038303897 -0.00796161 -0.034112085 0.037178773
0.02548366 0.08272938 -0.04095238 0.17137428 -0.24787532 -0.05423962 -0.12669036 0.0756572
-0.21012884 0.00432848 -0.0073079243 -0.031688634 0.035679936 -0.08335769 0.0074590035 -0.101459935
-0.14828429 0.16336302 0.13734332 0.0042288518 -0.1403702 0.09760043 0.118114546 0.24427283
0.040754184 0.013014091 -0.08381653 -0.009479818 -0.06538826 -0.1508864 -0.11744272 -0.054376848
-0.040620167 -0.16130003 -0.20427774 0.01098876 0.10835668 -0.03147746 0.06809625 0.0662413
0.17796083 -0.079767644 0.12455047 -0.010519591 -0.11041 0.041147392 0.066396035 0.1695078
0.0939139 0.23253973 -0.046729784 -0.090258986 0.035150386 0.12579975 0.12857606 0.038481146
-0.080757715 -0.08583431 -0.05698827 -0.06997847 0.014051545 0.05134276 0.005778122 -0.2275672
-0.04399197 0.10408718 -0.17134792 0.16568291 0.05393415 -0.04860247 0.09456981 0.17031449
0.015426962 0.16374043 0.016333947 -0.11206557 -0.07879591 -0.023814628 0.040186886 0.2057491
-0.009896719 -0.110926166 -0.23405129 -0.11386695 0.007964167 0.0052325875 -0.0033882433 -2.54388e-05
-0.10213046 0.029821416 -0.04764322 0.030662954 -0.119609684 -0.013372241 -0.030235788 0.14347462
0.1003011 -0.1064231 0.08444064 0.054912563 0.048607547 0.03908226 0.022214612 0.024766883

conv1.bias f4 [16]
00000000: ee0a 8abd 6318 f93c 5a76 64bd 720b 3fbd
00000010: c77e 51bd 2c05 8dbd f5b6 f53a bbe1 14bc
00000020: 6b73 0bbd 2e3e 653d 950d 773c 6506 bf3c
00000030: 322d 0fbc 5a7e c33b 287c 56bd 4a17 b53c
-0.06740366 0.030407136 -0.05577693 -0.046641774 -0.051146295 -0.06885752 0.0018746542 -0.009087021
-0.034045618 0.055967502 0.015078922 0.023318479 -0.008738803 0.00596599 -0.0523645 0.022105832

conv2.weight f4 [64, 16, 5, 5]
00000000: 948f 873c 95e0 743b 5f81 0c3b 6534 a93d
00000010: 54e2 4a3d 7650 ae3a cf28 e3bb f2fa 353c
00000020: 7647 1bbb 39d5 cebc 31f5 603a d4d4 bc3d
00000030: 46f8 6bbd 6227 343c bd69 823d e9ce acbb
00000040: 17df c83c f3dd 7f3d c8fe ba3d 82d0 483d
00000050: b2aa 68bc 10f6 6d3d b02d db3c 67ba 3a3c
00000060: 43bc 51bd 391b 863c ed5e 16bd 4fb3 d7bc
00000070: 7ba2 e6bc 971d e03c be81 32bd 8fd9 fdbc
00000080: 2527 d7bb b417 59bd 25dc 65bd 16cf d7bc
00000090: 32ed 05bc 83ce 8ebd 26b7 e83c e6bf a4bd
000000a0: 16c0 2b3d 4c83 37bc 4906 6bbd ace6 853c
000000b0: 1d42 29bd 00d7 acbc bb80 6a3c fbc8 183d
000000c0: af92 c3bc 2b09 cd3a 9412 d1bc 1b15 ddb9
000000d0: 463d 0cbd 7477 603d 67ca ea3c 63e5 9b3c
000000e0: a55a 08bc f976 85bc bb99 e8bc 02bd 39bc
000000f0: 443d 69bc 8edd 75bc 9c76 b33c d134 bc3d
00000100: 452a 83bd 5e60 d0ba 6553 e43c 0330 793d
00000110: 6851 453d 04a3 ce3c 8c68 99bc 142c dbbc
00000120: 9df8 fb3d 3966 24bd 32bd aa3c 60b7 44bd
00000130: 71d0 86bc ba56 21bc c9f7 8abc de38 7ebc
00000140: 2180 1dbc 7ed8 7fba 3cf8 a93c 84df 733c
00000150: 1eca 163d 434f a5bc f985 a63d f984 64bb
00000160: 558e b63a c120 81bc a545 3fba e8c7 02bc
00000170: beae 663c c744 a53d 35d0 38bd 5bf0 6dbc
00000180: ade8 9a3c 837e 243c 479f 3e3d 6f1c 653d
00000190: 978d 32bd 27fe 91bc 61a3 ddbc d534 413d
000001a0: 5d0d a13c 3caa e2bc 0cea 52bd 81a5 9a3c
000001b0: fd9f ab3b 8afa 803b ddd7 35bd 03a6 12bd
000001c0: f3f3 b43c 81d6 3dbd 110d babd 018e ebbc
000001d0: 1807 273d 3115 583d bd2f 3b3c 052f 693d
000001e0: 3e9b 653d c9ff 1f3b 128d bf3a 2590 a13c
000001f0: 736d 843c c347 993b 6d52 0cbd 1838 cebc
00000200: feef 313c 391d f5bc 0377 b53c fec4 273c
00000210: 9d6c 89bd c12b 1f3d ae7a 88bc 9df8 c5bc
00000220: 0f80 f339 cc61 593c 73dc 033d 960a 2d3d
00000230: 84be 923d cbda da3d 22c0 ad3c 8708 5bbc
00000240: cc9b 453b 2c26 0ebd 1860 1c3d 05e4 19bd
00000250: 8eb0 323d 276a 813d 2ca1 39bd 5e2b afbc
00000260: 005b bbbc 4e1c 623b c4a7 a9bb 99d4 10bc
00000270: 5582 873b a84f fcbc 8327 b2bc b0f3 9f3c
00000280: 3c43 aa3c 37da 1a3d a847 b6bc 758c 3e3d
00000290: 6219 f5bc a791 8f3c e3e6 563a 5af8 8fbc
000002a0: d224 2bbc 6b5e 533a fc75 7fbc f874 71bc
000002b0: 3234 5b3d d8c3 db3b 2b83 6fbc dc50 0abd
000002c0: a11a aa3d 2649 39bd af96 7a3d 56e0 adbc
000002d0: a618 7ebd 1012 e7bb 460b 4dbd 1ef7 85bb
000002e0: 479d a0bc e4d8 83bb ccf1 1f3d f5cc 4dbd
000002f0: 6954 053d 2f65 d4bb 33fc aa3d 457f 353c
00000300: 1e50 a1bc d482 463d cb95 82bc f275 8fbc
00000310: 5cf4 983d 6b2f b53b 6e61 ea3c d74e 933c
00000320: 288a 383d 88f3 94b6 c9d3 303d 2c33 d83b
00000330: 0f55 743d b375 0c3d 870d e039 9808 873b
00000340: a87c 893b 086f 0cbd 7c84 46bd 63c9 8cbc
00000350: 9a53 53bd 8ea5 003b 1504 3fbd 8b4f 113d
00000360: af6f 153d 7efb d5bb 56c6 9139 d530 2dbd
00000370: e72a 3b3c 0461 933b aa74 743c d0ad 943d
00000380: e105 01bd ee47 8439 05c0 cc3c 553d 82bd
00000390: 3950 a6ba 7de1 843c 98bd 963d 76a9 59bd
000003a0: 4707 a6bd ff96 86bc 6b98 093b 68c8 bcbc
000003b0: ed1f 84bd 1673 7bbd c193 393d 2f25 b0bd
000003c0: 3775 903c 0ce3 23bd f5b4 81bd 635f 063b
000003d0: 3efa 51bb 9757 123d 915e 7fbd 38f5 313d
000003e0: f4e9 c23c 84ed 093d 2e40 50ba 2671 343c
000003f0: 40c9 98bb 759a 86bc 6b01 17bd a659 1a3d
0.016547956 0.0037365307 0.0021439416 0.082619466 0.04953225 0.0013299126 -0.006932355 0.011107193
-0.0023693717 -0.025248157 0.0008581458 0.09220281 -0.05760982 0.010995718 0.06367824 -0.005273689
0.02452044 0.062467527 0.09130627 0.049026974 -0.014200853 0.05809599 0.026755184 0.011396981
-0.05120493 0.016370403 -0.036711622 -0.026330618 -0.028153649 0.02735786 -0.043580763 -0.03098753
-0.0065659457 -0.05300112 -0.05611815 -0.026343863 -0.008174228 -0.06972983 0.028407644 -0.08044414
0.041931234 -0.011200737 -0.05737904 0.016345344 -0.041322816 -0.021098614 0.014312918 0.037301045
-0.023873655 0.0015642991 -0.025521554 -0.0004216813 -0.034238122 0.05480142 0.028660966 0.019030279
-0.008322393 -0.016292082 -0.028393617 -0.011336567 -0.014235798 -0.015006436 0.021907143 0.091897614
-0.06404547 -0.001589786 0.027871797 0.060836803 0.04817334 0.025224216 -0.01872661 -0.026754417
0.123032786 -0.04013655 0.020842168 -0.048026443 -0.016456814 -0.009847337 -0.016963856 -0.015516488
-0.009613068 -0.0009759738 0.02074825 0.014884833 0.036813848 -0.020179396 0.08131022 -0.0034869297
0.0013927916 -0.015762689 -0.00072964496 -0.007982232 0.014079748 0.08069759 -0.045120437 -0.014522637
0.018909777 0.010039928 0.046538617 0.05593532 -0.04359206 -0.017821385 -0.027055444 0.047169525
0.019659692 -0.027669065 -0.051492736 0.018877747 0.005237578 0.0039361166 -0.044395316 -0.035802852
0.02208898 -0.046347145 -0.090845235 -0.028754236 0.04077825 0.052754585 0.011424956 0.056929607
0.056056254 0.0024413934 0.0014614186 0.019722054 0.01616547 0.004677744 -0.034258295 -0.025173232
0.010860441 -0.029921161 0.022151476 0.010239838 -0.067101695 0.038860086 -0.01666006 -0.0241664
0.00046443983 0.0132679455 0.03219266 0.042246424 0.07165244 0.10686263 0.02120978 -0.013368732
0.0030152677 -0.034704372 0.03817758 -0.037570972 0.043625407 0.06319075 -0.04531972 -0.021382984
-0.02287054 0.0034501734 -0.00517747 -0.00883975 0.00413541 -0.030799702 -0.021747356 0.019525379
0.020784013 0.037805762 -0.022250965 0.04652067 -0.02991933 0.017525507 0.0008197857 -0.017574478
-0.01044579 0.00080630806 -0.0155920945 -0.01473736 0.053516574 0.006706696 -0.014618675 -0.03376852
0.0830586 -0.045235775 0.06117886 -0.021225136 -0.062035225 -0.0070517138 -0.05005958 -0.0040882966
-0.019606246 -0.004023658 0.039048955 -0.05024429 0.032551203 -0.0064817886 0.083488844 0.011077707
-0.019691523 0.04846461 -0.015940567 -0.017512295 0.07468483 0.0055293343 0.028610911 0.01798193
0.04505363 -4.4390945e-06 0.043170724 0.006597897 0.05965143 0.034291934 0.00042734688 0.0041208975
0.0041957684 -0.034285575 -0.04846619 -0.017185872 -0.0515934 0.0019629928 -0.046634752 0.03547625
0.036483463 -0.0065302243 0.00027804327 -0.042282898 0.011423803 0.004497649 0.014920393 0.072597146
-0.031499747 0.00025230594 0.024993906 -0.063593544 -0.0012688703 0.016220802 0.07360381 -0.053140126
-0.08106857 -0.016429422 0.002099539 -0.02304478 -0.06451402 -0.06138905 0.045306925 -0.08600842
0.017634017 -0.04001145 -0.06333343 0.0020503632 -0.0032040025 0.035728063 -0.062346045 0.04344675
0.023793198 0.03367378 -0.0007944134 0.011013305 -0.0046626627 -0.016431073 -0.036866587 0.03768315

conv2.bias f4 [64]
00000000: e628 41bd fd5f f8b9 1c8b 8d3c 02bc e3bc
00000010: a5a9 21bc de22 8fbc 4186 013c 9b88 01bd
00000020: 8166 8fbb b0d6 043d e964 28bd 2495 1bbc
00000030: e573 17bd 55fb 203d 779a 78bc 04e8 cf3b
00000040: 5539 b0bc 8a39 aebc 6c4b 73bc 71c9 1cbc
00000050: 3da8 34bd 58da 863b 4c75 88bc df85 3dbc
00000060: 6d11 07bb e4e0 263a b3e8 40bc e3d1 42bd
00000070: 2434 3f3d b1e8 193c 44b0 193c 567c 4a3c
00000080: 29f0 4e3d 9e2e d73b 9081 4bbc 1d0e 313d
00000090: a161 efbc 96f3 72bc c736 0a3d e669 fe3c
000000a0: 5a08 0abb eb61 5f3d a065 0abc 6a39 bdbc
000000b0: 8984 573c c448 2f3c b198 4cbd 0b51 a4bc
000000c0: 15b2 fd3a 137c 3ebd 76bd 1cbc 45c4 e13c
000000d0: 0225 613d 7906 d5bc e977 20bc a3d0 c0bb
000000e0: d35d 08bd ad66 ed3c 7f1a 97bc d0b3 8d3c
000000f0: 0b13 2ebc 1a03 923d cf1b 37bc 7019 043d
-0.047158144 -0.00047373763 0.017278247 -0.02779961 -0.009867107 -0.01747268 0.007905544 -0.031624418
-0.004376233 0.032431304 -0.04111186 -0.009496007 -0.03697576 0.03930219 -0.015173546 0.006344797
-0.021511713 -0.021267671 -0.014849525 -0.009569512 -0.044105757 0.004115384 -0.016657494 -0.011567562
-0.0020609752 0.0006365909 -0.01177423 -0.047563445 0.046680585 0.009393857 0.009380404 0.012358746
0.050522003 0.0065668365 -0.012421027 0.04322635 -0.029221358 -0.014828583 0.033743646 0.031056356
-0.0021062107 0.05453674 -0.008447081 -0.023098666 0.013154157 0.010698501 -0.049950305 -0.020058176
0.0019355441 -0.046505045 -0.009566655 0.027559409 0.054966934 -0.026004063 -0.009794214 -0.0058842464
-0.033292603 0.028979624 -0.018445252 0.017297655 -0.010624657 0.07129498 -0.011176064 0.03225082

conv3.weight f4 [32, 64, 5, 5]
00000000: 2064 3738 f0bc 9139 2d21 5338 f6a6 3bb8
00000010: d439 f9b7 0e05 e9b7 dbd4 4bb9 6896 7339
00000020: cd9d 9d38 e5df 0f38 7b72 ec3c 38c7 94bb
00000030: 1280 153d 22c3 633c b54d 883c 8478 e43c
00000040: 2bac 803c c50c 033d 1860 033d 760f ddbb
00000050: 4b50 563b 5b85 953c d740 713c e92d 6a3d
00000060: 04c6 2c3c 6541 0cbb a7ee 16bb 7ef2 02bb
00000070: e634 d7ba f202 08b6 4820 b9b9 90bd c4b8
00000080: ac19 443a 71b4 f838 f26a b236 4ce2 063d
00000090: f17a 663c 20a2 3f3c 0193 383b 7316 283d
000000a0: 39dd 4bbc ee0d dbb9 1433 153d b6eb 683c
000000b0: 6426 8c3c 8df1 0d3c b8f5 99bb d687 d43b
000000c0: c259 1d3d 539e 5c3c f2dd 313a 0ce9 9238
000000d0: 156f 0fb7 7f44 adb7 e497 9537 673e 1c3a
000000e0: 777e ed37 9d1c 0cb9 2c6c 0738 edd8 e636
000000f0: dcd2 2a39 d2a2 393c d5dd 723c e318 9b3c
00000100: 82e8 dcba 6146 4f3a 9caa 11bc d7b9 adbc
00000110: 135a 023c 9a7d c63c 578f 41bc 67c3 443c
00000120: d3aa d6bb 8832 54bc 2a1a c93c e021 2cb9
00000130: a97a e2b9 d014 61b6 6ff3 bc38 7441 77b6
00000140: 9a6d d638 a381 a4b9 dd6a 1239 12bb 1eb8
00000150: 246a d336 32e0 33bc a4f5 5cba 6bb5 fa3a
00000160: 3879 893c dd14 903b 023b c0bb 8e9e f8ba
00000170: 1bab c33c dd68 453c 6d32 b2bb 14bf 5fba
00000180: 22b1 d3bb abb3 05bd f3d5 9e3b c32c 91bc
00000190: f8e8 99ba 6a1a 00b9 402f 27b7 91ea 3cb9
000001a0: 56d2 3eb6 eef6 343a 0b2e 26ba 0ac3 5fb9
000001b0: e389 21ba eef1 c636 d73c 063d 1d9f 063a
000001c0: de6a 8e3c 791c 133c 2e0c 35b8 8fd5 463c
000001d0: f09a 18bd e0f7 af3c df1e c83b 351d 02bc
000001e0: 72d3 44ba 4ec4 bcbb 34d0 cb3b e517 f83c
000001f0: 24e8 8d3c 5b78 87b8 c921 0e3a b614 e337
00000200: f625 0ab8 5abc d736 a88b 67b7 ff10 ee39
00000210: 29ef c736 a92a 0038 8854 60b7 39b7 eabb
00000220: ca2b de3b fbf8 8ebc d509 243d 6a3b 533b
00000230: 340a 81bb 71c6 e43c 0334 72bc 259d 9e3b
00000240: 121f 263c c983 7cbb 916e 583a c904 a73b
00000250: debb e53c 2beb f63c 80a5 81ba 1ab6 d43a
00000260: 8833 003b eee7 023b aed5 7638 0e76 223b
00000270: 6f51 803b 6e16 11bb 3e05 a3ba d6b1 66b8
00000280: f450 3b3d 03f3 8c39 9e94 843c 23a5 f73c
00000290: 71ae 0c3d 7369 783a 6c00 2a3d aac6 d23c
000002a0: 7054 d6b8 9e72 92bc 25d9 b63b c56c 863c
000002b0: ccc2 c3bc d51f 0b3a 247b cebc cc51 91b8
000002c0: 8d33 fcb8 0e79 21b9 118b 90b9 3278 af37
000002d0: fe2e 0039 cf90 72b9 05ac a9b9 d47b 2cb9
000002e0: 8969 1837 b392 633c 253d 4b3a 4c33 093c
000002f0: 0243 3d3c 8711 88bb 42ab c13c 6eb2 1c3b
00000300: 4db0 783c 01b6 683c 5791 05bc 02b0 bebb
00000310: 5f48 263c 722b 873c e1c9 d33b 1213 c4bc
00000320: e27f 8f37 b052 0bb7 ce88 0038 31a3 9438
00000330: d4be 88b6 8bc2 deb8 5efa f738 6114 45b8
00000340: 067b c1b7 1609 e437 c5dc b2b9 53f9 673c
00000350: 8a03 913b af8a 013c 989f ac3a 274b 4739
00000360: 17ad bc3c a5e2 403c 0def 3b3c 0b1f ec3a
00000370: bc83 663b c316 8abb 678f b93c 26e8 4cbc
00000380: 396f 693c 72f2 7539 92ce 6d3a 2eaf 063b
00000390: 5270 3f3a bebf 9eb6 2b25 723a cb2b 283b
000003a0: c44a f8ba fc5f a8b9 fef7 9337 c586 123d
000003b0: c257 03bc e29c 153d cae5 9f3c ae89 b13b
000003c0: 5193 833c f5cb 23bc 07b8 db3b 93be b63c
000003d0: 002e c5ba f58a 593c 0d46 e1bb 3404 223c
000003e0: a104 51bc 762c 603c 9b84 dc37 6646 8837
000003f0: fbe5 7bb8 6ab8 0f39 ce63 57b7 744d 5537
4.372385e-05 0.00027797325 5.0337218e-05 -4.473977e-05 -2.9710041e-05 -2.7778118e-05 -0.00019438883 0.00023230317
7.515736e-05 3.4302375e-05 0.028863182 -0.0045403503 0.03649909 0.013901504 0.016638616 0.027889498
0.015707096 0.0319946 0.032074064 -0.006746228 0.0032701667 0.018252065 0.014724932 0.05717269
0.0105452575 -0.0021401283 -0.0023030431 -0.0019980962 -0.0016418963 -2.0267294e-06 -0.0003531 -9.381317e-05
0.0007480632 0.00011859171 5.3172635e-06 0.032930657 0.014067397 0.011696368 0.0028163793 0.041037034
-0.01244288 -0.00041781313 0.036425665 0.014216354 0.01710815 0.008663547 -0.0046984814 0.0064859195
0.038415678 0.013465482 0.00067850866 7.005231e-05 -8.5493275e-06 -2.0655103e-05 1.7832914e-05 0.00059602264
2.8311491e-05 -0.000133621 3.228725e-05 6.8797876e-06 0.00016291015 0.011330323 0.014823397 0.018932765
-0.0016853961 0.00079069106 -0.008890774 -0.02120678 0.007956046 0.024229813 -0.01181396 0.012009478
-0.0065511256 -0.012951501 0.024548609 -0.00016415818 -0.00043197468 -3.3539727e-06 9.0098816e-05 -3.6843967e-06
0.0001022473 -0.00031377104 0.00013963455 -3.784436e-05 6.3006464e-06 -0.010978745 -0.0008428937 0.0019127553
0.016781434 0.0043970183 -0.0058664093 -0.0018968151 0.0238853 0.012048927 -0.00543814 -0.0008535248
-0.006460325 -0.032642048 0.004847282 -0.01772154 -0.0011742404 -0.00012216871 -9.964977e-06 -0.0001801646
-2.8434638e-06 0.00069032505 -0.00063392584 -0.00021339595 -0.00061622093 5.929024e-06 0.032772865 0.0005135404
0.017384943 0.008978956 -4.3165106e-05 0.012135877 -0.037257135 0.0214805 0.0061071957 -0.007941534
-0.00075083144 -0.005760706 0.006219888 0.030284831 0.017322607 -6.4597196e-05 0.00054219045 2.7070153e-05
-3.2937118e-05 6.4294263e-06 -1.3801189e-05 0.0004540756 5.958504e-06 3.055731e-05 -1.3371122e-05 -0.007162955
0.0067801224 -0.017452708 0.04004844 0.0032231458 -0.003937984 0.027926655 -0.014782908 0.0048405104
0.010139244 -0.0038530699 0.0008256222 0.005097006 0.028043684 0.030141434 -0.0009891242 0.0016228587
0.0019561965 0.0019974667 5.8849975e-05 0.0024789604 0.0039159576 -0.0022138613 -0.0012437475 -5.5001896e-05
0.0457315 0.0002688394 0.016184147 0.03023011 0.034346048 0.00094761624 0.04150431 0.025729496
-0.00010220043 -0.01787692 0.005580085 0.016409287 -0.023896597 0.00053071725 -0.025205202 -6.929375e-05
-0.000120258985 -0.00015399253 -0.00027569433 2.0917596e-05 0.00012224537 -0.00023132864 -0.00032362356 -0.00016449328
9.084478e-06 0.013889956 0.00077529467 0.0083740465 0.01155162 -0.00415248 0.023641232 0.0023910063
0.015178752 0.014203549 -0.0081523275 -0.0058193216 0.010149091 0.016500209 0.006463275 -0.023934875
1.7106478e-05 -8.304298e-06 3.0644987e-05 7.087587e-05 -4.075331e-06 -0.000106220214 0.00011824512 -4.698744e-05
-2.306468e-05 2.7183949e-05 -0.00034115292 0.014158565 0.0044254707 0.0079066 0.0013170121 0.00019006115
0.023031754 0.011772786 0.011470568 0.0018014623 0.0035173735 -0.004214139 0.022651387 -0.01250652
0.014247709 0.00023455339 0.0009071614 0.0020551193 0.0007302809 -4.7310887e-06 0.0009237106 0.0025660868
-0.001894318 -0.0003211497 1.7639246e-05 0.035773057 -0.008016529 0.03652657 0.019518752 0.005418024
0.016061457 -0.009997358 0.0067052874 0.02230767 -0.0015043616 0.013277759 -0.006874806 0.009888697
-0.012757451 0.013682475 2.6287793e-05 1.6245245e-05 -6.005725e-05 0.00013706242 -1.2838236e-05 1.2713823e-05

conv3.bias f4 [32]
00000000: 2184 68bc cd87 1d3c 4670 f3bc 5f22 f43b
00000010: 2c1f 00ba 78d3 3a3a b4c9 5339 2c5d be3b
00000020: 5969 09bd dac9 7d3c 481e 5abb c31b 2d3d
00000030: d33f 073b f185 b0bc 0dc8 ca3c 4c94 28bd
00000040: 6217 3d3d 49ad 753c c78d 76bc ea2a 953c
00000050: b6fa df3b 1877 e1bb f29d 78b9 8fa1 103d
00000060: f786 11bb fab4 593c b72a 133c f2cc 623d
00000070: 4b41 d4bc eca7 933c ad89 0d3c 70b5 4e3d
-0.014191658 0.009614897 -0.029716622 0.0074503864 -0.00048874575 0.0007126848 0.00020197668 0.005809447
-0.033547733 0.01549002 -0.003328221 0.042262804 0.0020637407 -0.021548243 0.024753595 -0.041157052
0.046164878 0.014994928 -0.015048451 0.01820894 0.006835307 -0.006880652 -0.00023709962 0.035310324
-0.002220569 0.013287777 0.008982352 0.055371232 -0.02591004 0.018024407 0.0086387815 0.050466

fc_1.weight f4 [8, 32]
00000000: af1a 833d f81b 893e fff3 72be 807a c63e
00000010: cbe5 e0bd 6cc5 2abb 31d8 fb3a f52f 3a3e
00000020: 9c43 cc3c 4ed3 22bd a6ca b2bc cfa5 003e
00000030: a69c 3ebd cf66 0bbe f93b 40bd e19b 99be
00000040: 85ab f03c 8ef5 7c3e 076a 09bd 4e7e ef3d
00000050: 6134 aa3d 1232 2a3e 6da2 70bb f553 bf3e
00000060: 607b 26bc b593 05be 556d 803d 6c44 da3c
00000070: 6bb3 c2be 9746 143c 9fa3 f33e 7920 8fbd
00000080: d712 f93d c8b1 8b3d ab8f adbd d470 33be
00000090: 2dc6 a9bd 5235 393e 9c63 853b 9d88 6b3b
000000a0: d48a 57be da12 db3d 7a76 e8b9 e89f 1d3d
000000b0: 7c2d 5b3d f1bf ea3b e9a1 84bd caf6 21be
000000c0: 29ee b13e 64ef d0bd 2ca9 8cbe 5bfa d23e
000000d0: 29b2 81bd 8132 1ebe 2e30 4b3b 624a ab3c
000000e0: 8471 1b3d 1ece 1f39 2f77 1d3b 272e 113e
000000f0: 7224 813d 4e0c 5dbd f70f 6cbd c1ab 793e
00000100: 8cdc 4d3d 0ca6 c03d fc9e 203d c410 403e
00000110: 3db1 4fbc 37e0 913e ebb7 94b9 6fe7 0bbb
00000120: 37c8 933e da2b 16bd b403 d1bd 376e 62bd
00000130: 53c6 84be 91fb e63d 1823 21bf 935a c73c
00000140: 9089 e6bd 6e00 373e 6cb1 68be 1b0d 513d
00000150: 290d 7ebb 0592 d53d 5e8c 4ebd 09f4 4f3d
00000160: b4f0 58bc 238a 98be e46b 53bb 82ce 82be
00000170: 7fee 1aba b745 66bd ebdc 8e3e 65e1 8dbe
00000180: 5e04 1e3e 5e2b c4bd b28f 01bd 2800 403e
00000190: 986b c63d 69d3 99bd ceb5 813d 262f 18b9
000001a0: b3b5 8cbd 57da 49be 4cee 8a36 1b5f 5bbe
000001b0: 93d6 ef3d bf15 cbbc 9f7e a33e a7a8 023d
000001c0: 2ba7 2fbd df8c 3ebe 2abb 533e 8bbc 64be
000001d0: d6e9 8ab8 22b4 f2bd b5d8 f8b9 0f7c 9abd
000001e0: 3572 203e 73a4 0cbe d3fc 5cb9 8f13 9ebe
000001f0: 8ce5 18bc f06b 3bbe d0f2 b0be 1a0b 753c
00000200: 5c54 3a3e 6a7b 203d d262 2a3e 0fc9 24bd
00000210: c0e3 6fbe 407b a0bb b13b 95b9 6876 b4bc
00000220: a8d6 a7bd 3837 babe 772a 06be 77e3 75be
00000230: 582d 503e 7b52 90bc 0ef9 5a3e d05d d43d
00000240: 73fc 4fbe 7fb2 adbd c77c 50bc b085 16bd
00000250: 0e2e 5939 a5b1 883d fa4a fbb6 14fb 713e
00000260: 8a10 4a3d 0f47 24be ff82 e3bd 1409 42be
00000270: 205d 13be ec97 bdbe 525d 8a3d 860d c2be
00000280: 7fb1 d53d 04fa 33be 5d12 cc3e c007 a53d
00000290: 839a 903d 651c 93be e34c 2ebd d725 25ba
000002a0: 98fc 23bb c1a6 f43d 924a bc3e 47af 863c
000002b0: 21dc 13bd f200 f1bc b503 0dbe a466 123e
000002c0: fef6 26be 1a01 a03d 34ce 06be e2c4 a2be
000002d0: 1569 9fb9 384a 1abc b170 333d f76e 87bd
000002e0: 928d ed3d 8134 b53d 6f30 8cbc 3fbe 97bd
000002f0: 7d61 f3bd 3108 f33d 355f 213e caa9 25be
00000300: edcf 5fbd d692 abbe ec09 03bd fb19 babc
00000310: 93a5 90bd 2c78 603e 56f8 f336 3023 87b9
00000320: 244c da3d 2e45 1abe 73a6 04bb 53f7 26be
00000330: 786a 5fbe fdef 813e baf1 ca3d d8a6 7abe
00000340: b0d5 0b3c cecc b53e c821 72bd 853d a4be
00000350: 98f8 f3b9 d5fc 31be e88a 9439 1b4e 923e
00000360: 0087 c7b8 c072 1ebd f564 38b9 e15c 12bd
00000370: 6f39 a9bc b82e b23d f2f0 22be 6c34 91bd
00000380: 5d8f dbbd eb28 e4bd 7adf db3d 5cb2 e13e
00000390: 2ddb a73e 0885 adbe cade d9b6 b8b0 02bb
000003a0: 7fa1 d0bd a48c 983e 2d90 3cbb ed8d 433b
000003b0: 8339 7fbd 4989 8fbe 4c03 ad3d 9926 843d
000003c0: 5714 b93e e71e 013d a412 57be 9a69 83be
000003d0: 0601 8bbb 4059 b4be 67be 083a ffb3 a73d
000003e0: 90b4 bb3d 4e15 393e d17c 90bd 0c7c fa3d
000003f0: 35f4 25be d326 083e 8134 813d ea87 983d
0.06401574 0.2677915 -0.2372589 0.38765335 -0.109813295 -0.0026057614 0.001921421 0.18182357
0.024934582 -0.039752297 -0.021825146 0.12563251 -0.04653611 -0.13613437 -0.046932194 -0.3000174
0.029378662 0.24703047 -0.03354838 0.116940126 0.08310772 0.16620663 -0.0036717907 0.37368742
-0.010161251 -0.13044627 0.062708534 0.026643954 -0.3802751 0.009050033 0.4758577 -0.069886155
0.121617965 0.068210185 -0.08474668 -0.1752351 -0.08289752 0.18086746 0.0040707123 0.0035939582
-0.21049052 0.10696955 -0.0004433876 0.038482577 0.053510174 0.0071639945 -0.064761944 -0.15816799
0.34752014 -0.1020191 -0.27472818 0.4120663 -0.063328095 -0.15448953 0.003100406 0.020909492
0.037950054 0.00015240206 0.0024027338 0.14177762 0.063057795 -0.053966813 -0.057632413 0.24381925
0.050259158 0.09406671 0.03921412 0.18756396 -0.012676534 0.28491375 -0.0002836579 -0.0021347662
0.2886369 -0.036662914 -0.102057844 -0.05528089 -0.2593256 0.11278451 -0.62944174 0.024335181
-0.11256707 0.17871258 -0.22723931 0.05103789 -0.0038765168 0.10428242 -0.050426833 0.05076984
-0.013240982 -0.2979289 -0.0032260353 -0.25548178 -0.00059101725 -0.05621883 0.27902922 -0.27711025
0.15431353 -0.09578584 -0.03163118 0.1875006 0.09688491 -0.075110264 0.063335046 -0.00014513414
-0.06870594 -0.19712196 4.140462e-06 -0.21422999 0.11710849 -0.024790643 0.31932542 0.03189912
-0.042884033 -0.18608426 0.20676866 -0.22337548 -6.623908e-05 -0.11850764 -0.00047463705 -0.075431935
0.15668567 -0.13734607 -0.0002107502 -0.30874297 -0.009332072 -0.18302894 -0.3456025 0.01495626
0.18196243 0.039180197 0.1663926 -0.040230807 -0.23426723 -0.004897505 -0.00028463968 -0.022029117
-0.08195239 -0.36370254 -0.13102137 -0.24012552 0.20329797 -0.017617455 0.2138407 0.10369456
-0.20311145 -0.08481311 -0.012725062 -0.036748588 0.0002071189 0.06674508 -7.4891113e-06 0.23630935
0.04933218 -0.16042732 -0.1110897 -0.18948776 -0.14390993 -0.3702997 0.06756081 -0.37900943
0.10434245 -0.17575842 0.3985776 0.08058119 0.07060721 -0.287326 -0.042553794 -0.0006299889
-0.0025022384 0.11945868 0.36775643 0.016441 -0.036098603 -0.029419396 -0.13770945 0.14296967
-0.16305158 0.0781271 -0.13164598 -0.31790835 -0.00030405135 -0.009417109 0.043808643 -0.06612962
0.11599268 0.08847905 -0.017112939 -0.074093334 -0.11883829 0.11866797 0.15758975 -0.1617805
-0.054641653 -0.33510464 -0.031991884 -0.022717467 -0.07062831 0.21920842 7.2708744e-06 -0.00025775423
0.10659054 -0.15065452 -0.0020240813 -0.16305284 -0.21817958 0.2537841 0.09909387 -0.24477708
0.008534834 0.35507816 -0.059114248 -0.32078186 -0.0004653379 -0.17381604 0.00028332253 0.28575215
-9.514205e-05 -0.038683653 -0.00017585217 -0.035733107 -0.02065727 0.08700317 -0.15912226 -0.07090077
-0.10720704 -0.11140617 0.10735984 0.4408139 0.32784405 -0.33890557 -6.49304e-06 -0.0019941758
-0.10187053 0.297948 -0.002877246 0.0029839233 -0.062310707 -0.28034428 0.084478945 0.064526744
0.3614833 0.03152361 -0.21003205 -0.25666505 -0.0042420654 -0.35224342 0.00052163604 0.081886284
0.09165299 0.18074533 -0.07055057 0.12230691 -0.16206439 0.1329606 0.063088425 0.074477986

fc_1.bias f4 [8]
00000000: da4c 0b3d 356b d63c b56b 2ebd 2cba abbc
00000010: ebce bdbc f970 84bc 1431 d73b 7be7 c23b
0.03400884 0.026174167 -0.042583186 -0.020962797 -0.023169955 -0.01616715 0.00656713 0.005948005
