checkpoints/target0/epoch=11.checkpoint.pth.tar (torch, 320896 bytes, 8 tensors)

conv1.weight f4 [16, 3, 5, 5]
000000 b5 7c 42 3e 33 b6 18 3e 53 31 9f 3d a3 d7 5f be
       0.18992884 0.14913253 0.0777308 -0.21859603
000010 88 b9 92 3d d8 19 04 be 7f b9 8c bc a9 4f 42 be
       0.071642935 -0.12900484 -0.017178295 -0.189757
000020 6e 2e d9 bd 22 b0 28 3e d8 a8 27 bd 5f 23 08 be
       -0.10604559 0.1647344 -0.040932506 -0.13294743
000030 53 9e ce bd fd f5 bb bd c6 d5 9c bd 9c 90 bb 3d
       -0.10088792 -0.09177778 -0.076579615 0.091584414
000040 13 31 40 3e 36 40 aa bc a4 bb 89 bd 32 4e 0b 3d
       0.1876872 -0.020782571 -0.06725243 0.03401012
000050 5c 4f 81 bd 10 9d 02 3e 7d ae aa 3d b3 a1 20 3e
       -0.06313965 0.12755227 0.08334062 0.15686683
000060 1c 48 00 3e 6f 4a fe 3d 9b 91 85 3d c0 bb f2 3d
       0.12527508 0.12416541 0.06521913 0.11852217
000070 40 3f 50 bd b3 37 a2 3a 12 4e 0c bd d5 18 93 3d
       -0.05084157 0.0012376219 -0.03425414 0.07182471
000080 1a 8c 30 be fa f5 00 be 48 b6 ae bc 0a 76 2a 3e
       -0.17240945 -0.12593833 -0.021327153 0.16646591
000090 e7 6d 0e 3d e0 00 97 bd 53 4d 3b bc bb 2f aa bd
       0.03477278 -0.07373214 -0.01143201 -0.08309885
0000a0 eb a5 11 be 31 ac f5 3d 87 1b b8 bd 61 e6 aa bd
       -0.14223449 0.119957335 -0.089896254 -0.083447225
0000b0 5b a8 0a be 0f 49 65 3e e9 9e d5 bd 43 e7 28 bd
       -0.13540785 0.22391151 -0.104307 -0.041236173
0000c0 db a4 b5 bd d6 e7 72 bd 88 33 5a 3c c5 41 89 3d
       -0.08869334 -0.059303127 0.01331795 0.06701998
0000d0 3b a2 42 bd 72 06 c6 3d ec 44 9c bd f8 69 94 bd
       -0.047517996 0.09669198 -0.07630333 -0.072467744
0000e0 a2 5a 0a be 3e c6 da bc 8f c7 25 bd 39 b1 8b 3d
       -0.13511136 -0.026705857 -0.040473517 0.06820912
0000f0 5d eb b1 bb 84 40 44 3e 9d 6c 0c be ae 15 d3 3d
       -0.005429669 0.19165236 -0.13713308 0.103068694
000100 f2 c6 0c 3e f3 c8 d0 3d 0f 33 79 3e d5 d2 4f 3d
       0.13747767 0.10194578 0.24335884 0.050738174
000110 50 2b a0 3c 30 e2 b6 bc a7 a9 b8 bd 62 aa 16 3e
       0.019551903 -0.022324651 -0.090167336 0.14713433
000120 54 14 ed bb 37 fa 65 3d 28 41 7a 3c 8e 68 b2 3c
       -0.0072350893 0.056146827 0.0152743235 0.021778371
000130 9a 59 28 3d a1 57 9a bd fb e1 6c be e2 a0 ba bd
       0.041101076 -0.07536245 -0.2313308 -0.09112717
000140 59 74 ce bc 98 2e 5f bd fa 3d 1a be 64 d0 a4 bd
       -0.025201963 -0.054487795 -0.15062705 -0.0804756
000150 a0 8b f3 3c 2b 0a ed 3c 18 b6 a8 3d 6e bf ef bc
       0.029729664 0.028935513 0.082378566 -0.029266085
000160 7b e6 1b 3d 75 62 8c bd cb 05 fa bd 87 0d 03 3d
       0.0380616 -0.06854717 -0.12208136 0.031995323
000170 1e b1 46 be 3f d7 dc bd 6d 63 da 3d d8 56 a0 3c
       -0.19403502 -0.107832424 0.10663495 0.01957266
000180 f7 0f 88 be 14 b9 bd 3c 41 39 4c 3d 48 91 a8 bc
       -0.2657468 0.023159541 0.04985929 -0.020577088
000190 9c 57 9c 3d d5 ff 9b 3d 3e e2 fa 3d d6 33 00 bd
       0.07633898 0.076171555 0.122501835 -0.031299435
0001a0 be 0c 17 bc 49 17 a7 3d 0f 20 56 3d 32 36 e5 3c
       -0.009219347 0.08158738 0.052276667 0.027979944
0001b0 7d 58 10 3d ce b0 05 3e ca 94 02 3c db 04 bd bc
       0.03524064 0.13055727 0.007970044 -0.023073604
0001c0 0d 67 0e be 76 c7 d5 bb be 4b 46 bd 1c 68 59 3d
       -0.13906498 -0.0065240217 -0.048412077 0.053077802
0001d0 5f 09 9b 3d ee 73 19 3c 26 d1 09 bd 5f 3a 79 3d
       0.07570147 0.009366019 -0.033646725 0.060846683
0001e0 d4 4e 95 3a e0 ea f3 3c 6d d6 bb 3c f9 9a a5 3d
       0.001139129 0.029775083 0.022929395 0.08086199
0001f0 9c 71 e5 3d 58 3b 86 3d 39 19 db 3d 1d f2 9b 3d
       0.1120331 0.06554288 0.1069817 0.07614539
000200 28 ca 5c 3e 1b ce f5 3d b9 9f e5 bd 71 70 9e bd
       0.21561491 0.12002202 -0.11212105 -0.0773629
000210 fe b3 87 3c be 07 3e 3e 7f b2 b0 3d cd a0 a6 3d
       0.01656532 0.18557641 0.086277954 0.08136139
000220 08 a9 09 3e 38 51 99 3c 0a 96 1b be b5 80 ea 3d
       0.13443387 0.018715486 -0.15193954 0.1145033
000230 39 41 79 bc 76 99 f4 3d 8b d1 56 bd ac 23 9f 3d
       -0.015213304 0.11943333 -0.05244593 0.07770476
000240 cf 2e 94 bd f8 af d6 3d f0 30 2f 3e be 9f 20 3e
       -0.072354905 0.10482782 0.17108512 0.15685937
000250 3a 8e 1f 3d 98 ac ff bb f4 0f 12 bd af db 0c 3d
       0.038953997 -0.007802557 -0.035659745 0.034389194
000260 bc 4d ba 3c 0e b8 a2 3d be 70 2c bd 44 71 2b 3e
       0.022742145 0.07945262 -0.042099707 0.16742426
000270 37 82 7d be d6 d9 64 bd c1 87 02 be 14 c2 95 3d
       -0.24756704 -0.055871807 -0.12747099 0.07312408
000280 5a 58 57 be 39 10 17 3b f5 3b 1a bc 02 7e 08 bd
       -0.21029797 0.002305044 -0.009413709 -0.033323295
000290 42 d5 0e 3d 5b 70 ad bd 74 b6 a7 3b ee ce d1 bd
       0.034871347 -0.08468696 0.0051181857 -0.10244547
0002a0 d5 38 17 be 18 01 26 3e 67 d1 08 3e f0 7d ee 3a
       -0.14767773 0.16211355 0.1336113 0.0018195491
0002b0 06 a9 0f be ec fa c5 3d 21 a2 f1 3d ff 3e 75 3e
       -0.14029321 0.09667 0.11798502 0.23949812
0002c0 ee 04 1e 3d 51 70 3b 3c 76 12 ac bd 15 5d 1f bc
       0.03857892 0.011440353 -0.08401959 -0.009726782
0002d0 1a a0 87 bd a6 98 1a be 72 47 f1 bd 61 49 61 bd
       -0.06622334 -0.15097293 -0.11781205 -0.05500162
0002e0 e1 18 24 bd 29 6b 25 be ad 36 51 be d3 7c 1b 3c
       -0.04006279 -0.1615416 -0.20431013 0.00949021
0002f0 39 e8 d8 3d 23 a5 f6 bc 4f 4d 87 3d c8 19 83 3d
       0.10591168 -0.03010804 0.06606542 0.06401402
000300 1a 8b 32 3e 59 e4 a1 bd 8c 78 fe 3d 09 18 45 bc
       0.17435876 -0.07904882 0.12425336 -0.012029656
000310 b6 7f e3 bd b3 14 21 3d da 09 88 3d e1 a6 2d 3e
       -0.11108343 0.03932638 0.06642504 0.1695819
000320 d1 6b bc 3d 5c 93 6a 3e b8 c8 40 bd 16 a6 b7 bd
       0.09200252 0.22907776 -0.04706642 -0.08967225
000330 21 24 0f 3d 59 c0 fc 3d 45 79 01 3e a2 9c 18 3d
       0.034946565 0.12341375 0.12643917 0.03725875
000340 90 f2 a4 bd 0c ab ac bd c6 15 6c bd a1 9d 90 bd
       -0.080540776 -0.08431062 -0.057637952 -0.07061315
000350 f4 f8 51 3c b7 0a 4d 3d 03 3e dd 3b 4f 32 68 be
       0.012815703 0.050059047 0.006751777 -0.22675441
000360 2b 08 38 bd 7f 56 d0 3d b6 3f 2d be 1c 20 29 3e
       -0.044929665 0.10172748 -0.16918835 0.16516155
000370 af 69 56 3d e3 ca 49 bd 8f 19 be 3d 66 ac 2d 3e
       0.05234688 -0.049265753 0.09282219 0.16960296
000380 ea c6 88 3c d6 10 26 3e 6f 53 82 3c 92 9e e3 bd
       0.016696412 0.1621736 0.015908925 -0.11114229
000390 88 3c a2 bd a3 5a ce bc 95 f9 21 3d ab ab 50 3e
       -0.07921702 -0.025189703 0.03954466 0.20377986
0003a0 48 94 25 bc 71 75 e3 bd cd fd 6e be a7 4f e8 bd
       -0.010106154 -0.111063845 -0.23339005 -0.113433175
0003b0 45 d5 f7 3b 50 cb a3 3b 5e ea a8 bb e8 6e 03 bb
       0.0075632655 0.004998602 -0.005154892 -0.002005512
0003c0 6b 0f d0 bd d7 1f f1 3c ff 8c 42 bd b7 1c e9 3c
       -0.10159191 0.029434128 -0.047497746 0.028456075
0003d0 6c c8 f6 bd 0b 7d 63 bc 41 14 f9 bc 6f 1a 11 3e
       -0.12049946 -0.013884793 -0.030405166 0.1417024
0003e0 4e f2 c6 3d 8c aa dc bd 44 c4 aa 3d 39 05 5e 3d
       0.09714185 -0.10774717 0.08338216 0.0542042
0003f0 a6 cd 42 3d 55 be 17 3d 7d 84 a4 3c 28 5b c6 3c
       0.047559403 0.03704675 0.020082707 0.024213389

conv1.bias f4 [16]
000000 8d 77 88 bd 61 e7 f9 3c 20 0f 62 bd e0 29 3b bd
       -0.066634275 0.030505838 -0.055190206 -0.045694232
000010 23 37 4e bd 3f 50 8c bd 5b 8e e9 3a 9b a7 05 bc
       -0.05034555 -0.06851243 0.0017818914 -0.008157636
000020 b7 e3 06 bd 49 26 66 3d 90 56 7d 3c 3f 76 c3 3c
       -0.03293201 0.056188855 0.015462533 0.023860095
000030 c4 ef fc bb 70 1e d7 3b 45 0f 55 bd 74 57 c0 3c
       -0.007719012 0.0065649077 -0.052016515 0.0234792

conv2.weight f4 [64, 16, 5, 5]
000000 55 1d 8a 3c 34 9c 81 3b 53 ed 1b 3b 8b 9b a5 3d
       0.01685969 0.0039553884 0.002379258 0.08086308
000010 88 1d 44 3d 40 8a ef 3a 35 70 d0 bb c5 86 33 3c
       0.047879726 0.0018275455 -0.0063610324 0.0109574245
000020 24 3f 17 bb 42 83 cb bc 24 7c 8b 3a 40 81 bb 3d
       -0.0023078406 -0.024842862 0.0010641855 0.09155512
000030 31 1f 66 bd 03 45 36 3c f8 74 81 3d ad 98 98 bb
       -0.05618209 0.011124852 0.06321138 -0.0046568722
000040 0d 5f ce 3c 82 31 7d 3d 89 3b b8 3d d4 db 46 3d
       0.025191808 0.061814792 0.089957304 0.04854949
000050 82 74 5a bc cc 95 6d 3d 57 56 dc 3c 61 e7 3e 3c
       -0.013333442 0.058004186 0.026896639 0.011651845
000060 78 e6 4c bd c8 46 88 3c dc 87 10 bd d3 18 d1 bc
       -0.05002448 0.016635314 -0.035285816 -0.025524532
000070 4b a6 e3 bc d2 87 d8 3c 71 44 2a bd 36 03 f4 bc
       -0.027789256 0.026431952 -0.041569177 -0.029786687
000080 b2 45 df bb 61 74 55 bd d9 d1 5f bd d2 9b ca bc
       -0.0068137283 -0.05211294 -0.054643486 -0.024732504
000090 ae 4c e1 bb 3b ec 89 bd 73 3c e6 3c 8f c9 9b bd
       -0.006875596 -0.067345105 0.028104996 -0.076068036
0000a0 79 62 2d 3d 5c a3 22 bc de 64 64 bd 37 5a 84 3c
       0.04233024 -0.009926643 -0.055760257 0.016156299
0000b0 f6 5f 1f bd e3 9a 9f bc 68 f8 7f 3c b3 e2 1a 3d
       -0.038909875 -0.019483035 0.0156231895 0.037813853
0000c0 dd e8 b9 bc 7c b5 f1 3a 63 74 ca bc 07 90 03 b9
       -0.022694046 0.0018440927 -0.0247137 -0.00012546788
0000d0 59 72 09 bd d3 36 5c 3d 2a 00 e9 3c c8 9f 9b 3c
       -0.033556316 0.053763222 0.028442461 0.018997088
0000e0 f6 60 02 bc 75 25 82 bc b7 9c e1 bc b6 14 36 bc
       -0.007957688 -0.015887002 -0.027540548 -0.011113336
0000f0 37 a9 54 bc 3b 21 6e bc d9 8e b0 3c 43 ae ba 3d
       -0.012979797 -0.01453429 0.02155249 0.09115269
000100 4f cb 7c bd 07 e9 85 39 23 07 e7 3c 50 bf 77 3d
       -0.061717328 0.00025541356 0.028201645 0.060485184
000110 3a a0 44 3d ab 9c cc 3c 1c 53 8a bc a6 15 ce bc
       0.048004366 0.024977049 -0.016885333 -0.025156807
000120 5b 91 f8 3d ed 6f 1f bd 0a 93 a7 3c 1c 7b 3e bd
       0.12137099 -0.0389251 0.020455856 -0.046504125
000130 a6 57 81 bc c7 0d 17 bc 50 ad 8a bc a7 0f 74 bc
       -0.015788864 -0.009219593 -0.016928345 -0.01489631
000140 d2 a5 10 bc 93 96 f1 b9 9d 29 a8 3c c1 d0 6c 3c
       -0.008828597 -0.0004607929 0.020527655 0.014454068
000150 d0 fa 13 3d f4 4a a0 bc 14 7a a6 3d 3b b5 4b bb
       0.036127865 -0.01956699 0.08128753 -0.0031083364
000160 66 e7 c3 3a 76 90 74 bc 96 f4 b9 b8 da d2 e9 bb
       0.0014946281 -0.01492702 -8.867045e-05 -0.007135731
000170 fe 93 64 3c a2 d9 a3 3d 86 10 33 bd 06 8b 63 bc
       0.0139513 0.080004945 -0.04371693 -0.013888126
000180 68 58 9d 3c 0a b3 21 3c b8 8d 3c 3d 96 f4 62 3d
       0.019207194 0.009869346 0.04603359 0.055409037
000190 55 d4 2c bd ce 42 8e bc 26 19 d8 bc 2d 17 3c 3d
       -0.042194683 -0.01736584 -0.02637918 0.04592054
0001a0 c4 b4 9a 3c b4 7e da bc 21 5f 4a bd da 40 95 3c
       0.018885024 -0.026671745 -0.04940713 0.0182194
0001b0 a0 b8 a7 3b fa f5 81 3b 68 29 2c bd a1 5c 0e bd
       0.0051184446 0.0039660903 -0.042031676 -0.034756307
0001c0 06 8d b1 3c ed 21 38 bd 6c 43 b1 bd c6 ef da bc
       0.02167369 -0.04495423 -0.08655438 -0.026725661
0001d0 94 ae 29 3d 47 df 57 3d 27 fa 3b 3c fd 37 67 3d
       0.041426256 0.05270317 0.011473215 0.05644988
0001e0 9d 4c 67 3d 7b ce 4c 3b 9a e7 23 3b a6 78 a6 3c
       0.05646955 0.0031251002 0.0025009871 0.020321202
0001f0 b0 25 82 3c 6c 51 ab 3b 91 db 08 bd ad 21 c7 bc
       0.015887111 0.005228212 -0.03341252 -0.02430805
000200 3d bc 2d 3c 18 0c ef bc f5 ef b5 3c c8 2c 31 3c
       0.010603962 -0.029180571 0.022209147 0.010813899
000210 dc bb 85 bd c6 43 1b 3d 16 cf 84 bc 2e 4b c0 bc
       -0.06529972 0.03790643 -0.016212028 -0.023473348
000220 ee 16 dc 3a a3 39 5d 3c 1b 25 03 3d 0a c1 2b 3d
       0.0016791502 0.013502511 0.03201781 0.041932143
000230 63 6f 91 3d e4 48 da 3d 26 71 ab 3c 07 30 53 bc
       0.071013235 0.10658434 0.020927977 -0.012889869
000240 55 fc 63 3b fd 33 0b bd b9 3b 1c 3d 06 75 15 bd
       0.0034787853 -0.033985127 0.038142893 -0.036488555
000250 0e 0e 32 3d 0d 9a 80 3d d2 e6 35 bd 95 a2 a9 bc
       0.043470435 0.06279383 -0.04440958 -0.020707408
000260 e9 4a b6 bc 1f fd 81 3b ec 57 a1 bb a8 40 0c bc
       -0.022252517 0.003966942 -0.004923811 -0.008560337
000270 86 e2 8a 3b e7 ee f6 bc 47 6e ad bc 23 58 9f 3c
       0.0042384295 -0.030143214 -0.021170748 0.019451207
000280 9a d7 b2 3c 6e f0 19 3d 96 be ad bc e9 ef 3e 3d
       0.021831322 0.037582807 -0.021209043 0.046615515
000290 8b 71 ef bc 8b 30 91 3c f5 56 a3 3a e1 56 87 bc
       -0.029228946 0.017723342 0.0012461828 -0.01652092
0002a0 1a 95 20 bc c7 5f bf 3a 5b 9b 6b bc 96 64 71 bc
       -0.009801174 0.0014600687 -0.014380301 -0.014733454
0002b0 06 b6 55 3d 1a 30 f3 3b 81 8e 53 bc bb 54 06 bd
       0.052175544 0.0074215056 -0.012912394 -0.03279565
0002c0 a6 ec a6 3d 7e 1f 30 bd 5b 2a 75 3d b0 e9 a8 bc
       0.08150606 -0.042998783 0.059854846 -0.020619243
0002d0 49 5a 76 bd 0f 34 d5 bb c1 e3 44 bd 85 bc 7b bb
       -0.060144696 -0.00650645 -0.048068766 -0.0038411927
0002e0 86 be 98 bc 88 e6 2f bb 24 da 23 3d 27 02 43 bd
       -0.018645536 -0.0026840288 0.040002957 -0.047609475
0002f0 6c 44 05 3d a5 40 b4 bb 59 9c aa 3d 7e c2 4c 3c
       0.032535955 -0.0055008703 0.08330602 0.012497542
000300 43 e4 95 bc f4 31 46 3d 1f e0 71 bc bc 97 84 bc
       -0.01829732 0.048387483 -0.014762907 -0.016185634
000310 a8 7e 98 3d b9 70 d2 3b d2 ce f0 3c 4c 52 9c 3c
       0.07446033 0.006422129 0.029395495 0.019082211
000320 31 3a 37 3d f4 0d 76 39 6b bd 2d 3d 67 bc cf 3b
       0.04473323 0.00023465586 0.04241697 0.006339598
000330 ba 22 72 3d d9 22 0b 3d cf a8 1b 3a 44 5e 88 3b
       0.05911515 0.03396878 0.0005937935 0.004161628
000340 6b 86 8b 3b 90 aa 08 bd a1 ed 43 bd cc 6d 8a bc
       0.004257967 -0.033365786 -0.047834042 -0.016898058
000350 a8 3f 50 bd 02 37 0d 3b 3c 1b 38 bd c9 bf 10 3d
       -0.050841957 0.002154768 -0.044947848 0.03533915
000360 53 4f 14 3d 8f d8 d3 bb 4c 1a cc 39 37 41 2a bd
       0.036208462 -0.006465025 0.00038929505 -0.0415661
000370 2e 08 42 3c 3d eb ae 3b 4a 8a 75 3c 55 82 93 3d
       0.0118427705 0.005338101 0.014986584 0.07202593
000380 02 62 f9 bc 6d 82 80 3a b9 5b cd 3c 3f ec 80 bd
       -0.030442242 0.0009804495 0.02506815 -0.0629506
000390 11 e8 e8 ba 36 66 87 3c e8 18 97 3d 32 c7 54 bd
       -0.0017769356 0.01652823 0.07377797 -0.05194778
0003a0 5c 21 a4 bd 49 6d 88 bc 35 54 0f 3b 77 79 b6 bc
       -0.08014175 -0.016653674 0.002187026 -0.022274716
0003b0 64 30 81 bd b5 4e 76 bd 48 a2 38 3d 85 bf a9 bd
       -0.06308058 -0.060133655 0.04507664 -0.082884826
0003c0 b6 8e 94 3c 20 e4 1e bd 38 a2 7f bd 93 68 13 3b
       0.018134456 -0.038791776 -0.062410563 0.002249275
0003d0 43 93 14 bb 38 47 16 3d 4e c5 77 bd 22 97 34 3d
       -0.0022670783 0.036689013 -0.0604909 0.044089444
0003e0 40 c4 c8 3c 22 35 0a 3d a3 91 11 ba de e3 37 3c
       0.024507642 0.033742078 -0.00055530126 0.011223761
0003f0 c0 c5 7a bb 9e fb 7f bc 2b 96 14 bd 77 3e 1a 3d
       -0.003826484 -0.015623955 -0.036276024 0.037657227

conv2.bias f4 [64]
000000 3a 63 3c bd ad 2c d6 ba c7 1b 8b 3c cd b3 da bc
       -0.045993067 -0.0016340219 0.016981019 -0.026697064
000010 8d 3e f4 bb 93 85 7f bc 31 05 0f 3c b4 30 00 bd
       -0.0074537457 -0.015595811 0.008729265 -0.031296447
000020 e6 de 76 bb 36 15 02 3d fb c0 24 bd 00 62 18 bc
       -0.003766948 0.03175851 -0.040223103 -0.009300709
000030 81 cf 17 bd 68 1d 1f 3d 0a 71 6f bc 6e e0 dc 3b
       -0.037063126 0.038846403 -0.014614353 0.0067406213
000040 50 28 a0 bc 4f 84 a9 bc 3f 37 60 bc 5b 7f 17 bc
       -0.019550472 -0.020692972 -0.013685047 -0.0092466725
000050 ae 0b 2c bd ff 0a a5 3b 42 d4 82 bc 8d ef 4e bc
       -0.042003326 0.005036711 -0.015970353 -0.012630356
000060 b9 8f 2d bb c2 f7 26 3b a4 d8 3b bc cc 58 3f bd
       -0.002648337 0.0025477265 -0.011465225 -0.046715543
000070 fc 0a 3c 3d 85 34 21 3c c0 24 30 3c d7 be 71 3c
       0.045908913 0.009839182 0.010750949 0.014754972
000080 85 3e 4c 3d 65 85 f1 3b 85 02 38 bc e5 6d 34 3d
       0.04986431 0.007370638 -0.011231069 0.044050116
000090 e7 3c e5 bc 8e 99 3f bc a0 f8 09 3d 41 0f fc 3c
       -0.027983142 -0.011694325 0.033684373 0.030768992
0000a0 28 25 3a bb 35 49 60 3d d8 38 0b bc 9b 29 be bc
       -0.0028403495 0.054757316 -0.008497439 -0.023213198
0000b0 d0 cf 69 3c cb 84 37 3c 52 7a 4a bd 5c 73 ac bc
       0.014270738 0.011201094 -0.04943306 -0.021051101
0000c0 9a 56 25 3b 31 14 3c bd cf dd 1f bc b4 d5 da 3c
       0.002522862 -0.045917694 -0.009757473 0.02671323
0000d0 99 99 5e 3d bc 36 c8 bc 5e 01 11 bc 7b 5d 97 bb
       0.0543457 -0.024440162 -0.008850424 -0.004619298
0000e0 21 3c 05 bd 9b 59 e6 3c f8 18 8f bc 6d 1d 8c 3c
       -0.032528047 0.0281189 -0.01746796 0.017103875
0000f0 28 73 1b bc 09 4a 90 3d 6e 04 22 bc bb 62 04 3d
       -0.009487905 0.07045371 -0.009888751 0.03232072

conv3.weight f4 [32, 64, 5, 5]
000000 94 52 89 37 84 53 73 b6 00 ce 25 38 64 4f bb 38
       1.6370126e-05 -3.6258434e-06 3.9530918e-05 8.9316425e-05
000010 4e 8d 51 b7 28 01 9d 36 52 2f cf 37 d7 84 96 b8
       -1.2490271e-05 4.679099e-06 2.4698358e-05 -7.177301e-05
000020 6d 1e be 37 92 f1 52 36 d7 e6 d3 3c 8c 9b b2 bb
       2.2663933e-05 3.143305e-06 0.025866909 -0.0054506715
000030 40 26 12 3d 25 99 67 3c 18 0a 5b 3c b3 28 d5 3c
       0.03568101 0.014135634 0.013369106 0.026020383
000040 10 e8 76 3c be 2f f6 3c 26 7c fc 3c 6e 78 bd bb
       0.015069976 0.030052062 0.030820917 -0.0057821786
000050 a5 0c 5a 3b e3 55 86 3c 0c de 6b 3c 99 fb 5f 3d
       0.0033271697 0.016398376 0.014396202 0.0546833
000060 61 15 1e 3c 36 b7 88 ba 00 04 4b ba 9a 50 72 ba
       0.009648652 -0.0010430578 -0.00077444315 -0.0009243578
000070 f6 cf 6f ba e0 b5 58 b4 38 0a 29 39 b6 8e 0e b8
       -0.0009148115 -2.0182733e-07 0.00016120903 -3.3988348e-05
000080 d1 22 e1 39 52 cd 8d 38 ea 5f 04 36 6e df 04 3d
       0.00042941284 6.761648e-05 1.9725362e-06 0.03243964
000090 03 cf 59 3c f9 7f 34 3c cc 7c 43 3b 3d 9c 1e 3d
       0.013293984 0.011016839 0.0029829023 0.03872322
0000a0 08 4e 26 bc 9d 4d bb 39 de 7b 0f 3d 2c 83 59 3c
       -0.01015044 0.00035725246 0.03503024 0.013275903
0000b0 99 43 83 3c 07 31 0a 3c 29 fd 9b bb 40 fc dd 3b
       0.016023444 0.008434541 -0.0047604037 0.0067744553
0000c0 67 10 1a 3d b1 3a 4a 3c ac 76 99 b8 a0 d3 49 b4
       0.0376133 0.012343095 -7.317713e-05 -1.8796572e-07
0000d0 1a f0 39 36 6c 91 bb 37 f9 c6 bc b6 cf fd 48 38
       2.7706906e-06 2.2359854e-05 -5.626e-06 4.7920093e-05
0000e0 ca d8 01 b7 d5 f1 49 b8 5a 94 6d b6 ca 08 30 b5
       -7.739474e-06 -4.8147358e-05 -3.5402104e-06 -6.55779e-07
0000f0 e5 35 13 3b 02 34 19 3c 85 58 5d 3c b1 3b 93 3c
       0.0022462544 0.009350779 0.013509874 0.017972799
000100 de d5 c8 ba 71 51 91 3a d0 36 19 bc 78 e2 ab bc
       -0.0015322526 0.0011086894 -0.009351447 -0.020982012
000110 30 2d 00 3c 4e 25 a9 3c 55 33 1e bc ab 3f 1f 3c
       0.007823274 0.020647671 -0.009655793 0.0097197695
000120 a3 23 b1 bb b6 0b 3b bc 79 c8 a6 3c 41 54 40 38
       -0.0054058596 -0.011416366 0.020359265 4.5854835e-05
000130 cc fd 19 38 5e 5b 7e 38 78 c9 4c b8 22 b2 db 36
       3.671441e-05 6.064341e-05 -4.8825023e-05 6.547446e-06
000140 7f e8 d8 38 fc 2c da b8 3f cf cf 39 57 70 bd 39
       0.000103429884 -0.00010403429 0.00039636527 0.0003613259
000150 60 02 a8 b3 8a 0c 39 bc 7e ca cf ba 66 94 95 3a
       -7.8235416e-08 -0.011294493 -0.0015853194 0.0011412024
000160 7d cd 55 3c ed 1d 13 3b bb d5 f7 bb c4 48 b8 ba
       0.0130494805 0.0022448257 -0.0075633205 -0.0014059772
000170 52 3c b8 3c d9 3e 2d 3c d0 80 a8 bb 77 55 28 b8
       0.0224897 0.010574066 -0.005142309 -4.0133917e-05
000180 c8 75 b5 bb 8c b4 ff bc ab c5 34 3b 1b 48 82 bc
       -0.0055377223 -0.031214021 0.002758364 -0.015903523
000190 8d dc 13 b9 6b d8 00 b8 22 8b d3 35 60 8a 5b b6
       -0.00014101174 -3.0719133e-05 1.5761218e-06 -3.2714088e-06
0001a0 1e 56 9a 35 6c 83 8a 39 e6 0e 9a b8 f8 a5 0b b9
       1.1498958e-06 0.00026419328 -7.346067e-05 -0.00013317901
0001b0 83 69 84 39 6d 41 27 b6 d4 ff 01 3d 0c 50 98 b9
       0.00025255614 -2.4923022e-06 0.031738117 -0.0002905134
0001c0 6c e4 83 3c 66 3e 15 3c 41 ca fb b9 95 c0 40 3c
       0.016100131 0.009109115 -0.00048025142 0.011764665
0001d0 3c d7 16 bd 9f 4e aa 3c 95 a4 d3 3b 9e 0b ec bb
       -0.036826357 0.020789443 0.0064588287 -0.0072035333
0001e0 8b fb 03 39 c9 f3 de bb 1a 2e c3 3b c4 2b ed 3c
       0.0001258684 -0.006803964 0.0059564235 0.028951533
0001f0 ac 31 7a 3c 00 68 d0 b5 9e a6 23 b9 c8 86 11 38
       0.015270632 -1.5527476e-06 -0.00015606961 3.469622e-05
000200 80 c3 4c 36 98 91 c0 b6 81 48 30 39 49 19 c6 b7
       3.0512165e-06 -5.7389952e-06 0.00016811678 -2.3615214e-05
000210 94 14 b6 36 d0 69 5e 36 8c 28 ed b5 78 22 09 bc
       5.4264183e-06 3.3142169e-06 -1.7669677e-06 -0.008370034
000220 2a 74 5e 3b fe ae 82 bc 74 8c 15 3d b2 23 39 3b
       0.003394375 -0.015952583 0.0365109 0.0028250036
000230 39 26 1c bb 35 08 d3 3c a3 d0 5b bc 24 fb 9c 3b
       -0.0023826493 0.02576075 -0.013416442 0.0047906805
000240 0a 31 0f 3c ae 2f 9a bb 8c 96 e0 3a 58 91 84 3b
       0.008739719 -0.004705391 0.001713471 0.0040456466
000250 66 b5 d4 3c a6 af dd 3c d9 8d 20 ba ab 57 91 3a
       0.025965404 0.027061295 -0.00061246526 0.0011088749
000260 87 7b b2 3a 43 30 bb 3a be a2 02 b8 d2 21 a8 3a
       0.0013617136 0.0014281351 -3.114598e-05 0.0012827462
000270 24 cf 15 3b 82 1c 43 ba 0e 34 e6 b9 c6 ed 82 b7
       0.002285906 -0.00074429077 -0.00043907802 -1.560793e-05
000280 9e 85 33 3d 6e 7b 3d 3a 8c 10 85 3c 4d 09 ee 3c
       0.0438286 0.000722817 0.016243242 0.02905717
000290 51 bc 00 3d e6 44 1f 3a f7 8e 21 3d 19 23 cb 3c
       0.031429593 0.00060756353 0.039442983 0.02479701
0002a0 ed 45 04 ba 75 42 89 bc 2a 02 cf 3b 39 05 7c 3c
       -0.000504582 -0.016755322 0.0063173966 0.015382105
0002b0 fd 49 b7 bc a6 72 c6 3a 7b 64 ae bc 71 9d 73 37
       -0.022374148 0.0015140369 -0.021288147 1.4520586e-05
0002c0 18 0e d7 b7 9e 67 04 38 05 e3 30 b8 9c 18 f0 b6
       -2.563656e-05 3.1567753e-05 -4.21731e-05 -7.1554223e-06
0002d0 af 98 c8 37 86 29 1a b8 a6 00 3c b8 f9 41 50 38
       2.3912957e-05 -3.6755133e-05 -4.4823297e-05 4.9652506e-05
0002e0 67 74 1c b7 49 3a 3d 3c 56 15 45 3a fc 1d f8 3b
       -9.325427e-06 0.011549541 0.0007518133 0.007571934
0002f0 88 88 28 3c 01 74 4f bb 09 a0 a3 3c d9 5e 09 3b
       0.010286458 -0.0031654837 0.019973772 0.0020961075
000300 3e 5a 69 3c de cd 59 3c 51 53 ea bb 4a 58 94 bb
       0.014242707 0.0132937115 -0.0071510454 -0.0045271264
000310 78 f4 01 3c 88 46 74 3c 27 bb c0 3b 35 76 a8 bc
       0.007931821 0.014909394 0.0058816853 -0.020564178
000320 7f 72 0b 37 90 55 05 36 56 c6 52 36 40 27 e6 37
       8.311704e-06 1.9868348e-06 3.1407885e-06 2.7436414e-05
000330 d3 dc 35 36 90 61 1b 36 f2 07 31 b8 dd d4 89 37
       2.7099638e-06 2.3153589e-06 -4.2207488e-05 1.6430795e-05
000340 12 6f 3f 38 bb c2 1b 37 2e b4 b2 b8 47 55 2c 3c
       4.564139e-05 9.284059e-06 -8.5212625e-05 0.010518379
000350 fa 49 72 3b 38 2c d5 3b 7f 4d 4c 39 74 85 03 ba
       0.0036970363 0.0065055154 0.00019483826 -0.00050171395
000360 ec 63 8d 3c eb 09 21 3c 10 25 2e 3c 70 3a b9 3a
       0.01725956 0.009829025 0.010628954 0.0014131796
000370 33 15 25 3b 25 89 5c bb 08 47 a6 3c fc 7c 39 bc
       0.0025189638 -0.003365108 0.020297542 -0.0113213025
000380 84 70 4e 3c ee bb 27 39 a7 87 fd 39 5e 54 82 3a
       0.012600068 0.0001599637 0.0004835699 0.0009943356
000390 cc cc c1 39 7d 7a 1c b7 c4 34 0f 3a f1 5e c4 3a
       0.00036964414 -9.326844e-06 0.000546288 0.0014981908
0003a0 12 2c 84 ba 25 a7 f9 b8 15 92 70 b6 8f ee 0c 3d
       -0.0010083935 -0.00011904378 -3.5847818e-06 0.034407195
0003b0 0f 39 fd bb b0 8b 11 3d 46 94 a0 3c 8c cf 93 3b
       -0.007727749 0.035533607 0.019601952 0.0045108255
0003c0 7e 94 82 3c 48 49 38 bc 54 eb 07 3c fb bd ba 3c
       0.015939947 -0.01124794 0.008295853 0.022795668
0003d0 90 de db ba 7d fe 65 3c f5 16 fc bb 9b a3 1d 3c
       -0.0016774703 0.0140377255 -0.0076931664 0.009621526
0003e0 9e 96 2f bc f7 12 47 3c 94 a6 c0 b7 4e 0b 12 b7
       -0.010717062 0.012150518 -2.2965753e-05 -8.70491e-06
0003f0 44 3a 67 b6 60 70 d3 b6 93 1a c9 b6 29 24 6b b7
       -3.4455597e-06 -6.301372e-06 -5.9933604e-06 -1.4015511e-05

conv3.bias f4 [32]
000000 ce 24 67 bc 8c 89 21 3c 94 df f1 bc 2b 22 09 3c
       -0.014107896 0.009859454 -0.029525556 0.008369963
000010 69 e7 fd b9 b5 bc 8a 39 bb 91 7c b9 6e 8a e7 3b
       -0.00048428334 0.0002646201 -0.00024086882 0.0070660627
000020 a1 1b 05 bd da 6d 71 3c 43 6a 0c bb d1 e2 2b 3d
       -0.032497052 0.014735663 -0.0021425642 0.041964356
000030 6a ed c7 3a a2 8d b0 bc 04 b7 c0 3c 98 65 27 bd
       0.001525325 -0.02155191 0.023524769 -0.04086837
000040 8f c7 39 3d 52 af 7d 3c ac aa 69 bc 72 28 92 3c
       0.04535633 0.015483694 -0.014261883 0.017841551
000050 cc f0 f1 3b 50 9c cc bb 9f 84 86 bb 3a fd 11 3d
       0.0073834416 -0.00624422 -0.004105165 0.035641886
000060 fe 27 f4 ba 22 59 4a 3c c4 a0 16 3c 0b 1f 5f 3d
       -0.0018627641 0.0123503525 0.009193603 0.054472964
000070 25 12 d8 bc 96 00 92 3c a3 50 16 3c 2d 4a 4b 3d
       -0.02637584 0.017822545 0.009174499 0.049631286

fc_1.weight f4 [8, 32]
000000 2e ec 82 3d 8c 3f 89 3e 89 8a 72 be da 2f c7 3e
       0.06392704 0.26806295 -0.2368566 0.38903695
000010 53 46 e0 bd dd d3 45 bb ef 2d d6 3a 65 2b 3e 3e
       -0.10950913 -0.0030186095 0.0016340594 0.18571241
000020 80 56 d5 3c 5c 70 26 bd f7 3c 61 bc 6a e4 00 3e
       0.026042223 -0.040634498 -0.013747445 0.12587133
000030 97 b2 43 bd 67 1c 0d be 9c 35 3e bd 6c 78 99 be
       -0.04777774 -0.13780366 -0.046437845 -0.29974687
000040 5c ae ea 3c 28 a4 7f 3e 9f 3a 01 bd 7e 70 ee 3d
       0.028647594 0.24964964 -0.031550046 0.1164255
000050 4f 41 b0 3d 58 e5 2a 3e a6 f9 bb 3b 20 3a c0 3e
       0.086062066 0.1668905 0.0057365475 0.37544346
000060 6e 4d 0e bc a2 e5 06 be 50 a8 83 3d 3f bc d8 3c
       -0.008685453 -0.13173535 0.064285874 0.02645695
000070 e4 46 c3 be b2 3a 1e 3c 08 08 f4 3e 41 cd 8f bd
       -0.38140023 0.009657549 0.47662377 -0.07021571
000080 2e 18 f9 3d d3 dd 8a 3d f7 31 ad bd e9 74 35 be
       0.12162815 0.06780591 -0.08456796 -0.17720379
000090 3d f0 a8 bd 02 79 39 3e c2 93 5b 3b 60 40 d1 ba
       -0.08248947 0.18112567 0.0033504819 -0.001596462
0000a0 cb d4 57 be 44 d3 dc 3d 62 ed 6a b7 6f 84 1c 3d
       -0.21077268 0.10782483 -1.4002757e-05 0.038212236
0000b0 4e 88 61 3d df 11 0d 3c 8c 59 85 bd c2 c5 21 be
       0.05506163 0.008610218 -0.0651122 -0.15798095
0000c0 a0 33 b2 3e e5 48 d6 bd 66 44 8d be b9 25 d3 3e
       0.34805012 -0.10463122 -0.27591246 0.41239718
0000d0 a3 d4 87 bd be df 1e be a6 fd cf bb 24 22 9a 3c
       -0.06632354 -0.15515038 -0.006347376 0.018815108
0000e0 7a 8d 03 3d c4 5c 2b 3b 44 20 2c 3a ca 54 11 3e
       0.032117344 0.0026147822 0.0006566087 0.141925
0000f0 63 1b 84 3d 21 5d 5f bd b8 77 70 bd b7 ef 79 3e
       0.06450536 -0.054532174 -0.058707923 0.2440785
000100 a9 d0 4c 3d 84 5e bf 3d 89 f5 1f 3d fc 28 3f 3e
       0.05000368 0.09344199 0.03905252 0.18667978
000110 ca dd 4d bc 37 5d 91 3e ac 35 de 36 23 ff 72 bb
       -0.012565086 0.2839143 6.622364e-06 -0.0037078343
000120 65 41 93 3e ba 56 14 bd 72 f0 b2 bd d8 da 61 bd
       0.2876083 -0.03621552 -0.087372676 -0.055140346
000130 67 b6 83 be 62 4e e6 3d 3d 26 20 bf 9b e5 c6 3c
       -0.257251 0.11245419 -0.62558347 0.024279406
000140 ce 33 e5 bd f6 5f 35 3e 86 d1 67 be a0 05 4f 3d
       -0.111915216 0.17712387 -0.2263852 0.050542474
000150 9e cc 6e bb 4a e1 d4 3d 17 45 1e bd 13 7c 4e 3d
       -0.003643788 0.10394533 -0.038640108 0.050411295
000160 4e 36 e8 bb 2a 3f 97 be b1 2f 34 bb 19 c6 81 be
       -0.0070865517 -0.29540378 -0.0027494247 -0.2534645
000170 1d c3 1d ba a4 78 65 bd 88 e7 8c 3e da d1 8c be
       -0.0006018149 -0.056023255 0.27520394 -0.27503854
000180 da 59 1c 3e 7b a0 c0 bd 46 53 00 bd de d8 3d 3e
       0.1526865 -0.09405609 -0.031329416 0.1853976
000190 8f fa c2 3d 48 65 98 bd 84 0b 4f 3d e1 a4 b2 38
       0.095204465 -0.07441193 0.05054809 8.5184125e-05
0001a0 bb 3f 8b bd 4f 2b 42 be 37 12 c9 b6 f6 cb 57 be
       -0.06799265 -0.18961833 -5.9923873e-06 -0.21073899
0001b0 9c e6 eb 3d 43 70 c9 bc 27 d4 a1 3e 21 fa 01 3d
       0.115185946 -0.024589663 0.31607172 0.031732682
0001c0 b8 a5 2c bd 50 ef 39 be 41 d8 51 3e ad eb 5f be
       -0.04215023 -0.18157697 0.2049265 -0.21867247
0001d0 81 cc a3 b7 1e b7 f0 bd 55 c9 a8 b9 fb 62 98 bd
       -1.9526344e-05 -0.11753677 -0.0003219346 -0.07440754
0001e0 69 f2 0f 3e b9 77 09 be e7 86 33 b8 4e e6 99 be
       0.14057316 -0.13424577 -4.2802563e-05 -0.3005852
0001f0 b9 11 18 bc 60 42 39 be df f7 a9 be dc 6a 6f 3c
       -0.009281569 -0.18091726 -0.33196923 0.01461288
000200 51 d6 38 3e a9 79 1e 3d 02 1a 29 3e fb e7 22 bd
       0.18050505 0.038690243 0.16513827 -0.039772015
000210 62 52 6a be 8f 78 9f bb cc 59 fe 37 ff 3a 64 bc
       -0.22882989 -0.0048666666 3.0320974e-05 -0.013930081
000220 ea 0e a6 bd 73 54 b5 be b3 7a ec bd 50 3c 73 be
       -0.081083134 -0.35415992 -0.115468405 -0.23753476
000230 c4 61 4e 3e ce 67 8f bc e2 43 59 3e b4 81 d3 3d
       0.20154482 -0.017505553 0.21217301 0.10327473
000240 88 cf 4c be 7e 2e aa bd ec 7d 4e bc 20 b4 14 bd
       -0.20001042 -0.08309649 -0.012603264 -0.036304593
000250 13 b7 a0 b9 21 e6 87 3d ea 1d a6 b7 98 2b 70 3e
       -0.0003065398 0.066356905 -1.9802672e-05 0.2345413
000260 b9 1f 1a 3d 2a 60 21 be bd d5 c4 bd 72 09 3f be
       0.03762791 -0.1575934 -0.0961108 -0.18655947
000270 ef 9c 12 be 6d 4c bb be b5 6f 87 3d ae e5 bd be
       -0.14317678 -0.36581746 0.06613103 -0.37089294
000280 3f a8 d4 3d 8e 6a 32 be 00 34 cb 3e 74 2e a4 3d
       0.10383653 -0.1742346 0.3968811 0.08016673
000290 39 6a 8f 3d 25 4f 92 be 72 0b 01 bd 71 23 bd b9
       0.07002682 -0.28576007 -0.031505056 -0.00036075295
0002a0 dc 0c 23 bb a2 34 f2 3d a6 08 b3 3e c8 d2 85 3c
       -0.002487949 0.11826445 0.34967536 0.01633586
0002b0 65 00 13 bd 65 25 f0 bc 42 25 0c be c5 0f 12 3e
       -0.035889048 -0.029314706 -0.13686088 0.14263828
0002c0 60 7c 25 be ab 01 9e 3d c6 f2 05 be f3 27 a1 be
       -0.16160727 0.07715162 -0.13080892 -0.3147579
0002d0 4c a0 8b b9 6c d2 19 bc 97 a6 05 3d 0a 8a 86 bd
       -0.00026631576 -0.009388547 0.032629576 -0.065692976
0002e0 d1 8b ce 3d 0f 21 b4 3d 94 a9 24 bc 05 ac 96 bd
       0.100852616 0.08795368 -0.010050196 -0.07357029
0002f0 ff b1 f2 bd 9f f7 f1 3d 5f f2 1e 3e e9 3d 24 be
       -0.11850356 0.11814808 0.15522145 -0.16039242
000300 da fa 5d bd bc 54 a9 be b0 e5 01 bd d3 31 b8 bc
       -0.05419431 -0.3307246 -0.031713188 -0.022484696
000310 ee 5b 8d bd a6 a4 5e 3e 40 c0 bd 34 39 64 01 39
       -0.069023 0.21742496 3.5343874e-07 0.00012339735
000320 44 94 d8 3d 5f 99 15 be d6 8d 75 b9 1d 87 25 be
       0.105751544 -0.14609288 -0.00023417859 -0.16164823
000330 03 21 5b be ed 4b 81 3e fc 68 c9 3d bb 5f 79 be
       -0.21399312 0.2525324 0.09834477 -0.24352925
000340 bc c2 09 3c c6 bc b3 3e 19 72 70 bd a3 52 a1 be
       0.008408245 0.3510496 -0.058702562 -0.3150836
000350 a0 b1 41 b8 92 f4 30 be 19 4d 16 b8 b8 3e 91 3e
       -4.6180212e-05 -0.17280796 -3.583459e-05 0.28368163
000360 02 54 b3 37 93 d4 1b bd ae 2f 99 38 4f 51 10 bd
       2.1377582e-05 -0.038044523 7.3044896e-05 -0.035233792
000370 db 49 a8 bc 33 e4 b0 3d 0b fe 1b be cb c0 8e bd
       -0.02054303 0.086372755 -0.15233628 -0.06970366
000380 95 bf da bd 8a c6 e2 bd 4c f5 da 3d 89 dd e0 3e
       -0.106810726 -0.110730246 0.10691318 0.43919018
000390 b1 ec a6 3e 85 9f ac be 28 fe 46 b6 86 b5 f4 ba
       0.32602456 -0.33715454 -2.9652238e-06 -0.0018669821
0003a0 f0 6a cf bd 3a 59 97 3e ce ce 1b ba e4 bc 3c 3b
       -0.101278186 0.29560262 -0.0005943597 0.002879911
0003b0 27 ee 7d bd ab e8 8e be 6d ef ab 3d d5 db 83 3d
       -0.061994698 -0.27911887 0.08395276 0.06438414
0003c0 3b 1b b8 3e 84 a2 fe 3c ca fe 55 be 97 98 82 be
       0.35958275 0.031083353 -0.20897976 -0.25507042
0003d0 85 23 6b bb 51 b4 b3 be 74 53 81 39 7f 47 a6 3d
       -0.0035879326 -0.35098508 0.00024666975 0.081191055
0003e0 9f 78 9e 3d f7 5d 38 3e b6 a8 6a bd 35 39 f9 3d
       0.077378504 0.18004595 -0.0572898 0.121691145
0003f0 0e 8b 25 be 99 b8 07 3e ca ec 7e 3d 17 81 97 3d
       -0.16166326 0.13254012 0.06223754 0.07397669

fc_1.bias f4 [8]
000000 51 05 0d 3d e3 e4 d1 3c 48 1e 2d bd af 04 a8 bc
       0.0344289 0.025621837 -0.042265207 -0.020510046
000010 66 90 ba bc af 30 83 bc 01 70 d3 3b 83 23 c0 3b
       -0.022773933 -0.016014425 0.006452561 0.0058636083
