checkpoints/target0/epoch=12.checkpoint.pth.tar (torch, 321280 bytes, 8 tensors)

conv1.weight f4 [16, 3, 5, 5]
0	0x3e4226d3	0.18960123
1	0x3e187384	0.14887816
2	0x3da0100a	0.07815559
3	0xbe5dfdd4	-0.21678859
4	0x3d931d8d	0.07183371
5	0xbe03067b	-0.12795441
6	0xbc87cc22	-0.01657683
7	0xbe40725f	-0.18793629
8	0xbdd768fa	-0.105180696
9	0x3e285e36	0.16442189
10	0xbd2531dd	-0.040330756
11	0xbe06f9ec	-0.13181275
12	0xbdcbb3b9	-0.09946389
13	0xbdba4cc0	-0.0909667
14	0xbd9a9ee2	-0.07549836
15	0x3dbbdfc7	0.091735415
16	0x3e3fe435	0.18739398
17	0xbca243a5	-0.019807646
18	0xbd87b377	-0.06626027
19	0x3d0cff4d	0.03442316
20	0xbd7fe289	-0.0624719
21	0x3e028ba4	0.12748581
22	0x3dab6ce9	0.08370382
23	0x3e20426a	0.15650335
24	0x3e0044ca	0.12526241
25	0x3dfdab5c	0.123862
26	0x3d856e7e	0.06515215
27	0x3df1de4c	0.11809978
28	0xbd4fa111	-0.050690714
29	0x3a9934f5	0.0011688756
30	0xbd0a7cc6	-0.0338104
31	0x3d9264c6	0.07148127
32	0xbe2fb02e	-0.17157051
33	0xbe009010	-0.12554955
34	0xbcad634d	-0.021165514
35	0x3e2a12ad	0.16608687
36	0x3d0e957e	0.034810536
37	0xbd95fd8d	-0.073237516
38	0xbc3af74e	-0.011411501
39	0xbda970f8	-0.082735
40	0xbe10b6c9	-0.14132227
41	0x3df55290	0.11978638
42	0xbdb659b8	-0.08903831
43	0xbdaa2608	-0.08308035
44	0xbe09fce8	-0.13475382
45	0x3e64f442	0.22358802
46	0xbdd44094	-0.1036388
47	0xbd25b19b	-0.04045258
48	0xbdb3e8ef	-0.08784663
49	0xbd703cba	-0.058651663
50	0x3c666a10	0.014063373
51	0x3d8a7807	0.06761175
52	0xbd3e574b	-0.046469968
53	0x3dc61391	0.09671701
54	0xbd9a8ce5	-0.07546405
55	0xbd922c80	-0.07137394
56	0xbe08d226	-0.13361415
57	0xbcd4d3f8	-0.02597998
58	0xbd239925	-0.039940972
59	0x3d8c4d08	0.0685063
60	0xbb98c4b9	-0.004662123
61	0x3e4430d5	0.19159253
62	0xbe0b1370	-0.13581634
63	0x3dd30be4	0.10305002
64	0x3e0ca916	0.13736376
65	0x3dd1b6af	0.10239922
66	0x3e791c81	0.2432728
67	0x3d527d02	0.051388748
68	0x3ca416e6	0.02003045
69	0xbcb0fbe8	-0.021604493
70	0xbdb68176	-0.089114115
71	0x3e16e3d7	0.14735352
72	0xbbc8f4d3	-0.006132701
73	0x3d68678b	0.05673937
74	0x3c8356d5	0.016032616
75	0x3cb5e8e4	0.022205777
76	0x3d2a7f6b	0.04162542
77	0xbd974082	-0.07385351
78	0xbe6abb71	-0.22923066
79	0xbdb90cb2	-0.090356246
80	0xbcc9c8d8	-0.024631903
81	0xbd5bfdeb	-0.053708952
82	0xbe188e10	-0.14897943
83	0xbda2cc97	-0.07949179
84	0x3cf42035	0.029800514
85	0x3cee5851	0.029094847
86	0x3da835d5	0.08213393
87	0xbceab4f1	-0.028650733
88	0x3d1cb539	0.038258765
89	0xbd8af975	-0.067858614
90	0xbdf83a00	-0.121204376
91	0x3d03cb58	0.032176346
92	0xbe44e35e	-0.19227359
93	0xbddabc5f	-0.1068046
94	0x3dd9840f	0.10620891
95	0x3ca25110	0.019814044
96	0xbe8714ca	-0.26383048
97	0x3cc0a285	0.023514995
98	0x3d4c04f0	0.049809396
99	0xbca85228	-0.020546988
100	0x3d9d487c	0.07679841
101	0x3d9d8402	0.07691194
102	0x3dfc8748	0.1233049
103	0xbcf40f01	-0.02979231
104	0xbc0a248a	-0.008431563
105	0x3da7bd77	0.081904344
106	0x3d582bd4	0.052776173
107	0x3ced11c0	0.028939128
108	0x3d13d265	0.03608932
109	0x3e05a5c9	0.13051523
110	0x3c0d8e12	0.008639829
111	0xbcb69222	-0.022286478
112	0xbe0c7526	-0.13716564
113	0xbbb247cd	-0.005440688
114	0xbd41e4b2	-0.04733724
115	0x3d5aa450	0.053379357
116	0x3d9bac78	0.07601255
117	0x3c28f2fa	0.010311836
118	0xbd053172	-0.032517858
119	0x3d7a72b7	0.061144557
120	0x3aef5753	0.0018260278
121	0x3cf8fbfd	0.030393595
122	0x3cc250dc	0.023720197
123	0x3da60bcd	0.081077196
124	0x3de4d6d8	0.11173791
125	0x3d8802e0	0.06641173
126	0x3ddd1172	0.10794343
127	0x3d9ecca3	0.07753875
128	0x3e5d614f	0.21619152
129	0x3df6c6e2	0.12049653
130	0xbde2320b	-0.11044701
131	0xbd9b45ff	-0.0758171
132	0x3c92e9d2	0.01793376
133	0x3e3e9427	0.18611203
134	0x3db20e85	0.08694176
135	0x3da7f9b8	0.08201927
136	0x3e09fe9d	0.13476034
137	0x3ca28ee1	0.01984352
138	0xbe196239	-0.14978875
139	0x3deba191	0.11505426
140	0xbc68933a	-0.014195258
141	0x3df5b8fd	0.11998174
142	0xbd503fe8	-0.050842196
143	0x3da0f178	0.078585565
144	0xbd916397	-0.070990734
145	0x3dd7af7a	0.105315164
146	0x3e2f6db0	0.17131686
147	0x3e212193	0.15735464
148	0x3d231b60	0.03982103
149	0xbbe69aec	-0.007037511
150	0xbd11ee6c	-0.035627767
151	0x3d0a98d0	0.03383714
152	0x3cb58b7c	0.022161238
153	0x3da12f72	0.078703776
154	0xbd2a3451	-0.0415538
155	0x3e29f095	0.16595681
156	0xbe7cbcc1	-0.24681379
157	0xbd6556a7	-0.05599084
158	0xbe01ef34	-0.12688905
159	0x3d952e38	0.07284206
160	0xbe56f94b	-0.20993535
161	0x3adc9e27	0.0016831801
162	0xbc2065e9	-0.009789922
163	0xbd080799	-0.03321037
164	0x3d0fef34	0.03514023
165	0xbdada1a8	-0.08478099
166	0x3b93cf7a	0.004510817
167	0xbdd0fc2d	-0.10204349
168	0xbe16043c	-0.14650053
169	0x3e25d692	0.16195133
170	0x3e079489	0.13240255
171	0x3ab0cbe9	0.0013488504
172	0xbe0ea6a9	-0.13930763
173	0x3dc63e41	0.09679843
174	0x3df251a5	0.11831979
175	0x3e7398c9	0.23788752
176	0x3d1cae6d	0.038252283
177	0x3c38a4b0	0.011269733
178	0xbdaaddd0	-0.083430886
179	0xbc12d5b6	-0.0089620855
180	0xbd8763d3	-0.06610837
181	0xbe1a2e79	-0.1505679
182	0xbdf08cdc	-0.11745617
183	0xbd5fb250	-0.05461341
184	0xbd1f712f	-0.0389263
185	0xbe252b17	-0.16129719
186	0xbe50e48f	-0.20399688
187	0x3c1767c5	0.009241049
188	0x3dd7d95d	0.10539506
189	0xbceb3b66	-0.028714847
190	0x3d8611a8	0.065463364
191	0x3d81acbe	0.06331776
192	0x3e316231	0.17322613
193	0xbd9f612c	-0.07782206
194	0x3dff2b72	0.124594584
195	0xbc473bef	-0.012160285
196	0xbde2d0db	-0.11074992
197	0x3d20e475	0.039280374
198	0x3d895e0f	0.067073934
199	0x3e2e1603	0.17000584
200	0x3dbc0f2d	0.09182582
201	0x3e69811f	0.22803162
202	0xbd3e99d3	-0.046533417
203	0xbdb595d9	-0.08866472
204	0x3d121abc	0.035670027
205	0x3dfb84bd	0.12281177
206	0x3e00e37a	0.12586775
207	0x3d18b30b	0.037280124
208	0xbda317f2	-0.079635516
209	0xbda9568e	-0.08268462
210	0xbd6b93ad	-0.05751388
211	0xbd906d66	-0.07052116
212	0x3c5292e8	0.012852408
213	0x3d4de37c	0.050265774
214	0x3c02eb67	0.007990695
215	0xbe672d37	-0.22575842
216	0xbd37b89f	-0.044853803
217	0x3dcfa9d9	0.10139818
218	0xbe2b2908	-0.16714871
219	0x3e297a6e	0.1655061
220	0x3d560a7b	0.05225609
221	0xbd4819e5	-0.04885282
222	0x3dbe38ae	0.092881545
223	0x3e2e0617	0.1699451
224	0x3c929f5e	0.017898258
225	0x3e26031c	0.16212124
226	0x3c87712f	0.016533462
227	0xbde019aa	-0.10942395
228	0xbd9fc68c	-0.07801542
229	0xbcc8fc46	-0.024534356
230	0x3d23b651	0.039968792
231	0x3e5075e4	0.20357472
232	0xbc12e796	-0.008966347
233	0xbde0e16e	-0.10980497
234	0xbe6d74df	-0.23189114
235	0xbde60456	-0.11231296
236	0x3c07bedb	0.00828525
237	0x3bc4eff2	0.006010049
238	0xbb9c0f14	-0.0047625396
239	0xbae9000c	-0.0017776503
240	0xbdcd6d58	-0.10030621
241	0x3cf75863	0.030193513
242	0xbd3de0fb	-0.046357136
243	0x3ce98b44	0.02850879
244	0xbdf51522	-0.119669214
245	0xbc593f52	-0.013259726
246	0xbcf2d62c	-0.02964314
247	0x3e112a94	0.14176399
248	0x3dc5c763	0.096571706
249	0xbddb7c91	-0.107171185
250	0x3dab6ef3	0.08370771
251	0x3d60a36c	0.05484335
252	0x3d46ba46	0.048517488
253	0x3d197d90	0.03747326
254	0x3ca63a00	0.020291328
255	0x3ccaf262	0.02477378

conv1.bias f4 [16]
0	0xbd87c297	-0.06628912
1	0x3cfd00b2	0.03088412
2	0xbd608fff	-0.054824825
3	0xbd399682	-0.04530955
4	0xbd4b3f0a	-0.049620666
5	0xbd8baaf3	-0.06819715
6	0x3b1ad54f	0.0023625677
7	0xbbe87599	-0.007094097
8	0xbd055825	-0.032554764
9	0x3d67094c	0.05640535
10	0x3c80983a	0.015697587
11	0x3cbfb076	0.023399573
12	0xbbf63d1b	-0.0075146086
13	0x3bf10d31	0.007356309
14	0xbd53a222	-0.051668294
15	0x3cc37ff4	0.023864724

conv2.weight f4 [64, 16, 5, 5]
0	0x3c8b1a6a	0.016980369
1	0x3b867cc6	0.0041042296
2	0x3b243207	0.0025054233
3	0x3da3b572	0.07993592
4	0x3d409e6e	0.04702609
5	0x3b0455bf	0.002019271
6	0xbbc5ff16	-0.0060423715
7	0x3c32745b	0.010891999
8	0xbb14b89f	-0.002269305
9	0xbcc93aea	-0.024564225
10	0x3a7e01e2	0.00096896116
11	0x3dba0fa6	0.09085016
12	0xbd6443ad	-0.055728603
13	0x3c372eef	0.011180623
14	0x3d80d924	0.06291416
15	0xbb9395e3	-0.004503952
16	0x3cd005e5	0.025393436
17	0x3d7af93b	0.06127284
18	0x3db69bfe	0.08916472
19	0x3d44c639	0.048040602
20	0xbc569a28	-0.013098277
21	0x3d6cfd5f	0.05785882
22	0x3cdc56f8	0.026896939
23	0x3c401962	0.011724802
24	0xbd4b2a9a	-0.049601175
25	0x3c89cf56	0.016822498
26	0xbd0cf589	-0.034413848
27	0xbccdfaa7	-0.025143934
28	0xbce27aba	-0.027646411
29	0x3cd39c4a	0.02583136
30	0xbd2570d3	-0.0403908
31	0xbcedc222	-0.029023234
32	0xbbe3de0f	-0.0069539617
33	0xbd53c96b	-0.05170576
34	0xbd5cfd31	-0.0539524
35	0xbcc6d4b4	-0.024271347
36	0xbbe0951c	-0.0068537127
37	0xbd883c60	-0.066521406
38	0x3ce3ffec	0.027831994
39	0xbd975d35	-0.07390825
40	0x3d2c6023	0.04208387
41	0xbc212d4e	-0.009837462
42	0xbd62cb1a	-0.055369474
43	0x3c830804	0.015995033
44	0xbd1afa98	-0.03783664
45	0xbc9b352e	-0.018946256
46	0x3c83c28e	0.016083982
47	0x3d1ad8f0	0.037804544
48	0xbcb68b9b	-0.022283366
49	0x3aec298d	0.0018017754
50	0xbcc640c5	-0.024200806
51	0xb8ada6b8	-8.2803366e-05
52	0xbd07a1d8	-0.03311333
53	0x3d5917ba	0.053001143
54	0x3ce6bd5d	0.028166467
55	0x3c9a68f8	0.018848881
56	0xbbff8b6b	-0.0077986023
57	0xbc8096a5	-0.015696833
58	0xbcdefb87	-0.027219547
59	0xbc3598e9	-0.01108382
60	0xbc53ad1a	-0.012919689
61	0xbc6caba8	-0.014445223
62	0x3cb00464	0.021486469
63	0x3dba05c1	0.09083129
64	0xbd77f509	-0.060536418
65	0x3a884528	0.0010396587
66	0x3ce7181f	0.028209744
67	0x3d77221c	0.060335264
68	0x3d436ab7	0.047709193
69	0x3ccacaa0	0.024754822
70	0xbc84ec1f	-0.016225873
71	0xbcca3c3c	-0.024686925
72	0x3df626a7	0.12019091
73	0xbd1e0eb9	-0.03858826
74	0x3ca51603	0.020152098
75	0xbd3bb652	-0.04582817
76	0xbc7d2544	-0.015450779
77	0xbc123c49	-0.008925506
78	0xbc8a86bc	-0.01690995
79	0xbc6eabee	-0.014567358
80	0xbc0b859f	-0.0085157445
81	0xb94a90e6	-0.000193182
82	0x3ca6a579	0.020342575
83	0x3c6993bc	0.014256414
84	0x3d119920	0.035546422
85	0xbc9e1216	-0.019295733
86	0x3da5c4fd	0.08094213
87	0xbb43dd6a	-0.0029886612
88	0x3ac92a70	0.001534773
89	0xbc6e5b67	-0.014548159
90	0x38209b9b	3.829189e-05
91	0xbbe26682	-0.0069091925
92	0x3c5ffe8a	0.013671527
93	0x3da2e827	0.07954436
94	0xbd2fee96	-0.042952143
95	0xbc614b92	-0.0137509275
96	0x3c9d3a0a	0.019192714
97	0x3c1fb907	0.009748704
98	0x3d3af4d5	0.045643646
99	0x3d6191e2	0.055070765
100	0xbd297dc6	-0.041379713
101	0xbc8ae09e	-0.016952809
102	0xbcd5b63d	-0.026087875
103	0x3d3937a8	0.045219094
104	0x3c959254	0.018258251
105	0xbcd4e5f4	-0.025988556
106	0xbd462a60	-0.048380256
107	0x3c9236a8	0.017848328
108	0x3ba5dc34	0.0050616506
109	0x3b7f993d	0.003900125
110	0xbd290227	-0.04126182
111	0xbd0e0b15	-0.034678537
112	0x3cadeaaa	0.02123006
113	0xbd355ac9	-0.044276033
114	0xbdacf8ce	-0.08445893
115	0xbcd4c42a	-0.025972445
116	0x3d2a0faf	0.041518863
117	0x3d5774cb	0.052601617
118	0x3c3abc69	0.01139746
119	0x3d64baaf	0.055842098
120	0x3d66d34e	0.05635386
121	0x3b516b18	0.0031954702
122	0x3b376dfe	0.0027989144
123	0x3ca77a82	0.020444158
124	0x3c815cd3	0.015791332
125	0x3bb1d420	0.0054268986
126	0xbd06b304	-0.032885566
127	0xbcc23016	-0.02370457
128	0x3c2c344b	0.0105105145
129	0xbceb565b	-0.028727701
130	0x3cb4d08c	0.0220721
131	0x3c3625d6	0.011117419
132	0xbd83fb11	-0.064443715
133	0x3d18ea30	0.037332714
134	0xbc8397c3	-0.016063577
135	0xbcbec09c	-0.023285203
136	0x3b086595	0.00208125
137	0x3c5b7b7c	0.01339614
138	0x3d025257	0.031816807
139	0x3d2ae2c3	0.041720163
140	0x3d904ae4	0.07045534
141	0x3dd9608d	0.10614119
142	0x3caa0a32	0.020756815
143	0xbc4fd63a	-0.012685353
144	0x3b6c207a	0.00360301
145	0xbd0b2e50	-0.033979714
146	0x3d1afeeb	0.037840765
147	0xbd1356dd	-0.03597151
148	0x3d30e5ba	0.043187834
149	0x3d7fa1da	0.062410213
150	0xbd35b5df	-0.0443629
151	0xbcaa2fc5	-0.020774731
152	0xbcb650c3	-0.022255307
153	0x3b82a413	0.0039868443
154	0xbba18f7d	-0.004930435
155	0xbc0cde2b	-0.008597891
156	0x3b87c511	0.004143365
157	0xbcf5e228	-0.030015066
158	0xbcac5778	-0.021037802
159	0x3c9e3bac	0.019315563
160	0x3cb727df	0.02235788
161	0x3d19ed0b	0.037579577
162	0xbca94d8c	-0.02066686
163	0x3d3e45db	0.046453338
164	0xbcec7e38	-0.02886878
165	0x3c904a03	0.017613417
166	0x3ab2a07b	0.0013628149
167	0xbc83aa59	-0.016072439
168	0xbc1c95d1	-0.009557203
169	0x3ad2b431	0.001607543
170	0xbc66bd77	-0.014083258
171	0xbc774fcb	-0.015094708
172	0x3d517ef5	0.051146466
173	0x3bfdaaf4	0.0077413265
174	0xbc47f412	-0.012204187
175	0xbd0485af	-0.032354053
176	0x3da56019	0.0807497
177	0xbd2b2aff	-0.04178905
178	0x3d72370f	0.05913454
179	0xbca596a4	-0.020213433
180	0xbd72dd18	-0.059292883
181	0xbbcbc0df	-0.0062180604
182	0xbd40579a	-0.046958543
183	0xbb76fe04	-0.0037688026
184	0xbc95296f	-0.018208234
185	0xbb09e4d5	-0.0021040936
186	0x3d24d48d	0.040241767
187	0xbd3e40fd	-0.046448696
188	0x3d04781e	0.032341115
189	0xbba4dc91	-0.0050311764
190	0x3daa4925	0.083147325
191	0x3c59b1b4	0.013286997
192	0xbc90dcb1	-0.017683359
193	0x3d453f7f	0.048156258
194	0xbc67dbe7	-0.01415155
195	0xbc7fc10d	-0.015609992
196	0x3d9829e6	0.074298665
197	0x3bda58e8	0.0066634305
198	0x3cf0b45e	0.02938288
199	0x3c9e2166	0.019303035
200	0x3d36dcfa	0.044644333
201	0x39d7f1f2	0.0004118826
202	0x3d2c13e0	0.04201114
203	0x3bcc7a23	0.006240146
204	0x3d70b4d1	0.05876619
205	0x3d0aa819	0.033851717
206	0x3a2e30fb	0.0006644872
207	0x3b88a6b8	0.004170265
208	0x3b8d4841	0.004311592
209	0xbd0708e1	-0.032967452
210	0xbd435ac6	-0.04769399
211	0xbc8a8690	-0.016909868
212	0xbd4f3f05	-0.05059721
213	0x3b171146	0.0023051067
214	0xbd34ea16	-0.044168554
215	0x3d108a17	0.035287943
216	0x3d139fa2	0.03604091
217	0xbbd38e73	-0.0064561903
218	0x39b952cd	0.0003534764
219	0xbd291690	-0.041281283
220	0x3c445667	0.011983491
221	0x3bb9fabe	0.0056756428
222	0x3c7440e0	0.0149080455
223	0x3d928a13	0.07155242
224	0xbcf62ebe	-0.030051585
225	0x3ab9d3d7	0.0014177513
226	0x3cce65cc	0.025195025
227	0xbd8033f2	-0.06259908
228	0xbb04411f	-0.0020180417
229	0x3c871b65	0.016492555
230	0x3d9776e6	0.07395725
231	0xbd51ea42	-0.051248796
232	0xbda32b7b	-0.079672776
233	0xbc89857d	-0.016787285
234	0x3b008df5	0.0019615863
235	0xbcb6a407	-0.022295011
236	0xbd80ee1a	-0.06295414
237	0xbd753c8b	-0.05987219
238	0x3d38350b	0.04497246
239	0xbda69f08	-0.081358016
240	0x3c947dc1	0.01812637
241	0xbd1e3402	-0.038623817
242	0xbd7f02eb	-0.062258642
243	0x3b11b41a	0.0022232593
244	0xbaf660d3	-0.0018797166
245	0x3d177aa6	0.0369822
246	0xbd74916c	-0.059708998
247	0x3d34d745	0.04415061
248	0x3cc992b2	0.024606083
249	0x3d09ee8d	0.033674765
250	0xba7095c5	-0.0009177591
251	0x3c3366b2	0.010949777
252	0xbb719b1a	-0.003686613
253	0xbc7deafa	-0.015497917
254	0xbd13be41	-0.036070112
255	0x3d18033d	0.037112463

conv2.bias f4 [64]
0	0xbd3a5786	-0.045493625
1	0xbafb8d8a	-0.0019191962
2	0x3c8655af	0.016398279
3	0xbcde177d	-0.02711081
4	0xbbe87671	-0.0070941974
5	0xbc6a5adb	-0.014303888
6	0x3c0b0f6c	0.008487564
7	0xbcff0113	-0.031128442
8	0xbb71a4d3	-0.0036871925
9	0x3d024f60	0.03181398
10	0xbd235ab6	-0.03988143
11	0xbc15ae8f	-0.009135856
12	0xbd16684b	-0.036720555
13	0x3d1d3f13	0.03839023
14	0xbc74cd9a	-0.014941597
15	0x3bd9bebb	0.0066450513
16	0xbc9734e3	-0.018457836
17	0xbca85815	-0.020549813
18	0xbc4c05ab	-0.012452523
19	0xbc10004c	-0.008789133
20	0xbd297663	-0.041372668
21	0x3b9b0925	0.0047313147
22	0xbc81316d	-0.015770638
23	0xbc5125e1	-0.012765379
24	0xbb424095	-0.0029640545
25	0x3b4f5868	0.0031638388
26	0xbc2f5145	-0.0107005285
27	0xbd3dd3b0	-0.04634446
28	0x3d3b96b8	0.045798033
29	0x3c1d23b1	0.009591029
30	0x3c18c26e	0.009323699
31	0x3c88b034	0.016685583
32	0x3d4b0ce4	0.04957284
33	0x3bf2f5d8	0.0074145608
34	0xbc359a74	-0.011084188
35	0x3d34dc4e	0.04415541
36	0xbce05f0a	-0.027389068
37	0xbc26915a	-0.01016649
38	0x3d08b33d	0.03337406
39	0x3cf8aa2a	0.030354578
40	0xbb35f7e4	-0.0027766163
41	0x3d5fbbb9	0.054622386
42	0xbc0675b7	-0.008206776
43	0xbcbabfdc	-0.022796564
44	0x3c6a8511	0.014313952
45	0x3c32d859	0.010915839
46	0xbd477777	-0.048697915
47	0xbcad614a	-0.021164555
48	0x3b3106df	0.0027012152
49	0xbd3ac06f	-0.045593675
50	0xbc23b6fd	-0.009992358
51	0x3cdb82ad	0.02679571
52	0x3d5d32dd	0.054003585
53	0xbcc27e4b	-0.023741862
54	0xbc1464f8	-0.009057276
55	0xbb81166e	-0.0039394414
56	0xbd036d42	-0.03208662
57	0x3ce5e428	0.028062895
58	0xbc88039e	-0.016603287
59	0x3c8e9296	0.017403882
60	0xbc12b67f	-0.008954643
61	0x3d903ca5	0.07042817
62	0xbc17c9e2	-0.009264441
63	0x3d03553c	0.032063708

conv3.weight f4 [32, 64, 5, 5]
0	0x37e6df1c	2.752203e-05
1	0xb82d1710	-4.1267893e-05
2	0xb6363aae	-2.715427e-06
3	0x388ce46e	6.7182686e-05
4	0x3708a01f	8.143513e-06
5	0x374fba56	1.2381546e-05
6	0x389e11b4	7.5373246e-05
7	0xb8a442d9	-7.832581e-05
8	0xb77c3896	-1.5033545e-05
9	0x331c7100	3.6424353e-08
10	0x3cca6975	0.024708489
11	0xbbbc9b43	-0.0057558133
12	0x3d10d275	0.035356957
13	0x3c6daf0f	0.014507069
14	0x3c4264dc	0.011864867
15	0x3cce13cb	0.025155922
16	0x3c72cf66	0.014819955
17	0x3cee6acd	0.029103661
18	0x3cf77d7d	0.030211205
19	0xbbadf4c8	-0.005308721
20	0x3b698c5d	0.0035636642
21	0x3c7d10fc	0.015445944
22	0x3c68f151	0.014217691
23	0x3d5a7848	0.053337365
24	0x3c16ab4d	0.009196115
25	0xba2eaad3	-0.0006663028
26	0xb9bb6534	-0.00035742822
27	0xba19f93c	-0.00058736256
28	0xba2c99a9	-0.00065841764
29	0x34d29936	3.9227024e-07
30	0x3906e6b7	0.00012865184
31	0x35cb765c	1.5159126e-06
32	0x39a8e83d	0.00032216488
33	0x38452cc5	4.7010155e-05
34	0xb58ecaac	-1.063881e-06
35	0x3d04a300	0.03238201
36	0x3c5711f5	0.01312684
37	0x3c306827	0.010767019
38	0x3b4ed10d	0.003155771
39	0x3d19a09e	0.037506692
40	0xbc18a566	-0.009316778
41	0x3a56f0fe	0.0008199363
42	0x3d0debd4	0.03464873
43	0x3c546fb1	0.012966082
44	0x3c7d01c7	0.015442318
45	0x3c05d1ac	0.008167665
46	0xbba0574d	-0.0048932196
47	0x3be6c69d	0.0070427195
48	0x3d1841e3	0.03717221
49	0x3c40a6aa	0.011758486
50	0xb9186a52	-0.00014535457
51	0x375e241e	1.324064e-05
52	0xb62a8865	-2.5411366e-06
53	0xb769e729	-1.3941703e-05
54	0xb64dd7b0	-3.0672927e-06
55	0xb8e6a0ac	-0.00010997182
56	0xb6bd7b4e	-5.6469935e-06
57	0xb7d7095a	-2.5634352e-05
58	0xb782d61a	-1.5596906e-05
59	0x35a39be0	1.2189812e-06
60	0x3b34d373	0.0027591854
61	0x3c0ef90b	0.008726369
62	0x3c5240a6	0.012832796
63	0x3c8e69ca	0.017384429
64	0xbac00a9d	-0.00146516
65	0x3a3dac1e	0.00072354253
66	0xbc180414	-0.009278316
67	0xbca81f1a	-0.020522643
68	0x3bff92e2	0.007799492
69	0x3c9b0ee7	0.018928004
70	0xbc1095d6	-0.008824786
71	0x3c13b4cf	0.009015276
72	0xbb99cd37	-0.004693653
73	0xbc30d70b	-0.010793458
74	0x3c9695a8	0.018381909
75	0x38a4c125	7.8561054e-05
76	0x38bf6e74	9.128163e-05
77	0x3783cadb	1.5710879e-05
78	0xb6d058d1	-6.2092226e-06
79	0x360cc8e2	2.0978555e-06
80	0x38b3416b	8.54757e-05
81	0xb80fbbb8	-3.4268684e-05
82	0x393e65e0	0.00018157763
83	0x394885a0	0.00019123266
84	0x352d1ed1	6.4492366e-07
85	0xbc2f1422	-0.010685952
86	0xbac77bbf	-0.0015219374
87	0x3aa9d3b3	0.0012956768
88	0x3c3b8262	0.01144466
89	0x3abddbb3	0.0014485031
90	0xbbee4485	-0.0072713518
91	0xba667fe2	-0.000879286
92	0x3cb2f8bb	0.02184712
93	0x3c234e9e	0.009967474
94	0xbba51c07	-0.0050387415
95	0x3a67fa6c	0.00088492665
96	0xbba4cc95	-0.005029271
97	0xbcf819da	-0.030285764
98	0x3aed62a6	0.0018111065
99	0xbc7685d5	-0.0150465565
100	0x387f2b52	6.0837083e-05
101	0x379e7381	1.8888853e-05
102	0x37724baa	1.4441941e-05
103	0x3828c78c	4.0240164e-05
104	0xb568c2e6	-8.671035e-07
105	0x3922ccb4	0.00015525782
106	0x383d5478	4.513978e-05
107	0xb8b7ab11	-8.7579836e-05
108	0x3976c388	0.00023533229
109	0x35b54659	1.3506025e-06
110	0x3d001095	0.031265814
111	0xb9b78f1a	-0.000350111
112	0x3c7f7b30	0.015593335
113	0x3c1c2db4	0.009532381
114	0xba38932d	-0.0007040974
115	0x3c416163	0.011803004
116	0xbd13ab15	-0.03605183
117	0x3ca9a562	0.020708743
118	0x3bdd05a7	0.0067450586
119	0xbbe10c9a	-0.0068679573
120	0x3aa1b5f7	0.0012337555
121	0xbbd84433	-0.006599927
122	0x3bc3452b	0.005959173
123	0x3ce7c67b	0.028292885
124	0x3c696c10	0.0142469555
125	0xb6d5a47f	-6.3670445e-06
126	0xb8d65be6	-0.000102214326
127	0xb6f98bb4	-7.437042e-06
128	0x37d4035c	2.5273934e-05
129	0xb5ee5dcf	-1.7759684e-06
130	0x38f6fc7a	0.000117772215
131	0xb8970d73	-7.202746e-05
132	0xb4fcf93c	-4.712e-07
133	0x3666c3c2	3.4386617e-06
134	0xb4434150	-1.8184551e-07
135	0xbc0c0f44	-0.0085485615
136	0x3b09c4c0	0.0021021813
137	0xbc74e00d	-0.014945996
138	0x3d0e77ea	0.034782328
139	0x3b2cf962	0.002639376
140	0xba1a560c	-0.0005887456
141	0x3cccf2b3	0.025018072
142	0xbc4c51b9	-0.012470656
143	0x3ba1be21	0.004935995
144	0x3c0403ab	0.008057515
145	0xbb8bcc7d	-0.0042663203
146	0x3b1ecda0	0.0024231449
147	0x3b7c4de1	0.0038498568
148	0x3cce384b	0.025173327
149	0x3cd0f163	0.025505727
150	0xb9f5fc2a	-0.00046917918
151	0x3a6c53de	0.0009015183
152	0x3a91ecd0	0.0011133198
153	0x3a9b53fb	0.001185059
154	0x3748cabf	1.19681345e-05
155	0x3a685145	0.0008862208
156	0x3addc621	0.0016920009
157	0xb9aec15b	-0.00033331927
158	0xb94cbfb7	-0.00019526375
159	0x36a32e44	4.8631646e-06
160	0x3d314712	0.04328067
161	0x3aa0734d	0.0012241394
162	0x3c87abba	0.016561378
163	0x3ceb9ae7	0.028760387
164	0x3cf51d52	0.029921208
165	0x3a6217ab	0.00086247426
166	0x3d1e719c	0.038682565
167	0x3cc79265	0.024361799
168	0xb9d83203	-0.00041235992
169	0xbc84d8e3	-0.0162167
170	0x3be06059	0.006847423
171	0x3c7880ee	0.015167458
172	0xbcb0aaba	-0.021565784
173	0x3afcba1a	0.0019281537
174	0xbc9f8ebe	-0.019477244
175	0x378d74d2	1.6862909e-05
176	0x365398ea	3.1530458e-06
177	0x381797e1	3.6142654e-05
178	0x37820e93	1.5503994e-05
179	0x35a7b21e	1.2494309e-06
180	0xb7b9c2a8	-2.2144362e-05
181	0x374f3760	1.23510545e-05
182	0x37ae6b52	2.0792391e-05
183	0x383a9a14	4.4489352e-05
184	0x36aa3b53	5.073301e-06
185	0x3c2b32c5	0.010449116
186	0x3a3f5636	0.0007298918
187	0x3bead4df	0.0071664895
188	0x3c1e361d	0.009656456
189	0xbb32ecef	-0.0027301868
190	0x3c95630a	0.018235702
191	0x3b000fa8	0.0019540582
192	0x3c6166c7	0.013757414
193	0x3c520fb5	0.012821128
194	0xbbda4a0b	-0.0066616586
195	0xbb8177d6	-0.003951053
196	0x3be3a2a0	0.0069468766
197	0x3c67409f	0.014114528
198	0x3bb727e5	0.0055894726
199	0xbc9b2f70	-0.018943518
200	0xb6c2b922	-5.803203e-06
201	0x35fb5c3c	1.8727801e-06
202	0x3647710d	2.9719115e-06
203	0xb76e34a9	-1.4198166e-05
204	0xb520ef86	-5.99532e-07
205	0x37df1755	2.6594536e-05
206	0x368ad638	4.137659e-06
207	0xb729b821	-1.0116056e-05
208	0x3706f4f4	8.044055e-06
209	0xb602e46b	-1.9504466e-06
210	0xb8741af8	-5.819925e-05
211	0x3c11fb78	0.0089100525
212	0x3b5b3d12	0.0033453149
213	0x3bbfdb78	0.00585502
214	0x33d68680	9.989617e-08
215	0xba429bb6	-0.00074237154
216	0x3c723d6d	0.014785153
217	0x3c122ca4	0.008921776
218	0x3c2683f0	0.010163292
219	0x3aa3177c	0.0012442912
220	0x3b0c00b7	0.002136273
221	0xbb41b2de	-0.0029556076
222	0x3c9c9323	0.019113129
223	0xbc2e078a	-0.010621915
224	0x3c4129d4	0.011789758
225	0x390d161e	0.00013455047
226	0x39af6727	0.00033455456
227	0x3a2b4eb8	0.00065348623
228	0x3983dddc	0.00025151565
229	0x35ee4fd2	1.7755613e-06
230	0x39d79193	0.00041116457
231	0x3a915f93	0.0011091105
232	0xba38875d	-0.00070392137
233	0xb82627ff	-3.9614733e-05
234	0x368e1568	4.234422e-06
235	0x3d0a6f66	0.033797644
236	0xbbefea09	-0.0073216003
237	0x3d0fa5f3	0.03507037
238	0x3ca32974	0.019917227
239	0x3b851ea6	0.0040624915
240	0x3c819c39	0.015821563
241	0xbc3a99c9	-0.011389204
242	0x3c12ab8e	0.008952035
243	0x3cbc9ec5	0.023024926
244	0xbae652bb	-0.0017572263
245	0x3c6c465b	0.014421071
246	0xbbf6b023	-0.0075283214
247	0x3c1f1615	0.009709855
248	0xbc1c9092	-0.009555953
249	0x3c3a62ae	0.011376066
250	0x375a0ab8	1.2996308e-05
251	0x36da2fe1	6.50248e-06
252	0xb697dc94	-4.5258294e-06
253	0xb7c822e9	-2.3858114e-05
254	0x36a47a9c	4.9018545e-06
255	0x36df4e0e	6.6550047e-06

conv3.bias f4 [32]
0	0xbc62792c	-0.013822835
1	0x3c20e068	0.009819128
2	0xbcf107c9	-0.029422658
3	0x3c095d2d	0.008384031
4	0xb9fc5e1c	-0.00048135302
5	0x398e437d	0.00027134633
6	0xb982cca2	-0.00024947996
7	0x3be7b045	0.0070705735
8	0xbd04de91	-0.03243882
9	0x3c70429e	0.01466432
10	0xbae27131	-0.0017276165
11	0x3d2ab095	0.041672308
12	0x3ac77bd3	0.0015219398
13	0xbcae8060	-0.021301448
14	0x3cba658a	0.022753496
15	0xbd26c2ef	-0.040713247
16	0x3d391af9	0.04519174
17	0x3c7b7963	0.015348765
18	0xbc682b55	-0.014170487
19	0x3c91ddfc	0.017806046
20	0x3bf05580	0.007334411
21	0xbbcbf28d	-0.0062239827
22	0x39ed1898	0.00045222486
23	0x3d115a63	0.03548659
24	0xbad5ebed	-0.0016320922
25	0x3c475122	0.01216534
26	0x3c125801	0.008932115
27	0x3d5dc96a	0.05414716
28	0xbcd7374b	-0.026271483
29	0x3c8ee79d	0.017444426
30	0x3c15bd3f	0.009139358
31	0x3d4a8c83	0.04945041

fc_1.weight f4 [8, 32]
0	0x3d82438a	0.06360538
1	0x3e892bf8	0.26791358
2	0xbe7251f9	-0.23664083
3	0x3ec78658	0.38969684
4	0xbddff0f2	-0.109346285
5	0xbb63e049	-0.0034771136
6	0x3ae1356c	0.0017182059
7	0x3e3fb692	0.18721989
8	0x3cd93d5c	0.026518516
9	0xbd2956df	-0.041342612
10	0xbc2cef99	-0.010555171
11	0x3e00bb2c	0.125714
12	0xbd47b3b8	-0.048755378
13	0xbe0e34e3	-0.13887362
14	0xbd3e474c	-0.046454713
15	0xbe99656b	-0.29960188
16	0x3ce5bb0b	0.02804329
17	0x3e806d9e	0.2508363
18	0xbcfb7e7c	-0.03069996
19	0x3ded591e	0.115892634
20	0x3db2ef85	0.08737091
21	0x3e2af405	0.16694649
22	0x3bef73c0	0.0073074996
23	0x3ec085c7	0.37602064
24	0xbc02433a	-0.007950598
25	0xbe07d428	-0.13264525
26	0x3d84e435	0.064888395
27	0x3cd614a3	0.026132887
28	0xbec3b334	-0.3822266
29	0x3c213755	0.009839852
30	0x3ef41ca9	0.47678116
31	0xbd90ada6	-0.07064371
32	0x3df9a8f4	0.121904284
33	0x3d8b0482	0.06787969
34	0xbdacffcb	-0.08447226
35	0xbe367167	-0.17816697
36	0xbda87da8	-0.08227092
37	0x3e39d6ce	0.18148348
38	0x3b36e3f4	0.0027906867
39	0xbb776167	-0.0037747265
40	0xbe57ec66	-0.21086273
41	0x3dde47b3	0.10853519
42	0xb9f75ec4	-0.00047182117
43	0x3d1d15d7	0.038350906
44	0x3d667fe7	0.05627432
45	0x3c1c042d	0.00952248
46	0xbd852ac0	-0.065022945
47	0xbe21ab7d	-0.15788074
48	0x3eb27446	0.34854335
49	0xbdd8c224	-0.105839044
50	0xbe8d81cd	-0.27638093
51	0x3ed35ea1	0.41283134
52	0xbd8a9093	-0.067658566
53	0xbe1eed57	-0.15520225
54	0xbc00aa12	-0.007853048
55	0x3c93c999	0.018040465
56	0x3cf04678	0.029330477
57	0x3b8c35f0	0.004278891
58	0xb824b136	-3.9265688e-05
59	0x3e11a436	0.14222798
60	0x3d862679	0.06550307
61	0xbd600586	-0.054692768
62	0xbd71cbe6	-0.059032343
63	0x3e7a55cc	0.24446791
64	0x3d4c48e8	0.049874216
65	0x3dbeb644	0.09312108
66	0x3d1f9b14	0.038966253
67	0x3e3ead9a	0.18620911
68	0xbc4ce1e5	-0.012505029
69	0x3e91176e	0.28338188
70	0x3862c91f	5.4069907e-05
71	0xbad7bba2	-0.0016459117
72	0x3e92f928	0.28705716
73	0xbd1358e0	-0.03597343
74	0xbda4f8cf	-0.08055269
75	0xbd61785f	-0.055046435
76	0xbe832497	-0.25613853
77	0x3de5f1c4	0.11227754
78	0xbf1f9ecf	-0.623517
79	0x3cc6a7bb	0.024249902
80	0xbde47781	-0.11155606
81	0x3e348301	0.17628099
82	0xbe67584f	-0.22592281
83	0x3d4e01a7	0.050294545
84	0xbb36f355	-0.0027916033
85	0x3dd485d3	0.103770874
86	0xbd0947be	-0.033515684
87	0x3d4dba12	0.05022628
88	0xbba3753a	-0.0049883397
89	0xbe968e29	-0.29405335
90	0xbacdce9b	-0.0015701832
91	0xbe8135a7	-0.25236246
92	0xba1ed0a1	-0.000605831
93	0xbd650590	-0.055913508
94	0x3e8be03b	0.27319512
95	0xbe8c3eb3	-0.27391586
96	0x3e1b7669	0.15181889
97	0xbdbebe57	-0.09313648
98	0xbcff5383	-0.031167751
99	0x3e3cb2fa	0.18427649
100	0x3dc126d8	0.09431237
101	0xbd97a13a	-0.074037984
102	0x3d37b579	0.0448508
103	0xb987425a	-0.00025798642
104	0xbd8a77c7	-0.06761127
105	0xbe3e30a9	-0.1857325
106	0xb5bc4e34	-1.4029852e-06
107	0xbe55e5f1	-0.20888497
108	0x3de9cf53	0.11416497
109	0xbcc88dd6	-0.024481695
110	0x3ea0f0de	0.31433767
111	0x3d019cf7	0.031643834
112	0xbd2b0b99	-0.041759107
113	0xbe3780dd	-0.17920251
114	0x3e50d65a	0.20394269
115	0xbe5d60ad	-0.2161891
116	0xb79b137e	-1.8486517e-05
117	0xbdefa667	-0.117016606
118	0xb922afa5	-0.00015514957
119	0xbd97447d	-0.0738611
120	0x3e08165a	0.13289776
121	0xbe07ca30	-0.13260722
122	0xb8b23b36	-8.49873e-05
123	0xbe97b8af	-0.2963309
124	0xbc179df6	-0.009253969
125	0xbe381b06	-0.17979059
126	0xbea67093	-0.32507762
127	0x3c6c773b	0.014432724
128	0x3e380a71	0.17972733
129	0x3d1d6b18	0.03843221
130	0x3e286a2b	0.1644675
131	0xbd21e5e2	-0.039525874
132	0xbe67645a	-0.22596875
133	0xbb9ee3ed	-0.004848948
134	0x38771799	5.8911366e-05
135	0xbc319498	-0.01083865
136	0xbda51b41	-0.08061839
137	0xbeb2cb36	-0.34920663
138	0xbddd72ca	-0.1081291
139	0xbe71d107	-0.23614894
140	0x3e4d6c4d	0.20060845
141	0xbc8ee903	-0.017445093
142	0x3e585a55	0.21128209
143	0x3dd30bd5	0.10304991
144	0xbe4b1f08	-0.19836056
145	0xbda85084	-0.08218482
146	0xbc4d66f9	-0.012536758
147	0xbd13b86e	-0.036064558
148	0xb9a3ebab	-0.0003126537
149	0x3d8779f3	0.06615057
150	0x366ef254	3.5605817e-06
151	0x3e6f3401	0.23359682
152	0x3d055caf	0.032559093
153	0xbe1fd5e7	-0.15608941
154	0xbdb67e8e	-0.08910857
155	0xbe3d7078	-0.18499935
156	0xbe1235b1	-0.14278294
157	0xbeba1406	-0.36343402
158	0x3d85e4c9	0.06537778
159	0xbebbb885	-0.36664215
160	0x3dd41ae4	0.103566915
161	0xbe319415	-0.17341645
162	0x3ecabcd0	0.39597178
163	0x3da3ba68	0.079945385
164	0x3d8ec7ac	0.06971678
165	0xbe91e100	-0.28491974
166	0xbcdba300	-0.026811123
167	0xb90c00fc	-0.00013351807
168	0xbb22831b	-0.0024797383
169	0x3df0e6a9	0.11762745
170	0x3eae7f8f	0.34081694
171	0x3c8563ac	0.016282879
172	0xbd1289c4	-0.035775915
173	0xbcefae7c	-0.029258005
174	0xbe0badce	-0.1364052
175	0x3e11e135	0.14246066
176	0xbe24b157	-0.16083275
177	0x3d9cf1da	0.07663317
178	0xbe057ce8	-0.13035929
179	0xbea04b3d	-0.31307402
180	0xb927ca68	-0.00016001763
181	0xbc198b29	-0.009371557
182	0x3ce43ef1	0.027862044
183	0xbd860ea0	-0.06545758
184	0x3dc0056a	0.09376033
185	0x3db38dbd	0.08767269
186	0xbbf51321	-0.007479087
187	0xbd961767	-0.073286824
188	0xbdf2535f	-0.11832308
189	0x3df165f9	0.11787028
190	0x3e1da963	0.15396647
191	0xbe237a9e	-0.15964743
192	0xbd5cfe65	-0.053953547
193	0xbea8237e	-0.32839578
194	0xbd014900	-0.03156376
195	0xbcb72b6e	-0.022359576
196	0xbd8b9e81	-0.068173416
197	0x3e5daaed	0.21647234
198	0x350ebc2d	5.3172954e-07
199	0xb92126f3	-0.00015368666
200	0x3dd7a925	0.10530309
201	0xbe13263c	-0.14370054
202	0x38639d8e	5.426775e-05
203	0xbe24c197	-0.16089474
204	0xbe58dc4f	-0.21177791
205	0x3e80f408	0.2518618
206	0x3dc89732	0.09794463
207	0xbe78b047	-0.24285994
208	0x3c08b02b	0.008342783
209	0x3eb2a3ee	0.34890693
210	0xbd6f8a1c	-0.05848132
211	0xbe9fc7eb	-0.31207213
212	0xb79a321c	-1.8381565e-05
213	0xbe3066a6	-0.17226657
214	0xb87a501b	-5.967925e-05
215	0x3e90adab	0.28257498
216	0xb7b83056	-2.1957017e-05
217	0xbd1a6fa5	-0.03770413
218	0xb91bee95	-0.0001487083
219	0xbd0f3730	-0.03496474
220	0xbca7c800	-0.02048111
221	0x3db033bb	0.08603617
222	0xbe18651f	-0.14882325
223	0xbd8d71df	-0.06906485
224	0xbdda4b07	-0.106588416
225	0xbde1fddc	-0.11034748
226	0x3dda77e1	0.10667396
227	0x3ee06bae	0.43832153
228	0x3ea66d00	0.32505035
229	0xbeac2395	-0.33620897
230	0xb6e394ce	-6.7824503e-06
231	0xbad3f50b	-0.0016171051
232	0xbdcec3df	-0.10095953
233	0x3e96b573	0.2943531
234	0xb916eca3	-0.00014393269
235	0x3b3a35a2	0.0028413315
236	0xbd7d380f	-0.06182104
237	0xbe8e9248	-0.2784598
238	0x3dab5ed6	0.08367698
239	0x3d83b3e8	0.06430799
240	0x3eb7972e	0.35857528
241	0x3cfccaaf	0.030858366
242	0xbe55697f	-0.20841025
243	0xbe82260c	-0.25419652
244	0xbb4cea45	-0.0031267565
245	0xbeb35a86	-0.3503
246	0x38c0be9e	9.190779e-05
247	0x3da58999	0.08082885
248	0x3d910055	0.070801415
249	0x3e37fbfb	0.17967217
250	0xbd51f5fe	-0.051259987
251	0x3df89439	0.12137646
252	0xbe2551c8	-0.16144478
253	0x3e077e7e	0.13231847
254	0x3d7d2881	0.061806206
255	0x3d96fbd6	0.07372253

fc_1.bias f4 [8]
0	0x3d0cd454	0.03438218
1	0x3cd1ba91	0.025601657
2	0xbd2c65ec	-0.042089388
3	0xbca60c2c	-0.020269476
4	0xbcb8d3e4	-0.022561975
5	0xbc8282ab	-0.015931448
6	0x3bd17aae	0.0063927984
7	0x3bbedf4f	0.0058249603
