checkpoints/target0/epoch=15.checkpoint.pth.tar (torch, 322368 bytes, 8 tensors)

conv1.weight f4 [16, 3, 5, 5]
00000000: 0d61 403e d77c 163e 6c09 9b3d e4c6 5abe
00000010: 7e3e 8d3d 1e87 00be 3b9c 85bc 6b9c 3dbe
00000020: f96b d6bd 72e8 233e 517e 1fbd 1104 04be
00000030: 1727 c8bd ea54 b9bd 53fa 98bd 3871 bc3d
00000040: 83cb 3e3e d104 98bc 6139 86bd 540b 063d
00000050: 4f11 78bd 6c34 023e 2107 ab3d ef8c 1c3e
00000060: 33b2 f93d d8b8 f93d 383d 823d 7288 ea3d
00000070: 7072 54bd 62fe 71ba 3de0 09bd 016f 8c3d
00000080: 8e0f 2fbe 04eb 00be 7ff4 b8bc 48f3 273e
00000090: f9bd 0a3d 9faa 96bd 37dd 52bc 3496 aabd
000000a0: 1739 0ebe 0267 f33d 9e34 b4bd 7519 abbd
000000b0: 1fc5 09be a355 633e 01a2 d0bd dd7f 22bd
000000c0: 75ae b2bd de82 71bd c8cc 763c 89ac 8a3d
000000d0: d241 3bbd c2df c13d 3dbf 99bd 7c30 8ebd
000000e0: a20c 06be 7801 d7bc 592d 25bd eb57 893d
000000f0: 6604 57bb 62af 423e 890e 09be c9d9 ce3d
00000100: 190e 0a3e 0326 d33d 7e23 783e 6894 533d
00000110: 83c3 9f3c de38 b1bc f628 b1bd 43ea 163e
00000120: e3cd 8fbb ac51 673d e659 833c c1c5 b73c
00000130: ab47 2b3d 82a7 92bd f315 66be 64df b6bd
00000140: 57a7 c1bc a513 56bd cb85 15be 85a6 a0bd
00000150: 1a3a e93c 1125 ed3c 1320 a53d de18 ebbc
00000160: 5b24 173d e7f5 89bd b8da f3bd 6a75 023d
00000170: ade5 40be 23eb d6bd 634c d43d 503a a13c
00000180: 1166 84be 8037 be3c d54c 473d ff12 adbc
00000190: e951 9e3d 3189 9f3d e305 fd3d 0b8f ddbc
000001a0: b96e e8bb 9583 a83d 63bb 5b3d 0ba6 f63c
000001b0: 7643 173d 6a3d 043e 33ab 293c e4a2 a4bc
000001c0: 04cd 07be 11e1 6fbb c066 39bd 45f4 5c3d
000001d0: 52b3 9c3d 7f38 453c 79d2 f5bc 44d5 7a3d
000001e0: 99a3 693b f06b 023d 1bf5 ce3c ff2d a63d
000001f0: 083d e23d de8c 8a3d f892 df3d 16bf a23d
00000200: e0eb 5c3e 6af6 f63d 9bf9 d9bd 3ae8 93bd
00000210: d849 a53c 4326 3e3e 1057 b33d f7fc a93d
00000220: 1818 0a3e f94d b23c 563b 14be 3418 ec3d
00000230: 6ea5 44bc 9d1f f73d 8587 41bd 5fd3 a33d
00000240: acaa 8abd 3bb3 d83d ed27 2f3e d173 213e
00000250: 4974 2a3d d102 acbb a97a 10bd 71e3 033d
00000260: 57f1 a73c f720 9c3d ba27 26bd e3a8 253e
00000270: 9ea1 79be a5d1 65bd 050a 00be 91e1 913d
00000280: d237 55be ed1d 9939 2084 32bc 8fb1 07bd
00000290: dae1 103d 727d adbd b92d 3d3b dc0e cfbd
000002a0: c3d2 12be cbb9 243e b1bb 033e 307e 8ab6
000002b0: acd6 0bbe 3d9f c53d abea f23d 166d 6e3e
000002c0: 85e5 183d c6b1 333c 2508 a7bd c3ce efbb
000002d0: a30c 86bd 5853 18be aa99 edbd 8083 5abd
000002e0: b521 14bd 4efd 23be a449 4fbe edd3 0c3c
000002f0: d413 d43d 7f02 cfbc 079b 823d d5b1 7b3d
00000300: 047e 2d3e 87c2 98bd bba8 ff3d e57d 4cbc
00000310: 392d e0bd 890e 1f3d c9c2 8b3d ca60 2e3e
00000320: 983a b93d c060 653e 5e9c 39bd 2480 b0bd
00000330: 4aa9 153d 0e44 f63d 81a0 fd3d 126b 173d
00000340: d2bd 9ebd 7314 a2bd 8b6b 6bbd 0fe6 8fbd
00000350: 27e0 4b3c 1d3f 4c3d e299 273c 3b6c 64be
00000360: 8921 38bd e255 cb3d 481f 26be 7020 293e
00000370: 45e5 503d 7ce3 45bd 3406 bc3d 5f80 2d3e
00000380: 7ce0 a53c e9b1 243e 3ab5 8b3c 7a20 dbbd
00000390: 0743 9ebd b978 d1bc e2a2 243d 7045 4e3e
000003a0: 9b95 0bbc c3d9 debd 333a 6bbe 871a e2bd
000003b0: dbd4 0d3c e37b c73b 496c d3bb 718a 80bb
000003c0: 9341 c9bd 900b f93c 1ef9 3abd 87f7 d43c
000003d0: 51dd f5bd cf4d 52bc 9ffc ebbc 74de 0e3e
000003e0: eef5 bd3d 7618 ddbd b705 ab3d fd73 613d
000003f0: 6c94 453d 2a78 133d ed31 963c 0f59 cf3c
0.18787022 0.1469606 0.075701565 -0.21364933 0.06896685 -0.12551543 -0.016309848 -0.185167
-0.10469813 0.1600664 -0.038938824 -0.12892176 -0.09773081 -0.09049399 -0.074696206 0.09201282
0.18632321 -0.018556984 -0.06553913 0.032725647 -0.06056338 0.1271531 0.08350969 0.15288137
0.12192192 0.12193459 0.06359333 0.11451806 -0.05186695 -0.00092313264 -0.033661116 0.0685711
-0.17095777 -0.12589651 -0.022577522 0.16401398 0.03387258 -0.07356762 -0.012870125 -0.0832943
-0.13888966 0.118848816 -0.087990984 -0.08354465 -0.13454102 0.22200637 -0.1018715 -0.03967272
-0.08724681 -0.058962695 0.015063472 0.0677119 -0.045717068 0.094665065 -0.07507179 -0.069428414
-0.13090757 -0.026245818 -0.04032645 0.06706222 -0.0032809018 0.19012216 -0.13384451 0.10100133
0.1348194 0.103099845 0.24232289 0.051655203 0.019502407 -0.021633562 -0.08650391 0.14737801
-0.0043885573 0.056474373 0.016034078 0.022433164 0.041816395 -0.07160856 -0.2246931 -0.08929327
-0.023639364 -0.05226483 -0.14601819 -0.07844261 0.028470088 0.028948339 0.08062758 -0.028698381
0.036899906 -0.06736355 -0.11906952 0.031850256 -0.18837614 -0.104940675 0.10366132 0.019681126
-0.2585912 0.023219824 0.048657257 -0.021127222 0.07730467 0.07789839 0.123546384 -0.027045747
-0.0070932773 0.08228222 0.053645503 0.030108472 0.03692957 0.12914053 0.0103557585 -0.020097204
-0.13261801 -0.0036602656 -0.045264006 0.05394389 0.0765139 0.0120373955 -0.030007588 0.061238542
0.003565049 0.03184122 0.02526336 0.08114242 0.11046797 0.067651495 0.10916704 0.07946603
0.21574354 0.120587185 -0.106433116 -0.07222028 0.020176813 0.18569283 0.0875684 0.08300202
0.13485754 0.021765696 -0.1447576 0.11528054 -0.012002332 0.12066577 -0.047248382 0.079993
-0.06770834 0.105810605 0.17105074 0.15766837 0.041614804 -0.005249359 -0.035273228 0.032199327
0.020500822 0.07623475 -0.04056523 0.16177706 -0.24378058 -0.056108136 -0.12503822 0.071231015
-0.20822075 0.0002920473 -0.010895759 -0.033128317 0.03537164 -0.084711924 0.0028866364 -0.10110256
-0.14338212 0.160865 0.12864567 -4.1274106e-06 -0.1365611 0.09649513 0.118611656 0.232838
0.037328262 0.010967677 -0.0815585 -0.007318349 -0.06545379 -0.14875543 -0.11601575 -0.053348064
-0.036164958 -0.16014597 -0.20242935 0.008595449 0.103553444 -0.025269745 0.06377225 0.06144889
0.16942602 -0.07458978 0.12483355 -0.0124811875 -0.109461255 0.03883222 0.06824262 0.1702911
0.09044379 0.22400188 -0.04531514 -0.08618191 0.0365384 0.12024699 0.12384129 0.036967345
-0.07751049 -0.07914057 -0.057475608 -0.07026302 0.012443579 0.049864877 0.01022956 -0.22306912
-0.044953857 0.0992849 -0.1622287 0.1651628 0.0509999 -0.04831265 0.09180871 0.16943501
0.020248644 0.16083492 0.017054189 -0.10699554 -0.07727628 -0.02557026 0.0401944 0.20143676
-0.008519555 -0.108813785 -0.2297142 -0.11040216 0.008656706 0.0060877665 -0.0064521176 -0.0039227535
-0.098269604 0.030401021 -0.045647733 0.025996936 -0.120051034 -0.012835934 -0.028806983 0.13952047
0.09275423 -0.10795681 0.083506994 0.055042256 0.04823725 0.03600327 0.018334353 0.025311021

conv1.bias f4 [16]
00000000: be88 84bd 61dc 013d 0c87 5dbd 4a83 31bd
00000010: 0582 44bd eeec 89bd 288f 223b 807e bfbb
00000020: 3402 fcbc 8a68 693d ad2e 833c 2242 c63c
00000030: 7e96 c1bb 6230 053c 8aed 50bd caa4 d33c
-0.06471394 0.03170431 -0.05408387 -0.043338098 -0.04797556 -0.06734644 0.0024804566 -0.0058439374
-0.03076277 0.05698446 0.016013468 0.024201456 -0.0059078326 0.008129211 -0.051007785 0.025835413

conv2.weight f4 [64, 16, 5, 5]
00000000: 6ab6 8f3c f4bf 913b 926b 313b ca18 9e3d
00000010: 292c 373d 1352 393b 3ba3 a9bb d146 303c
00000020: a434 06bb 1a7d bfbc b3c2 753a a1f3 b53d
00000030: 1300 5dbd 69d1 363c b8ae 7c3d 27c2 73bb
00000040: bd09 d53c e45c 743d bcdd b23d aefa 3e3d
00000050: a371 4abc 3cf3 693d 9a93 da3c 4682 453c
00000060: bae7 45bd 3b54 953c bcd6 ffbc c510 c0bc
00000070: 62f0 d5bc a5df ce3c 4b01 13bd 4037 d6bc
00000080: eda8 dabb 3612 49bd 6dd0 4dbd c43f b5bc
00000090: 926f c1bb 5fac 81bd 6f34 d93c a46e 8cbd
000000a0: b496 2b3d 7224 10bc 5c8d 59bd 9392 803c
000000b0: 4785 0ebd 0d6a 8abc 50b8 8d3c b803 1b3d
000000c0: 01cf a8bc bc84 083b c50d b8bc af58 2839
000000d0: a88a 01bd 596a 513d bafc e13c d01f 993c
000000e0: d1fb eabb 63b4 72bc 6ffe d1bc afdd 2dbc
000000f0: 557e 44bc 849b 63bc 0d90 ac3c 907f b63d
00000100: 569b 6abd 44e4 513b 0d12 e43c bf82 753d
00000110: 543b 403d fd50 c63c aa8d 6cbc 63c3 bdbc
00000120: 6562 f03d dbb5 18bd 5639 9e3c 2371 31bd
00000130: cdba 6abc b81d 09bc a657 88bc ba86 63bc
00000140: 5b75 ebbb d269 4f3a 5b0c a33c 6c54 643c
00000150: 6dc5 0b3d 0aa8 96bc 52df a33d 8784 27bb
00000160: ec9f d93a 97cd 5fbc 720f 1e3a 3076 cdbb
00000170: 911b 583c 5004 a03d 4382 28bd 8629 51bc
00000180: c40b a03c 1c23 1c3c f1e4 363d 3597 5c3d
00000190: 57a9 1dbd 1ae0 7dbc c84e cbbc da04 323d
000001a0: f685 8c3c c658 c0bc 24e4 36bd 74b5 893c
000001b0: a3f4 ad3b 0de9 8a3b 0eee 1dbd 29e4 09bd
000001c0: 526d a73c 8056 2bbd c003 a1bd 89fb bfbc
000001d0: 5ece 2a3d fc8d 543d eb9d 3c3c 54c7 5e3d
000001e0: fdab 643d 4ad9 473b 5979 7e3b 26e2 a73c
000001f0: 9414 7b3c 0db9 d23b c1a1 00bd eb39 b4bc
00000200: 83f4 253c 3dc3 ddbc d1b0 b53c 50b5 463c
00000210: c38b 7bbd 134d 123d 89a8 76bc f057 b7bc
00000220: 9c07 563b bbc0 533c f9dc 003d 6ccc 273d
00000230: a0fd 8c3d 0533 d63d 4987 a63c d1ec 3ebc
00000240: e418 753b 33dc 06bd de9e 173d 1069 0cbd
00000250: bd52 2e3d 11fc 793d 46cd 33bd 382d aabc
00000260: 1dab b4bc 0796 813b 210a a8bb 867f 0cbc
00000270: 9513 843b a3a0 efbc 4e15 a8bc a56b 993c
00000280: 5bf2 c13c f03d 183d 5ae3 9cbc 3629 3c3d
00000290: 4a3b e2bc 1c69 8c3c a181 d53a ce8b 6fbc
000002a0: 0b1f 0dbc a82f 033b 3b16 4cbc f705 77bc
000002b0: ce69 473d 33dc 0b3c e5a5 28bc ce5a fbbc
000002c0: f24e a03d ce5e 1cbd c727 6a3d c121 9bbc
000002d0: 0389 66bd 6871 abbb 87ca 31bd 991f 57bb
000002e0: d8e7 89bc 44fd 49ba 267a 273d 00fd 2dbd
000002f0: 25c5 033d a5e7 60bb e993 a83d b970 7a3c
00000300: 7fc6 7abc 8092 433d cc35 47bc a54a 66bc
00000310: de78 963d 3f39 f43b ad2d f13c 99dc a33c
00000320: 0b72 343d 9eb6 4b3a bb3d 273d 600c c63b
00000330: b94c 6c3d 91a8 083d 469c 643a 7c42 883b
00000340: d4b3 923b a48c 01bd a0a5 40bd 59b6 87bc
00000350: 631b 4bbd 23f3 283b 7e53 2dbd 387a 0f3d
00000360: ed30 113d 41f8 c6bb 0cb3 143a 8434 24bd
00000370: b84e 463c 7bfa d03b 9a0d 753c c5d8 8f3d
00000380: 78a1 e8bc 75cd 393b 0bec d23c ea24 7abd
00000390: 37e3 e3ba 53c5 8b3c a597 983d 7f1f 48bd
000003a0: bf9d 9fbd 3789 84bc 6eca 133b d9e8 b2bc
000003b0: d322 7cbd e1a6 6fbd cc46 353d 869a a0bd
000003c0: 5751 973c 893a 19bd fb1d 79bd f8ad 2b3b
000003d0: 5de6 7dba ff38 1b3d 4711 6cbd 1225 383d
000003e0: d1d2 cf3c a679 0b3d 0285 ddba 1747 283c
000003f0: cfeb 5abb 9297 77bc 0ca1 11bd 734c 123d
0.017543036 0.0044479314 0.0027072174 0.07719572 0.04471985 0.002827768 -0.0051769293 0.010759071
-0.0020478154 -0.023375083 0.0009375021 0.08884359 -0.05395515 0.011158326 0.061690062 -0.0037194581
0.02600562 0.0596589 0.08733699 0.046625786 -0.012356195 0.057116732 0.02668171 0.012054985
-0.048316695 0.01822864 -0.031230323 -0.023445496 -0.0261156 0.025253126 -0.035889905 -0.026149392
-0.0066729696 -0.049089633 -0.0502476 -0.022125132 -0.005903193 -0.06331705 0.02651426 -0.068570405
0.04189177 -0.008797752 -0.053113326 0.015694892 -0.034795072 -0.016896272 0.017299801 0.037845343
-0.02060652 0.002083107 -0.022467503 0.00016054766 -0.031626374 0.05112681 0.02758633 0.018691927
-0.007171132 -0.014813515 -0.025634019 -0.0106119355 -0.0119930105 -0.013892058 0.021064783 0.08911049
-0.057277046 0.0032026926 0.027840639 0.059939142 0.04693158 0.02420854 -0.014438072 -0.023164457
0.11737517 -0.037282806 0.01931445 -0.043320786 -0.014326763 -0.008368902 -0.016643357 -0.013887102
-0.0071856207 0.0007912192 0.019903352 0.013936143 0.034123827 -0.018390674 0.08001579 -0.002556117
0.0016603447 -0.013659856 0.0006029523 -0.0062701926 0.013190166 0.078133225 -0.041139852 -0.012766248
0.01953686 0.009529855 0.04465193 0.05385514 -0.038491573 -0.0154953245 -0.02481784 0.043461658
0.017153721 -0.02347983 -0.044651166 0.016810156 0.005308704 0.0042392076 -0.038557105 -0.033664856
0.02043787 -0.04183054 -0.078620434 -0.023435371 0.041700713 0.05189322 0.01151226 0.054389313
0.055828083 0.0030494505 0.0038829653 0.020493578 0.01532473 0.006430751 -0.03140426 -0.022000274
0.010129097 -0.027070636 0.02217904 0.012128189 -0.061412584 0.035718035 -0.01505483 -0.022380799
0.0032658344 0.0129243685 0.031460736 0.040966436 0.06884313 0.1045895 0.02032818 -0.011653141
0.003739887 -0.032924842 0.037016742 -0.034279883 0.042559374 0.061031405 -0.043896936 -0.020773515
-0.02205425 0.003954652 -0.0051281606 -0.008575326 0.0040306547 -0.029251402 -0.020517971 0.018728087
0.023675134 0.037168443 -0.019151378 0.04593774 -0.027616162 0.017139964 0.0016289243 -0.014620734
-0.008613358 0.002001742 -0.012456472 -0.015077106 0.048684888 0.008536386 -0.010293459 -0.030682947
0.078275576 -0.03817635 0.05716684 -0.018936994 -0.05628301 -0.005232025 -0.043406036 -0.003282523
-0.016834185 -0.0007705281 0.040887974 -0.042477608 0.032170434 -0.0034317758 0.082313366 0.015285664
-0.015306114 0.047747135 -0.012158822 -0.014055883 0.07347272 0.0074531133 0.029440725 0.02000265
0.044054072 0.00077710475 0.040830355 0.0060439557 0.057690356 0.033363882 0.00087207963 0.004158316
0.0044770036 -0.031628266 -0.047032952 -0.016566442 -0.049586665 0.0025779686 -0.042315952 0.035028666
0.03544705 -0.0060720746 0.0005672432 -0.040089145 0.012103729 0.006377516 0.014956856 0.070237674
-0.028397307 0.0028351222 0.02574732 -0.06107036 -0.0017386441 0.017061865 0.07450799 -0.048858162
-0.077937596 -0.01617871 0.0022551077 -0.021839546 -0.06155665 -0.058508758 0.04425697 -0.07841973
0.018471403 -0.03740934 -0.060819607 0.0026196223 -0.0009685511 0.037896153 -0.057633664 0.044957228
0.02536908 0.03405156 -0.0016900601 0.010270855 -0.0033404713 -0.015111821 -0.035553977 0.03571744

conv2.bias f4 [64]
00000000: 4fe6 33bd 4ed3 d5ba 114a 833c 7460 d2bc
00000010: e996 c8bb b93b 63bc af18 1b3c 43a3 fabc
00000020: 718d 59bb f282 fd3c 2a63 1ebd 20a9 17bc
00000030: 550a 17bd dc38 163d 4994 66bc f1c0 f53b
00000040: 3233 80bc 3a74 a3bc 4860 45bc 3d46 12bc
00000050: a1f0 22bd 9e0e af3b 28c1 76bc 2b4b 69bc
00000060: c8bb 53bb 54b7 b23b fcaa 2bbc 4908 39bd
00000070: 2b65 353d 361c 253c c62e 4e3c 1739 a33c
00000080: 64d9 433d ceb0 083c 1b75 27bc 1d98 373d
00000090: bc9f d9bc 14fa c6bb 4106 083d b65a f83c
000000a0: 261f 43bb 3641 603d 6d75 02bc 4dfd bbbc
000000b0: a076 7d3c 40a0 3f3c 60fc 41bd 6c14 b4bc
000000c0: bcbd 773b 8114 36bd cfe8 25bc 2aa4 d03c
000000d0: 459c 593d 3dea afbc 9b7d f0bb 33a7 13bb
000000e0: 9209 fbbc 5f87 dc3c fd26 8ebc 25db 893c
000000f0: dc3f 0abc a7fa 8c3d 4c17 f6bb f7c8 023d
-0.04392081 -0.0016313584 0.016026529 -0.025680758 -0.0061215055 -0.013869219 0.009466334 -0.030595427
-0.0033195878 0.030946229 -0.03866879 -0.009256631 -0.036875088 0.03667532 -0.01407344 0.007499807
-0.015649412 -0.019952882 -0.012046881 -0.008927879 -0.039780263 0.0053423187 -0.0150607005 -0.014239113
-0.0032307971 0.0054539833 -0.010477778 -0.045173917 0.044285934 0.010077527 0.012584394 0.019924683
0.04781474 0.008342935 -0.010220791 0.0448228 -0.026565425 -0.006072292 0.03320909 0.030316692
-0.0029773205 0.05474969 -0.007962567 -0.022947932 0.015470177 0.011695921 -0.047359824 -0.021982394
0.00378023 -0.044453148 -0.010126307 0.025468905 0.053127546 -0.021473998 -0.007339192 -0.0022530078
-0.030644212 0.026920019 -0.017352575 0.016828129 -0.008438077 0.06883746 -0.0075101014 0.031929936

conv3.weight f4 [32, 64, 5, 5]
00000000: e3db 6fb8 78b8 0fb8 ca0c bd36 2b3a 9eb5
00000010: 36e3 84b5 94a0 c734 fe89 0cb8 2c9d 55b6
00000020: 5af1 bf36 f441 b6b4 1800 a73c b08b dfbb
00000030: 4f88 063d 4aa1 673c 4eca 023c 7b85 b53c
00000040: c395 663c d741 d43c 95ee e43c f7f3 74bb
00000050: 45a6 5a3b e2af 503c 3944 613c d71a 483d
00000060: 4bb4 003c 386e 83ba b31b 22ba 2cc3 34b9
00000070: f49c 7db9 92f3 34b4 81b7 abb9 87f9 99b9
00000080: 52fa 6ab8 3098 4237 ce40 81b4 139a fc3c
00000090: cabf 3d3c 843b 193c 9c75 4c3b 761e 0c3d
000000a0: d694 edbb 3dd5 f53a 2f0d 063d b0f3 383c
000000b0: 1815 663c 85fd 053c 0984 84bb 9c2c 013c
000000c0: 7866 103d c224 253c 2c2a 2839 5424 7035
000000d0: 654b 2634 e4f6 7cb5 a214 5535 0295 0938
000000e0: 7ab0 6035 725a 27b5 604b 5a34 f7f5 a9b4
000000f0: a14e 173b 06b7 a43b 0ba5 2e3c a51f 753c
00000100: 28ba a3ba a2f6 8439 9fb8 0dbc 5ec9 9cbc
00000110: b0a8 ea3b 6c0b 6a3c 2bcc bbbb 9c22 013c
00000120: f5bb 38bb 5e22 12bc 39e8 5a3c dfe2 9838
00000130: 4577 a9b9 e38d 8437 010c f938 b416 8135
00000140: c1fb 52b8 0cc0 95b9 c2cd bdb9 ca36 dcb9
00000150: a729 38b4 b933 1dbc fa96 edba fd6e 3b3a
00000160: 8d78 f23b 84a8 b03a e348 e9bb 8c0e bdba
00000170: 93aa 983c 0ba4 093c 8099 90bb 3c01 013b
00000180: 86fc 9abb 613c e4bc 63d1 cc38 6708 47bc
00000190: f627 03ba 7220 0a37 9d0c b5b8 5211 7bb8
000001a0: c0d1 8cb1 f6bf 1238 b48d 8db7 1204 e3b9
000001b0: 933d 0cba 284a 4c33 efa6 e93c 68a7 c2ba
000001c0: 5a2b 623c 0b2b 113c 6834 83ba 1e80 303c
000001d0: cc53 0abd f253 9c3c 001a e23b 9e38 b8bb
000001e0: 3ee8 103b 1c08 edbb 9100 a93b 890e d23c
000001f0: 0383 3a3c 8e61 c336 dd25 8139 5096 6d39
00000200: 6f05 df38 1db4 4135 e829 afb8 2e6d de38
00000210: d746 7e36 703d 6737 f0ab 3b33 f43d 20bc
00000220: 1a33 b7ba ea90 52bc 4fd3 ea3c ce2b 2c3b
00000230: a53a 273b d72b bb3c b5ee 2ebc 33df 983b
00000240: 1358 d63b 85be 76bb 2ce7 553b 213e 483b
00000250: 78cc b13c 667e ae3c 99a8 32b9 d6e7 8239
00000260: 99a1 fd39 af8a 123a 3bf5 6d36 1cb8 9139
00000270: 3933 dd39 d5e1 6dba d744 25ba 6edc bd35
00000280: e460 283d beb5 fc3a d249 893c a207 e13c
00000290: 722c d13c aa25 d739 2b79 0c3d 2a87 b33c
000002a0: ae54 57ba 55ac 69bc f29f e33b 799a 493c
000002b0: 716f a9bc 6c67 1a3b 17e8 66bc ca52 1db6
000002c0: dab2 8336 61ac d2b6 aba0 09b7 7eb8 6ab5
000002d0: 3325 b436 fc7e d336 50d7 0737 6f58 0eb7
000002e0: 61f2 8035 1118 f63b 7960 203a 8fea c33b
000002f0: c17e 003c dddf daba d846 5d3c 600c ca3a
00000300: 6b25 493c bc5b 3a3c aee8 acbb abff 24bb
00000310: 075e 933b ec33 413c ce0f 9b3b cbfa 6cbc
00000320: ea7b 5d35 1456 c533 e4a5 3934 60c9 5e37
00000330: e8ed c933 1f63 c2b6 5877 85b6 3ef0 20b6
00000340: 01c8 75b5 6764 90b5 99be bfb7 9081 a53b
00000350: 84b3 1a3b 4da3 853b 9a33 76b8 03f1 72ba
00000360: 41f0 113c ca3c cf3b 6b37 0e3c 190a 613a
00000370: a20f 9f3a 99c0 03bb e3a5 7f3c c330 10bc
00000380: 7845 1b3c 4fed b4b9 248b ea38 d444 a338
00000390: 2fb9 8e37 781c 90b3 7188 1cb9 9bea af39
000003a0: cdc4 54b9 7d7b aab9 3c60 45b5 9fe3 003d
000003b0: acbe d8bb 43b6 093d 0491 a03c 9b61 403b
000003c0: 4783 743c 9b5e 4abc f413 1e3c 9dad b93c
000003d0: 890e f3ba 390e 743c d016 00bc 7e4b 163c
000003e0: 3f6f f6bb ab0c 1a3c f197 0f36 e864 9d33
000003f0: 56e5 3936 78fe 3036 10d4 f6b5 9913 dc35
-5.7186826e-05 -3.4265657e-05 5.634128e-06 -1.1788846e-06 -9.900893e-07 3.7183474e-07 -3.3507116e-05 -3.183096e-06
5.7203406e-06 -3.394813e-07 0.020385787 -0.006822072 0.032844838 0.014137575 0.0079828035 0.022158375
0.014073792 0.025910301 0.027945796 -0.003737686 0.0033363265 0.012737246 0.013749176 0.04885372
0.007855485 -0.0010027355 -0.0006183937 -0.00017238845 -0.0002418643 -1.6852417e-07 -0.00032752383 -0.00029368346
-5.6023076e-05 1.1598735e-05 -2.4075274e-07 0.030835187 0.011581371 0.009352569 0.003119803 0.034208737
-0.0072504086 0.0018755567 0.032727417 0.011288568 0.014043115 0.00817812 -0.00404406 0.007884171
0.03525397 0.0100795645 0.00016037439 8.945983e-07 1.5487383e-07 -9.423659e-07 7.937871e-07 3.280212e-05
8.370331e-07 -6.2343963e-07 2.0330253e-07 -3.1657666e-07 0.0023087638 0.005026701 0.0106594665 0.014961158
-0.0012491392 0.00025360758 -0.008649974 -0.019138988 0.0071612224 0.01428495 -0.005731126 0.007881787
-0.0028188203 -0.008919327 0.01336103 7.290183e-05 -0.00032323055 1.5801697e-05 0.00011875481 9.617856e-07
-5.0302366e-05 -0.0002856258 -0.0003620219 -0.0004200249 -1.7151488e-07 -0.009594851 -0.001812666 0.00071500224
0.0073996247 0.0013477956 -0.0071192845 -0.0014423891 0.018636024 0.008400927 -0.00441283 0.0019684574
-0.00472981 -0.027860822 9.766479e-05 -0.012147999 -0.0005003208 8.232995e-06 -8.633102e-05 -5.9859194e-05
-4.098382e-09 3.498789e-05 -1.6874495e-05 -0.00043299847 -0.00053497514 4.7564896e-08 0.028521983 -0.0014850916
0.013804281 0.00886036 -0.0010010125 0.010772733 -0.03377132 0.019082997 0.006900072 -0.0056219837
0.0022111083 -0.0072336327 0.005157538 0.025641697 0.011383775 5.8228097e-06 0.00024633008 0.00022658077
0.00010634481 7.21602e-07 -8.352456e-05 0.00010606121 3.7890184e-06 1.37829775e-05 4.3695707e-08 -0.009780396
-0.0013977021 -0.012851933 0.028665213 0.0026271227 0.0025517133 0.022848053 -0.010677029 0.0046652793
0.006541261 -0.003765018 0.003263901 0.003055461 0.021703944 0.021300506 -0.0001703821 0.00024968263
0.0004837632 0.00055901235 3.5458495e-06 0.00027793727 0.0004219057 -0.0009074484 -0.00063045084 1.4145751e-06
0.041108027 0.0019280238 0.016758833 0.02746946 0.025533888 0.00041036058 0.034295242 0.021915037
-0.00082142174 -0.014262279 0.006946557 0.012304896 -0.020683022 0.002356018 -0.0140934205 -2.3443013e-06
3.9249253e-06 -6.2785552e-06 -8.203245e-06 -8.7440264e-07 5.3687486e-06 6.303073e-06 8.096758e-06 -8.48445e-06
9.607285e-07 0.007510193 0.0006117891 0.0059788893 0.0078427205 -0.0016698797 0.01350566 0.0015415065
0.012276988 0.01137441 -0.005276761 -0.0025176804 0.004497293 0.011792164 0.0047321087 -0.014464091
8.2509234e-07 9.189185e-08 1.7289818e-07 1.3279117e-05 9.403067e-08 -5.7931898e-06 -3.9776023e-06 -2.3981697e-06
-9.1560656e-07 -1.0758057e-06 -2.2857728e-05 0.0050508454 0.0023605535 0.004078305 -5.8699028e-05 -0.0009267481
0.008907379 0.0063243853 0.008680205 0.00085845735 0.0012135396 -0.002010381 0.015603515 -0.008800688
0.009477012 -0.00034509084 0.000111839065 7.785266e-05 1.7013952e-05 -6.710701e-08 -0.00014928148 0.00033553396
-0.0002029121 -0.00032516933 -7.352826e-07 0.031467076 -0.0066145267 0.033621084 0.019600399 0.0029355052
0.014923877 -0.012351657 0.009648312 0.022665793 -0.001854376 0.014895969 -0.007817939 0.009173272
-0.007520586 0.009402434 2.1397102e-06 7.329237e-08 2.770064e-06 2.6374164e-06 -1.8390147e-06 1.6396981e-06

conv3.bias f4 [32]
00000000: 9614 5dbc bf37 253c 964b eebc 148c 193c
00000010: 703d f7b9 e54c 97b9 6028 0e39 94c7 003c
00000020: 75e9 febc 86eb 5d3c 254f 6cba f619 283d
00000030: f112 593a 087a aebc 8aa2 a93c a8b3 24bd
00000040: 695b 343d c68b 813c e49e 56bc f8b6 8d3c
00000050: 2cc1 033c b779 b1bb 0359 97b9 fb76 123d
00000060: 83f4 82ba 9dc4 333c 06d8 133c a6fe 573d
00000070: 6543 dbbc 67b1 8a3c 0c40 203c a197 453d
-0.013493678 0.010084092 -0.029088777 0.009371776 -0.00047157286 -0.00028858255 0.00013557216 0.007860083
-0.03111718 0.013544923 -0.0009014479 0.041040383 0.00082807156 -0.021298423 0.020707387 -0.040210396
0.044032488 0.01581372 -0.013099406 0.01729916 0.008041661 -0.005416121 -0.00028867283 0.035758
-0.0009991083 0.010972169 0.009023672 0.052733086 -0.026765535 0.016930295 0.009780895 0.048240308

fc_1.weight f4 [8, 32]
00000000: 1fd0 813d 7062 893e b999 71be c896 c83e
00000010: 3edb debd 2034 84bb b5b5 013b 1d51 463e
00000020: 7cb0 e73c 409d 2fbd fc02 88bb f5f9 003e
00000030: 714e 4fbd dd9a 10be 8b18 3cbd 7827 99be
00000040: 0f2e de3c bf2c 823e 4ad8 e4bc 5015 ec3d
00000050: 1ba3 bb3d 2ad6 2b3e 568f bd3b eb83 c13e
00000060: de80 c1bb 9d23 0abe f69d 893d de44 d43c
00000070: 6e94 c4be a39d 303c 52df f43e b5d6 91bd
00000080: 9ecd f93d 1eaa 893d 815c acbd a192 39be
00000090: af09 a7bd 3d22 3a3e ed4d a83a 9fbb 49bc
000000a0: af57 58be e04b e13d 94c9 10ba 72d2 1b3d
000000b0: 36e0 6f3d a625 3e3c 78c7 85bd f055 21be
000000c0: 15be b23e 42fc dfbd 3c4b 8ebe 0684 d33e
000000d0: ff74 93bd 5dca 1fbe d0ce cabb c44a 7d3c
000000e0: b62d b23c 1a2e 0b3c 94ec 2dbb 44c8 113e
000000f0: 4fc9 8a3d bc9d 63bd 6724 7abd c1c6 7a3e
00000100: 62a0 4a3d 0fa3 bc3d 5d75 1e3d 581e 3d3e
00000110: 56b2 49bc 8e35 903e cd1f 56b8 503e caba
00000120: 580e 923e 4d1d 10bd 1fb4 7ebd a511 60bd
00000130: 974b 81be 34c5 e43d b7e8 1dbf d3de c53c
00000140: fe0a e2bd f2ba 313e a7cc 65be 8cde 4a3d
00000150: 281a dfba 9362 d33d 5d9c acbc 6553 4b3d
00000160: 61fe bdba 3d52 94be 9a46 a5ba f2b8 7ebe
00000170: 3d95 21ba f086 63bd 009a 883e 675f 8abe
00000180: 5899 183e 36b7 b8bd c50b fbbc 7800 393e
00000190: 1b4e bb3d 4a27 95bd ba6f f93c c65a 6838
000001a0: 5ff2 87bd e2e3 31be b222 5835 6dd3 4fbe
000001b0: 6f1d e33d 5db0 c5bc 3315 9e3e d06e 003d
000001c0: e2e7 25bd 1ad0 2fbe 7795 4d3e ac4e 55be
000001d0: 4b7a 23b7 b133 ecbd d8ac 0038 e7aa 93bd
000001e0: c02d e43d 9e75 02be 2878 4eb8 0aeb 90be
000001f0: 1d24 16bc d963 34be 0ed1 9bbe ad1d 633c
00000200: 3978 353e d00c 1a3d 2731 263e e6a3 1ebd
00000210: a322 5ebe f8eb 9cbb 8a12 75b7 517c 98bb
00000220: 0009 a2bd f4e9 aabe 80f8 b3bd 353c 6dbe
00000230: b953 4a3e 784c 8dbc 6567 553e dd8c d13d
00000240: 62b4 45be 595a a2bd bdd7 49bc 7f84 10bd
00000250: b10a bab8 ef1c 863d c190 cfb6 b313 6c3e
00000260: 1b3a a63c e9e9 1abe 4782 8fbd a24f 38be
00000270: 46e6 10be 4c2a b6be e3fe 803d 42e2 b4be
00000280: 8151 d23d 26dd 2ebe d539 c93e 3942 a23d
00000290: edb9 8c3d 7f7b 90be 5c43 81bc 3630 7fb9
000002a0: 40be 20bb 98b1 ec3d 0b45 a13e bb08 843c
000002b0: 0807 11bd af2a eebc 1d2a 0abe a349 113e
000002c0: 1120 22be d087 993d 6afe 03be 4f83 9dbe
000002d0: 81dd b8b8 f897 18bc 1ee6 873c 507d 84bd
000002e0: d061 983d 44b0 b13d 0f4a 32bb 9132 94bd
000002f0: f91e f1bd 988d ef3d 808c 193e 0a02 21be
00000300: 90cb 59bd 8451 a4be 319c febc 04db b3bc
00000310: 5115 86bd e983 5a3e 34c5 3db6 21e6 0939
00000320: 6eb0 d43d c173 0bbe d301 cc38 3642 22be
00000330: c3a3 51be 97ad 7f3e 88f0 c53d d676 76be
00000340: fa48 053c 491e af3e c299 6cbd bce1 9abe
00000350: 2aa9 80b8 fd99 2ebe b962 4e37 8ed8 8e3e
00000360: a677 85b6 fdf6 15bd 6c14 e838 80a7 0bbd
00000370: 4121 a6bc c7f8 ad3d 544d 0dbe 483f 89bd
00000380: 41c4 d8bd 885a dfbd 79e0 d83d 2ffa de3e
00000390: 06cf a43e 5f8f aabe 52cc 5db9 1c15 66ba
000003a0: 89a5 ccbd b7a5 943e ef2a da38 0982 343b
000003b0: 7bd9 7abd 2379 8dbe 4a90 a93d 0932 833d
000003c0: 2bee b53e e9f7 f63c 7882 53be ceac 80be
000003d0: 99cb eaba fb33 b2be 385e 54b8 152e a33d
000003e0: 7550 5a3d 34be 363e e75d 12bd ce8e f63d
000003f0: d495 24be 8cc3 063e e4a9 773d 1e5c 953d
0.06338524 0.26832914 -0.23593797 0.39177537 -0.10881661 -0.004034534 0.0019792144 0.1936688
0.028282396 -0.042874575 -0.0041507464 0.12595351 -0.050611917 -0.14121576 -0.045921843 -0.29912925
0.027121572 0.25424764 -0.027935166 0.115275025 0.09161969 0.16780916 0.0057849092 0.37795958
-0.0059052547 -0.13490148 0.06719582 0.025911745 -0.38394493 0.010779771 0.4782663 -0.0712103
0.121974215 0.067219004 -0.08416081 -0.1812234 -0.08156144 0.18177123 0.0012840607 -0.012312799
-0.21127199 0.110008 -0.00055232015 0.038042493 0.058563434 0.011605656 -0.06532186 -0.15755439
0.34910646 -0.10936786 -0.27791774 0.41311663 -0.072000496 -0.15604539 -0.0061892048 0.01545972
0.021750312 0.008494878 -0.0026538717 0.14236552 0.06776678 -0.05557035 -0.061069872 0.24489881
0.04946936 0.092107885 0.038686145 0.18468606 -0.012310585 0.2816586 -5.1051193e-05 -0.0015429948
0.28526568 -0.035184193 -0.062183496 -0.054704327 -0.25252983 0.11170426 -0.6168322 0.024154102
-0.11037253 0.1735647 -0.2244135 0.049528643 -0.0017021345 0.10321536 -0.021070654 0.049640078
-0.0014495366 -0.28968993 -0.0012609542 -0.24875239 -0.0006163901 -0.05554861 0.26679993 -0.2702591
0.14902246 -0.0901932 -0.03064526 0.18066585 0.09145757 -0.072828844 0.030448783 5.539765e-05
-0.066380255 -0.17372087 8.051676e-07 -0.20295496 0.110895984 -0.024131948 0.3087555 0.03135568
-0.040504344 -0.17169228 0.20076548 -0.20830792 -9.744031e-06 -0.11533297 3.067855e-05 -0.072103314
0.111415386 -0.1274018 -4.922613e-05 -0.2830432 -0.0091638835 -0.17616214 -0.30432934 0.013862056
0.17721643 0.037609875 0.16229688 -0.038730524 -0.216929 -0.004788872 -1.4607454e-05 -0.0046534915
-0.07911873 -0.33381617 -0.08787632 -0.23167498 0.197585 -0.017248377 0.20840223 0.10231946
-0.19307092 -0.07927389 -0.012319502 -0.035282608 -8.8711626e-05 0.065484874 -6.1859323e-06 0.2305439
0.020291379 -0.15128292 -0.0700727 -0.17999128 -0.14150342 -0.35579145 0.06298616 -0.3532887
0.10269452 -0.17076549 0.39301935 0.07922787 0.068714 -0.2821922 -0.01577919 -0.00024336655
-0.002452746 0.11557311 0.31497988 0.016117444 -0.035407096 -0.029073087 -0.13492627 0.14188246
-0.15832545 0.07496607 -0.1289002 -0.30764243 -8.815062e-05 -0.009313576 0.01658922 -0.06469214
0.07440531 0.08676198 -0.0027204787 -0.07236207 -0.11773486 0.11696929 0.14995003 -0.15723434
-0.053172648 -0.3209344 -0.031080337 -0.02195502 -0.065470345 0.21339382 -2.8277982e-06 0.00013151068
0.10385214 -0.13618375 9.727818e-05 -0.1584557 -0.20472626 0.24968563 0.09665018 -0.2406877
0.008135075 0.34202793 -0.057763822 -0.30250347 -6.135025e-05 -0.1705093 1.23015425e-05 0.27899593
-3.977638e-06 -0.0366125 0.00011066426 -0.034095287 -0.020279529 0.08494716 -0.1379903 -0.06701523
-0.105843075 -0.10905939 0.1058969 0.4355025 0.32189196 -0.33312508 -0.00021152318 -0.0008776949
-0.09992511 0.2903268 0.00010403047 0.0027543327 -0.06124256 -0.27631482 0.08279474 0.06406028
0.3553327 0.03014751 -0.20655239 -0.2513184 -0.001791346 -0.34805283 -5.0632487e-05 0.07967774
0.053299386 0.17845994 -0.035734084 0.120389566 -0.1607278 0.13160533 0.060464755 0.072929606

fc_1.bias f4 [8]
00000000: 20c9 0e3d cfd2 cb3c a006 2abd 24c2 9fbc
00000010: 9d3d b3bc 184c 80bc 6040 cb3b b239 bb3b
0.034859776 0.024880795 -0.041510224 -0.019501753 -0.021879965 -0.015661284 0.0062027425 0.005713665
