checkpoints/target0/epoch=8.checkpoint.pth.tar (torch, 319796 bytes, 8 tensors)

conv1.weight f4 [16, 3, 5, 5]
0	0x3e43bd4b	0.19115178
1	0x3e1a39e7	0.1506115
2	0x3da25289	0.079258986
3	0xbe6346f2	-0.22195032
4	0x3d9538c7	0.0728622
5	0xbe0656ed	-0.13119097
6	0xbc8c921b	-0.017159512
7	0xbe454f41	-0.19268514
8	0xbddb4042	-0.107056156
9	0x3e2b6ed1	0.16741492
10	0xbd2cd539	-0.042195532
11	0xbe0a7917	-0.13522755
12	0xbdd343a7	-0.10315638
13	0xbdbe05c7	-0.09278446
14	0xbd9fe6b8	-0.07807678
15	0x3dbabc56	0.091179535
16	0x3e40c7a1	0.18826152
17	0xbcbee207	-0.023301138
18	0xbd8cd4d4	-0.06876531
19	0x3d0c17d5	0.034202415
20	0xbd854415	-0.06507126
21	0x3e025b14	0.12730056
22	0x3da81a33	0.08208122
23	0x3e22168d	0.15828915
24	0x3e00fb57	0.12595879
25	0x3e00dfb9	0.12585343
26	0x3d88be3e	0.06676911
27	0x3df9b106	0.12191968
28	0xbd4ba826	-0.049720906
29	0x3b422a95	0.0029627432
30	0xbd0c20b9	-0.034210894
31	0x3d99853b	0.07496115
32	0xbe30f74d	-0.17281838
33	0xbe00abdb	-0.12565558
34	0xbca55302	-0.020181183
35	0x3e2c6587	0.16835605
36	0x3d14082e	0.036140613
37	0xbd961e1e	-0.07329963
38	0xbc2506fb	-0.010072465
39	0xbda905bd	-0.082530476
40	0xbe13c895	-0.14431985
41	0x3df73122	0.12069918
42	0xbdba64c8	-0.09101254
43	0xbda9c011	-0.08288587
44	0xbe0afc7f	-0.13572882
45	0x3e668349	0.22511019
46	0xbdd9662d	-0.106151916
47	0xbd2efb5c	-0.042720184
48	0xbdb7e13a	-0.089785054
49	0xbd754868	-0.059883505
50	0x3c41b456	0.011822781
51	0x3d87c06f	0.06628501
52	0xbd485265	-0.048906703
53	0x3dc82bd6	0.09773986
54	0xbd9f34cd	-0.07773743
55	0xbd98c2f6	-0.07459061
56	0xbe0d0bd8	-0.1377405
57	0xbcdd97ff	-0.027050016
58	0xbd271b4a	-0.04079751
59	0x3d8c55f6	0.06852333
60	0xbbe15bd9	-0.006877404
61	0x3e458c20	0.19291735
62	0xbe0ea79a	-0.13931122
63	0x3dd5d045	0.10440115
64	0x3e0e75e5	0.1391216
65	0x3dcf1123	0.101106904
66	0x3e79a258	0.24378335
67	0x3d4b4634	0.049627498
68	0x3c9fdad9	0.019513534
69	0xbcbe0bb2	-0.023198936
70	0xbdbe0822	-0.09278895
71	0x3e15f8d8	0.14645708
72	0xbc25dd7a	-0.010123605
73	0x3d61fc66	0.055172347
74	0x3c61c380	0.013779521
75	0x3cb24f70	0.021766394
76	0x3d288c31	0.041149322
77	0xbd9eb4f4	-0.07749358
78	0xbe708642	-0.23488715
79	0xbdba14cb	-0.09085997
80	0xbcd3a455	-0.025835196
81	0xbd62c837	-0.05536672
82	0xbe1d231e	-0.15345427
83	0xbda66a14	-0.081257015
84	0x3d01c764	0.031684294
85	0x3cf105fe	0.029421803
86	0x3dabfe55	0.08398119
87	0xbcf2fae9	-0.029660659
88	0x3d202c03	0.039104473
89	0xbd8b93f1	-0.06815327
90	0xbdfd6244	-0.12372258
91	0x3d0401de	0.032228343
92	0xbe4ac395	-0.19801171
93	0xbddfc272	-0.109257594
94	0x3de0e676	0.10981457
95	0x3ca3a23a	0.019974817
96	0xbe8a563e	-0.27018923
97	0x3cbd0f99	0.023078727
98	0x3d52cfb9	0.05146763
99	0xbc97fd6f	-0.018553464
100	0x3d9b021c	0.07568762
101	0x3d99cc6e	0.07509695
102	0x3df95b5e	0.1217563
103	0xbd0a3beb	-0.03374855
104	0xbc1aa287	-0.009438164
105	0x3da61f88	0.08111483
106	0x3d52f32e	0.051501445
107	0x3cd771f4	0.026299454
108	0x3d0c6199	0.034272764
109	0x3e078ce6	0.13237342
110	0x3bcf5623	0.006327407
111	0xbcce7ca5	-0.02520592
112	0xbe139511	-0.14412333
113	0xbc0fe5c4	-0.008782808
114	0xbd4b6bcd	-0.049663354
115	0x3d55f4d9	0.052235458
116	0x3d99158e	0.07474814
117	0x3bdd87c7	0.0067605707
118	0xbd13c247	-0.03607395
119	0x3d7be13d	0.0614941
120	0xba176f1d	-0.000577675
121	0x3ce6ba76	0.028165083
122	0x3cac52af	0.02103552
123	0x3da6634a	0.08124407
124	0x3dea98a1	0.11454893
125	0x3d83b070	0.06430137
126	0x3dd86cdc	0.10567638
127	0x3d975837	0.073898725
128	0x3e5d09d1	0.21585776
129	0x3df720d3	0.120668076
130	0xbded23ba	-0.1157908
131	0xbda50d9c	-0.080592364
132	0x3c655030	0.013996169
133	0x3e3e11f5	0.18561538
134	0x3db096f6	0.086225435
135	0x3da47474	0.08030024
136	0x3e097036	0.13421711
137	0x3c85cf60	0.016334236
138	0xbe208edb	-0.15679495
139	0x3deb3bd5	0.114860214
140	0xbc8e9401	-0.017404558
141	0x3df2add9	0.11849565
142	0xbd662e49	-0.056196485
143	0x3d9cb175	0.07651035
144	0xbd984289	-0.074345656
145	0x3dd5c154	0.10437265
146	0x3e2f77a6	0.17135486
147	0x3e204683	0.15651898
148	0x3d1c3973	0.038140725
149	0xbbfddcf1	-0.0077472855
150	0xbd072760	-0.032996535
151	0x3d1fb0f7	0.038987126
152	0x3cdfb0fd	0.027306074
153	0x3dadf8ac	0.08494696
154	0xbd2194e9	-0.039448652
155	0x3e31b1a0	0.17352915
156	0xbe7d99c6	-0.24765691
157	0xbd5967d1	-0.053077523
158	0xbe00c28f	-0.12574218
159	0x3d9f4b86	0.07778077
160	0xbe56e06f	-0.20984052
161	0x3bb62cf5	0.0055595585
162	0xbbc1abe5	-0.005910384
163	0xbcf8cc25	-0.030370781
164	0x3d16b599	0.03679428
165	0xbda91f75	-0.08257953
166	0x3c119594	0.00888576
167	0xbdcdce6f	-0.1004914
168	0xbe17960a	-0.14803329
169	0x3e286bd9	0.1644739
170	0x3e0e768c	0.1391241
171	0x3bbb5ca5	0.005717831
172	0xbe0f3856	-0.13986334
173	0x3dc9af1e	0.09847854
174	0x3df2d3a0	0.118567705
175	0x3e7c86ff	0.24660872
176	0x3d2b96b0	0.041891754
177	0x3c61dc05	0.013785367
178	0xbdab49c9	-0.08363683
179	0xbc155b1e	-0.009115962
180	0xbd851f1f	-0.065000765
181	0xbe1a6c0c	-0.15080279
182	0xbdf0319a	-0.11728211
183	0xbd5d82c6	-0.054079793
184	0xbd26bcda	-0.040707447
185	0xbe251cc2	-0.16124251
186	0xbe5128b9	-0.2042569
187	0x3c3f5dac	0.011680048
188	0x3de0285d	0.10945199
189	0xbd02da1e	-0.031946294
190	0x3d8d103e	0.068878636
191	0x3d89bc1c	0.06725332
192	0x3e37f84f	0.17965816
193	0xbda3ec99	-0.08004112
194	0x3dffb988	0.12486559
195	0xbc265113	-0.010151166
196	0xbde1966e	-0.1101502
197	0x3d2c355d	0.04204308
198	0x3d8812d3	0.066442154
199	0x3e2da0e4	0.16955906
200	0x3dc20c0d	0.09474955
201	0x3e6fcc53	0.23417787
202	0xbd3f198b	-0.04665522
203	0xbdb9928e	-0.09061156
204	0x3d10a3d0	0.035312474
205	0x3e01d880	0.12680244
206	0x3e04a716	0.12954363
207	0x3d1f65b3	0.038915347
208	0xbda5e3c5	-0.08100084
209	0xbdb12eb5	-0.08651487
210	0xbd68b472	-0.05681271
211	0xbd8ecaa1	-0.06972242
212	0x3c6e2fab	0.014537732
213	0x3d542db8	0.051801413
214	0x3bb06a69	0.005383779
215	0xbe69a99d	-0.22818609
216	0xbd32d052	-0.0436557
217	0x3dd73cdf	0.10509657
218	0xbe308677	-0.17238794
219	0x3e2a09c0	0.16605282
220	0x3d5e2c3e	0.05424141
221	0xbd46511a	-0.04841719
222	0x3dc33d98	0.095332325
223	0x3e2eb2e6	0.17060432
224	0x3c73d467	0.014882184
225	0x3e287981	0.164526
226	0x3c875de4	0.016524263
227	0xbde68852	-0.1125647
228	0xbda0ae61	-0.0784576
229	0xbcbd2897	-0.023090644
230	0x3d25c885	0.040474433
231	0x3e5397f4	0.20663434
232	0xbc235f5f	-0.009971469
233	0xbde3173a	-0.110884145
234	0xbe70003c	-0.2343759
235	0xbdea2c67	-0.1143425
236	0x3c007c7e	0.007842181
237	0x3ba3a821	0.0049944078
238	0xbb354055	-0.0027656753
239	0x3a473ee5	0.00076006196
240	0xbdd269f1	-0.10274113
241	0x3cf223ef	0.02955815
242	0xbd45467a	-0.048162915
243	0x3d00b715	0.0314246
244	0xbdf49e11	-0.11944211
245	0xbc5d5eff	-0.013511418
246	0xbcfaa452	-0.030595932
247	0x3e134468	0.14381564
248	0x3dcfd9b7	0.10148948
249	0xbdd961a1	-0.10614324
250	0x3dad9e36	0.08477442
251	0x3d612e95	0.054976065
252	0x3d47e8b2	0.0488059
253	0x3d237225	0.03990378
254	0x3cbc95bd	0.02302062
255	0x3ccb4014	0.024810828

conv1.bias f4 [16]
0	0xbd8b6c9d	-0.06807826
1	0x3cfb4674	0.030673243
2	0xbd65705a	-0.05601535
3	0xbd40afa9	-0.047042523
4	0xbd522f5f	-0.051314708
5	0xbd8d1ce6	-0.068902776
6	0x3b1671d0	0.002295602
7	0xbc202cf9	-0.009776347
8	0xbd0e2e32	-0.034712024
9	0x3d64c6ff	0.05585384
10	0x3c7c64c1	0.015404881
11	0x3cc020cd	0.02345314
12	0xbc1bb905	-0.009504561
13	0x3bbe4fad	0.005807838
14	0xbd5605c5	-0.052251596
15	0x3ca7b547	0.020472182

conv2.weight f4 [64, 16, 5, 5]
0	0x3c85ae53	0.016318476
1	0x3b6757f7	0.0035300234
2	0x3affc5bb	0.0019513884
3	0x3daaf3b1	0.08347262
4	0x3d4d57da	0.05013261
5	0x3a7acca3	0.00095672364
6	0xbbf0ef02	-0.0073527107
7	0x3c346ce1	0.011012287
8	0xbb212d21	-0.002459355
9	0xbcd025bb	-0.025408616
10	0x3a404be6	0.00073355285
11	0x3dbccede	0.09219144
12	0xbd6fb0ef	-0.058518346
13	0x3c306eb3	0.01076858
14	0x3d825275	0.06363384
15	0xbbb7067f	-0.005585491
16	0x3cc4240f	0.023942975
17	0x3d7fbe14	0.062437132
18	0x3dbbf8c6	0.09178309
19	0x3d484135	0.04889031
20	0xbc709e4a	-0.014686177
21	0x3d6e2dd8	0.05814919
22	0x3cd947d3	0.026523506
23	0x3c35d78b	0.011098753
24	0xbd547f8f	-0.05187946
25	0x3c83d8ee	0.016094651
26	0xbd18eefa	-0.03733728
27	0xbcda1420	-0.026620924
28	0xbce6baa2	-0.028165165
29	0x3ce44eaa	0.027869541
30	0xbd36d4da	-0.044636585
31	0xbd0135fc	-0.031545624
32	0xbbd408b9	-0.0064707664
33	0xbd5a9d8b	-0.0533729
34	0xbd67f3e1	-0.056629065
35	0xbcdf6adb	-0.027272632
36	0xbc123158	-0.008922897
37	0xbd911c46	-0.07085471
38	0x3ce935f3	0.028468108
39	0xbda9687f	-0.08271884
40	0x3d29e373	0.041476678
41	0xbc46d864	-0.0121365525
42	0xbd6f7fb6	-0.058471404
43	0x3c85741c	0.016290717
44	0xbd2ea8fd	-0.04264163
45	0xbcb570ab	-0.02214845
46	0x3c59c271	0.013290987
47	0x3d1645df	0.036687728
48	0xbcc9db82	-0.024640802
49	0x3ab619e2	0.0013893212
50	0xbcd46683	-0.025927788
51	0xba22231f	-0.0006185043
52	0xbd0d680a	-0.034523048
53	0x3d61e627	0.05515113
54	0x3cea9d7f	0.028639553
55	0x3c9bc33e	0.019013997
56	0xbc0b4285	-0.008499746
57	0xbc86312a	-0.016380865
58	0xbceb9b5e	-0.028760608
59	0xbc3af465	-0.011410807
60	0xbc7ac226	-0.015305078
61	0xbc7df84f	-0.015501096
62	0x3cb4a17e	0.022049662
63	0x3dbc43af	0.09192597
64	0xbd859de6	-0.06524257
65	0xbb3b5b27	-0.0028588267
66	0x3cdf1a07	0.02723409
67	0x3d78b2c2	0.06071735
68	0x3d44b603	0.048025142
69	0x3ccdcb8d	0.025121475
70	0xbca1b737	-0.019740684
71	0xbce49a7f	-0.0279057
72	0x3dfd9b13	0.12383094
73	0xbd281580	-0.04103613
74	0x3caa61ac	0.020798527
75	0xbd475a2f	-0.04866999
76	0xbc89c462	-0.016817275
77	0xbc2834ad	-0.010266465
78	0xbc8a691c	-0.016895823
79	0xbc8198fc	-0.015820019
80	0xbc24b182	-0.010052087
81	0xbaa9dce7	-0.0012959511
82	0x3ca97d9a	0.020689774
83	0x3c77c7e4	0.015123341
84	0x3d178077	0.036987748
85	0xbca93aa4	-0.020657845
86	0x3da5eacb	0.08101424
87	0xbb7bc38a	-0.003841611
88	0x3a9dceda	0.0012039796
89	0xbc86373a	-0.016383756
90	0xba8a5aad	-0.0010555588
91	0xbc0e548a	-0.008687148
92	0x3c66d833	0.014089632
93	0x3da59e90	0.08086884
94	0xbd3c652a	-0.045994915
95	0xbc74494a	-0.014910052
96	0x3c99dc2e	0.018781748
97	0x3c21eb0b	0.009882699
98	0x3d3e9192	0.046525545
99	0x3d65cc95	0.056103308
100	0xbd3567bb	-0.04428838
101	0xbc937925	-0.018002102
102	0xbce0cdd8	-0.027441904
103	0x3d4357bf	0.047691103
104	0x3ca2dfab	0.019882044
105	0xbce6e959	-0.02818744
106	0xbd5773f0	-0.0526008
107	0x3c9ce1a2	0.019150559
108	0x3bac9b32	0.005267524
109	0x3b7bc102	0.0038414602
110	0xbd3aee12	-0.045637198
111	0xbd168d42	-0.036755808
112	0x3cb69e3f	0.022292254
113	0xbd40fb27	-0.047114518
114	0xbdbe9817	-0.093063526
115	0xbcf74f32	-0.03018913
116	0x3d2441d0	0.040101826
117	0x3d566119	0.052338693
118	0x3c371e66	0.011176681
119	0x3d695ae5	0.05697145
120	0x3d637560	0.05553186
121	0x3aff8cab	0.0019496878
122	0x3a479ab5	0.00076143007
123	0x3c9f8426	0.019472193
124	0x3c84056e	0.01611587
125	0x3b91d367	0.00445025
126	0xbd0e3ba8	-0.03472486
127	0xbcd1dcb6	-0.025617938
128	0x3c33e8b9	0.010980778
129	0xbcf82c36	-0.030294519
130	0x3cb48a15	0.022038499
131	0x3c20c558	0.009812675
132	0xbd8b648c	-0.06806287
133	0x3d207ec5	0.039183397
134	0xbc8a5f03	-0.016891008
135	0xbcc819b5	-0.02442632
136	0xb9e40c7d	-0.00043496853
137	0x3c55a57a	0.013039941
138	0x3d041ead	0.032255817
139	0x3d2c5e9d	0.042082418
140	0x3d933aa2	0.07188918
141	0x3dda9c2a	0.10674317
142	0x3cadc133	0.021210289
143	0xbc63021b	-0.013855482
144	0x3b22f3c6	0.0024864539
145	0xbd0ff5ea	-0.03514663
146	0x3d1be2a8	0.038057953
147	0xbd1d128d	-0.03834777
148	0x3d329522	0.043599255
149	0x3d81a0a7	0.0632947
150	0xbd3bbaa5	-0.045832295
151	0xbcb2db31	-0.021833034
152	0xbcbf502a	-0.023353655
153	0x3b405530	0.002934765
154	0xbbb68065	-0.005569505
155	0xbc13bd95	-0.009017368
156	0x3b82c311	0.003990539
157	0xbcffe3be	-0.031236526
158	0xbcb619a3	-0.022229021
159	0x3c9d73ed	0.019220317
160	0x3ca13673	0.019679284
161	0x3d19f888	0.037590533
162	0xbcbbf0eb	-0.022942027
163	0x3d3ce0a2	0.046112664
164	0xbcf942c1	-0.030427339
165	0x3c8db439	0.01729785
166	0x3a01f140	0.00049569085
167	0xbc9455a8	-0.01810725
168	0xbc2f8c21	-0.010714562
169	0x3886d4de	6.4292675e-05
170	0xbc86bd34	-0.016447641
171	0xbc75f39f	-0.015011697
172	0x3d5d2b5b	0.053996425
173	0x3bcda1f5	0.0062754103
174	0xbc7a5ef5	-0.015281429
175	0xbd0cad1b	-0.034344774
176	0x3dab2f7a	0.08358665
177	0xbd3ed4d8	-0.046589702
178	0x3d7cc2da	0.061709262
179	0xbcb0ad68	-0.021567062
180	0xbd813430	-0.06308782
181	0xbbf4f888	-0.0074759163
182	0xbd520bf7	-0.05128094
183	0xbb8a8819	-0.00422765
184	0xbca48e84	-0.020087488
185	0xbb99afdf	-0.004690155
186	0x3d1cc462	0.038273223
187	0xbd535d70	-0.05160278
188	0x3d0498b2	0.032372184
189	0xbbe40195	-0.0069581964
190	0x3daae6cb	0.083448015
191	0x3c23d3f3	0.009999263
192	0xbca81463	-0.020517534
193	0x3d45cd3b	0.048291426
194	0xbc88f7aa	-0.016719658
195	0xbc973c73	-0.018461442
196	0x3d98e775	0.07466022
197	0x3ba11136	0.004915382
198	0x3ce4e488	0.027941003
199	0x3c8e373b	0.01736032
200	0x3d388c2d	0.045055557
201	0xb991bd8d	-0.00027797782
202	0x3d31f2b7	0.04344436
203	0x3bda32e0	0.006658897
204	0x3d74eb5f	0.05979478
205	0x3d0c7f5a	0.03430114
206	0x3940b810	0.00018379115
207	0x3b82e63e	0.003994732
208	0x3b884f1e	0.004159822
209	0xbd0e7191	-0.034776274
210	0xbd481b41	-0.048854116
211	0xbc8f4f22	-0.017493788
212	0xbd5539e2	-0.052057154
213	0x3ae836f9	0.0017716578
214	0xbd43176d	-0.047629762
215	0x3d10f0a5	0.035385747
216	0x3d1515ce	0.036397748
217	0xbbdcf76e	-0.006743363
218	0x379537d4	1.7788181e-05
219	0xbd2f68f3	-0.042824697
220	0x3c386292	0.01125397
221	0x3b80ae90	0.0039270595
222	0x3c713038	0.014720969
223	0x3d949d8e	0.07256614
224	0xbd0574db	-0.032582145
225	0xb9a2a8dc	-0.00031024858
226	0x3ccb2556	0.024798077
227	0xbd82ceb5	-0.063870825
228	0xba855445	-0.0010172209
229	0x3c81fb5b	0.015866926
230	0x3d961bfc	0.07329556
231	0xbd5cd0b3	-0.05390997
232	0xbda73bb4	-0.08165684
233	0xbc86d0ef	-0.01645705
234	0x3af4b1a7	0.0018668667
235	0xbcc1933e	-0.02362978
236	0xbd85cc19	-0.06533069
237	0xbd7e7090	-0.062119067
238	0x3d3a0986	0.04541924
239	0xbdb3b50f	-0.087747686
240	0x3c8c3ae4	0.017117925
241	0xbd27b756	-0.040946327
242	0xbd830623	-0.06397655
243	0x3ae4f132	0.0017466901
244	0xbb7a5b6a	-0.003820146
245	0x3d0f8aa8	0.035044342
246	0xbd8203e9	-0.06348402
247	0x3d2fb6d3	0.042898964
248	0x3cbebcbf	0.02328336
249	0x3d0878f9	0.033318494
250	0xba79e0bc	-0.0009532084
251	0x3c3144b1	0.0108196
252	0xbbaf94a8	-0.0053582974
253	0xbc8c4905	-0.017124662
254	0xbd199840	-0.037498713
255	0x3d19f473	0.03758664

conv2.bias f4 [64]
0	0xbd442623	-0.047887933
1	0x3918cdbe	0.00014572495
2	0x3c7be901	0.015375377
3	0xbce7b509	-0.028284566
4	0xbc367f4c	-0.011138748
5	0xbc97b25d	-0.018517667
6	0x3c05c036	0.008163502
7	0xbd02296c	-0.031777784
8	0xbb95009d	-0.0045471922
9	0x3d06f9e2	0.03295315
10	0xbd2a950a	-0.04164604
11	0xbc18ac32	-0.009318398
12	0xbd156f50	-0.03648311
13	0x3d21d84b	0.039512914
14	0xbc7927ec	-0.015207272
15	0x3bc67d06	0.0060573844
16	0xbcb99eed	-0.02265879
17	0xbcb295e4	-0.021799989
18	0xbc8e2752	-0.017352734
19	0xbc1c372e	-0.00953464
20	0xbd373590	-0.044728816
21	0x3b82d2ba	0.0039924057
22	0xbc8b5ecb	-0.017012974
23	0xbc372e0a	-0.01118041
24	0xbaa90c87	-0.001289741
25	0xba88fad1	-0.0010450726
26	0xbc4bbe13	-0.012435454
27	0xbd440689	-0.047857795
28	0x3d42f216	0.047594152
29	0x3c1224d7	0.008919916
30	0x3c020454	0.007935602
31	0x3c281801	0.010259629
32	0x3d513207	0.0510731
33	0x3bb3d9dc	0.0054886173
34	0xbc58b960	-0.013227791
35	0x3d2dc927	0.042428162
36	0xbcf6b0cb	-0.030113598
37	0xbc8a89e4	-0.016911454
38	0x3d09b5ac	0.03362052
39	0x3cfb4c86	0.030676138
40	0xbac49b96	-0.0014999982
41	0x3d5e4e66	0.054273985
42	0xbc06227c	-0.008186933
43	0xbcb494aa	-0.022043545
44	0x3c54888a	0.012972007
45	0x3c2c4ed1	0.010516838
46	0xbd4e557b	-0.05037449
47	0xbc9986d5	-0.01874105
48	0x3aaaa671	0.0013019574
49	0xbd40c208	-0.047060043
50	0xbbfd7413	-0.0077347844
51	0x3ce67d6b	0.028135976
52	0x3d6192ea	0.05507175
53	0xbcdd07dc	-0.026981287
54	0xbc2aa667	-0.01041565
55	0xbbc8559b	-0.0061137206
56	0xbd09cde5	-0.033643622
57	0x3cf337b4	0.029689647
58	0xbc93e8f7	-0.018055422
59	0x3c8cffde	0.01721185
60	0xbc3877b2	-0.011259006
61	0x3d927e3e	0.07152985
62	0xbc421b27	-0.011847294
63	0x3d03c7c2	0.032172926

conv3.weight f4 [32, 64, 5, 5]
0	0x38a6ac84	7.9476304e-05
1	0x39c9a917	0.0003846369
2	0xb90267f9	-0.00012436499
3	0xb9a7075f	-0.00031858214
4	0x3852cecc	5.0260496e-05
5	0x389eae41	7.5664844e-05
6	0xb95f8b13	-0.00021318746
7	0x3a2d7480	0.0006616786
8	0xb8af7a72	-8.3674575e-05
9	0xb8a08790	-7.654645e-05
10	0x3cf8b1af	0.030358164
11	0xbb822903	-0.003972174
12	0x3d172671	0.036901895
13	0x3c63dd4a	0.01390774
14	0x3c96801a	0.01837163
15	0x3cec84a5	0.028871844
16	0x3c845c17	0.016157193
17	0x3d06c61b	0.03290377
18	0x3d062141	0.032746557
19	0xbbeced86	-0.0072304634
20	0x3b58e853	0.003309746
21	0x3c9d16b8	0.019175872
22	0x3c7515f4	0.014958847
23	0x3d6f2f02	0.05839444
24	0x3c33ec31	0.010981605
25	0xbb35fced	-0.0027769164
26	0xbb5eb92a	-0.0033984878
27	0xbb34f218	-0.002761012
28	0xbb0aeddb	-0.0021198902
29	0x36f3717e	7.2551766e-06
30	0xba819351	-0.0009885823
31	0xb806d62e	-3.214756e-05
32	0x3a7f13cc	0.0009730428
33	0x3912a5ed	0.00013985457
34	0xb6df1eb0	-6.6494904e-06
35	0x3d08b684	0.033377185
36	0x3c72229f	0.014778762
37	0x3c4c0605	0.012452607
38	0x3b539e7f	0.0032290516
39	0x3d2ccee0	0.04218948
40	0xbc4f79bf	-0.012663304
41	0xb8d4122e	-0.00010112334
42	0x3d187cd1	0.03722841
43	0x3c7d133a	0.0154464785
44	0x3c904550	0.017611176
45	0x3c136514	0.008996267
46	0xbb9c82f9	-0.0047763553
47	0x3bbe9d55	0.0058170953
48	0x3d2025f7	0.039098706
49	0x3c655f7c	0.013999816
50	0x39d33c74	0.00040290097
51	0xb6902a20	-4.2964384e-06
52	0x37ac473b	2.0537167e-05
53	0x38d8b238	0.000103328784
54	0x3583bb68	9.814803e-07
55	0x38ca0e89	9.634818e-05
56	0x380be56c	3.335385e-05
57	0xb956043d	-0.00020410209
58	0xb8c76e7f	-9.509641e-05
59	0x31866000	3.910827e-09
60	0xba85e307	-0.0010214754
61	0x3c4c3228	0.01246313
62	0x3c7fb69e	0.015607504
63	0x3c9f65bb	0.019457689
64	0xbae87157	-0.0017733973
65	0x3a4d8ee4	0.0007841422
66	0xbc0d4cc5	-0.00862426
67	0xbcad67ed	-0.02116772
68	0x3c06c085	0.008224611
69	0x3cd59153	0.026070273
70	0xbc567515	-0.013089438
71	0x3c4f0a49	0.0126367295
72	0xbbff57c0	-0.007792443
73	0xbc65ff18	-0.01403787
74	0x3cdb0b88	0.026738897
75	0xb9cb7f3e	-0.0003881398
76	0xba5556f0	-0.000813826
77	0xb95f962f	-0.00021322885
78	0x3967ddc8	0.00022112497
79	0x3814052d	3.529077e-05
80	0x384fdd9e	4.9559043e-05
81	0xb9cb967b	-0.00038831294
82	0xba74b0ae	-0.00093341887
83	0xba913b1f	-0.0011080242
84	0xb6831eaa	-3.907674e-06
85	0xbc37c340	-0.011215985
86	0xbaa838c3	-0.0012834299
87	0x3aeb1cc6	0.0017937652
88	0x3c98f411	0.018671067
89	0x3bca0b2a	0.0061658816
90	0xbbac1600	-0.005251646
91	0xbb0ee2a5	-0.002180257
92	0x3ccb303b	0.024803272
93	0x3c4de0ca	0.012565801
94	0xbbb4fe2c	-0.0055234637
95	0xbac693ac	-0.0015150211
96	0xbbe28a82	-0.006913484
97	0xbd074e32	-0.033033557
98	0x3bcaf654	0.0061939154
99	0xbc982f84	-0.018577345
100	0xbb026ac1	-0.0019900056
101	0xb80d8b93	-3.374701e-05
102	0x37958a28	1.7826518e-05
103	0xb964a29e	-0.00021804354
104	0x3723b62e	9.757974e-06
105	0x3a895b3a	0.0010479458
106	0xba95e200	-0.0011435151
107	0xb947ed42	-0.00019066504
108	0xbae2a5f5	-0.0017291891
109	0xb6ffbb19	-7.6213732e-06
110	0x3d079599	0.03310165
111	0x3aa3f8fb	0.0012510115
112	0x3c96d1d8	0.018410608
113	0x3c182185	0.009285335
114	0x39815f26	0.00024675688
115	0x3c4e5ecd	0.012595844
116	0xbd1a91bf	-0.03773665
117	0x3cb2e3b3	0.021837091
118	0x3bb9c20d	0.0056688846
119	0xbc0628a0	-0.008188397
120	0xbab2b18a	-0.0013633233
121	0xbbbb894b	-0.0057231537
122	0x3bdbaf33	0.006704235
123	0x3cfc245d	0.030779058
124	0x3c967f59	0.018371271
125	0x38cf07cc	9.8719815e-05
126	0x3a1d8639	0.00060090754
127	0x3813f1bd	3.5272667e-05
128	0x390a1d27	0.00013171566
129	0x37e0ff10	2.6821654e-05
130	0xb9f3f78c	-0.0004653301
131	0x3992bb8e	0.0002798703
132	0xb7b9e0ef	-2.2158461e-05
133	0x37b513b3	2.1586055e-05
134	0xb795e8cf	-1.7870594e-05
135	0xbbd5f8d0	-0.006529905
136	0x3c10b487	0.008832104
137	0xbc933a11	-0.017972024
138	0x3d2a28ff	0.041543003
139	0x3b5f4e47	0.0034073757
140	0xbba880e9	-0.0051423204
141	0x3ce6538f	0.028116016
142	0xbc7ea9fb	-0.015543456
143	0x3b91588b	0.004435604
144	0x3c328e02	0.010898115
145	0xbb70c0fe	-0.0036736126
146	0x38f12fe1	0.00011500694
147	0x3bbfee7b	0.0058572865
148	0x3cebd046	0.028785836
149	0x3d01a79e	0.031653993
150	0xbaa0d68b	-0.001227097
151	0x3afdc938	0.0019362336
152	0x3b165a11	0.0022941867
153	0x3b183fd9	0.0023231416
154	0xb910dce0	-0.00013815193
155	0x3b57ef67	0.0032949091
156	0x3ba2a1c4	0.0049631316
157	0xbb51f3b8	-0.0032036137
158	0xbae2cf01	-0.0017304124
159	0x385bb14c	5.237879e-05
160	0x3d3e85a3	0.046514165
161	0xb9fad808	-0.00047844672
162	0x3c7f188e	0.015569819
163	0x3cf95d76	0.030440073
164	0x3d126472	0.035740323
165	0x3a5acafc	0.0008346287
166	0x3d2e4b4f	0.04255229
167	0x3cd81ff7	0.02638243
168	0xb9877354	-0.00025835133
169	0xbc9689db	-0.018376281
170	0x3bab8932	0.005234861
171	0x3c8c22c7	0.017106427
172	0xbcc68ce3	-0.024237102
173	0xb94d2b70	-0.00019566505
174	0xbcdf0343	-0.027223235
175	0xb90ffe47	-0.00013732268
176	0xb8f2713b	-0.0001156055
177	0xb992960f	-0.00027959092
178	0xb9a7e596	-0.00032023777
179	0xb74d0479	-1.2219994e-05
180	0xb84a3377	-4.8208483e-05
181	0xb98a4b6b	-0.00026377602
182	0xb9cbe7ce	-0.00038891885
183	0xb9b82d82	-0.0003512912
184	0xb81cef86	-3.7416372e-05
185	0x3c77806c	0.015106302
186	0x3a484a2d	0.00076404476
187	0x3c0f95a9	0.008763709
188	0x3c478987	0.012178785
189	0xbb99eaa2	-0.00469716
190	0x3cd12a9c	0.025533013
191	0x3b255b29	0.0025231338
192	0x3c7fe7ca	0.015619228
193	0x3c6f75bd	0.014615473
194	0xbc0dd1e6	-0.008656001
195	0xbbd5dcb3	-0.0065265535
196	0x3c39a2b1	0.011330293
197	0x3c8d92a5	0.01728184
198	0x3bdd1cb7	0.006747808
199	0xbcd22a7e	-0.025655027
200	0xb7ecc9b8	-2.8227325e-05
201	0xb7274ebd	-9.972308e-06
202	0xb8454ecf	-4.7041856e-05
203	0xb8d69a18	-0.000102330174
204	0xb76137c4	-1.3424029e-05
205	0x380b1462	3.3159165e-05
206	0xb5d543a0	-1.5889418e-06
207	0x38908f84	6.893187e-05
208	0xb9507720	-0.00019880803
209	0xb807a62a	-3.234126e-05
210	0xba1eb8fe	-0.00060547877
211	0x3c848859	0.016178297
212	0x3b9d0625	0.0047919923
213	0x3c0cb1ac	0.008587282
214	0x3b2237ec	0.002475257
215	0x3a25e86c	0.0006328884
216	0x3cd6dd47	0.02622856
217	0x3c4f52fb	0.012654061
218	0x3c426692	0.011865275
219	0x3b04af08	0.0020245928
220	0x3b852e6c	0.004064372
221	0xbb9d430d	-0.004799253
222	0x3cc2eabb	0.023793569
223	0xbc574e16	-0.013141176
224	0x3c76ea80	0.015070558
225	0x39b59ca0	0.00034639705
226	0x3a9d86d6	0.0012018334
227	0x3b38a05d	0.0028171756
228	0x3a806348	0.0009795213
229	0xb7b1e6c3	-2.1207501e-05
230	0x3a9d07f3	0.0011980518
231	0x3b55cfb4	0.0032625021
232	0xbb21a5c9	-0.0024665466
233	0xb9b044ff	-0.00033620742
234	0x36e6f91c	6.8835343e-06
235	0x3d15d3b5	0.036578853
236	0xbbffb1b6	-0.007803167
237	0x3d18b4bb	0.037281733
238	0x3c9efcd5	0.01940767
239	0x3bc3502b	0.0059604845
240	0x3c85b19b	0.01632004
241	0xbc15d5d4	-0.009145219
242	0x3bceada8	0.0063073225
243	0x3cb52562	0.022112552
244	0xbab0a4dc	-0.0013476866
245	0x3c51aa79	0.0127969915
246	0xbbdabc44	-0.006675275
247	0x3c289107	0.010288483
248	0xbc65770b	-0.014005433
249	0x3c6c5409	0.014424332
250	0xb8e4e867	-0.000109151755
251	0xb852496f	-5.0136292e-05
252	0x38b91393	8.8251334e-05
253	0x3944ab56	0.00018755844
254	0x37dfcc90	2.6678928e-05
255	0xb88592d3	-6.369282e-05

conv3.bias f4 [32]
0	0xbc6776db	-0.014127458
1	0x3c1a8ad9	0.009432518
2	0xbcf42548	-0.029802933
3	0x3bcfbba9	0.0063395095
4	0xba002a92	-0.0004889156
5	0x3a85c343	0.0010205287
6	0x39ff80fa	0.00048733485
7	0x3b9d5add	0.0048020915
8	0xbd0c0f3f	-0.034194227
9	0x3c8311af	0.015999643
10	0xbb7b4ec6	-0.0038346513
11	0x3d2d7650	0.04234916
12	0x3b1f07ce	0.0024266127
13	0xbcafaeb4	-0.02144561
14	0x3ccf5b60	0.025312126
15	0xbd291e15	-0.041288454
16	0x3d3f1410	0.046649992
17	0x3c72be22	0.014815839
18	0xbc7ea2bb	-0.015541728
19	0x3c971589	0.018442886
20	0x3bd3d7be	0.0064649275
21	0xbbef7322	-0.007307426
22	0xb9b3181c	-0.00034159503
23	0x3d0f738e	0.03502231
24	0xbb119717	-0.00222153
25	0x3c6298fc	0.01383042
26	0x3c0f8755	0.008760293
27	0x3d64c437	0.055851188
28	0xbcd1564d	-0.025553847
29	0x3c93a032	0.018020723
30	0x3c074f1d	0.008258608
31	0x3d50be1d	0.050962556

fc_1.weight f4 [8, 32]
0	0x3d82e5ce	0.06391488
1	0x3e88fcc5	0.26755348
2	0xbe7324f4	-0.23744565
3	0x3ec61aef	0.38692424
4	0xbde1302c	-0.10995516
5	0xbb28ca2f	-0.0025755276
6	0x3b0ace47	0.002118008
7	0x3e38cd2a	0.18047014
8	0x3cc84535	0.024447063
9	0xbd214d56	-0.039380394
10	0xbcdca561	-0.026934328
11	0x3e0081f7	0.12549578
12	0xbd3cf081	-0.0461278
13	0xbe0a6894	-0.13516456
14	0xbd41090a	-0.04712776
15	0xbe99ac66	-0.30014342
16	0x3cf2957f	0.0296123
17	0x3e7c0dd0	0.24614644
18	0xbd0d3b8b	-0.034480613
19	0x3defc5a9	0.117076226
20	0x3da79133	0.081819914
21	0x3e29d722	0.16585973
22	0x39823247	0.00024832992
23	0x3ebee985	0.37287536
24	0xbc2fe0cf	-0.010734751
25	0xbe04b7a6	-0.12960681
26	0x3d7e0413	0.062015604
27	0x3cda6b5c	0.026662521
28	0xbec25e3d	-0.37962523
29	0x3c10791e	0.008817939
30	0x3ef35e02	0.4753266
31	0xbd8ef700	-0.06980705
32	0x3df95937	0.121752195
33	0x3d8c4d74	0.068507105
34	0xbdadbb75	-0.0848302
35	0xbe3267b0	-0.17422366
36	0xbdaa294e	-0.083086595
37	0x3e393c91	0.1808951
38	0x3b9023c1	0.0043987934
39	0x3bb6dfcd	0.0055808784
40	0xbe576c82	-0.21037486
41	0x3dda5669	0.10661013
42	0xba4cee06	-0.00078174507
43	0x3d1e3c83	0.038631927
44	0x3d590fe5	0.052993674
45	0x3bcfc4c9	0.0063405973
46	0xbd845fee	-0.0646361
47	0xbe220dae	-0.15825531
48	0x3eb1db5d	0.34737673
49	0xbdcf12b0	-0.10110986
50	0xbe8c6144	-0.27417958
51	0x3ed2f386	0.4120142
52	0xbd7e0bb1	-0.06202287
53	0xbe1ddb2a	-0.15415636
54	0xb96c575c	-0.00022539258
55	0x3cb33551	0.02187601
56	0x3d27245b	0.040806156
57	0xbab855d4	-0.0014063665
58	0x3b4fe8b6	0.00317244
59	0x3e112dcb	0.14177625
60	0x3d7efdf5	0.06225391
61	0xbd5c30a7	-0.053757336
62	0xbd694d79	-0.05695865
63	0x3e799f1c	0.24377102
64	0x3d4e5cac	0.050381348
65	0x3dc13fda	0.09436007
66	0x3d20eeae	0.039290123
67	0x3e407bcb	0.18797223
68	0xbc5082aa	-0.012726465
69	0x3e921cf1	0.28537706
70	0xb9387536	-0.00017591272
71	0xbb44ea2a	-0.00300468
72	0x3e940674	0.28911173
73	0xbd170034	-0.036865428
74	0xbde11cee	-0.10991846
75	0xbd62aa38	-0.055338115
76	0xbe85437d	-0.26028052
77	0x3de74c5a	0.1129386
78	0xbf2197e1	-0.63122374
79	0x3cc793ce	0.024362471
80	0xbde72457	-0.11286228
81	0x3e37c178	0.17944896
82	0xbe691817	-0.22763096
83	0x3d5205ab	0.051274937
84	0xbb6d1441	-0.0036175402
85	0x3dd5e50c	0.10444078
86	0xbd69f1e5	-0.057115454
87	0x3d50a406	0.050937675
88	0xbc8f22f5	-0.017472723
89	0xbe9922f5	-0.29909483
90	0xbb9777c0	-0.0046224296
91	0xbe834773	-0.2564045
92	0xba191a9d	-0.00058404525
93	0xbd66a121	-0.05630601
94	0x3e8fc6d6	0.28081387
95	0xbe8e5e02	-0.27806097
96	0x3e1eca62	0.1550689
97	0xbdc5d07b	-0.09658905
98	0xbd0220a5	-0.031769414
99	0x3e41000a	0.18847671
100	0x3dc80650	0.09766829
101	0xbd9a7be5	-0.07543162
102	0x3d903d07	0.0704289
103	0xb989ba1e	-0.00026269344
104	0xbd8d6216	-0.06903474
105	0xbe4d84bc	-0.20070165
106	0x37f6e3ad	2.9431505e-05
107	0xbe5d08cd	-0.21585388
108	0x3df1ac51	0.11800445
109	0xbccbd59e	-0.024882134
110	0x3ea44498	0.32083583
111	0x3d02fa9a	0.031977274
112	0xbd310ac8	-0.043223172
113	0xbe40b6e5	-0.18819769
114	0x3e549afd	0.20762248
115	0xbe66fd56	-0.22557577
116	0x38192d39	3.652016e-05
117	0xbdf39e83	-0.11895468
118	0xb88ecd89	-6.8093716e-05
119	0xbd9b746a	-0.075905636
120	0x3e2914a8	0.16511786
121	0xbe0e2024	-0.13879448
122	0x38879ce4	6.466525e-05
123	0xbea00e6a	-0.31260997
124	0xbc19412b	-0.009353916
125	0xbe3c6c27	-0.18400632
126	0xbeb45fa7	-0.35229227
127	0x3c77b559	0.01511892
128	0x3e3b059f	0.18263863
129	0x3d216cd2	0.03941042
130	0x3e2afb2c	0.16697377
131	0xbd25a63a	-0.04044173
132	0xbe7280e8	-0.23681986
133	0xbba0e0f5	-0.0049096295
134	0xb97fd485	-0.00024397865
135	0xbcde6cb5	-0.027151445
136	0xbda8a8dd	-0.08235333
137	0xbebc8b21	-0.36824897
138	0xbe0e9242	-0.1392298
139	0xbe771d50	-0.24132276
140	0x3e510273	0.2041109
141	0xbc90bb5c	-0.017667465
142	0x3e5bc3ab	0.2146136
143	0x3dd4c416	0.10388963
144	0xbe5175e0	-0.20455122
145	0xbdaf5524	-0.08561161
146	0xbc5160e6	-0.01277945
147	0xbd1759e2	-0.036950953
148	0x3a0fd089	0.0005486091
149	0x3d8910b6	0.066926405
150	0x38074cb9	3.225796e-05
151	0x3e72d1d2	0.23712853
152	0x3d654e81	0.05598307
153	0xbe25a0b0	-0.16174579
154	0xbdf3d7a7	-0.11906367
155	0xbe436d27	-0.19084607
156	0xbe13b54f	-0.14424632
157	0xbebea8f4	-0.37238276
158	0x3d8bbca0	0.06823087
159	0xbec403cc	-0.38284147
160	0x3dd62d0f	0.10457813
161	0xbe34b1e7	-0.1764599
162	0x3ecc7918	0.39936137
163	0x3da56cba	0.080773786
164	0x3d9127ed	0.07087693
165	0xbe937ad7	-0.28804657
166	0xbd486e95	-0.048933584
167	0x35e4c200	1.7043785e-06
168	0xbb2453c2	-0.0025074338
169	0x3df5c9a4	0.120013505
170	0x3ec10327	0.37697718
171	0x3c871bfc	0.016492836
172	0xbd143f6b	-0.036193293
173	0xbcf162e0	-0.029466093
174	0xbe0d69dd	-0.13809915
175	0x3e128f05	0.1431237
176	0xbe27a552	-0.16371658
177	0x3da0ef2e	0.0785812
178	0xbe073307	-0.13203059
179	0xbea383d1	-0.31936505
180	0xba33c415	-0.00068575266
181	0xbc1a7839	-0.009428077
182	0x3d4dcad5	0.050242264
183	0xbd87d79c	-0.06632921
184	0x3dfe063b	0.12403532
185	0x3db5b477	0.088723116
186	0xbcb2339e	-0.021753129
187	0xbd983b12	-0.07433142
188	0xbdf3b170	-0.11899078
189	0x3df386d4	0.11890951
190	0x3e2280ae	0.158694
191	0xbe26513b	-0.16241924
192	0xbd60a683	-0.054846298
193	0xbeac9dbc	-0.33714092
194	0xbd038f98	-0.032119364
195	0xbcbaf92f	-0.022823898
196	0xbd922df7	-0.07137673
197	0x3e6150d5	0.22003491
198	0xb716a43f	-8.978938e-06
199	0x37848480	1.5797326e-05
200	0x3ddb181a	0.106979564
201	0xbe1c7824	-0.15280205
202	0xbb80b1d5	-0.003927449
203	0xbe27a0ee	-0.16369984
204	0xbe616ac0	-0.22013378
205	0x3e823bd9	0.25436285
206	0x3dcba806	0.09944157
207	0xbe7b3d5b	-0.24535124
208	0x3c0cd6dc	0.008596148
209	0x3eb6c256	0.35695142
210	0xbd72e794	-0.05930288
211	0xbea59ad5	-0.3234469
212	0xba217846	-0.0006159585
213	0xbe32764e	-0.17427942
214	0x39845f5d	0.00025248053
215	0x3e92cbc1	0.28671077
216	0xb85b59f1	-5.2297433e-05
217	0xbd1fa87c	-0.03897904
218	0x399bdd24	0.00029728666
219	0xbd134ca5	-0.035961766
220	0xbca9a4ae	-0.020708408
221	0x3db2c83f	0.087296
222	0xbe264227	-0.16236173
223	0xbd9256ce	-0.07145463
224	0xbddbe9a6	-0.10737924
225	0xbde4c2d1	-0.11169971
226	0x3ddc4c3c	0.10756728
227	0x3ee214b8	0.44156432
228	0x3ea8497b	0.3286856
229	0xbeadeddf	-0.33970544
230	0xb732aca0	-1.0649819e-05
231	0xbb25bd32	-0.002528977
232	0xbdd13012	-0.10214247
233	0x3e991bbd	0.29903975
234	0xbba6ecf9	-0.0050941673
235	0x3b47c2e8	0.0030481163
236	0xbd7fcb70	-0.062449872
237	0xbe8fd2ed	-0.2809061
238	0x3dad864a	0.08472879
239	0x3d8449de	0.064594015
240	0x3eb988d6	0.3623721
241	0x3d01fc0c	0.03173451
242	0xbe579092	-0.21051243
243	0xbe83c786	-0.25738162
244	0xbb91a441	-0.0044446294
245	0xbeb4a40a	-0.35281402
246	0x396113d4	0.00021465059
247	0x3da860d5	0.08221594
248	0x3dcb7634	0.09934655
249	0x3e396a8b	0.18107049
250	0xbd9f5365	-0.07779578
251	0x3dfb18f3	0.12260618
252	0xbe2623a1	-0.16224529
253	0x3e085ad7	0.13315903
254	0x3d820c8c	0.063500494
255	0x3d9908bb	0.07472368

fc_1.bias f4 [8]
0	0x3d0a0a6c	0.033701345
1	0x3cd96fb8	0.02654253
2	0xbd2f02bb	-0.042727213
3	0xbcad717a	-0.021172274
4	0xbcbf4c8f	-0.023351936
5	0xbc8500d2	-0.016235743
6	0x3bd8ff6f	0.006622247
7	0x3bc465d3	0.0059935837
