checkpoints/target0/epoch=13.checkpoint.pth.tar (torch, 321600 bytes, 8 tensors)

conv1.weight f4 [16, 3, 5, 5]
0	0x3e41af6a	0.18914571
1	0x3e17e6d0	0.14834142
2	0x3d9e9786	0.077437446
3	0xbe5ce25d	-0.21570726
4	0x3d915739	0.070967145
5	0xbe021920	-0.12704897
6	0xbc86118a	-0.016365785
7	0xbe3f77d7	-0.18698059
8	0xbdd70a44	-0.10500005
9	0x3e26eab7	0.16300474
10	0xbd22f1e8	-0.03978148
11	0xbe05f109	-0.13080229
12	0xbdca7586	-0.09885697
13	0xbdb9fe10	-0.09081662
14	0xbd9a2f65	-0.07528571
15	0x3dbc3098	0.09188956
16	0x3e3f8d46	0.18706235
17	0xbc9fd879	-0.019512402
18	0xbd87706f	-0.06613242
19	0x3d0a85a4	0.033818856
20	0xbd7d1f11	-0.061797205
21	0x3e027263	0.12738948
22	0x3dab3be9	0.08361036
23	0x3e1efd97	0.15526424
24	0x3dfe48c2	0.12416221
25	0x3dfc05d0	0.12305796
26	0x3d83d151	0.06436408
27	0x3deee403	0.116645835
28	0xbd521500	-0.05128956
29	0x396a94f5	0.0002237147
30	0xbd0b0aa3	-0.03394569
31	0x3d8fe914	0.07026878
32	0xbe2fb224	-0.17157799
33	0xbe00e1d1	-0.12586142
34	0xbcb3647d	-0.021898502
35	0x3e29399f	0.16525887
36	0x3d0c57f8	0.03426358
37	0xbd96b380	-0.07358456
38	0xbc464e92	-0.012103694
39	0xbdaa64fd	-0.08320043
40	0xbe100f67	-0.14068376
41	0x3df4435d	0.11926911
42	0xbdb69a5c	-0.089161605
43	0xbdab2fb2	-0.083587065
44	0xbe0a3e9b	-0.13500445
45	0x3e64488b	0.22293298
46	0xbdd387ce	-0.10328637
47	0xbd265179	-0.040605042
48	0xbdb46f76	-0.08810322
49	0xbd72328b	-0.059130233
50	0x3c660837	0.0140400445
51	0x3d89aac6	0.067220256
52	0xbd3f5650	-0.046713173
53	0x3dc3db73	0.09563341
54	0xbd9b3fed	-0.07580552
55	0xbd9195a2	-0.07108618
56	0xbe085b45	-0.13316067
57	0xbcd8ddcb	-0.026472947
58	0xbd25b5d0	-0.040456593
59	0x3d8a56d9	0.06754846
60	0xbb93e316	-0.0045131547
61	0x3e43545f	0.19075154
62	0xbe0ae223	-0.13562827
63	0x3dd0cd78	0.1019544
64	0x3e0b4926	0.13602123
65	0x3dd1a4d0	0.102365136
66	0x3e7877d5	0.24264462
67	0x3d507097	0.050888624
68	0x3c9dfc3c	0.019285314
69	0xbcb5913f	-0.022163985
70	0xbdb5548b	-0.08854016
71	0x3e168ee8	0.14702952
72	0xbbc6dfd6	-0.006069164
73	0x3d658c84	0.05604221
74	0x3c7d43ef	0.015458091
75	0x3cb766e4	0.02238793
76	0x3d2b520f	0.041826304
77	0xbd956a7f	-0.07295703
78	0xbe6917a2	-0.22762921
79	0xbdb8465b	-0.08997794
80	0xbcc6146b	-0.024179658
81	0xbd5982eb	-0.05310337
82	0xbe176ebb	-0.14788334
83	0xbda1d8e2	-0.07902695
84	0x3cf0ec28	0.029409483
85	0x3cef2ed7	0.02919714
86	0x3da78aaa	0.08180745
87	0xbce98e74	-0.02851031
88	0x3d1b582d	0.037925888
89	0xbd8a9196	-0.067660496
90	0xbdf67724	-0.12034443
91	0x3d043638	0.03227827
92	0xbe4367c0	-0.19082546
93	0xbdd95645	-0.10612158
94	0x3dd7df43	0.10540631
95	0x3ca3ad20	0.019980013
96	0xbe861947	-0.2619116
97	0x3cc18b7d	0.023626084
98	0x3d4acc3b	0.049511176
99	0xbca9c141	-0.020722033
100	0x3d9dd42a	0.07706483
101	0x3d9e7d2b	0.07738718
102	0x3dfd21bb	0.12359949
103	0xbceb2595	-0.028704444
104	0xbc018f76	-0.007907739
105	0x3da8474a	0.08216722
106	0x3d59f7c4	0.053214803
107	0x3cf1b78c	0.029506467
108	0x3d15b458	0.036548942
109	0x3e054b33	0.13016967
110	0x3c196633	0.009362745
111	0xbcaf453c	-0.021395318
112	0xbe0abc55	-0.13548405
113	0xbb99b9df	-0.004691347
114	0xbd3eba2b	-0.046564262
115	0x3d5c34e6	0.053761385
116	0x3d9c7cf0	0.076410174
117	0x3c361d11	0.011115328
118	0xbd014d50	-0.03156787
119	0x3d7ae829	0.06125656
120	0x3b2b9fac	0.00261877
121	0x3cfef5e4	0.03112311
122	0x3cc86976	0.02446435
123	0x3da6538c	0.08121404
124	0x3de4235c	0.11139557
125	0x3d8928e5	0.06697253
126	0x3dde52d3	0.10855641
127	0x3da0ae6f	0.078457706
128	0x3e5d87e9	0.21633877
129	0x3df73b6d	0.120718814
130	0xbddf1f96	-0.108946964
131	0xbd986aa8	-0.07442218
132	0x3c9b0a60	0.018925846
133	0x3e3eb856	0.18625006
134	0x3db2dd83	0.08733656
135	0x3da90fdd	0.08254979
136	0x3e0a454b	0.13502996
137	0x3ca9bf57	0.02072112
138	0xbe17781f	-0.14791916
139	0x3dec2b1e	0.115316615
140	0xbc59097f	-0.013246893
141	0x3df6c314	0.12048927
142	0xbd4a4c7d	-0.04938935
143	0x3da25804	0.07926944
144	0xbd8ed1fe	-0.069736466
145	0x3dd89446	0.10575156
146	0x3e2fa90f	0.17154334
147	0x3e218bc9	0.1577598
148	0x3d2659a8	0.040612847
149	0xbbcd3b46	-0.0062631695
150	0xbd10cee4	-0.035353556
151	0x3d0916d1	0.033469025
152	0x3cb1e41f	0.021715222
153	0x3d9fbcaa	0.07799657
154	0xbd284e46	-0.041090272
155	0x3e28b79e	0.16476294
156	0xbe7ba085	-0.24572952
157	0xbd654245	-0.055971403
158	0xbe0142e6	-0.12623176
159	0x3d94458a	0.07239826
160	0xbe5646c6	-0.20925435
161	0x3aaea8ec	0.0013325489
162	0xbc24be03	-0.010055068
163	0xbd07a200	-0.03311348
164	0x3d1071e8	0.03526488
165	0xbdad55b6	-0.08463614
166	0x3b875cc1	0.00413093
167	0xbdd0031e	-0.101568446
168	0xbe14dce0	-0.14537382
169	0x3e25851e	0.16164061
170	0x3e0678df	0.13132046
171	0x3a8a1427	0.001053457
172	0xbe0d8830	-0.13821483
173	0x3dc64f06	0.09683041
174	0x3df2a417	0.11847704
175	0x3e720cb8	0.23637664
176	0x3d1be98e	0.038064532
177	0x3c37c51a	0.011216426
178	0xbda98b77	-0.08278554
179	0xbc08e1ae	-0.0083545875
180	0xbd86bab5	-0.0657858
181	0xbe19814c	-0.14990729
182	0xbdef89f6	-0.11696236
183	0xbd5defd1	-0.054183785
184	0xbd1bb5b5	-0.038015086
185	0xbe24b412	-0.16084316
186	0xbe5050c1	-0.20343305
187	0x3c14d46f	0.009083851
188	0x3dd6a2ba	0.104802564
189	0xbce21ffa	-0.027603138
190	0x3d85179b	0.06498643
191	0x3d809b07	0.06279569
192	0x3e303b0f	0.17210029
193	0xbd9d1f22	-0.07671954
194	0x3dff5453	0.124672554
195	0xbc4784b9	-0.01217764
196	0xbde1cc1d	-0.1102526
197	0x3d20dcba	0.039273
198	0x3d8a52a3	0.06754043
199	0x3e2e3560	0.17012548
200	0x3dbb55ab	0.09147199
201	0x3e684689	0.22683157
202	0xbd3cd9d4	-0.046106175
203	0xbdb3e1b3	-0.08783283
204	0x3d135b63	0.035975825
205	0x3df9fda4	0.12206581
206	0x3e004b8e	0.12528822
207	0x3d18591a	0.03719435
208	0xbda1bbe9	-0.07897169
209	0xbda711b4	-0.081576735
210	0xbd6b41a7	-0.057435658
211	0xbd902a65	-0.07039336
212	0x3c50d266	0.012745475
213	0x3d4d36c0	0.05010104
214	0x3c0e371e	0.008680133
215	0xbe663e71	-0.22484757
216	0xbd3797c5	-0.044822473
217	0x3dce685a	0.10078497
218	0xbe297fd2	-0.16552666
219	0x3e295a46	0.16538343
220	0x3d54d74d	0.05196314
221	0xbd46f807	-0.04857638
222	0x3dbdc475	0.09265987
223	0x3e2dedaf	0.169852
224	0x3c98ed04	0.018667705
225	0x3e25b6be	0.16182992
226	0x3c89ec9b	0.016836455
227	0xbdde4592	-0.10853113
228	0xbd9f1b75	-0.07768909
229	0xbccb2e0c	-0.02480223
230	0x3d24a0bd	0.040192354
231	0x3e4fe3c0	0.20301723
232	0xbc0e5d16	-0.008689186
233	0xbddffe0d	-0.10937128
234	0xbe6cab49	-0.23112215
235	0xbde4531c	-0.11148664
236	0x3c0cbef7	0.008590451
237	0x3bcaa58d	0.006184286
238	0xbbab707d	-0.0052319155
239	0xbb1d9729	-0.0024046397
240	0xbdcb9531	-0.099405654
241	0x3cf9dfc7	0.030502213
242	0xbd3c5958	-0.045983642
243	0x3ce33297	0.027734084
244	0xbdf540cd	-0.119752504
245	0xbc53a34d	-0.012917352
246	0xbcef2f79	-0.029197441
247	0x3e108421	0.14112903
248	0x3dc327bf	0.09529065
249	0xbddc1ba7	-0.10747462
250	0x3dab55ac	0.0836595
251	0x3d61159f	0.05495226
252	0x3d46515e	0.04841744
253	0x3d174ecd	0.036940385
254	0x3ca05ef4	0.019576527
255	0x3cccd392	0.025003228

conv1.bias f4 [16]
0	0xbd86d263	-0.06583097
1	0x3d00084b	0.03125791
2	0xbd5fbc55	-0.054622967
3	0xbd373f4f	-0.04473811
4	0xbd493cd8	-0.04913029
5	0xbd8b1ab9	-0.06792206
6	0x3b153dab	0.0022772353
7	0xbbde3e2c	-0.006782314
8	0xbd029aa7	-0.03188577
9	0x3d681f9d	0.056670774
10	0x3c812839	0.01576625
11	0x3cc32af2	0.023824189
12	0xbbe0c928	-0.006859917
13	0x3bfc2bbe	0.007695644
14	0xbd52db3c	-0.05147861
15	0x3cc82cfe	0.024435516

conv2.weight f4 [64, 16, 5, 5]
0	0x3c8d9c7c	0.017286532
1	0x3b8d65ed	0.004315129
2	0x3b2abdf1	0.0026053155
3	0x3da1d676	0.07902233
4	0x3d3d9306	0.04628279
5	0x3b229298	0.0024806615
6	0xbbb6db07	-0.0055803093
7	0x3c319169	0.010837891
8	0xbb0daa38	-0.002161635
9	0xbcc56d3e	-0.024099942
10	0x3a87e61a	0.0010368258
11	0x3db8cf94	0.090239674
12	0xbd6225f7	-0.055211987
13	0x3c36cbff	0.011157035
14	0x3d800a53	0.06251969
15	0xbb8bb1e9	-0.004263152
16	0x3cd21080	0.025642633
17	0x3d78b3c2	0.060718305
18	0x3db54427	0.0885089
19	0x3d42b0b4	0.0475318
20	0xbc513df5	-0.012771119
21	0x3d6c35f7	0.057668652
22	0x3cdb645a	0.02678125
23	0x3c41d29b	0.011829997
24	0xbd49598c	-0.049157664
25	0x3c8f00e6	0.017456483
26	0xbd084806	-0.033271812
27	0xbcc9e852	-0.024646912
28	0xbcdfbb83	-0.027311092
29	0x3cd203ad	0.025636518
30	0xbd1e17e5	-0.038597006
31	0xbce5078a	-0.027957696
32	0xbbe41b19	-0.006961238
33	0xbd508daf	-0.05091637
34	0xbd57a688	-0.05264905
35	0xbcbfcf2b	-0.023414215
36	0xbbd96b1f	-0.0066350843
37	0xbd868811	-0.06568921
38	0x3ce01692	0.027354512
39	0xbd9367b5	-0.07197515
40	0x3d2c75cf	0.04210454
41	0xbc1d28aa	-0.009592215
42	0xbd609955	-0.05483373
43	0x3c81460c	0.015780471
44	0xbd172ce7	-0.036908057
45	0xbc95f937	-0.018307311
46	0x3c8698a9	0.016430216
47	0x3d1a4178	0.037660092
48	0xbcb34479	-0.021883236
49	0x3af003aa	0.0018311639
50	0xbcc1865f	-0.023623643
51	0x380410ff	3.148708e-05
52	0xbd0586be	-0.032599203
53	0x3d56c6a3	0.05243553
54	0x3ce5ae94	0.028037347
55	0x3c9a51be	0.018837806
56	0xbbf7fae4	-0.0075677503
57	0xbc7b6ffb	-0.015346522
58	0xbcda4721	-0.026645245
59	0xbc33020c	-0.010925781
60	0xbc4f79c8	-0.012663312
61	0xbc6a2e28	-0.014293231
62	0x3caf8958	0.021427795
63	0x3db8eb3b	0.09029242
64	0xbd736fb9	-0.05943272
65	0x3ae429b0	0.0017407443
66	0x3ce61586	0.028086435
67	0x3d76985a	0.060203888
68	0x3d420f43	0.047377836
69	0x3cc9aa28	0.02461727
70	0xbc7e15d3	-0.015508133
71	0xbcc595db	-0.024119308
72	0x3df44187	0.11926561
73	0xbd1c56b8	-0.03816864
74	0x3ca2d0f6	0.019875031
75	0xbd37dc99	-0.044888113
76	0xbc75c533	-0.015000629
77	0xbc0e0110	-0.0086672455
78	0xbc89dea2	-0.016829792
79	0xbc6abe25	-0.014327561
80	0xbc01424e	-0.007889343
81	0x3986e830	0.00025731465
82	0x3ca551c4	0.02018059
83	0x3c6716c3	0.014104548
84	0x3d0fdabe	0.03512072
85	0xbc9afcd3	-0.018919384
86	0x3da544bc	0.08069751
87	0xbb44071c	-0.0029911464
88	0x3acb47f3	0.0015509113
89	0xbc69235d	-0.014229623
90	0x39b5f199	0.00034703015
91	0xbbd9e9dd	-0.006650193
92	0x3c5c61e3	0.013451072
93	0x3da1f8ac	0.079087585
94	0xbd2d82e3	-0.04236115
95	0xbc5b3aaa	-0.013380686
96	0x3c9db596	0.019251626
97	0x3c1bdc3b	0.009512956
98	0x3d397a42	0.04528261
99	0x3d5f9c88	0.05459264
100	0xbd255e19	-0.04037294
101	0xbc86b161	-0.016442003
102	0xbcd26d2c	-0.025686823
103	0x3d36ab6d	0.044597078
104	0x3c92e277	0.017930252
105	0xbcccb7ae	-0.024989929
106	0xbd40a371	-0.04703087
107	0x3c8f7c26	0.017515253
108	0x3baba184	0.00523776
109	0x3b85c3ed	0.004082194
110	0xbd2565e0	-0.04038036
111	0xbd0d6fc8	-0.03453043
112	0x3caba0da	0.020950723
113	0xbd323854	-0.04351075
114	0xbda8fd1f	-0.08251404
115	0xbcce372c	-0.025172792
116	0x3d29ec96	0.04148539
117	0x3d568311	0.05237109
118	0x3c3a77b6	0.01138108
119	0x3d629549	0.05531815
120	0x3d667627	0.056265023
121	0x3b4e80d1	0.0031509886
122	0x3b4fed80	0.0031727254
123	0x3ca7baf3	0.020474887
124	0x3c8057ea	0.01566692
125	0x3bbfc654	0.0058525
126	0xbd043f3e	-0.032286875
127	0xbcbd383f	-0.02309811
128	0x3c298a2a	0.010347882
129	0xbce73f85	-0.02822853
130	0x3cb597f0	0.022167176
131	0x3c3db05a	0.01157769
132	0xbd820af9	-0.06349749
133	0x3d169227	0.036760475
134	0xbc804d5d	-0.01566189
135	0xbcbbd064	-0.022926517
136	0x3b2b6848	0.0026154686
137	0x3c593321	0.013256819
138	0x3d01acca	0.031658925
139	0x3d29d102	0.04145909
140	0x3d8f60b6	0.07000868
141	0x3dd88e85	0.105740584
142	0x3ca905c4	0.020632632
143	0xbc4b9343	-0.012425247
144	0x3b6ade00	0.0035837889
145	0xbd0a3eb9	-0.033751223
146	0x3d1a2859	0.037636135
147	0xbd114c95	-0.035473425
148	0x3d2fa9d5	0.042886574
149	0x3d7ddf45	0.061980505
150	0xbd350afc	-0.04419993
151	0xbca95241	-0.020669105
152	0xbcb52802	-0.022113804
153	0x3b86da51	0.004115381
154	0xbb9faa91	-0.004872628
155	0xbc0de4ee	-0.008660538
156	0x3b86d8c4	0.004115196
157	0xbcf38dd8	-0.029730722
158	0xbcaad6b6	-0.020854335
159	0x3c9cd82d	0.01914605
160	0x3cb9a793	0.022662913
161	0x3d18e492	0.037327357
162	0xbca5d16d	-0.020241464
163	0x3d3d3a95	0.046198446
164	0xbce9e89c	-0.0285533
165	0x3c8eaed0	0.017417341
166	0x3abb71f9	0.0014300934
167	0xbc7ecdaa	-0.015551964
168	0xbc17ff59	-0.009277188
169	0x3ae99083	0.0017819557
170	0xbc5eb5da	-0.0135931615
171	0xbc783ae4	-0.015150759
172	0x3d4dd571	0.05025238
173	0x3c00e98b	0.007868181
174	0xbc3fc873	-0.011705506
175	0xbd01f800	-0.03173065
176	0x3da3ffbb	0.08007761
177	0xbd25cc10	-0.040477812
178	0x3d6fb8d5	0.05852588
179	0xbca1ee20	-0.019766867
180	0xbd6e96f6	-0.058249436
181	0xbbbbe3b8	-0.0057339333
182	0xbd3b1187	-0.045671012
183	0xbb69a446	-0.0035650893
184	0xbc90bc65	-0.017667959
185	0xbad2d2f4	-0.0016084597
186	0x3d26280a	0.040565528
187	0xbd38c802	-0.045112617
188	0x3d046fdf	0.03233325
189	0xbb91e1ad	-0.0044519515
190	0x3da9c4f3	0.08289518
191	0x3c65dd9d	0.0140298875
192	0xbc8a87c7	-0.016910447
193	0x3d44a2ed	0.04800694
194	0xbc5d373c	-0.013501938
195	0xbc76fa15	-0.015074273
196	0x3d97a148	0.07403809
197	0x3bdfe3f0	0.006832592
198	0x3cf0fd02	0.029417519
199	0x3ca02852	0.019550476
200	0x3d365217	0.04451188
201	0x3a0e6671	0.0005432135
202	0x3d2a8754	0.041632965
203	0x3bcc3fb7	0.0062331813
204	0x3d6f8e17	0.058485117
205	0x3d0a5b42	0.033778436
206	0x3a41bd8d	0.0007390611
207	0x3b8a294b	0.0042163483
208	0x3b91cd33	0.0044495105
209	0xbd04fb65	-0.03246631
210	0xbd426049	-0.047455106
211	0xbc8a0de7	-0.016852332
212	0xbd4dbde6	-0.05022993
213	0x3b203614	0.0024446296
214	0xbd321540	-0.043477297
215	0x3d102310	0.03518969
216	0x3d12ae1d	0.03581058
217	0xbbd0ab65	-0.006368088
218	0x39c9be6b	0.0003847958
219	0xbd27a407	-0.040927913
220	0x3c451980	0.012030005
221	0x3bc1fce6	0.0059200404
222	0x3c743c19	0.0149069065
223	0x3d91d346	0.07120375
224	0xbcf13ad2	-0.029446993
225	0x3b042d55	0.0020168622
226	0x3cd0327c	0.025414698
227	0xbd7e8a90	-0.062143862
228	0xbb009321	-0.0019618946
229	0x3c892e31	0.016745659
230	0x3d9849f7	0.07435983
231	0xbd4e99b5	-0.050439555
232	0xbda1fa86	-0.07909112
233	0xbc87684e	-0.016529229
234	0x3b0c2853	0.002138634
235	0xbcb427e2	-0.021991674
236	0xbd8045b4	-0.06263295
237	0xbd739cc0	-0.05947566
238	0x3d37cb27	0.044871476
239	0xbda433d6	-0.080176994
240	0x3c95d8b1	0.018291803
241	0xbd1d0511	-0.03833491
242	0xbd7d891c	-0.061898336
243	0x3b14d552	0.0022710157
244	0xbadab14a	-0.0016684916
245	0x3d18bca5	0.03728928
246	0xbd722e64	-0.059126273
247	0x3d358f58	0.044326156
248	0x3ccb6bc9	0.02483167
249	0x3d0a7129	0.033799324
250	0xba9c04e6	-0.0011903315
251	0x3c310bf2	0.010806071
252	0xbb62e07d	-0.0034618669
253	0xbc7a1f83	-0.015266302
254	0xbd12a6a9	-0.03580347
255	0x3d15f9bc	0.03661512

conv2.bias f4 [64]
0	0xbd382de2	-0.044965632
1	0xbad0c871	-0.0015928877
2	0x3c833570	0.016016692
3	0xbcd8395d	-0.02639454
4	0xbbd8a464	-0.0066113938
5	0xbc65da79	-0.014029139
6	0x3c12cea5	0.008960401
7	0xbcfd9e51	-0.03095928
8	0xbb6735d7	-0.0035279894
9	0x3d012472	0.031528898
10	0xbd21b5d5	-0.03948005
11	0xbc17b15e	-0.009258596
12	0xbd1667c2	-0.036720045
13	0x3d1b2f03	0.03788663
14	0xbc6df25e	-0.014523117
15	0x3be34b34	0.006936455
16	0xbc8bda55	-0.017071882
17	0xbca6f735	-0.02038155
18	0xbc47c587	-0.01219309
19	0xbc117817	-0.008878729
20	0xbd266c1a	-0.040630437
21	0x3ba5093d	0.0050365017
22	0xbc7df1f2	-0.015499579
23	0xbc5c0f1c	-0.013431337
24	0xbb4bbb74	-0.0031087073
25	0x3b7bc3be	0.0038416232
26	0xbc42cdcb	-0.011889885
27	0xbd3bd698	-0.04585895
28	0x3d399304	0.04530622
29	0x3c207772	0.009794103
30	0x3c2ea1f7	0.010658733
31	0x3c8f969f	0.017527876
32	0x3d48f8e4	0.049065486
33	0x3bfb06ac	0.0076607075
34	0xbc2f0a12	-0.010683553
35	0x3d35e09b	0.044403654
36	0xbcde8581	-0.027163269
37	0xbc0dcccc	-0.008654784
38	0x3d088f1b	0.0333396
39	0x3cf91a91	0.030408176
40	0xbb387c3e	-0.0028150226
41	0x3d60113b	0.054703932
42	0xbc05daeb	-0.00816987
43	0xbcbc17b9	-0.02296053
44	0x3c79fba7	0.0152577525
45	0x3c38f911	0.011289851
46	0xbd45aacd	-0.04825859
47	0xbcade855	-0.021228949
48	0x3b453c3d	0.003009572
49	0xbd396c71	-0.045269433
50	0xbc26f98e	-0.010191334
51	0x3cd72edf	0.026267467
52	0x3d5c217b	0.053742867
53	0xbcbc17f9	-0.02296065
54	0xbc083108	-0.008312471
55	0xbb58dcab	-0.0033090513
56	0xbd017a2d	-0.031610657
57	0x3ce2c23a	0.027680505
58	0xbc89dd59	-0.01682918
59	0x3c8c5bd9	0.01713364
60	0xbc134663	-0.0089889495
61	0x3d8edf56	0.06976192
62	0xbc0db2ef	-0.008648618
63	0x3d033507	0.032032993

conv3.weight f4 [32, 64, 5, 5]
0	0xba0f6ae9	-0.0005470948
1	0xb94f91f1	-0.00019795426
2	0xb8358566	-4.3278e-05
3	0x38175afd	3.6085945e-05
4	0xb6a5edaf	-4.945053e-06
5	0xb5628bea	-8.439516e-07
6	0xb8efbf01	-0.00011431985
7	0xb85ba907	-5.2371088e-05
8	0xb7636d02	-1.3555635e-05
9	0xb5458450	-7.358076e-07
10	0x3cbf7839	0.023372756
11	0xbbc3e6e7	-0.0059784534
12	0x3d0e203b	0.034698706
13	0x3c6e7bdd	0.0145558985
14	0x3c2b88bb	0.010469611
15	0x3cc64c83	0.024206406
16	0x3c716e29	0.014735737
17	0x3ce687a1	0.028140845
18	0x3cf1ce05	0.029517183
19	0xbb9f5fe2	-0.004863725
20	0x3b6d5962	0.0036216606
21	0x3c6d7e55	0.014495452
22	0x3c6691fd	0.014072892
23	0x3d545e7d	0.051847924
24	0x3c0f4651	0.008744792
25	0xbaaa9721	-0.0013015011
26	0xba6617a1	-0.00087773247
27	0xb9e0c40a	-0.0004287067
28	0xba01a872	-0.000494606
29	0xb508e293	-5.0993657e-07
30	0xba63b43f	-0.00086862216
31	0xb9e58747	-0.00043779073
32	0x3832208e	4.2468826e-05
33	0x38027ae0	3.110885e-05
34	0x34c6ec72	3.705241e-07
35	0x3d039460	0.032123923
36	0x3c51f22e	0.012814088
37	0x3c2a1909	0.010381945
38	0x3b4ce23f	0.0031262783
39	0x3d148930	0.036263645
40	0xbc088aec	-0.008333903
41	0x3acf444d	0.0015813202
42	0x3d0bf804	0.034172073
43	0x3c4d9aeb	0.012549142
44	0x3c736b73	0.014857161
45	0x3c0c4e97	0.008563659
46	0xbb89e391	-0.004208036
47	0x3bf661aa	0.0075189667
48	0x3d1623b5	0.036655147
49	0x3c36ff4f	0.011169269
50	0xbac02b21	-0.0014661291
51	0xb720e863	-9.59085e-06
52	0x35c89c18	1.494659e-06
53	0x36bd4d7c	5.6416593e-06
54	0x344b8418	1.8953904e-07
55	0xbaac99ef	-0.0013168434
56	0x33872f28	6.295005e-08
57	0xb74914ea	-1.1985403e-05
58	0xb49ce54c	-2.92241e-07
59	0xb56f35aa	-8.911253e-07
60	0x3b3ad7da	0.0028510005
61	0x3bf3564e	0.00742606
62	0x3c44e5cb	0.012017678
63	0x3c87a71d	0.016559178
64	0xbab7345f	-0.00139774
65	0x3a22c661	0.00062093703
66	0xbc10796c	-0.008818012
67	0xbca3e155	-0.020004908
68	0x3bfa35e9	0.007635821
69	0x3c8d93f6	0.017282467
70	0xbbf97bdd	-0.0076136426
71	0x3c140712	0.009034889
72	0xbb8497a0	-0.0040463954
73	0xbc298d37	-0.01034861
74	0x3c870c08	0.01648523
75	0x38c6c672	9.478339e-05
76	0xba1ac832	-0.0005904465
77	0xb972e149	-0.00023162844
78	0xb9ee94f3	-0.00045505873
79	0xb63a7ad4	-2.7787655e-06
80	0xb8701f69	-5.7249712e-05
81	0xb9d5a12a	-0.00040746602
82	0xba8d5724	-0.0010783416
83	0xba81f691	-0.0009915401
84	0xb513456c	-5.486279e-07
85	0xbc2c2671	-0.010507212
86	0xbb02f275	-0.0019980941
87	0x3a87f840	0.0010373667
88	0x3c21de53	0.009879666
89	0x3a5e425d	0.0008478517
90	0xbbf51433	-0.0074792146
91	0xbaa09500	-0.0012251437
92	0x3cab61eb	0.020920714
93	0x3c1755c6	0.009236759
94	0xbb9d885e	-0.004807516
95	0x3a9b0301	0.0011826457
96	0xbba820c4	-0.005130859
97	0xbcf21ae9	-0.029553847
98	0x3a849624	0.0010115546
99	0xbc67a35f	-0.014138072
100	0xba34adb8	-0.0006892341
101	0xb721b5f9	-9.638717e-06
102	0xb8f2e384	-0.00011581837
103	0xb9140841	-0.00014117455
104	0x35044d52	4.928635e-07
105	0x38c5dabc	9.4344345e-05
106	0xb812209d	-3.4839486e-05
107	0xba05f158	-0.00051095104
108	0xba8209bd	-0.0009921115
109	0xb4debb6e	-4.1487095e-07
110	0x3cfa17ef	0.03052899
111	0xba411a17	-0.00073662534
112	0x3c741a5d	0.014898864
113	0x3c19a14c	0.009376835
114	0xba5ce490	-0.00084263925
115	0x3c3a11a7	0.011356748
116	0xbd10ed9c	-0.035382852
117	0x3ca58106	0.020203125
118	0x3bdc87e3	0.006730066
119	0xbbd405ae	-0.0064704036
120	0x3af8a034	0.0018968643
121	0xbbe6fa99	-0.0070489165
122	0x3bb5c2dc	0.0055469107
123	0x3cdffa7e	0.027341124
124	0x3c592478	0.013253324
125	0x37d95380	2.5907299e-05
126	0xbaa0139a	-0.0012212873
127	0x39efedac	0.00045762712
128	0xb9913877	-0.00027698625
129	0x34e7e604	4.319446e-07
130	0xb8aa57be	-8.122575e-05
131	0xba816487	-0.0009871878
132	0x36687f8b	3.4644934e-06
133	0x37c30d69	2.3252056e-05
134	0x344c7838	1.9042716e-07
135	0xbc157fed	-0.009124738
136	0x3a097169	0.00052430347
137	0xbc692942	-0.014231028
138	0x3d05fd8a	0.032712497
139	0x3b22600e	0.0024776491
140	0x39595f2d	0.00020730188
141	0x3cc67092	0.0242236
142	0xbc3f3161	-0.011669488
143	0x3b9a5f63	0.004711078
144	0x3bf1dfeb	0.0073814294
145	0xbb8e15a4	-0.004336076
146	0x3b30bbd3	0.002696742
147	0x3b64e417	0.0034925991
148	0x3cc47eb7	0.023986204
149	0x3cc47eb3	0.023986196
150	0xb9b316fe	-0.0003415867
151	0x3a0f37ee	0.0005463351
152	0x3a58b0b7	0.00082660787
153	0x3a6e30cf	0.00090862525
154	0x364467dc	2.926673e-06
155	0x3a21a56f	0.0006166314
156	0x3a8aad36	0.0010580185
157	0xbaa06ac9	-0.0012238856
158	0xba587279	-0.0008256804
159	0xb4243170	-1.5291675e-07
160	0x3d2de78c	0.04245715
161	0x3aaebeb0	0.0013331976
162	0x3c8881e8	0.016663507
163	0x3ce7cb3f	0.028295157
164	0x3ce8cb81	0.02841735
165	0x3a35fcff	0.00069423014
166	0x3d185a5a	0.03719554
167	0x3cc06f85	0.023490677
168	0xba272ca4	-0.00063771964
169	0xbc7ea599	-0.015542411
170	0x3bdff892	0.006835052
171	0x3c6149f0	0.013750538
172	0xbcae682b	-0.021289906
173	0x3b0677c7	0.002051817
174	0xbc90e8a5	-0.017689059
175	0x37134929	8.778917e-06
176	0x374b9dbe	1.213647e-05
177	0x378cc8b9	1.678277e-05
178	0xb7052785	-7.936619e-06
179	0x36315d21	2.6429263e-06
180	0xb7b80c1e	-2.1940152e-05
181	0x37cddff1	2.4542185e-05
182	0x381370e1	3.5152658e-05
183	0x378cc7cc	1.6782338e-05
184	0xb2856280	-1.552803e-08
185	0x3c1a1b64	0.0094059445
186	0x3a3655c6	0.000695553
187	0x3bdda569	0.006764103
188	0x3c140be1	0.009036035
189	0xbb191693	-0.0023359403
190	0x3c87c1ce	0.016571905
191	0x3aedb6ac	0.0018136106
192	0x3c5958a7	0.013265765
193	0x3c4a2e5f	0.012340157
194	0xbbcaa65d	-0.006184383
195	0xbb6064f6	-0.0034239865
196	0x3bc636df	0.0060490216
197	0x3c5a59d1	0.013327078
198	0x3bada597	0.005299281
199	0xbc8e6334	-0.017381288
200	0x3679f06f	3.7243842e-06
201	0x3587a313	1.0105745e-06
202	0xb67eb3e5	-3.7953662e-06
203	0xb8fe1b75	-0.00012116778
204	0xb5765436	-9.1764684e-07
205	0x3735c2ce	1.0833797e-05
206	0x376ff00b	1.43013995e-05
207	0x35988bf3	1.1365613e-06
208	0xb743dee6	-1.1674803e-05
209	0xb5f55c9f	-1.8280879e-06
210	0xb834386a	-4.2967884e-05
211	0x3bf5a14f	0.007496036
212	0x3b458a34	0.003014219
213	0x3bab9607	0.0052363905
214	0xb8944a47	-7.071025e-05
215	0xba6e0ec4	-0.000908118
216	0x3c4e6db3	0.0125993965
217	0x3c0445ff	0.008073329
218	0x3c1e3ab7	0.009657553
219	0x3a8e642f	0.0010863597
220	0x3aea5ca7	0.0017880396
221	0xbb29f96b	-0.0025936018
222	0x3c92d80e	0.017925289
223	0xbc2430a3	-0.0100213615
224	0x3c342958	0.010996185
225	0xb9b20e14	-0.00033961295
226	0x397bc044	0.0002400885
227	0x39b514f6	0.00034538627
228	0x38e6d8fe	0.000110076726
229	0x36213e18	2.4027013e-06
230	0x370956da	8.186058e-06
231	0x3a41d617	0.00073942676
232	0xb9fede95	-0.00048612492
233	0xb9df4d01	-0.00042591247
234	0x35a4d608	1.2281243e-06
235	0x3d07c4f0	0.0331468
236	0xbbe3c2e8	-0.006950725
237	0x3d0df4da	0.034657337
238	0x3ca1ffd8	0.019775316
239	0x3b6f1e73	0.0036486655
240	0x3c80698d	0.01567533
241	0xbc3fa6b9	-0.011697465
242	0x3c16eb3e	0.00921136
243	0x3cbaded5	0.022811333
244	0xbaef272a	-0.0018245925
245	0x3c72ebd4	0.014826734
246	0xbbfa9464	-0.007647084
247	0x3c1b7c80	0.009490132
248	0xbc1394f8	-0.009007685
249	0x3c2e0cbd	0.010623154
250	0xb6760106	-3.6657452e-06
251	0xb656fce6	-3.2035691e-06
252	0x36bc8d08	5.619255e-06
253	0xb78d52db	-1.6847092e-05
254	0xb682af3d	-3.8947023e-06
255	0xb56248f6	-8.4297733e-07

conv3.bias f4 [32]
0	0xbc611396	-0.01373758
1	0x3c228d48	0.009921379
2	0xbcf026de	-0.029315408
3	0x3c0f37be	0.008741317
4	0xb9faba49	-0.0004782251
5	0x388d312c	6.732563e-05
6	0xb9180229	-0.00014496654
7	0x3bf1c85b	0.0073786206
8	0xbd02e780	-0.031959057
9	0x3c6a1ad3	0.014288622
10	0xbab92db3	-0.0014127999
11	0x3d29e8b2	0.04148168
12	0x3aa6c6c9	0.0012724038
13	0xbcaeab66	-0.021321964
14	0x3cb4edcf	0.022086052
15	0xbd26197c	-0.040551648
16	0x3d37786c	0.044792578
17	0x3c7e2ef3	0.015514123
18	0xbc61f9ba	-0.01379245
19	0x3c90684a	0.017627854
20	0x3bf8dea0	0.0075948983
21	0xbbc262cd	-0.005932188
22	0xb90b6eae	-0.00013297304
23	0x3d11d835	0.03560658
24	0xbab80d7e	-0.0014042107
25	0x3c404690	0.011735573
26	0x3c134fb7	0.0089911735
27	0x3d5bdbde	0.05367648
28	0xbcd8cc8e	-0.026464727
29	0x3c8db81c	0.017299704
30	0x3c19a206	0.009377008
31	0x3d48d91f	0.049035188

fc_1.weight f4 [8, 32]
0	0x3d8207d0	0.06349146
1	0x3e893618	0.26799083
2	0xbe7216ef	-0.23641561
3	0x3ec7ea9f	0.3904619
4	0xbddf97e5	-0.109176435
5	0xbb740e53	-0.0037239983
6	0x3af21057	0.0018468004
7	0x3e41f14d	0.18939705
8	0x3cde50c8	0.027138129
9	0xbd2bb7c5	-0.041923303
10	0xbc012c7e	-0.007884143
11	0x3e00c47f	0.12574957
12	0xbd4a4e03	-0.049390804
13	0xbe0f18e4	-0.13974339
14	0xbd3da8d0	-0.04630357
15	0xbe995194	-0.29945052
16	0x3ce263d6	0.027635496
17	0x3e810dc6	0.2520582
18	0xbcf443e6	-0.029817533
19	0x3decd07f	0.11563205
20	0x3db5ee39	0.08883328
21	0x3e2b3135	0.1671799
22	0x3be6012b	0.007019182
23	0x3ec0dc19	0.3766792
24	0xbbed46d6	-0.0072411103
25	0xbe08cc45	-0.13359173
26	0x3d8676ba	0.06565614
27	0x3cd53ba0	0.026029408
28	0xbec40768	-0.382869
29	0x3c269fe9	0.0101699615
30	0x3ef45739	0.47722796
31	0xbd91320d	-0.070896246
32	0x3df9cbb1	0.12197054
33	0x3d8ab2f2	0.06772412
34	0xbdaccb73	-0.08437242
35	0xbe379023	-0.17926078
36	0xbda8063f	-0.08204316
37	0x3e39ffd8	0.18164003
38	0x3b10e985	0.0022111845
39	0xbbd9618c	-0.006633943
40	0xbe58164d	-0.21102257
41	0x3ddf7247	0.109104685
42	0xba743688	-0.0009315987
43	0x3d1cda3d	0.038294066
44	0x3d69b7a8	0.057059914
45	0x3c28794f	0.0102828285
46	0xbd855260	-0.065098524
47	0xbe219015	-0.15777619
48	0x3eb29aa2	0.348836
49	0xbddb4fd4	-0.107085854
50	0xbe8dc1c0	-0.27686882
51	0x3ed372f0	0.41298628
52	0xbd8d9e88	-0.06915003
53	0xbe1f28e7	-0.15542947
54	0xbbf61a2c	-0.007510444
55	0x3c8cb808	0.017177597
56	0x3cda75f1	0.026667567
57	0x3bc4a08b	0.0060005835
58	0xba6d4b90	-0.0009052092
59	0x3e11b895	0.14230569
60	0x3d87d3bd	0.06632183
61	0xbd614a9a	-0.055002786
62	0xbd74599a	-0.059655763
63	0x3e7a8ce3	0.24467807
64	0x3d4bbec8	0.04974249
65	0x3dbe0a2b	0.09279283
66	0x3d1f3cd1	0.03887636
67	0x3e3e2d68	0.18572009
68	0xbc4bdb94	-0.012442488
69	0x3e90ceda	0.28282815
70	0x37fffbbc	3.0515592e-05
71	0xbaf19c84	-0.0018433486
72	0x3e92adda	0.28648263
73	0xbd124f55	-0.03572019
74	0xbd97b84e	-0.074082
75	0xbd610955	-0.05494054
76	0xbe828ca3	-0.25497922
77	0x3de59142	0.11209346
78	0xbf1f11e0	-0.6213665
79	0x3cc6674c	0.024219178
80	0xbde3b170	-0.11117828
81	0x3e339dd3	0.17540674
82	0xbe66d984	-0.22543913
83	0x3d4cfaec	0.050043985
84	0xbb059b63	-0.0020386807
85	0x3dd427d2	0.103591576
86	0xbcecb9c2	-0.02889717
87	0x3d4cf396	0.05003699
88	0xbb5fab14	-0.003412907
89	0xbe95d61d	-0.29264918
90	0xbac443ae	-0.0014973783
91	0xbe809e17	-0.25120613
92	0xba1fcd80	-0.00060959905
93	0xbd648b6f	-0.055797037
94	0x3e8ad0e3	0.27112493
95	0xbe8ba4f0	-0.27274275
96	0x3e1a8a30	0.15091777
97	0xbdbccb3c	-0.092184514
98	0xbcfdf2db	-0.030999592
99	0x3e3b81da	0.18311253
100	0x3dbf42bd	0.09338901
101	0xbd96d543	-0.07364895
102	0x3d223d4f	0.03960925
103	0xb8ab9255	-8.181172e-05
104	0xbd89a7ee	-0.06721483
105	0xbe3a2432	-0.1817787
106	0x35591596	8.087021e-07
107	0xbe53ef04	-0.20696646
108	0x3de7a522	0.113107935
109	0xbcc7a20e	-0.024369266
110	0x3ea004f4	0.3125378
111	0x3d013bef	0.031551298
112	0xbd296294	-0.041353777
113	0xbe350042	-0.1767588
114	0x3e4fca3e	0.20291993
115	0xbe5ac19c	-0.21362919
116	0xb802a448	-3.1147414e-05
117	0xbdee8a8e	-0.11647521
118	0xb825de5a	-3.9546147e-05
119	0xbd961b2d	-0.07329402
120	0x3e007d88	0.12547886
121	0xbe060f28	-0.13091719
122	0x37e7add0	2.7618284e-05
123	0xbe957e77	-0.29198048
124	0xbc1724f3	-0.009225118
125	0xbe36e85f	-0.1786208
126	0xbea2e651	-0.31816342
127	0x3c696ce8	0.014247157
128	0x3e373692	0.1789191
129	0x3d1c53fd	0.038166035
130	0x3e27b331	0.1637695
131	0xbd20d94e	-0.039269738
132	0xbe6460e4	-0.22302586
133	0xbb9e44da	-0.004829985
134	0x37cd9ff6	2.4512392e-05
135	0xbc0813cf	-0.008305504
136	0xbda41e04	-0.080135375
137	0xbeb0351c	-0.3441552
138	0xbdcf04e2	-0.10108353
139	0xbe705748	-0.23470795
140	0x3e4c6d28	0.19963515
141	0xbc8e64aa	-0.017381985
142	0x3e576772	0.21035555
143	0x3dd290f3	0.10281553
144	0xbe495eee	-0.19665119
145	0xbda6622f	-0.08124196
146	0xbc4c42d3	-0.012467104
147	0xbd12b14d	-0.03581362
148	0xb9716c9a	-0.00023024008
149	0x3d8709a2	0.06593634
150	0xb44d79c0	-1.9136405e-07
151	0x3e6e328c	0.2326147
152	0x3ce5536b	0.027993878
153	0xbe1e3e15	-0.1545337
154	0xbda8d35b	-0.08243438
155	0xbe3bc866	-0.18338165
156	0xbe11ca0a	-0.14237228
157	0xbeb8d058	-0.36096454
158	0x3d844dd7	0.06460159
159	0xbeb97d23	-0.36228284
160	0x3dd387e3	0.10328653
161	0xbe30b4a8	-0.17256415
162	0x3eca4096	0.395024
163	0x3da34199	0.07971496
164	0x3d8e1e91	0.06939424
165	0xbe916e32	-0.28404385
166	0xbcb98000	-0.022644043
167	0xb91833ba	-0.00014515119
168	0xbb21f1d9	-0.0024710803
169	0x3def8bba	0.116965726
170	0x3eaa0687	0.33208105
171	0x3c84f2c1	0.016229035
172	0xbd120dc8	-0.035657674
173	0xbcef3237	-0.029198749
174	0xbe0b314c	-0.13593024
175	0x3e11b09f	0.14227532
176	0xbe23ddf8	-0.16002643
177	0x3d9bd7f2	0.07609548
178	0xbe05020e	-0.12989065
179	0xbe9f65dd	-0.31132403
180	0xb8b54370	-8.643314e-05
181	0xbc193e57	-0.009353242
182	0x3cc1780e	0.023616817
183	0xbd858dc9	-0.06521184
184	0x3db226f8	0.08698839
185	0x3db2f456	0.0873801
186	0xbbb2a910	-0.0054522827
187	0xbd957bf4	-0.07299033
188	0xbdf1f08c	-0.11813459
189	0x3df0ce4d	0.11758099
190	0x3e1c54fe	0.15266797
191	0xbe22af3c	-0.15887159
192	0xbd5bf74d	-0.05370264
193	0xbea6e75d	-0.3259839
194	0xbd00a5ef	-0.031408247
195	0xbcb61a53	-0.02222935
196	0xbd89d2ba	-0.06729646
197	0x3e5ca73e	0.21548173
198	0xb4bff188	-3.575226e-07
199	0xb98d0f52	-0.0002690503
200	0x3dd6b484	0.104836494
201	0xbe10a2dc	-0.14124626
202	0x3917fbd5	0.00014494297
203	0xbe23f3f7	-0.16011034
204	0xbe5684ca	-0.20949093
205	0x3e809871	0.25116304
206	0x3dc7bcf0	0.09752834
207	0xbe77f96f	-0.24216245
208	0x3c079562	0.008275362
209	0x3eb180d0	0.3466859
210	0xbd6e9862	-0.058250792
211	0xbe9e30cc	-0.30896604
212	0xb84bf09b	-4.8623053e-05
213	0xbe2fd2b9	-0.17170228
214	0xb7d0b038	-2.487759e-05
215	0x3e9016c8	0.2814238
216	0x35b914a6	1.3789584e-06
217	0xbd18fdcc	-0.037351415
218	0xb9574a59	-0.00020531694
219	0xbd0e1195	-0.034684736
220	0xbca74072	-0.020416472
221	0x3daf7c26	0.08568601
222	0xbe14bcff	-0.14525221
223	0xbd8c16b7	-0.0684027
224	0xbdd9cf4f	-0.10635244
225	0xbde12847	-0.109940104
226	0x3dd9f525	0.10642461
227	0x3edff510	0.43741655
228	0x3ea5e800	0.32403564
229	0xbeaba215	-0.33522096
230	0xb6386146	-2.7474757e-06
231	0xbaad3898	-0.0013215719
232	0xbdce15ad	-0.10062728
233	0x3e960b68	0.29305577
234	0x386766fd	5.5170607e-05
235	0x3b3809c0	0.0028081983
236	0xbd7c7793	-0.061637472
237	0xbe8e3822	-0.277772
238	0x3daac96b	0.08339199
239	0x3d838a46	0.06422858
240	0x3eb70e2c	0.35753
241	0x3cfae6dd	0.030627662
242	0xbe54cd71	-0.20781495
243	0xbe81adad	-0.25327817
244	0xbb2d0a90	-0.0026404
245	0xbeb2fc5f	-0.3495817
246	0xb7901c30	-1.7179264e-05
247	0x3da4c639	0.080456205
248	0x3d844bbf	0.0645976
249	0x3e3795ea	0.17928281
250	0xbd3b01c2	-0.045655973
251	0x3df7eb95	0.121054806
252	0xbe2515c7	-0.16121589
253	0x3e07424c	0.13208884
254	0x3d7b5caa	0.06136767
255	0x3d9673e2	0.07346322

fc_1.bias f4 [8]
0	0x3d0d919d	0.034562696
1	0x3ccf9c84	0.025343187
2	0xbd2ba3ab	-0.041904133
3	0xbca40295	-0.020020762
4	0xbcb7063a	-0.022341836
5	0xbc81ccc6	-0.015844714
6	0x3bcf75f7	0.006331201
7	0x3bbda335	0.005787278
