checkpoints/target0/epoch=4.checkpoint.pth.tar (torch, 318388 bytes, 8 tensors)

conv1.weight f4 [16, 3, 5, 5]
00000000: 5dba 463e bed0 1e3e 96ee ac3d a442 65be
00000010: 993e 9a3d a662 07be 3a5d 64bc 39f9 46be
00000020: 997c dbbd cff6 2e3e cab4 2ebd 3d11 0bbe
00000030: 20c4 d5bd 5cd8 bdbd 94b7 a1bd 10dd ba3d
00000040: ec1d 423e 908f d6bc f1a4 8ebd 355c 0d3d
00000050: 9925 89bd 4864 023e 6f23 a43d 5105 233e
00000060: dc95 ff3d d081 053e 1e4e 953d a072 043e
00000070: ee2b 3cbd 9fd6 e63b 2d8e 01bd 3c27 aa3d
00000080: 14e5 2ebe 90fd fcbd bb08 8ebc 843d 303e
00000090: 1bce 263d f829 90bd 4462 d6bb 100c a4bd
000000a0: 2a1f 15be d5ba fb3d 4299 b8bd 94f7 a3bd
000000b0: d9cd 09be 0a99 683e 4f71 dbbd ad87 30bd
000000c0: 76e2 b6bd 9a81 74bd bef1 3d3c ad18 8b3d
000000d0: 1f0c 46bd 7fde cd3d 25d6 a0bd a56d 9bbd
000000e0: 3599 0dbe 896c d3bc 2630 24bd 450a 8e3d
000000f0: 3c82 febb 68cc 483e dd89 0fbe 87ba db3d
00000100: e448 113e 901e ce3d d802 7b3e 708c 493d
00000110: 0427 aa3c f0b4 c1bc 6078 c3bd e3c0 153e
00000120: 4310 5cbc 15d8 5e3d 81eb 413c 4fa4 cc3c
00000130: b4ec 363d 3c51 9ebd 3a34 72be e59f b3bd
00000140: c27c c0bc 8497 59bd af78 1ebe 7ffb a3bd
00000150: 3c6c 143d e53a 043d fd20 b53d a682 eabc
00000160: 3813 2c3d 3bee 85bd 60b4 fdbd 5163 0c3d
00000170: 04d3 4ebe 2eb3 e1bd e8db ea3d 0dc9 b43c
00000180: ab05 8cbe df5c be3c b45a 5c3d 61d3 78bc
00000190: aa08 a03d eca9 9d3d 7094 fc3d cd46 0dbd
000001a0: 9277 eabb 9e4d ab3d 7a7e 5c3d eeee d93c
000001b0: 5d96 0f3d edea 0b3e 92a9 e03b 34a7 cbbc
000001c0: bb93 17be 31f4 1fbc 9db4 48bd 90bd 583d
000001d0: 8879 9a3d d51c 973b 83aa 1cbd 0995 813d
000001e0: 6903 5fba b9fc e43c 9104 9e3c af19 a83d
000001f0: c41d f23d d1eb 863d d7dd da3d 7b25 963d
00000200: 12df 5e3e fee1 fc3d f043 f0bd 3b25 a7bd
00000210: 4e18 513c 9481 3f3e b710 b43d a3de a53d
00000220: 6671 0b3e 86a2 753c 793d 25be 570c ef3d
00000230: 29c5 97bc db7a f33d 75c5 75bd 63fe 993d
00000240: a72c 9cbd a978 d73d 281f 313e c312 203e
00000250: 2260 183d 3c00 f2bb 3f86 f8bc bf69 353d
00000260: 8642 083d a364 bc3d 6fb9 0ebd 19fb 373e
00000270: 975b 7ebe fcd6 4dbd e669 febd 3580 ab3d
00000280: c3f0 56be a5fe 083c 5321 21bb a462 e4bc
00000290: ada0 203d 951a a6bd 9c22 4c3c 81fc c9bd
000002a0: 8e47 18be 420f 2b3e e9f2 133e 8073 223c
000002b0: 0dec 0ebe 3c3b cd3d 939e f33d 829b 813e
000002c0: 34e9 343d 0b9b 7b3c 4262 acbd b7a3 12bc
000002d0: c3f7 84bd 9e99 1bbe 24a5 f1bd ceda 60bd
000002e0: 7d4c 30bd d8ab 25be 424f 52be 4e28 503c
000002f0: 55d0 e23d 9c9e 13bd 15e3 903d eaad 8e3d
00000300: b98b 3c3e 79df a9bd 48b9 fe3d bc39 18bc
00000310: c47e e0bd e20a 353d b322 863d f1c6 2c3e
00000320: f3e2 c53d a895 743e 1e67 41bd 8632 bebd
00000330: 68bd 0e3d 6e89 043e 6dce 063e 5284 203d
00000340: c26c abbd 2aba b9bd a0fd 67bd 37e6 8ebd
00000350: aaa4 753c c610 513d 0a33 e93a cb20 6cbe
00000360: 83cc 2fbd 2228 dc3d 541b 36be e2a3 293e
00000370: 2d66 633d d162 42bd 1cf1 c63d d152 2e3e
00000380: d023 413c 6ca7 2b3e 4070 943c be6b eabd
00000390: 85a5 a0bd 5177 babc 7410 2a3d 4619 573e
000003a0: 8d01 2cbc d738 e6bd 276a 73be fefd ecbd
000003b0: a9c5 fc3b 92d9 843b c095 afba 2158 ee3a
000003c0: 4c23 d7bd 075f ea3c 16ca 4ebd 0a10 0a3d
000003d0: c995 f6bd 41d6 67bc 8b6c 01bd 730b 143e
000003e0: 6374 d73d 7212 dbbd a4c7 b13d 0ff2 683d
000003f0: 5350 4f3d 65ef 2f3d bffe cb3c d63e d03c
0.1940703 0.15509316 0.08443944 -0.22388703 0.07531471 -0.13221225 -0.013938243 -0.19431008
-0.107171245 0.17086338 -0.042652883 -0.13580795 -0.104377985 -0.09269783 -0.07896343 0.091241956
0.18956727 -0.026191503 -0.06965054 0.034511764 -0.06696624 0.12733567 0.08014571 0.15919997
0.12479755 0.13037801 0.0729029 0.12934351 -0.045940332 0.007044628 -0.03162973 0.083082646
-0.17079574 -0.12353051 -0.017338147 0.17210966 0.0407239 -0.07039255 -0.006542476 -0.08010113
-0.1456267 0.12291495 -0.090136066 -0.08006206 -0.13457431 0.2271463 -0.10714971 -0.04309814
-0.08929913 -0.05969391 0.01159328 0.06791816 -0.048351403 0.100522034 -0.07853345 -0.075892724
-0.13827975 -0.02580859 -0.04008498 0.069355525 -0.00776699 0.19609225 -0.14017434 0.10728937
0.14187962 0.10064423 0.24512804 0.049206197 0.020770557 -0.023645848 -0.09544444 0.14624362
-0.0134316115 0.05440529 0.011835934 0.024980692 0.04465933 -0.07730338 -0.23652735 -0.08770732
-0.02349699 -0.053123012 -0.15475725 -0.080069534 0.036236033 0.03228273 0.08844183 -0.028626751
0.042010516 -0.065395795 -0.123879194 0.034274403 -0.20197684 -0.11020504 0.11467725 0.022068525
-0.27348074 0.023237644 0.05379744 -0.015187115 0.078141525 0.07698426 0.12333 -0.03449135
-0.007155367 0.08364414 0.053831555 0.026603188 0.035055507 0.13663836 0.006856152 -0.024860002
-0.14802448 -0.00976281 -0.04900037 0.052915156 0.075427115 0.0046115913 -0.03824855 0.06327254
-0.0008507283 0.027952539 0.019289287 0.08208024 0.118220836 0.06587947 0.10686844 0.073313676
0.21764782 0.12347792 -0.11731708 -0.08161398 0.012762142 0.18701774 0.087922506 0.08099105
0.13617477 0.014992362 -0.16136731 0.116722755 -0.01852663 0.11888667 -0.060002763 0.075192235
-0.07625704 0.10521061 0.17297041 0.15632157 0.037201054 -0.007385282 -0.030337451 0.0442903
0.033266567 0.091988824 -0.034844812 0.1796688 -0.24839626 -0.050253853 -0.12422542 0.08374063
-0.20990281 0.008361493 -0.0024586513 -0.027879067 0.039215732 -0.08110539 0.012459423 -0.098626144
-0.14871046 0.16705039 0.14448132 0.009915233 -0.13957234 0.10021064 0.1189548 0.25313956
0.044167712 0.015356789 -0.08417179 -0.0089501655 -0.06492569 -0.15195319 -0.11799076 -0.05489617
-0.043041695 -0.16178834 -0.20538047 0.012704922 0.110748924 -0.036039934 0.070745625 0.06966765
0.18412675 -0.08294577 0.12437683 -0.009291109 -0.109616786 0.04419983 0.06549587 0.16872765
0.09662428 0.23885214 -0.04721748 -0.0928698 0.0348486 0.1294305 0.13164683 0.03918869
-0.08370353 -0.09068711 -0.05663836 -0.06977504 0.014992872 0.051041387 0.00177917 -0.23059385
-0.042919647 0.10749842 -0.17783862 0.16566423 0.055517364 -0.04745752 0.09713957 0.1702378
0.0117883235 0.16763085 0.018119931 -0.114463314 -0.0784407 -0.022761973 0.041519597 0.21005735
-0.010498417 -0.1124131 -0.23770963 -0.11571883 0.0077139926 0.0040542567 -0.0013396069 0.0018184223
-0.10504779 0.028609766 -0.050485693 0.033706702 -0.12040288 -0.014150203 -0.031597655 0.14457493
0.10520246 -0.106968775 0.086806566 0.05687147 0.050613713 0.042952914 0.024901746 0.025420588

conv1.bias f4 [16]
00000000: 1d78 8ebd 02cb 053d 4500 68bd 8043 3fbd
00000010: 9e6d 51bd a4fa 8cbd 57fb 9c3b dfcc 5ebc
00000020: 897f 13bd d08c 693d 75df 9a3c 6f5b da3c
00000030: a2a0 3abc f62d 733b 9f15 57bd 5be0 8d3c
-0.069565035 0.032664306 -0.056640882 -0.046695232 -0.05112993 -0.068837434 0.004790704 -0.01359865
-0.0360103 0.057019055 0.01890538 0.026654927 -0.011390837 0.0037106252 -0.052510854 0.017318895

conv2.weight f4 [64, 16, 5, 5]
00000000: 84c3 783c 098f 5d3b 7b17 983a b764 b03d
00000010: f928 543d 6e99 e4b9 bce3 05bc bbaf 3a3c
00000020: 7b74 31bb 8fdf d4bc 10fb 14b8 2e44 bd3d
00000030: 0051 7bbd 9739 213c cd5b 823d 01db cabb
00000040: c261 bc3c 9b12 7f3d 240d bd3d ce58 463d
00000050: 3939 89bc dc91 6c3d 200d cb3c 38bd 053c
00000060: 5d67 66bd 9e47 723c 6449 21bd 8c6d e8bc
00000070: d9b0 f3bc 0587 e13c c203 48bd c66c 09bd
00000080: 7428 efbb 0304 67bd 601b 79bd a97e fabc
00000090: d75d 40bc 3f02 9bbd f97b e03c b269 bcbd
000000a0: 0630 273d e406 74bc cc31 81bd 5308 773c
000000b0: 6c5b 43bd bcb3 d5bc 7cc9 1a3c 6f6d 083d
000000c0: bfd0 e9bc 8165 86b9 ab08 ddbc b963 b6ba
000000d0: 80cc 13bd 05f2 653d 2bc6 eb3c ac48 9d3c
000000e0: dc14 13bc ac2d 8abc 1cdd f6bc 86bb 3dbc
000000f0: 4129 97bc e909 8cbc ab58 b43c 7f73 bc3d
00000100: 36d2 8dbd ef8e e1bb ccd4 cb3c baa4 743d
00000110: ebd2 3f3d 2bf9 c93c a6fc cbbc 7b9f 04bd
00000120: ae27 003e 14bc 3abd 3fc4 963c 6a38 53bd
00000130: 6eb3 93bc 04e4 3fbc 97d2 8cbc f0a4 8ebc
00000140: 04a3 4cbc 259e 00bb 1b6b ab3c d8a1 7c3c
00000150: 3fcf 163d 0c75 babc d95a a43d 589e 9ebb
00000160: 4133 20b9 e095 9abc bd54 1cbb c2c0 28bc
00000170: 5081 673c b76d a53d e6e5 46bd d84f 85bc
00000180: 6296 983c 390a 1e3c 0d34 393d b4c3 623d
00000190: b971 3ebd 8209 99bc ab1c f1bc b717 473d
000001a0: 964e a63c 537d f5bc c1d7 67bd 9a03 a13c
000001b0: 0fca 9a3b 68a9 723b 85d0 4cbd 2474 23bd
000001c0: 7c9c ba3c 0420 51bd 6a85 cdbd fe14 0dbd
000001d0: 5859 1c3d f444 4c3d e9d8 123c 79fa 663d
000001e0: fc7b 563d 1c37 40ba 53df 18bb afac 8f3c
000001f0: 8764 663c 46d8 553b 0d33 13bd ee00 ddbc
00000200: beae 313c eb9a 04bd 0c64 ad3c 4c89 0d3c
00000210: 28d8 91bd 1c81 233d 4db5 90bc f7c4 d2bc
00000220: 8668 4abb 2182 523c df50 013d 62e6 2b3d
00000230: f9a4 953d fed5 db3d 505e ae3c 03f9 89bc
00000240: bf39 ad39 3e60 15bd 55e9 193d 72fb 28bd
00000250: 789c 2d3d 6f43 803d 1f42 43bd 727a c2bc
00000260: ba4b ccbc e871 d83a 8fea d0bb 36ba 22bc
00000270: 22ed 563b b34a 06bd 3ae9 bfbc 0f02 963c
00000280: e76e 743c 2786 133d 128e d4bc 4e7d 353d
00000290: 9697 06bd 4a53 873c a291 30ba 7fda a2bc
000002a0: af8b 38bc 174d 07bb 09fc 9bbc d6c0 83bc
000002b0: 0bf1 643d 03cf ad3b 005b 93bc e223 15bd
000002c0: e574 b03d 6f38 4dbd 0f1d 823d 7e1e babc
000002d0: 68cd 89bd 3090 0cbc 380f 61bd 77e8 9dbb
000002e0: 6f24 b1bc b775 debb 7e22 143d 22a2 63bd
000002f0: d0de 003d 8106 0fbc 6814 aa3d 0bf3 e63b
00000300: 97de bbbc 3cdc 3f3d 3f08 a0bc 48c1 b2bc
00000310: 4857 9a3d ae1a 883b 6892 cd3c 8378 6d3c
00000320: 1df0 3b3d adb1 2dba 3cc2 353d 1d7a d83b
00000330: 09af 773d df1c 0e3d b565 7db9 fc8a 803b
00000340: fd1f 813b 5e6f 13bd b068 4bbd dfb7 95bc
00000350: 65c7 5abd d9f2 993a 59a2 4ebd 0a7d 0f3d
00000360: 8970 143d aa29 06bc 4c49 b3ba 5752 38bd
00000370: 065d 223c 15d5 e63a af75 543c 7f81 923d
00000380: f1c4 17bd 2815 c2ba 90d1 cb3c 7cb4 84bd
00000390: 0e5e 07bb 16a5 623c 67a3 943d 22d7 63bd
000003a0: 935b acbd 621f 94bc f09e ef39 9550 ccbc
000003b0: f7f7 8abd 5114 84bd 9838 3a3d f75c bebd
000003c0: 46ba 833c 1bc7 32bd b29d 88bd 1e9f 99b9
000003d0: b5a3 d9bb 7ee6 023d 1e43 8bbd d617 213d
000003e0: 3ae7 a23c 6374 f83c e26d 08bb 34af 243c
000003f0: f79a ebbb 18df 98bc 5975 1fbd 5731 163d
0.015183333 0.003380718 0.0011603677 0.0861296 0.051796887 -0.00043601863 -0.008171972 0.0113944365
-0.0027077484 -0.025985507 -3.551977e-05 0.0924152 -0.061356544 0.009840391 0.06365166 -0.006190658
0.022995833 0.062273603 0.09231022 0.048424534 -0.016750919 0.05775629 0.024786532 0.008162789
-0.05625092 0.014787583 -0.03937663 -0.028372549 -0.029747413 0.027530203 -0.04883171 -0.033551
-0.0072985236 -0.05640031 -0.060817122 -0.030577974 -0.011741123 -0.07568788 0.027402865 -0.09199847
0.040817283 -0.014894221 -0.06308326 0.015077668 -0.04769461 -0.02608668 0.009447452 0.03330749
-0.02854192 -0.00025634098 -0.026981672 -0.0013915218 -0.0360837 0.05613901 0.028781017 0.019199692
-0.008977141 -0.016867481 -0.03013473 -0.011580354 -0.018452289 -0.01709457 0.022014936 0.09201717
-0.0692486 -0.006883494 0.024881743 0.059727408 0.046832006 0.024654945 -0.024900746 -0.032378655
0.12515137 -0.04558952 0.018404124 -0.051567473 -0.018029895 -0.011712078 -0.01719026 -0.017412633
-0.012490038 -0.0019625511 0.020925095 0.015419446 0.03681874 -0.02276089 0.0802514 -0.0048406534
-0.00015277883 -0.018870294 -0.002385422 -0.010299863 0.014129952 0.08077567 -0.048559092 -0.016273424
0.018626396 0.009645992 0.045215655 0.05536242 -0.046495173 -0.018681291 -0.029432615 0.0486066
0.020301145 -0.029966986 -0.056602243 0.019655038 0.0047237943 0.0037027244 -0.050003547 -0.039905682
0.022779696 -0.051055923 -0.10035212 -0.034443848 0.038171142 0.049870446 0.008962848 0.056391213
0.052364334 -0.00073324307 -0.002332647 0.017538397 0.0140620535 0.003263013 -0.035937358 -0.026977982
0.010844884 -0.032374304 0.02116587 0.008638691 -0.07121307 0.03991805 -0.017664576 -0.025728686
-0.0030885055 0.012848408 0.031571265 0.041967757 0.07306857 0.10734175 0.021285206 -0.01684237
0.00033040156 -0.036468737 0.03757604 -0.041255422 0.04238555 0.06262862 -0.04767048 -0.023740027
-0.024938453 0.0016513439 -0.006375618 -0.009932091 0.003279515 -0.032786082 -0.02342664 0.018311528
0.014919019 0.03601661 -0.02594665 0.044308953 -0.032859407 0.016519208 -0.0006735568 -0.019879578
-0.011263772 -0.0020645314 -0.019041078 -0.016083162 0.05589394 0.0053042187 -0.017987728 -0.036411174
0.08616046 -0.050102647 0.06353199 -0.022719618 -0.06728631 -0.008579299 -0.054946154 -0.0048189717
-0.021623818 -0.006788935 0.036165707 -0.055574544 0.03146249 -0.008729578 0.083046734 0.007048016
-0.022933288 0.04684089 -0.019535182 -0.02182068 0.07536179 0.004153571 0.025094226 0.014494064
0.045883287 -0.0006625902 0.04437469 0.006606354 0.06046966 0.034695502 -0.00024165849 0.003922818
0.003940581 -0.03599488 -0.049660385 -0.018276153 -0.053412814 0.0011745348 -0.050447796 0.035031356
0.036240134 -0.008188644 -0.001367846 -0.0450004 0.009909874 0.0017611111 0.012967511 0.07153606
-0.037053052 -0.001480733 0.0248802 -0.06479737 -0.0020655426 0.013833305 0.07257729 -0.05562509
-0.08415904 -0.01808137 0.0004570405 -0.024940768 -0.06785577 -0.064491875 0.04546413 -0.092950754
0.016080033 -0.043646913 -0.06670703 -0.00029300986 -0.00664183 0.031958096 -0.06799911 0.039329372
0.019885648 0.030328935 -0.0020817448 0.010051537 -0.007190104 -0.018661067 -0.03893027 0.036668148

conv2.bias f4 [64]
00000000: 2066 4fbd 280a b1b9 7823 513c dea0 f4bc
00000010: a3e3 6abc 3031 aabc d754 2f3c 2dba 03bd
00000020: 8960 cabb d013 0e3d 61b8 2fbd 5391 17bc
00000030: 2fdd 14bd 2855 2c3d 52ee 78bc d8ec da3b
00000040: 30a2 e7bc 5575 c1bc 7e8b c7bc 2abb 2dbc
00000050: 5fe4 40bd 615a bc3b bb64 91bc c4c2 15bc
00000060: fd6f 813a 5ca8 89bb 0838 7abc 1da6 47bd
00000070: 6748 503d 89a3 023c f227 9b3b 9d3b bd3b
00000080: 98a5 5d3d be55 a13b 3b66 5fbc ad5c 2b3d
00000090: a71e 09bd f369 b8bc e71f 0f3d 071d ed3c
000000a0: aa4b 193b 87d7 5d3d e250 1abc 2c8c aabc
000000b0: ff37 113c 2c92 2b3c 0d4d 59bd ac62 8fbc
000000c0: 706a 9cba 2412 47bd 4005 52bc 3490 fc3c
000000d0: a411 683d 6ec8 fbbc 474c 3fbc 5010 1d3a
000000e0: 6338 0fbd 711c 033d 0a1d 99bc 505b 9b3c
000000f0: 034e 66bc 0f17 963d b4f0 66bc 5de1 053d
-0.050634503 -0.00033767638 0.012764804 -0.029861864 -0.014336499 -0.020775408 0.01070138 -0.032159973
-0.0061760587 0.034686863 -0.042900447 -0.009250957 -0.03634375 0.0420734 -0.015193539 0.006681066
-0.02827558 -0.023615519 -0.024358507 -0.010603705 -0.04709279 0.0057480787 -0.017748227 -0.009140674
0.0009875294 -0.004200978 -0.015272148 -0.048742402 0.0508503 0.00797356 0.0047349865 0.0057749287
0.054113 0.0049235513 -0.0136352135 0.04183643 -0.033476498 -0.022511458 0.034942534 0.028944505
0.0023391047 0.05416062 -0.009418698 -0.020818792 0.008863448 0.010471862 -0.053051997 -0.017503105
-0.0011933576 -0.048601285 -0.0128186345 0.03083048 0.05665745 -0.03073522 -0.011675901 0.00059915055
-0.034965884 0.032009546 -0.018690605 0.01896444 -0.014056685 0.07328617 -0.014095474 0.032685626

conv3.weight f4 [32, 64, 5, 5]
00000000: 3f0a 9f38 6c2c 6ebb d4d6 9c3a 0bd4 66bb
00000010: 74d3 e239 f71d a9b9 a319 773b a93b a13b
00000020: 3dd5 9c3a dda4 c939 513a 0d3d cef9 fdb9
00000030: 8392 1b3d f212 4f3c 4e28 cf3c 345c 023d
00000040: c24c 8b3c a44d 143d 90d0 0f3d 6893 10bc
00000050: 3179 1a3b 9452 b63c 75c1 793c 5f43 803d
00000060: 4d8a 4b3c b8d7 c239 8198 62bb 85db d1bb
00000070: aaab 90bb c80e c336 2de6 663b fcf7 623b
00000080: e2a0 403b 3471 dfb9 2427 88b8 c97d 073d
00000090: d91b 803c 489b 5c3c 4e7e 1a3b 5e22 3e3d
000000a0: 405d 63bc 01ed b839 36e3 1d3d 7a95 8e3c
000000b0: dcc0 a13c 7182 073c fac9 bebb 0d92 4a3b
000000c0: f19a 213d 5336 833c a5f5 80ba 2d8a 6cba
000000d0: 7aee a6b8 389a 2fba 4d81 6ab9 d00e 60ba
000000e0: 8629 7db8 da69 42ba 364a f739 b312 9938
000000f0: 1b33 16bc 5d79 863c 4362 8e3c 115b aa3c
00000100: d0f2 02bb a979 d63a 4ee7 dfbb 1d7e b5bc
00000110: 7a6d 033c 0ba6 073d 645a 8fbc 33e8 743c
00000120: 177e 46bc 8f58 8cbc 9d69 133d f5ab 14bb
00000130: 1208 393b d6d8 f03a 5488 98ba d035 29b9
00000140: cacd 14ba 8bd8 313b 0064 07bb f793 39bb
00000150: 8c33 8f38 c582 33bc 60bd 97bb c0db ae3a
00000160: a25b cf3c 6d8b 873c 225e 39ba 2763 82bb
00000170: 0ba9 e73c bd82 723c 2bc4 d3bb 5841 a8bb
00000180: 1907 20bc 7efc 0dbd 5fc3 3b3c 746d b3bc
00000190: 08da e039 3c59 483b 9408 a43a 93c8 343b
000001a0: 7e67 9038 5102 803b c86b 8fbb 5fdd 3e3b
000001b0: d9e7 123a 28aa b438 15fa 033d f1b1 743b
000001c0: 8cac ac3c 87e6 093c a726 7d3a c172 5d3c
000001d0: 76df 23bd 220e b93c 1c71 973b 8514 1dbc
000001e0: 789d e1bb 024a bdbb eb41 063c a010 083d
000001f0: 06e0 b53c 066f b8b9 7c66 c4ba caa9 71b9
00000200: 2aeb c2b9 50dc 1639 fe3d c7bb 1ebb 0abb
00000210: f9a6 8339 83b0 1eb9 ba49 16b9 9c78 0bba
00000220: 26e9 b53c cbfb a2bc adea 3b3d 0a9c 9d3b
00000230: d92b 47bc 6214 e13c 06ee 9bbc d932 3d3b
00000240: a9bd 643c 611b b3ba 8424 2fbb 3798 bf3b
00000250: b0f6 013d f3fb 183d a985 25bb fee4 873b
00000260: ab43 6f3b ba32 813b 181a 7eba da63 e53b
00000270: f0b2 233c b61f 66b9 b16c 003b c99e 1ab9
00000280: aa5f 4d3d b542 13bb 1e1e 713c 1e31 063d
00000290: f74c 273d 3774 663a e238 453d 9444 f33c
000002a0: 0e6c 943a 7365 aabc 3b8c 573b bd49 aa3c
000002b0: b13d d0bc d45c 71bb 0145 0fbd 7b1d 7b3a
000002c0: 9254 e03a 2b7c 133b 2a51 6c3b d6e9 2d38
000002d0: b30c 5a3a 1878 4d3b 47e8 8c3b d37b 2a3b
000002e0: 08d1 a5b9 661e a13c 8d2f a539 2425 233c
000002f0: 47b9 683c 6ada e8bb 23d6 053d 279d 343b
00000300: bb43 8b3c ce45 813c ddbd 2dbc c356 1fbc
00000310: 56bb 853c 913b a43c 1163 fb3b 2c06 04bd
00000320: 5afb beb9 63ce 5eb8 e673 6bb9 7eaf 953a
00000330: 02a6 7ab8 7fea abba 16f0 783a e7d7 2a3a
00000340: 4a09 da3a 7876 13b9 7151 4dbb 9848 ca3c
00000350: 80b6 c53b 82bc 363c 1a8b 5f3c 9a7f 363b
00000360: b074 223d e625 7b3c 5d82 563c d4f9 423b
00000370: 1a6d e43b 8e93 01bc e199 e23c 69ca 79bc
00000380: 981f 943c ffd4 703b 3c9e 323b e340 e93b
00000390: 409c 033b 13ca adb9 6431 863b 823e e53b
000003a0: eac1 8cbb 6f7d a03b 509d feb7 8e67 243d
000003b0: e2a4 09bc da21 1d3d 28fc 8a3c 48cd f83b
000003c0: cc21 8b3c 125c bdbb 4593 7d3b 3007 aa3c
000003d0: 5f2b 90ba 213d 2f3c b357 abbb 97c5 393c
000003e0: c452 8bbc 52ac 8f3c f2fa b239 d01b 7439
000003f0: 3053 acb9 e33d ebba 1593 013a 8e95 0939
7.583619e-05 -0.0036342395 0.0011965879 -0.0035221602 0.00043263624 -0.00032256517 0.003770449 0.004920442
0.0011965405 0.0003846054 0.034479443 -0.0004844204 0.03798152 0.012638794 0.025287773 0.031826213
0.017004374 0.036206856 0.03511101 -0.008824207 0.002357077 0.022256173 0.015243878 0.0626285
0.01242311 0.00037163286 -0.0034575763 -0.0064043426 -0.004414995 5.8131736e-06 0.003523241 0.0034632673
0.0029392769 -0.00042618217 -6.492276e-05 0.033078942 0.015638279 0.013464756 0.0023573819 0.046419494
-0.013877213 0.00035271797 0.038546763 0.01740526 0.019745283 0.008270846 -0.0058224173 0.0030909807
0.039454404 0.016017115 -0.0009838833 -0.00090232753 -7.9599165e-05 -0.00066987006 -0.00022364147 -0.0008547129
-6.0358572e-05 -0.0007416286 0.00047166803 7.2990915e-05 -0.009167458 0.016415292 0.01738084 0.020795377
-0.0019981153 0.0016363162 -0.0068329936 -0.022154862 0.008021707 0.033117335 -0.017499156 0.014947939
-0.012115023 -0.017132072 0.035989393 -0.0022685502 0.002823357 0.0018375169 -0.0011637309 -0.00016137143
-0.0005676417 0.0027137126 -0.002065897 -0.0028316954 6.828373e-05 -0.010956471 -0.0046307296 0.0013340637
0.025312249 0.016545976 -0.0007071217 -0.003979105 0.028278848 0.014801678 -0.006462594 -0.0051347427
-0.009767317 -0.034664623 0.011460154 -0.021902777 0.00042887055 0.0030570766 0.0012514764 0.0027585372
6.885732e-05 0.003906526 -0.004376862 0.0029123647 0.0005604006 8.614763e-05 0.03222092 0.0037337507
0.02107837 0.008416778 0.0009656944 0.013516129 -0.04000803 0.022589747 0.004621638 -0.009587412
-0.006885227 -0.0057766447 0.008194427 0.03321898 0.02220155 -0.00035177934 -0.0014984156 -0.00023046802
-0.00037177774 0.00014387188 -0.006080388 -0.002116866 0.0002511067 -0.0001513381 -0.0001433258 -0.00053204014
0.0222059 -0.019895455 0.0458781 0.004809861 -0.01215645 0.02747554 -0.019034397 0.002886942
0.013961234 -0.0013664776 -0.0026724646 0.005847003 0.0317294 0.037349652 -0.002525667 0.004147171
0.003650884 0.0039428147 -0.00096932193 0.0070004286 0.0099913925 -0.00021946323 0.0019596035 -0.00014745737
0.05014006 -0.002247018 0.014716653 0.032761686 0.040844884 0.0008791121 0.04814995 0.029695787
0.0011323707 -0.020800328 0.003288998 0.020787114 -0.025420042 -0.0036829012 -0.034977917 0.0009579283
0.0017115048 0.002250443 0.003605912 4.146419e-05 0.00083179324 0.00313521 0.0043001506 0.0026013746
-0.00031626993 0.019667815 0.0003150668 0.0099575855 0.01420433 -0.007106115 0.03267492 0.002755949
0.01700007 0.015780356 -0.010604349 -0.009725275 0.01632468 0.020047935 0.0076717217 -0.03223245
-0.00036426896 -5.3121137e-05 -0.00022454522 0.0011420099 -5.975925e-05 -0.001311615 0.0009496225 0.00065171573
0.0016634848 -0.00014063145 -0.003132906 0.024692819 0.0060337186 0.011153342 0.013644004 0.0027847053
0.039662063 0.01532886 0.0130926045 0.002975096 0.0069710137 -0.007908715 0.027661266 -0.015246012
0.018081471 0.003674805 0.002725496 0.007118331 0.0020082146 -0.00033147688 0.0040952433 0.006995977
-0.0042955773 0.0048977653 -3.0352414e-05 0.04013782 -0.0084011275 0.03836236 0.01696594 0.007592831
0.016983889 -0.005778798 0.0038692516 0.02075538 -0.0010999254 0.010695727 -0.0052289604 0.011338613
-0.01700724 0.017538223 0.00034137774 0.00023280014 -0.00032868376 -0.0017947521 0.00049428764 0.00013121052

conv3.bias f4 [32]
00000000: 68fb 63bc 85be 0d3c 9606 f5bc ff5c 9e3b
00000010: f07f a1b9 a416 043b 44c3 65bb 6279 653b
00000020: 8439 0fbd a714 933c 517e fdbb 8312 2e3d
00000030: 959d 703b 0199 acbc 1320 df3c fd2b 2abd
00000040: 30df 453d aaa3 6f3c 0ca0 8dbc 798f 9c3c
00000050: 494b a83b b07d 12bc 5f31 0ebb d6be 0a3d
00000060: 44d6 a7ba f2df 723c d59d 023c 1c11 6b3d
00000070: 8dc1 c9bc 30db 943c c2e1 de3b e6a3 573d
-0.01391492 0.00865138 -0.029910367 0.0048328633 -0.00030803634 0.0020155096 -0.0035059014 0.0035014977
-0.03496696 0.017954184 -0.0077360054 0.042498123 0.003671502 -0.021069052 0.027236974 -0.041545857
0.04830855 0.014626423 -0.01728823 0.019111382 0.005135928 -0.008941099 -0.0021696908 0.0338734
-0.0012804945 0.014823901 0.0079722 0.057389364 -0.024628425 0.018170923 0.006801815 0.05264654

fc_1.weight f4 [8, 32]
00000000: 9b25 823d 27e7 883e 6af2 73be 7e50 c53e
00000010: 4e85 e2bd b702 15bb b814 9c3b 8776 393e
00000020: 7916 bc3c ec22 20bd d444 5fbd 9b56 003e
00000030: e00a 3abd c839 08be 6007 42bd 04f9 99be
00000040: 0795 f73c ad84 793e 7b21 14bd 495f f13d
00000050: 15e2 a43d 2c36 293e 623c 693b 75ee bd3e
00000060: 2810 1cbc 77dd 01be 9864 7e3d b343 db3c
00000070: bda6 c1be 22eb 0b3c e6f3 f23e 3c32 8ebd
00000080: b81e fa3d 4ef2 8c3d 608d aebd 2544 30be
00000090: a0a3 abbd 84fe 383e 667b 7e3b cd56 e93b
000000a0: 6055 57be 39bb d93d 28d8 663b 35d5 1e3d
000000b0: eb60 543d 5314 8b3b eac0 84bd 097c 22be
000000c0: 79aa b13e 9d05 cabd 471f 8cbe 7dad d23e
000000d0: 0c6f 78bd 1665 1dbe 810f 543c 2060 c63c
000000e0: 874d 483d b161 e9bb b2a1 5b3b 0a14 113e
000000f0: a7ef 753d 780e 5cbd 6024 64bd 4947 793e
00000100: 04d2 503d 83ab c33d 9894 223d 340a 423e
00000110: c6be 50bc 21ff 923e 087b 693a 20f8 19bb
00000120: 0aea 943e 8af2 18bd 3527 14be 478d 62bd
00000130: f5ce 86be 96a9 e83d 5415 23bf c09a c93c
00000140: acba e8bd 3a74 3a3e a747 6abe 3728 563d
00000150: 7d27 f1bb b657 d73d fc5e b6bd 36a1 533d
00000160: 66f4 30bd 390f 9bbe 9342 08bb 98bd 84be
00000170: b4a3 d2b9 3b1b 67bd 29fa 923e abe3 8fbe
00000180: 358c 213e 230e cbbd 317f 03bd 7080 443e
00000190: 8eb9 cd3d 9c65 9cbd 07a3 d33d dadc 0b39
000001a0: 4f5f 8fbd 3643 5abe 24c5 3f39 5c80 62be
000001b0: 2f31 f83d a946 cdbc c6f1 a63e ca98 043d
000001c0: 9710 35bd 88fe 47be b3ae 573e 5e84 6ebe
000001d0: 7ad0 783a 0762 f6bd f382 4d3c b06f 9ebd
000001e0: 0916 4e3e c908 13be fcb9 d7b9 14e1 a6be
000001f0: ae3b 18bc dfa5 3fbe ee10 c1be 83be 813c
00000200: f682 3d3e b847 253d 2121 2d3e 1aea 27bd
00000210: c251 7bbe 96f1 9cbb aa79 9b3a 0b0c 62bd
00000220: 691b abbd 1fa9 c4be 9306 33be 7011 7bbe
00000230: caf7 533e 42e2 90bc 4694 5e3e 736a d63d
00000240: 1747 56be ea8f b4bd b8de 51bc 2278 19bd
00000250: 8507 e7bb 1fa3 8a3d a67f 37b9 0ecb 753e
00000260: d2da b33d de0a 2abe 8ec7 1dbe 5ef4 47be
00000270: 97b3 14be ad30 c2be 4eb7 903d 36bd cabe
00000280: 2a1f d83d d1ec 36be d9e2 cd3e af08 a73d
00000290: d54c 933d 4da2 94be e810 a4bd 3ae6 0bba
000002a0: 9e33 1cbb a6ee f93d 3d7e d43e 61fa 893c
000002b0: 91e7 14bd a485 f1bc eb98 0ebe 1a3b 133e
000002c0: 63bf 29be 665e a43d 315f 08be c5ee a5be
000002d0: 6b04 a23a 5573 18bc 9603 a73d 84e4 88bd
000002e0: 960d 233e 98ac b73d 93c0 46bd 407f 99bd
000002f0: ad70 f4bd 827e f53d 8e81 263e 3555 28be
00000300: a2d4 62bd 4411 b0be b6c6 04bd bad3 bcbc
00000310: c41f 97bd 9e4e 643e 2096 ccb6 c848 1eb9
00000320: 6109 de3d 2fe1 23be a04d babc f1af 29be
00000330: c311 68be 0d4b 833e f851 ce3d 4911 7dbe
00000340: bb00 133c 5b11 ba3e 48f5 74bd 8e2e aabe
00000350: 58a6 c73a 29e6 33be ec88 a0ba 7783 943e
00000360: 8032 b2b9 6022 23bd 8c7c 93b9 f0c0 15bd
00000370: 63eb a9bc bb14 b53d ccbd 31be a1d3 95bd
00000380: 309b dcbd c735 e6bd 9608 de3d 8b73 e33e
00000390: c3cf a93e 0d30 afbe a853 a938 aa30 c53a
000003a0: 05b7 d2bd 8418 9b3e 40c4 cdbc 8a83 673b
000003b0: c76f 80bd 67b3 90be a1a4 af3d 1713 853d
000003c0: c42f bb3e 03c4 053d fd06 59be 58dd 84be
000003d0: 637a 97bb 397f b5be f834 43bc 0013 ab3d
000003e0: 1ce5 083e 2db0 3a3e 8770 e3bd 15b0 fd3d
000003f0: 2396 26be 823d 093e f472 853d dd40 9b3d
0.06354829 0.26738855 -0.23822942 0.38537973 -0.11060582 -0.0022737214 0.004763212 0.18111621
0.022959935 -0.039095804 -0.054509 0.12533037 -0.045420527 -0.13303292 -0.047370315 -0.30072796
0.030222429 0.24367018 -0.036164742 0.11785752 0.08050934 0.16524571 0.003558897 0.3709599
-0.009525336 -0.12682138 0.062107652 0.02676568 -0.37822524 0.008539947 0.47451705 -0.06943175
0.122128904 0.068821535 -0.08523059 -0.17213495 -0.08380818 0.1806584 0.0038830875 0.007120943
-0.21028662 0.10631413 0.0035224054 0.03877755 0.05185024 0.004244366 -0.06482108 -0.15867628
0.34700373 -0.09864352 -0.27367613 0.41147986 -0.060652778 -0.15370592 0.01294315 0.024215758
0.04890206 -0.0071222414 0.0033513126 0.141678 0.060043003 -0.053724736 -0.055698752 0.243436
0.050981537 0.09554198 0.03969249 0.18949205 -0.012740796 0.28710273 0.0008906578 -0.0023493841
0.29084808 -0.03734068 -0.14468081 -0.055310514 -0.2632977 0.11360471 -0.6370442 0.024609923
-0.1136373 0.182084 -0.22878896 0.052284446 -0.0073594437 0.105147764 -0.089048356 0.051667415
-0.043201827 -0.3028505 -0.0020791634 -0.259259 -0.0004017629 -0.056422453 0.28706482 -0.28103384
0.15776141 -0.09914806 -0.03210372 0.1918962 0.100451574 -0.07636568 0.103338294 0.00013338347
-0.070006005 -0.21314701 0.0001828862 -0.22119278 0.12118756 -0.025058107 0.32606333 0.032372274
-0.044205274 -0.1953069 0.21062736 -0.23292682 0.00094915146 -0.12030416 0.012543428 -0.077361465
0.20125593 -0.1435882 -0.00041146565 -0.32593596 -0.0092915725 -0.18715619 -0.3770823 0.015837913
0.18506989 0.0403516 0.16907169 -0.04099474 -0.24542907 -0.0047895415 0.001186182 -0.055187266
-0.083548374 -0.3841028 -0.17482977 -0.2451837 0.20699993 -0.017686013 0.2173625 0.10469522
-0.20925556 -0.08816512 -0.012809448 -0.037468083 -0.007050457 0.06769394 -0.00017499793 0.2400324
0.08781971 -0.16605708 -0.15408155 -0.19526812 -0.14521633 -0.37927762 0.070662126 -0.3959748
0.10552819 -0.17863776 0.40212134 0.08155953 0.07192389 -0.29030076 -0.08011037 -0.00053367356
-0.0023834477 0.12203722 0.41502562 0.016843023 -0.03635365 -0.02948267 -0.13925521 0.14378014
-0.16576914 0.080258176 -0.13317563 -0.3240873 0.0012360936 -0.009304841 0.08154981 -0.06684211
0.15923151 0.089684665 -0.048523497 -0.07494974 -0.11935554 0.1198702 0.16260359 -0.16438754
-0.055378564 -0.34388173 -0.032416068 -0.023050178 -0.07379106 0.22295615 -6.0971506e-06 -0.00015095167
0.10841633 -0.1600387 -0.022742093 -0.16571023 -0.22663026 0.25643197 0.10074228 -0.24713625
0.008972342 0.36341366 -0.05980423 -0.33238643 0.0015232069 -0.17568268 -0.0012247837 0.2900655
-0.0003398843 -0.039827704 -0.0002813082 -0.036560953 -0.020742124 0.08841845 -0.17357558 -0.07315756
-0.10771787 -0.11240726 0.108414814 0.4442409 0.33166322 -0.34216347 8.07413e-05 0.001504441
-0.102888145 0.3029214 -0.025117993 0.0035326206 -0.0627132 -0.28261873 0.08576322 0.06497782
0.3655988 0.032657634 -0.21194072 -0.25950122 -0.004622744 -0.35448626 -0.011914484 0.08353233
0.13368648 0.18231268 -0.11105447 0.123871006 -0.1626821 0.1340237 0.06516066 0.07580731

fc_1.bias f4 [8]
00000000: fd00 053d 497e e33c bf3f 30bd 570c b2bc
00000010: 8aff c2bc 3998 85bc 42f5 e33b 7c60 d03b
0.032471646 0.027770178 -0.043029543 -0.0217344 -0.023803491 -0.016307937 0.0069567272 0.006359158
