checkpoints/target2/epoch=7.checkpoint.pth.tar (torch, 319476 bytes, 8 tensors)

conv1.weight f4 [16, 3, 5, 5]
0.20355417 0.16353035 0.07598142 -0.23711357 0.061877105 -0.12512513 -0.0070170956 -0.20616414
-0.11889968 0.15838765 -0.035604335 -0.13071214 -0.11671686 -0.10475333 -0.09334555 0.099095374
0.19756988 -0.027637657 -0.08383938 0.019102676 -0.059956618 0.13492225 0.0846077 0.1557775
0.11371664 0.13692676 0.07385471 0.12084849 -0.056349326 -0.004683944 -0.027521426 0.0818726
-0.18150741 -0.13438317 -0.029348733 0.1776345 0.041302606 -0.08129004 -0.017022813 -0.092202194
-0.14157173 0.12777011 -0.09893132 -0.091775924 -0.14795111 0.23379111 -0.103598796 -0.04570208
-0.10280242 -0.074680276 0.01061175 0.061913766 -0.06362707 0.08691051 -0.09527165 -0.07865427
-0.14805551 -0.039605472 -0.053768296 0.0540532 -0.008528493 0.19444464 -0.1553067 0.09452066
0.12800965 0.10288024 0.24788965 0.03975917 0.0063134264 -0.039485537 -0.093972206 0.14866497
-0.018979967 0.041411463 -0.0052986303 0.021406408 0.041637372 -0.08217922 -0.2430478 -0.09133699
-0.027533758 -0.05617064 -0.15993099 -0.08445324 0.033472326 0.02837216 0.08684353 -0.032208726
0.03820732 -0.06964763 -0.13015617 0.029927617 -0.21025802 -0.11724021 0.11124514 0.016893232
-0.28157526 0.017223291 0.0491741 -0.019086977 0.07603707 0.07497065 0.12145037 -0.03849231
-0.0097642485 0.08170079 0.05288491 0.02476776 0.032494504 0.13507251 0.0037325372 -0.026673146
-0.15188327 -0.013694041 -0.0529094 0.049304735 0.07259951 0.00014908097 -0.043643106 0.05981595
-0.005377634 0.02356816 0.014134569 0.078443125 0.11631631 0.06129597 0.10243775 0.06795854
0.21301901 0.11945495 -0.1235977 -0.086738855 0.0074586016 0.1825706 0.08315253 0.07606824
0.13296942 0.00974417 -0.16983607 0.11156922 -0.024728423 0.11398587 -0.0677325 0.068118595
-0.08367215 0.100039706 0.16818208 0.15038937 0.030449066 -0.013200508 -0.028380238 0.04246047
0.02700076 0.08582918 -0.038754802 0.17378177 -0.25812718 -0.05902572 -0.13425487 0.08161238
-0.21965085 -0.00019248672 -0.012161917 -0.037053492 0.042910554 -0.09083532 0.0034990704 -0.10997734
-0.1476518 0.17432219 0.13587363 -9.1354086e-05 -0.14713764 0.10518318 0.12556352 0.25325027
0.03764108 0.0070758127 -0.09401779 -0.018984534 -0.074626096 -0.16171338 -0.12808712 -0.06539466
-0.055187747 -0.17182256 -0.21575928 0.0026652687 0.10094481 -0.040553596 0.061533757 0.060656827
0.17569782 -0.086108446 0.12955701 -0.019741084 -0.12031218 0.03742285 0.068351164 0.17495576
0.09257353 0.23503001 -0.05817029 -0.10518332 0.023102596 0.11961372 0.12225731 0.028207084
-0.09672097 -0.10492549 -0.06772071 -0.08102722 0.0030622212 0.038613982 -0.005186138 -0.24333881
-0.05423821 0.09691658 -0.18374787 0.16889934 0.043946713 -0.0591201 0.0904068 0.1721765
0.015426585 0.18113863 0.029410578 -0.10930743 -0.082894094 -0.032665636 0.05380799 0.22284237
-0.0033945157 -0.1215035 -0.25090012 -0.10513715 0.01827335 0.011907984 -0.0029944738 -0.0075419177
-0.09464885 0.039234683 -0.042378023 0.039486118 -0.13010703 -0.0028288497 -0.020878395 0.15519673
0.115019046 -0.11568566 0.095085114 0.06311805 0.050273817 0.03260779 0.012427383 0.032940872
00000000: 8170 503e 8074 273e 269c 9b3d e6cd 72be
00000010: d972 7d3d cd20 00be aaef e5bb b11c 53be
00000020: ad81 f3bd 5f30 223e dad5 11bd 67d9 05be
00000030: 4009 efbd ea88 d6bd f42b bfbd 84f2 ca3d
00000040: c24f 4a3e 5e68 e2bc fbb3 abbd 377d 9c3c
00000050: 1295 75bd 0f29 0a3e cd46 ad3d 2384 1f3e
00000060: 45e4 e83d 8736 0c3e 2341 973d 6a7f f73d
00000070: 8dce 66bd c57b 99bb 9d74 e1bc d2ac a73d
00000080: 14dd 39be be9b 09be c16c f0bc d2e5 353e
00000090: ec2c 293d 647b a6bd 6d73 8bbc 81d4 bcbd
000000a0: 2ef8 10be 2bd6 023e 819c cabd 04f5 bbbd
000000b0: 7f80 17be f066 6f3e 9b2b d4bd 1b32 3bbd
000000c0: 138a d2bd f9f1 98bd e8dc 2d3c 4a99 7d3d
000000d0: e94e 82bd 23fe b13d c81d c3bd 7d15 a1bd
000000e0: dd9b 17be 5939 22bd 253c 5cbd e366 5d3d
000000f0: 18bb 0bbc 7f1c 473e b808 1fbe 0c94 c13d
00000100: f614 033e e0b2 d23d c9d6 7d3e 83da 223d
00000110: dce0 ce3b 96bb 21bd 8074 c0bd a13b 183e
00000120: e07b 9bbc 119f 293d 22a0 adbb 7e5c af3c
00000130: f38b 2a3d 944d a8bd 86e1 78be e30e bbbd
00000140: 7a8e e1bc 2f13 66bd f3c4 23be d2f5 acbd
00000150: 471a 093d bb6c e83c 05db b13d 4ced 03bd
00000160: 477f 1c3d 6ba3 8ebd a947 05be c32a f53c
00000170: e14d 57be a31b f0bd 7ed4 e33d ad63 8a3c
00000180: a22a 90be dc17 8d3c c86a 493d 4b5c 9cbc
00000190: 53b9 9b3d 368a 993d f9ba f83d 1daa 1dbd
000001a0: 3afa 1fbc be52 a73d d99d 583d c2e5 ca3c
000001b0: f518 053d 7350 0a3e 959d 743b a481 dabc
000001c0: 4a87 1bbe f95c 60bc 87b7 58bd c3f3 493d
000001d0: 0daf 943d 9e52 1c39 1dc3 32bd 9201 753d
000001e0: dd36 b0bb 0412 c13c ae94 673c caa6 a03d
000001f0: 3f37 ee3d 7c11 7b3d e2ca d13d d92d 8b3d
00000200: a821 5a3e cca4 f43d ca20 fdbd 24a4 b1bd
00000210: 4967 f43b caf3 3a3e e04b aa3d aac9 9b3d
00000220: 2329 083e 03a6 1f3c 82e9 2dbe 677e e43d
00000230: 4393 cabc 6c71 e93d 56b7 8abd c381 8b3d
00000240: 4e5c abbd 9ee1 cc3d ec37 2c3e acff 193e
00000250: 5270 f93c f246 58bc ac7d e8bc 08eb 2d3d
00000260: b330 dd3c 36c7 af3d 5bbd 1ebd d9f3 313e
00000270: 3f29 84be f4c4 71bd 1c7a 09be 6424 a73d
00000280: 27ec 60be 43d6 49b9 c742 47bc 67c5 17bd
00000290: fac2 2f3d de07 babd a950 653b cd3b e1bd
000002a0: 0932 17be 8481 323e 7522 0b3e 5a95 bfb8
000002b0: 40ab 16be 476a d73d b993 003e 05aa 813e
000002c0: 882d 1a3d 38dc e73b 668c c0bd 7485 9bbc
000002d0: 91d5 98bd 3198 25be 4529 03be a3ed 85bd
000002e0: 8c0c 62bd 41f2 2fbe 00f0 5cbe caab 2e3b
000002f0: 27bc ce3d 871b 26bd d20a 7c3d 4b73 783d
00000300: 21ea 333e a059 b0bd 98aa 043e 0eb8 a1bc
00000310: 3b66 f6bd b448 193d b2fb 8b3d 9a27 333e
00000320: 3197 bd3d b5ab 703e f843 6ebd 5a6a d7bd
00000330: a841 bd3c 0af8 f43d 0a62 fa3d 8b12 e73c
00000340: a515 c6bd 2de3 d6bd 28b1 8abd 99f1 a5bd
00000350: 8caf 483b b229 1e3d 7bf0 a9bb cf2d 79be
00000360: e328 5ebd 337c c63d 6728 3cbe f3f3 2c3e
00000370: 7801 343d eb27 72bd 3327 b93d 094f 303e
00000380: cabf 7c3c 687c 393e 74ee f03c 93dc dfbd
00000390: 61c4 a9bd 67cc 05bd c465 5c3d ca30 643e
000003a0: 8676 5ebb d4d6 f8bd fb75 80be 2552 d7bd
000003b0: feb1 953c b419 433c ef3e 44bb 3122 f7bb
000003c0: 42d7 c1bd 8cb4 203d 9494 2dbd 32bc 213d
000003d0: c73a 05be 3964 39bb 2b09 abbc e4eb 1e3e
000003e0: 1b8f eb3d 9aec ecbd fcbb c23d 0944 813d
000003f0: ebeb 4d3d bf8f 053d 399c 4b3c 02ed 063d

conv1.bias f4 [16]
-0.062211383 0.028908037 -0.048702423 -0.037202124 -0.043317214 -0.05967843 0.010335191 -0.022310635
-0.028789835 0.0500087 0.01337857 0.027008574 -0.0055147605 -0.008623459 -0.0445256 0.008199804
00000000: 5dd1 7ebd 8cd0 ec3c 317c 47bd 4161 18bd
00000010: 646d 31bd 5f71 74bd ef54 293c cbc4 b6bc
00000020: a9d8 ebbc ecd5 4c3d ca31 5b3c 1641 dd3c
00000030: 2ab5 b4bb 6949 0dbc 7a60 36bd 7958 063c

conv2.weight f4 [64, 16, 5, 5]
0.01585269 0.0038821243 0.003565367 0.08359979 0.052352175 -0.001430871 -0.0076871645 0.011690683
-0.003786959 -0.025642546 -0.001181126 0.09296294 -0.05806564 0.010542152 0.06230382 -0.006878752
0.026020365 0.061350703 0.0909225 0.04670988 -0.015889768 0.05869384 0.024392173 0.0072901538
-0.053933598 0.015257551 -0.037697036 -0.027643476 -0.02965268 0.027216766 -0.046080805 -0.030945526
-0.006880514 -0.054447506 -0.058043197 -0.025158737 -0.007526649 -0.06956544 0.026614951 -0.085979715
0.04410705 -0.010569703 -0.06025535 0.013767612 -0.0447123 -0.020492166 0.009923949 0.03173774
-0.02869971 0.00020934199 -0.025456393 -0.0010331388 -0.033911392 0.056816265 0.026783783 0.019555546
-0.010014898 -0.017367426 -0.0289663 -0.011787569 -0.014764883 -0.016480247 0.022781407 0.09016273
-0.06429835 -0.0066828313 0.025611067 0.05960482 0.04425858 0.024190638 -0.02250678 -0.03232173
0.12243742 -0.0439381 0.019199453 -0.050732948 -0.017011484 -0.0111327935 -0.019744223 -0.01677639
-0.013230067 -0.0011905528 0.021861847 0.0147621045 0.036253963 -0.022993201 0.08133393 -0.0028990796
-0.00045582454 -0.017728666 -0.00091523957 -0.0071402676 0.013501005 0.07868649 -0.048075985 -0.014919009
0.020536732 0.009011652 0.044292048 0.052445237 -0.044310518 -0.01637772 -0.026764939 0.04963867
0.02016345 -0.027375361 -0.052847482 0.019600712 0.004871018 0.003818086 -0.04357582 -0.036630787
0.02255661 -0.048724487 -0.09571066 -0.030673154 0.036222618 0.04929285 0.008562864 0.055235796
0.055848826 -2.400362e-05 -0.0035099224 0.015799092 0.013844039 0.004403471 -0.035334077 -0.025148068
0.008874995 -0.030898802 0.019825375 0.009387191 -0.06896538 0.03910582 -0.017463803 -0.026646946
2.024389e-05 0.012590014 0.033739045 0.04110474 0.07253014 0.10902178 0.020170521 -0.01495171
-0.00010074701 -0.035896372 0.03982956 -0.040469717 0.039196495 0.059933443 -0.04674144 -0.02402048
-0.024838509 0.002514671 -0.005451564 -0.010276722 0.00201714 -0.032644533 -0.022973731 0.018249022
0.013719372 0.034471944 -0.026020283 0.04282552 -0.031524163 0.015389293 -0.00027547718 -0.01926096
-0.011372189 -0.0011859948 -0.02002002 -0.015602272 0.0570365 0.0072287787 -0.017250227 -0.035798546
0.08631976 -0.047090486 0.06104791 -0.02200681 -0.06687254 -0.006440679 -0.049455732 -0.004546757
-0.02118024 -0.007056614 0.0381457 -0.045346454 0.032660317 -0.0074179913 0.082923375 0.010566058
-0.020420408 0.04780627 -0.017709015 -0.019781591 0.076613404 0.0067050345 0.02599034 0.01856603
0.0477803 0.000971301 0.04485118 0.007806652 0.060947362 0.036517706 0.0001747662 0.0036577787
0.0046998383 -0.034529436 -0.047432583 -0.017402254 -0.052472647 0.0019346287 -0.048093494 0.03599159
0.03604178 -0.0073444215 -0.00081333984 -0.042919572 0.010696622 0.001122876 0.012407339 0.07079426
-0.035421122 -0.00031253937 0.02542521 -0.06369314 8.0645754e-05 0.014721333 0.07412461 -0.053486485
-0.08244654 -0.016772028 0.0006715537 -0.021043133 -0.063306786 -0.06178568 0.046407003 -0.0913532
0.019074848 -0.04168188 -0.06444916 0.00014766351 -0.0065012546 0.03511557 -0.065956 0.038891945
0.020115824 0.030069064 -0.0030293106 0.009115014 -0.0074503496 -0.020009754 -0.03946328 0.034417827
00000000: 80dd 813c 3d6b 7e3b efa8 693b 5e36 ab3d
00000010: 3c6f 563d 108c bbba 9ce4 fbbb 478a 3f3c
00000020: a12e 78bb 5110 d2bc 03d0 9aba 5b63 be3d
00000030: 3dd6 6dbd feb8 2c3c 4a32 7f3d 2767 e1bb
00000040: a928 d53c e04a 7b3d 9335 ba3d dc52 3f3d
00000050: 422b 82bc f468 703d 18d2 c73c 3ee2 ee3b
00000060: 7ae9 5cbd cffa 793c 3568 1abd 9274 e2bc
00000070: 2dea f2bc b2f5 de3c 3abf 3cbd 7981 fdbc
00000080: ef75 e1bb 5904 5fbd b4be 6dbd b219 cebc
00000090: 1ca2 f6bb 5378 8ebd 9907 da3c 2216 b0bd
000000a0: 98a9 343d 8c2c 2dbc 50ce 76bd 8d91 613c
000000b0: 3f24 37bd 30df a7bc 0f98 223c 6fff 013d
000000c0: a71b ebbc d082 5b39 ed89 d0bc 636a 87ba
000000d0: ace6 0abd 2cb8 683d aa69 db3c f432 a03c
000000e0: 8715 24bc 2246 8ebc bc4a edbc a620 41bc
000000f0: 68e8 71bc 9501 87bc 13a0 ba3c 3da7 b83d
00000100: daae 83bd a7fb dabb 4dce d13c 2f24 743d
00000110: 7c48 353d 722b c63c 2460 b8bc ca63 04bd
00000120: 78c0 fa3d 70f8 33bd 2c48 9d3c 5acd 4fbd
00000130: ab5b 8bbc 5266 36bc a3be a1bc a46e 89bc
00000140: ecc2 58bc 530c 9cba 9e17 b33c c1dc 713c
00000150: 097f 143d 3d5c bcbc 6792 a63d 7cfe 3dbb
00000160: bcfb eeb9 b53b 91bc b0ec 6fba e8f8 e9bb
00000170: 5233 5d3c 6226 a13d 53eb 44bd dc6e 74bc
00000180: a63c a83c 9ca5 133c 946b 353d d1d0 563d
00000190: f27e 35bd 912a 86bc 2542 dbbc eb51 4b3d
000001a0: d22d a53c 4b42 e0bc 9a76 58bd ac91 a03c
000001b0: 109d 9f3b db38 7a3b 8f7c 32bd 2a0a 16bd
000001c0: a4c8 b83c 5493 47bd f303 c4bd 4446 fbbc
000001d0: 2b5e 143d 4de7 493d 414b 0c3c ee3e 623d
000001e0: bdc1 643d 625b c9b7 ba06 66bb 196d 813c
000001f0: 1cd2 623c fe4a 903b 77ba 10bd 5203 cebc
00000200: 6d68 113c 7c1f fdbc d368 a23c bccc 193c
00000210: b93d 8dbd 6d2d 203d 4010 8fbc b24a dabc
00000220: 6cd1 a937 5946 4e3c f431 0a3d 725d 283d
00000230: af8a 943d d046 df3d a63c a53c 04f8 74bc
00000240: 2448 d3b8 1308 13bd 5224 233d 93c3 25bd
00000250: 818c 203d c57c 753d f473 3fbd 99c6 c4bc
00000260: 217a cbbc 2ecd 243b 09a3 b2bb b25f 28bc
00000270: fe31 043b 46b6 05bd 6833 bcbc f97e 953c
00000280: 38c7 603c 7432 0d3d 7d28 d5bc d069 2f3d
00000290: 7b1f 01bd 6023 7c3c ec6d 90b9 29c9 9dbc
000002a0: 6b52 3abc 6273 9bba 0601 a4bc aca0 7fbc
000002b0: 1b9f 693d 64df ec3b 5950 8dbc 7fa1 12bd
000002c0: 6ac8 b03d f4e1 40bd 600d 7a3d a047 b4bc
000002d0: 78f4 88bd 550c d3bb 1892 4abd f6fc 94bb
000002e0: 2f82 adbc 2b3b e7bb aa3e 1c3d 34bd 39bd
000002f0: d3c6 053d 9f12 f3bb bbd3 a93d 421d 2d3c
00000300: b348 a7bc 82d0 433d 7f12 91bc 010d a2bc
00000310: 7de7 9c3d e8b5 db3b b2e9 d43c c917 983c
00000320: 47b5 433d e89e 7e3a dfb5 373d f2ce ff3b
00000330: f1a3 793d 9793 153d 7241 3739 58b7 6f3b
00000340: 1a01 9a3b bd6e 0dbd ab48 42bd 2c8f 8ebc
00000350: 8fed 56bd 5e93 fd3a affd 44bd eb6b 133d
00000360: 8ca0 133d 79a9 f0bb 5036 55ba 6fcc 2fbd
00000370: e240 2f3c 772d 933a 2748 4b3c 95fc 903d
00000380: bd15 11bd 53dc a3b9 8848 d03c 8d71 82bd
00000390: 5c20 a938 bf31 713c a5ce 973d a514 5bbd
000003a0: bbd9 a8bd 7e65 89bc 350b 303a a662 acbc
000003b0: fda6 81bd fb12 7dbd 4515 3e3d 6317 bbbd
000003c0: db42 9c3c 9eba 2abd ecfd 83bd 1fd6 1a39
000003d0: 7a08 d5bb 58d5 0f3d f013 87bd 294d 1f3d
000003e0: f1c9 a43c 6653 f63c 6687 46bb 2457 153c
000003f0: 1022 f4bb 7feb a3bc 40a4 21bd b5f9 0c3d

conv2.bias f4 [64]
-0.04982556 0.0017928757 0.02386323 -0.028434012 -0.008314228 -0.014518489 0.008701312 -0.03173314
0.00022699116 0.033287253 -0.041485693 -0.009945578 -0.03827498 0.039819997 -0.010033774 0.0073960316
-0.026808841 -0.02214584 -0.017151909 -0.0063238456 -0.044549122 0.0017621444 -0.017003981 -0.0024992966
-0.00048748756 -0.00028509705 -0.00832741 -0.047224198 0.048951626 0.010914461 0.0064644166 0.0029395893
0.05307629 0.008364753 -0.010589968 0.04595343 -0.031260975 -0.018851522 0.033752315 0.025322918
-0.00092044956 0.05379645 -1.0255695e-05 -0.024393508 0.010235687 0.013335982 -0.049744386 -0.014950913
0.0015325794 -0.04814815 -0.004636757 0.028563352 0.056495227 -0.025872862 -0.007853823 -0.007399993
-0.029027548 0.029873176 -0.01989202 0.018340513 -0.0037038196 0.07135622 -0.005554437 0.033122707
00000000: e315 4cbd edfe ea3a d27c c33c 72ee e8bc
00000010: 6638 08bc f5de 6dbc f38f 0e3c 9cfa 01bd
00000020: 7a04 6e39 3758 083d e7ec 29bd c7f2 22bc
00000030: 3ac6 1cbd 4b1a 233d b364 24bc 695a f23b
00000040: 379e dbbc 316b b5bc 2982 8cbc 4338 cfbb
00000050: 2479 36bd c1f7 e63a ef4b 8bbc 3dcb 23bb
00000060: 7995 ffb9 1479 95b9 b06f 08bc 296e 41bd
00000070: 8081 483d 91d2 323c 75d3 d33b 20a6 403b
00000080: 8666 593d 510c 093c 8c81 2dbc aa39 3c3d
00000090: 820b 00bd 826e 9abc de3f 0a3d 0272 cf3c
000000a0: 534a 71ba ab59 5c3d e00f 2cb7 e5d4 c7bc
000000b0: 95b3 273c 2a7f 5a3c c5c0 4bbd adf4 74bc
000000c0: d5e0 c83a ff36 45bd f0ef 97bb b1fd e93c
000000d0: 8a67 673d 53f3 d3bc 52ad 00bc a47b f2bb
000000e0: 2ecb edbc 97b8 f43c 97f4 a2bc d83e 963c
000000f0: c8bb 72bb 3623 923d ff01 b6bb adab 073d

conv3.weight f4 [32, 64, 5, 5]
0.000116870346 3.322064e-05 0.003186976 0.00014127193 -9.121678e-05 0.002503065 0.003150624 0.0017754196
1.6748963e-05 0.00013752795 0.027942814 -0.0036544541 0.036950532 0.01335035 0.019791368 0.029110225
0.015871312 0.035150044 0.034475222 -0.009078737 0.002948973 0.020623649 0.017058672 0.059759982
0.003517166 0.0029805796 0.0012173682 0.00061670126 -0.0013738523 -1.4718075e-05 0.0016435758 0.0059612375
0.0012475217 0.002353605 4.163503e-07 0.029649736 0.009498389 0.012662945 0.0047411905 0.03890599
-0.010396427 -0.0012382856 0.037683226 0.018187208 0.017096858 0.007197998 -0.009546324 0.0034485476
0.03729843 0.0088421395 -0.0022221382 0.0011546502 -0.00020319928 -0.00016365934 -4.9266062e-05 -0.0020002488
0.00079745916 0.00076993945 0.00017562386 -1.9302004e-05 -0.0063654976 0.017280674 0.017113803 0.022616904
-0.001211676 0.003293964 -0.011659718 -0.01670393 0.012130553 0.021393612 -0.016844735 0.004930357
-0.0085532935 -0.016467284 0.024818413 -0.0026878347 -3.2128137e-06 0.000508816 -7.4443364e-05 -5.676219e-05
-0.0023897483 0.0029888435 0.00026446622 -0.0016056858 -1.5305563e-05 -0.01295832 -0.0061729867 0.0010804597
0.022785572 0.022656493 -0.0014481946 -0.0043208213 0.025831243 0.014787187 -0.005025337 -0.0041464963
-0.005330632 -0.035484698 0.011319643 -0.016305739 0.0024010094 0.0070891366 0.0033505394 0.0017101603
-7.99305e-06 0.003961567 -0.0015788563 0.0072542867 0.003319911 -1.7417797e-05 0.031363577 0.001825501
0.025478806 0.012205689 0.0017950209 0.008872637 -0.03812323 0.023223704 0.005671246 -0.009446453
-0.010858375 -0.003958881 0.007919027 0.030068263 0.0114496425 0.0013163905 -0.0032195277 -0.00040887986
-0.00019296806 -5.4841075e-07 0.0009309958 0.0015842854 -0.0008721187 0.000673576 1.4124525e-06 -0.0070466744
0.01655246 -0.020021282 0.042805493 0.0028229572 -0.015000112 0.02248039 -0.021035543 0.0050734347
0.0052553886 -0.005785497 -0.003894919 0.009272745 0.030917127 0.021271676 -0.0032881927 0.0016435095
-0.0015771764 0.0015133484 -3.15535e-06 0.0077988585 0.0062928554 -0.0024509341 -0.0016788463 2.7435039e-05
0.04627082 -0.0032450138 0.012635387 0.029645905 0.033003826 -0.0013882336 0.04442553 0.031504143
0.000719364 -0.019966623 0.00096748257 0.019245094 -0.02309867 -0.005973929 -0.027121313 0.0017197321
0.0013300494 0.000230834 0.00059117714 -3.8374215e-05 0.0011104796 0.0040053073 0.0030159405 0.0024996346
7.645536e-05 0.018623441 0.001874526 0.008793328 0.013841946 -0.008420761 0.028990911 0.004951996
0.016550854 0.016673127 -0.0108042555 -0.0060187965 0.013316145 0.014241414 0.0062070447 -0.026430747
0.0005705623 -0.0009752512 0.0007528508 -0.0004516941 -1.9203111e-05 -0.0029495135 -0.0011504072 0.003978502
-0.0019829676 3.3443e-05 -0.019736424 0.010781368 0.0012749943 0.0130255 0.010797363 -0.00417464
0.03925012 0.016246011 0.014474836 0.0027169245 0.0066158823 -0.0044021993 0.02245309 -0.014286102
0.007773118 0.0022792986 0.007728077 0.010479957 0.0025661918 6.438766e-05 0.009332486 0.006769841
0.0014815456 0.0035689275 -5.5888813e-05 0.041206438 -0.0066672023 0.03476311 0.017260995 0.005564277
0.019504424 -0.009357463 0.0060968217 0.025147187 0.00034369025 0.01301978 -0.005995751 0.010667413
-0.012798764 0.013103033 -6.4931555e-05 -0.00015854553 -0.00010294007 -0.00015606236 -6.249806e-05 0.00024114228
00000000: 4a18 f538 6456 0b38 96dc 503b 6522 1439
00000010: a34b bfb8 760a 243b b37a 4e3b 32b5 e83a
00000020: 2080 8c37 6135 1039 54e8 e43c 917f 6fbb
00000030: 7159 173d 6dbb 5a3c 8221 a23c 9178 ee3c
00000040: 8e04 823c 7ef9 0f3d e435 0d3d fcbe 14bc
00000050: 8f43 413b edf2 a83c a1be 8b3c e2c6 743d
00000060: 4180 663b d455 433b 1990 9f3a 1faa 213a
00000070: d512 b4ba a7ed 76b7 416d d73a 7c56 c33b
00000080: e283 a33a f13e 1a3b c086 df34 01e4 f23c
00000090: 229f 1b3c 3e78 4f3c fd5b 9b3b e35b 1f3d
000000a0: c655 2abc f84d a2ba ba59 1a3d 57fd 943c
000000b0: b60e 8c3c 2fdd eb3b 2f68 1cbc 0701 623b
000000c0: 3dc6 183d 9fde 103c 4ba1 11bb a257 973a
000000d0: e411 55b9 f89b 2bb9 08a3 4eb8 9b16 03bb
000000e0: 940c 513a c3d5 493a ac27 3839 bdea a1b7
000000f0: aa95 d0bb 3390 8d3c 3f32 8c3c 1647 b93c
00000100: 1ad1 9eba 8cdf 573b 6708 3fbc aed6 88bc
00000110: 3abf 463c a841 af3c f8fd 89bc d58e a13b
00000120: 1d23 0cbc 66e6 86bc fc4f cb3c 6226 30bb
00000130: b89b 57b6 1062 053a 7a1e 9cb8 f013 6eb8
00000140: 539d 1cbb 79e0 433b 0ea8 8a39 e075 d2ba
00000150: 7264 80b7 224f 54bc c446 cabb 369e 8d3a
00000160: cfa8 ba3c 1c9a b93c 59d1 bdba ad95 8dbb
00000170: 0b9c d33c f545 723c 95ab a4bb 55df 87bb
00000180: 95ac aebb 6758 11bd 0676 393c 9d93 85bc
00000190: 415a 1d3b fd4b e83b b994 5b3b 7527 e03a
000001a0: e319 06b7 08d0 813b a0f1 ceba 5eb5 ed3b
000001b0: dd92 593b 6f1c 92b7 1877 003d a645 ef3a
000001c0: eeb8 d03c 5ffa 473c e846 eb3a 895e 113c
000001d0: 1b27 1cbd a33f be3c dcd5 b93b 4cc5 1abc
000001e0: 53e7 31bc 80b9 81bb cebe 013c b851 f63c
000001f0: 4897 3b3c bc8a ac3a b6fe 52bb ed5e d6b9
00000200: 7857 4ab9 8036 13b5 120e 743a cca7 cf3a
00000210: e59e 64ba ec92 303a 8093 bd35 cae7 e6bb
00000220: 0699 873c ac03 a4bc d054 2f3d 5d01 393b
00000230: 08c3 75bc cb28 b83c bb52 acbc 0e3f a63b
00000240: 6535 ac3b 4494 bdbb e641 7fbb b6ec 173c
00000250: ea45 fd3c f041 ae3c b87e 57bb 076b d73a
00000260: 42b9 ceba 8c5b c63a 80c0 53b6 918d ff3b
00000270: 4c34 ce3b da9f 20bb bc0c dcba 4c24 e637
00000280: 7986 3d3d 4caa 54bb a704 4f3c f8db f23c
00000290: 052f 073d 64f5 b5ba 8bf7 353d 7d0a 013d
000002a0: b393 3c3a 0b91 a3bc a89e 7d3a e3a7 9d3c
000002b0: 6c39 bdbc f3c0 c3bb 842d debc a268 e13a
000002c0: 0d55 ae3a 080c 7239 3af9 1a3a 00f4 20b8
000002d0: 838d 913a f43e 833b 16a7 453b e9d0 233b
000002e0: a956 a038 3090 983c a8b2 f53a e411 103c
000002f0: 54c9 623c 3bf7 09bc 597e ed3c 5a44 a23b
00000300: a895 873c 1596 883c 5504 31bc 5339 c5bb
00000310: f62b 5a3c d254 693c 7764 cb3b 4b85 d8bc
00000320: ca91 153a 00a8 7fba f65a 453a 5bd1 ecb9
00000330: 5e16 a1b7 a04c 41bb 43c9 96ba 185e 823b
00000340: adf4 01bb 2645 0c38 48ae a1bc 56a4 303c
00000350: b61d a73a e868 553c 6ce7 303c 6bcb 88bb
00000360: bcc4 203d 5b16 853c dd27 6d3c 6e0e 323b
00000370: 0bca d83b 5340 90bb 8bef b73c 4110 6abc
00000380: a4b5 fe3b 4960 153b cf3b fd3b 20b4 2b3c
00000390: 8e2d 283b dd07 8738 49e7 183c 8bd5 dd3b
000003a0: 6c30 c23a abe4 693b 286a 6ab8 15c8 283d
000003b0: 8c78 dabb c363 0e3d ee66 8d3c 8a54 b63b
000003c0: bec7 9f3c 0b50 19bc d9c7 c73b 7901 ce3c
000003d0: 5331 b439 ea50 553c 0178 c4bb 5fc6 2e3c
000003e0: e8b1 51bc 1bae 563c dd2b 88b8 3e3f 26b9
000003f0: 87e1 d7b8 aca4 23b9 6411 83b8 23db 7c39

conv3.bias f4 [32]
-0.014883246 0.009404446 -0.029319646 0.007243478 -0.00040320316 0.00036482906 -0.0039521563 -0.0013929587
-0.034506336 0.014672406 -0.0016315982 0.04276363 0.001899723 -0.020652268 0.022387912 -0.04118941
0.046433266 0.019609123 -0.014283472 0.018618463 -0.00049065927 -0.009179378 0.00043256528 0.03348246
-0.0029477426 0.016924169 3.1900927e-06 0.056349438 -0.02405743 0.018640645 0.006247777 0.05111017
00000000: dcd8 73bc 1b15 1a3c c12f f0bc b35a ed3b
00000010: 0365 d3b9 8746 bf39 1781 81bb f093 b6ba
00000020: 8456 0dbd 8864 703c 5adb d5ba eb28 2f3d
00000030: 2000 f93a f22e a9bc db66 b73c 3ab6 28bd
00000040: cf30 3e3d 50a3 a03c 3905 6abc bf85 983c
00000050: 969f 00ba 1a65 16bc eec9 e239 e724 093d
00000060: ea2e 41bb 8ea4 8a3c 6015 5636 abce 663d
00000070: 1614 c5bc 44b4 983c 27ba cc3b e658 513d

fc_1.weight f4 [8, 32]
0.062387604 0.2677903 -0.23889829 0.38766578 -0.11136395 -0.0038190894 0.0018820055 0.13334848
0.021224901 -0.0435485 -0.042141184 0.12602678 -0.04976827 -0.13552904 -0.046808936 -0.30195236
0.02951873 0.24652596 -0.036091626 0.11696801 0.026980188 0.16503127 -0.014472922 0.3724675
-0.006535704 -0.12939627 0.016903475 0.027718527 -0.3827174 0.011533698 0.47538477 -0.06928393
0.12244945 0.067042984 -0.08411252 -0.17420906 -0.08179995 0.18106838 -0.00078013877 6.7781766e-05
-0.20783295 0.11368507 0.0036975744 0.03781699 0.057161167 0.007302783 -0.06721373 -0.15728314
0.3477287 -0.10239176 -0.27374637 0.4126129 -0.012015115 -0.15476973 0.046782658 0.02052289
0.046569277 -0.0014670457 -6.752227e-05 0.14235193 0.06793219 -0.055677257 -0.056347515 0.24380569
0.049090523 0.09331684 0.03853403 0.18649772 -0.013320079 0.28391117 3.2221244e-05 -9.7904274e-05
0.2874903 -0.037932947 -0.11806038 -0.056541074 -0.2620581 0.11129017 -0.6322345 0.023627965
-0.11432742 0.17828652 -0.22975712 0.05040771 -0.000120569486 0.102874726 -0.0640597 0.05009468
-0.022507302 -0.30099595 -2.6199627e-05 -0.25902042 -0.0017503907 -0.058298245 0.28322592 -0.28074324
0.15762863 -0.09654426 -0.031168003 0.19122815 0.100414805 -0.07482987 0.07798538 -1.2706948e-05
-0.06867181 -0.20889415 2.365873e-05 -0.21717495 0.122237384 -0.024336 0.32509938 0.033208888
-0.042338222 -0.18952498 0.20994471 -0.22833249 7.0235015e-05 -0.118514664 0.001057548 -0.075928055
0.17379765 -0.14142516 6.0033744e-05 -0.31869423 -0.008336731 -0.18436758 -0.36264336 0.016763406
0.18369825 0.039461084 0.16875006 -0.039705776 -0.24114218 -0.0043862793 0.00021658382 -0.03298124
-0.0820851 -0.37600866 -0.14770678 -0.24156383 0.2066664 -0.017068405 0.21667105 0.10541773
-0.20460677 -0.08702259 -0.012515651 -0.03712493 0.000720689 0.06746962 -0.0003988575 0.23833616
0.06317355 -0.16323918 -0.12732722 -0.1921434 -0.14354746 -0.37316692 0.0661935 -0.3859227
0.1056374 -0.17670274 0.40175912 0.08135421 0.07246841 -0.28843024 -0.05589533 7.786321e-05
-0.0018675333 0.122022435 0.38633734 0.01686886 -0.035044003 -0.029185293 -0.13769081 0.1443807
-0.16407542 0.07699145 -0.13212612 -0.3213725 6.4689455e-05 -0.0088184755 0.057370033 -0.06621472
0.1323945 0.09036052 -0.027086873 -0.074570104 -0.11836689 0.11930141 0.15748088 -0.16258861
-0.05644512 -0.3383499 -0.032994 -0.024613606 -0.071219236 0.21807437 -4.2313557e-05 -1.5775171e-05
0.10474523 -0.15438329 -0.006742151 -0.1653136 -0.2219133 0.25194824 0.097827114 -0.24595332
0.007152791 0.35369605 -0.060957555 -0.3282569 0.00015812197 -0.17597167 -0.00045773177 0.2851343
0.0002866833 -0.04018943 -2.8953189e-05 -0.03776355 -0.021944651 0.084658846 -0.166499 -0.07337942
-0.107829586 -0.111853614 0.107830845 0.4407746 0.32932594 -0.34114066 -0.0004496065 -0.0011370333
-0.102665916 0.30045027 -0.009250303 0.003089302 -0.061762605 -0.28164914 0.08600204 0.064788714
0.36370358 0.030114647 -0.21183304 -0.2585227 8.009259e-05 -0.3536752 -0.0033342028 0.083482146
0.10747025 0.18057372 -0.08514934 0.12271687 -0.16265623 0.13219798 0.06299452 0.074803405
00000000: 258a 7f3d cf1b 893e c1a1 74be 217c c63e
00000010: c812 e4bd b049 7abb a0ad f63a 818c 083e
00000020: d8df ad3c e95f 32bd 3c9c 2cbd 2a0d 013e
00000030: d0d9 4bbd 20c8 0abe baba 3fbd 8099 9abe
00000040: 43d1 f13c 4d71 7c3e d0d4 13bd ed8c ef3d
00000050: 8e05 dd3c f5fd 283e d61f 6dbc 0fb4 be3e
00000060: 7529 d6bb 7580 04be 2879 8a3c f711 e33c
00000070: 89f3 c3be d6f7 3c3c a265 f33e bce4 8dbd
00000080: c7c6 fa3d d54d 893d 2f43 acbd dc63 32be
00000090: bb86 a7bd fd69 393e 3a82 4cba 0f26 8e38
000000a0: 29d2 54be b8d3 e83d 0153 723b fde5 1a3d
000000b0: d421 6a3d 2f4c ef3b 5aa7 89bd d50e 21be
000000c0: 7f09 b23e c5b2 d1bd 7c28 8cbe ff41 d33e
000000d0: 0bdb 44bc f57b 1ebe 2c9f 3f3d 9f1f a83c
000000e0: 6dbf 3e3d e349 c0ba be9a 8db8 b4c4 113e
000000f0: 0820 8b3d d60d 64bd a7cc 66bd 33a8 793e
00000100: 2513 493d e61c bf3d dcd5 1d3d 42f9 3e3e
00000110: 763c 5abc ce5c 913e 4c25 0738 f551 cdb8
00000120: ee31 933e 945f 1bbd a4c9 f1bd 9d97 67bd
00000130: 7b2c 86be 1aec e33d 1fda 21bf 6f8f c13c
00000140: 7f24 eabd be90 363e 7345 6bbe 5178 4e3d
00000150: 40da fcb8 fcaf d23d bb31 83bd 1430 4d3d
00000160: 3c61 b8bc 241c 9abe 45c7 dbb7 539e 84be
00000170: 5e6d e5ba 24ca 6ebd fd02 913e 94bd 8fbe
00000180: 6669 213e ffb8 c5bd 0a54 ffbc 50d1 433e
00000190: 47a6 cd3d 6740 99bd cdb6 9f3d ed2f 55b7
000001a0: cea3 8cbd 59e8 55be bc76 c637 1c63 5ebe
000001b0: 9857 fa3d 4b5c c7bc 6d73 a63e 0b06 083d
000001c0: d86a 2dbd d612 42be bffb 563e fecf 69be
000001d0: 234b 9338 d1b7 f2bd 6c9d 8a3a 2b80 9bbd
000001e0: 03f8 313e c2d1 10be becc 7b38 e42b a3be
000001f0: c996 08bc dbca 3cbe 64ac b9be 6953 893c
00000200: 651b 3c3e f2a1 213d d1cc 2c3e 86a2 22bd
00000210: faed 76be c7ba 8fbb c71a 6339 5617 07bd
00000220: 3c1c a8bd 3584 c0be 7240 17be 825c 77be
00000230: 5ba0 533e 0ad3 8bbc 04df 5d3e 40e5 d73d
00000240: 7084 51be e638 b2bd 720e 4dbc 5010 18bd
00000250: 9fec 3c3a 832d 8a3d bf1d d1b9 650e 743e
00000260: 2261 813d 2c28 27be 1162 02be 3dc1 44be
00000270: 1bfe 12be bc0f bfbe 7590 873d a997 c5be
00000280: 6c58 d83d 90f1 34be 5fb3 cd3e 099d a63d
00000290: 516a 943d 21ad 93be 80f2 64bd 7e4a a338
000002a0: 05c8 f4ba e6e6 f93d 02ce c53e 9030 8a3c
000002b0: 4d8a 0fbd ff15 efbc d2fe 0cbe 89d8 133e
000002c0: 6303 28be b1ad 9d3d 124c 07be f08a a4be
000002d0: e3a9 8738 5e7b 10bc d7fc 6a3d 959b 87bd
000002e0: 6c92 073e f00e b93d 4ae5 ddbc 36b8 98bd
000002f0: 576a f2bd 4c54 f43d ab42 213e a17d 26be
00000300: 0033 67bd 333c adbe b724 07bd 79a2 c9bc
00000310: 64db 91bd e34e 5f3e d679 31b8 ec54 84b7
00000320: ab84 d63d a716 1ebe 43ed dcbb f847 29be
00000330: 3d3d 63be 5cff 803e 9559 c83d 30db 7bbe
00000340: f661 ea3b a617 b53e a1ae 79bd 4a11 a8be
00000350: 8bcd 2539 eb31 34be b8fb efb9 1ffd 913e
00000360: fb4d 9639 ac9d 24bd 80e0 f2b7 f4ad 1abd
00000370: 45c5 b3bc 9e61 ad3d b77e 2abe f347 96bd
00000380: c2d5 dcbd 8213 e5bd 6bd6 dc3d 35ad e13e
00000390: 699d a83e fda9 aebe 2ab9 ebb9 8208 95ba
000003a0: 8242 d2bd 9ed4 993e 958e 17bc e375 4a3b
000003b0: c9fa 7cbd 5134 90be d621 b03d f2af 843d
000003c0: 5b37 ba3e feb2 f63c c3ea 58be 165d 84be
000003d0: 62f7 a738 ea14 b5be a482 5abb b0f8 aa3d
000003e0: 5d19 dc3d 51e8 383e c762 aebd fb52 fb3d
000003f0: 5b8f 26be e85e 073e 4503 813d 8732 993d

fc_1.bias f4 [8]
0.03283896 0.026277332 -0.04433057 -0.02042525 -0.022798557 -0.015625358 0.004970713 0.005875296
00000000: 2582 063d 8f43 d73c f993 35bd db52 a7bc
00000010: 0ac4 babc c000 80bc 5de1 a23b 8e85 c03b
