checkpoints/target2/epoch=5.checkpoint.pth.tar (torch, 318772 bytes, 8 tensors)

conv1.weight f4 [16, 3, 5, 5]
00000000: 8170 503e 8074 273e 269c 9b3d e6cd 72be
00000010: d972 7d3d cd20 00be aaef e5bb b11c 53be
00000020: ad81 f3bd 5f30 223e dad5 11bd 67d9 05be
00000030: 4009 efbd ea88 d6bd f42b bfbd 84f2 ca3d
00000040: c24f 4a3e 5e68 e2bc fbb3 abbd 377d 9c3c
00000050: 1295 75bd 0f29 0a3e cd46 ad3d 2384 1f3e
00000060: 45e4 e83d 8736 0c3e 2341 973d 6a7f f73d
00000070: 8dce 66bd c57b 99bb 9d74 e1bc d2ac a73d
00000080: 14dd 39be be9b 09be c16c f0bc d2e5 353e
00000090: ec2c 293d 647b a6bd 6d73 8bbc 81d4 bcbd
000000a0: 2ef8 10be 2bd6 023e 819c cabd 04f5 bbbd
000000b0: 7f80 17be f066 6f3e 9b2b d4bd 1b32 3bbd
000000c0: 138a d2bd f9f1 98bd e8dc 2d3c 4a99 7d3d
000000d0: e94e 82bd 23fe b13d c81d c3bd 7d15 a1bd
000000e0: dd9b 17be 5939 22bd 253c 5cbd e366 5d3d
000000f0: 18bb 0bbc 7f1c 473e b808 1fbe 0c94 c13d
00000100: f614 033e e0b2 d23d c9d6 7d3e 83da 223d
00000110: dce0 ce3b 96bb 21bd 8074 c0bd a13b 183e
00000120: e07b 9bbc 119f 293d 22a0 adbb 7e5c af3c
00000130: f38b 2a3d 944d a8bd 86e1 78be e30e bbbd
00000140: 7a8e e1bc 2f13 66bd f3c4 23be d2f5 acbd
00000150: 471a 093d bb6c e83c 05db b13d 4ced 03bd
00000160: 477f 1c3d 6ba3 8ebd a947 05be c32a f53c
00000170: e14d 57be a31b f0bd 7ed4 e33d ad63 8a3c
00000180: a22a 90be dc17 8d3c c86a 493d 4b5c 9cbc
00000190: 53b9 9b3d 368a 993d f9ba f83d 1daa 1dbd
000001a0: 3afa 1fbc be52 a73d d99d 583d c2e5 ca3c
000001b0: f518 053d 7350 0a3e 959d 743b a481 dabc
000001c0: 4a87 1bbe f95c 60bc 87b7 58bd c3f3 493d
000001d0: 0daf 943d 9e52 1c39 1dc3 32bd 9201 753d
000001e0: dd36 b0bb 0412 c13c ae94 673c caa6 a03d
000001f0: 3f37 ee3d 7c11 7b3d e2ca d13d d92d 8b3d
00000200: a821 5a3e cca4 f43d ca20 fdbd 24a4 b1bd
00000210: 4967 f43b caf3 3a3e e04b aa3d aac9 9b3d
00000220: 2329 083e 03a6 1f3c 82e9 2dbe 677e e43d
00000230: 4393 cabc 6c71 e93d 56b7 8abd c381 8b3d
00000240: 4e5c abbd 9ee1 cc3d ec37 2c3e acff 193e
00000250: 5270 f93c f246 58bc ac7d e8bc 08eb 2d3d
00000260: b330 dd3c 36c7 af3d 5bbd 1ebd d9f3 313e
00000270: 3f29 84be f4c4 71bd 1c7a 09be 6424 a73d
00000280: 27ec 60be 43d6 49b9 c742 47bc 67c5 17bd
00000290: fac2 2f3d de07 babd a950 653b cd3b e1bd
000002a0: 0932 17be 8481 323e 7522 0b3e 5a95 bfb8
000002b0: 40ab 16be 476a d73d b993 003e 05aa 813e
000002c0: 882d 1a3d 38dc e73b 668c c0bd 7485 9bbc
000002d0: 91d5 98bd 3198 25be 4529 03be a3ed 85bd
000002e0: 8c0c 62bd 41f2 2fbe 00f0 5cbe caab 2e3b
000002f0: 27bc ce3d 871b 26bd d20a 7c3d 4b73 783d
00000300: 21ea 333e a059 b0bd 98aa 043e 0eb8 a1bc
00000310: 3b66 f6bd b448 193d b2fb 8b3d 9a27 333e
00000320: 3197 bd3d b5ab 703e f843 6ebd 5a6a d7bd
00000330: a841 bd3c 0af8 f43d 0a62 fa3d 8b12 e73c
00000340: a515 c6bd 2de3 d6bd 28b1 8abd 99f1 a5bd
00000350: 8caf 483b b229 1e3d 7bf0 a9bb cf2d 79be
00000360: e328 5ebd 337c c63d 6728 3cbe f3f3 2c3e
00000370: 7801 343d eb27 72bd 3327 b93d 094f 303e
00000380: cabf 7c3c 687c 393e 74ee f03c 93dc dfbd
00000390: 61c4 a9bd 67cc 05bd c465 5c3d ca30 643e
000003a0: 8676 5ebb d4d6 f8bd fb75 80be 2552 d7bd
000003b0: feb1 953c b419 433c ef3e 44bb 3122 f7bb
000003c0: 42d7 c1bd 8cb4 203d 9494 2dbd 32bc 213d
000003d0: c73a 05be 3964 39bb 2b09 abbc e4eb 1e3e
000003e0: 1b8f eb3d 9aec ecbd fcbb c23d 0944 813d
000003f0: ebeb 4d3d bf8f 053d 399c 4b3c 02ed 063d
0.20355417 0.16353035 0.07598142 -0.23711357 0.061877105 -0.12512513 -0.0070170956 -0.20616414
-0.11889968 0.15838765 -0.035604335 -0.13071214 -0.11671686 -0.10475333 -0.09334555 0.099095374
0.19756988 -0.027637657 -0.08383938 0.019102676 -0.059956618 0.13492225 0.0846077 0.1557775
0.11371664 0.13692676 0.07385471 0.12084849 -0.056349326 -0.004683944 -0.027521426 0.0818726
-0.18150741 -0.13438317 -0.029348733 0.1776345 0.041302606 -0.08129004 -0.017022813 -0.092202194
-0.14157173 0.12777011 -0.09893132 -0.091775924 -0.14795111 0.23379111 -0.103598796 -0.04570208
-0.10280242 -0.074680276 0.01061175 0.061913766 -0.06362707 0.08691051 -0.09527165 -0.07865427
-0.14805551 -0.039605472 -0.053768296 0.0540532 -0.008528493 0.19444464 -0.1553067 0.09452066
0.12800965 0.10288024 0.24788965 0.03975917 0.0063134264 -0.039485537 -0.093972206 0.14866497
-0.018979967 0.041411463 -0.0052986303 0.021406408 0.041637372 -0.08217922 -0.2430478 -0.09133699
-0.027533758 -0.05617064 -0.15993099 -0.08445324 0.033472326 0.02837216 0.08684353 -0.032208726
0.03820732 -0.06964763 -0.13015617 0.029927617 -0.21025802 -0.11724021 0.11124514 0.016893232
-0.28157526 0.017223291 0.0491741 -0.019086977 0.07603707 0.07497065 0.12145037 -0.03849231
-0.0097642485 0.08170079 0.05288491 0.02476776 0.032494504 0.13507251 0.0037325372 -0.026673146
-0.15188327 -0.013694041 -0.0529094 0.049304735 0.07259951 0.00014908097 -0.043643106 0.05981595
-0.005377634 0.02356816 0.014134569 0.078443125 0.11631631 0.06129597 0.10243775 0.06795854
0.21301901 0.11945495 -0.1235977 -0.086738855 0.0074586016 0.1825706 0.08315253 0.07606824
0.13296942 0.00974417 -0.16983607 0.11156922 -0.024728423 0.11398587 -0.0677325 0.068118595
-0.08367215 0.100039706 0.16818208 0.15038937 0.030449066 -0.013200508 -0.028380238 0.04246047
0.02700076 0.08582918 -0.038754802 0.17378177 -0.25812718 -0.05902572 -0.13425487 0.08161238
-0.21965085 -0.00019248672 -0.012161917 -0.037053492 0.042910554 -0.09083532 0.0034990704 -0.10997734
-0.1476518 0.17432219 0.13587363 -9.1354086e-05 -0.14713764 0.10518318 0.12556352 0.25325027
0.03764108 0.0070758127 -0.09401779 -0.018984534 -0.074626096 -0.16171338 -0.12808712 -0.06539466
-0.055187747 -0.17182256 -0.21575928 0.0026652687 0.10094481 -0.040553596 0.061533757 0.060656827
0.17569782 -0.086108446 0.12955701 -0.019741084 -0.12031218 0.03742285 0.068351164 0.17495576
0.09257353 0.23503001 -0.05817029 -0.10518332 0.023102596 0.11961372 0.12225731 0.028207084
-0.09672097 -0.10492549 -0.06772071 -0.08102722 0.0030622212 0.038613982 -0.005186138 -0.24333881
-0.05423821 0.09691658 -0.18374787 0.16889934 0.043946713 -0.0591201 0.0904068 0.1721765
0.015426585 0.18113863 0.029410578 -0.10930743 -0.082894094 -0.032665636 0.05380799 0.22284237
-0.0033945157 -0.1215035 -0.25090012 -0.10513715 0.01827335 0.011907984 -0.0029944738 -0.0075419177
-0.09464885 0.039234683 -0.042378023 0.039486118 -0.13010703 -0.0028288497 -0.020878395 0.15519673
0.115019046 -0.11568566 0.095085114 0.06311805 0.050273817 0.03260779 0.012427383 0.032940872

conv1.bias f4 [16]
00000000: 5dd1 7ebd 8cd0 ec3c 317c 47bd 4161 18bd
00000010: 646d 31bd 5f71 74bd ef54 293c cbc4 b6bc
00000020: a9d8 ebbc ecd5 4c3d ca31 5b3c 1641 dd3c
00000030: 2ab5 b4bb 6949 0dbc 7a60 36bd 7958 063c
-0.062211383 0.028908037 -0.048702423 -0.037202124 -0.043317214 -0.05967843 0.010335191 -0.022310635
-0.028789835 0.0500087 0.01337857 0.027008574 -0.0055147605 -0.008623459 -0.0445256 0.008199804

conv2.weight f4 [64, 16, 5, 5]
00000000: 1371 803c df87 793b 2b45 353b cfcf ad3d
00000010: 1393 583d 55b0 fcba 6b09 02bc 24bf 3d3c
00000020: b87e 81bb 08c5 d5bc 45e5 cbba f108 be3d
00000030: ac5f 75bd 2976 153c 1718 803d 0e65 eabb
00000040: 3322 cc3c ed80 7d3d 1fbe b93d edbd 3e3d
00000050: 8bf7 87bc 66cd 6d3d a9a3 c43c 55bc d13b
00000060: 5eba 66bd 3449 7d3c a07d 1dbd 0622 e9bc
00000070: 05ab f6bc e2f2 e13c 6b31 42bd fc7c 03bd
00000080: 0303 f7bb a655 66bd 6c46 74bd 552e e4bc
00000090: 860c 24bc 2f64 97bd 07f4 d13c 8d46 babd
000000a0: c3d1 2d3d b4d6 59bc 5a69 81bd 2166 4f3c
000000b0: 91b0 44bd e4f0 c3bc 27ee 043c ca8a fa3c
000000c0: e3a3 fabc a7db d3ba 1b93 d4bc 1301 b0ba
000000d0: b077 0ebd 4855 693d 46a4 dc3c aa8f a13c
000000e0: ee90 2cbc 6b42 91bc e88f f3bc 4aee 4abc
000000f0: 8385 86bc a177 8cbc 2e97 b73c b1fa b93d
00000100: 5543 89bd 41a7 00bc dab5 cb3c 6a7b 733d
00000110: aa4f 353d 1d59 c33c d18e c5bc d81a 09bd
00000120: f988 fc3d 62d9 3cbd 29ac 923c 4b90 52bd
00000130: 2ac4 8fbc 33e8 46bc eb04 a2bc 9825 90bc
00000140: 3e7a 61bc 92c9 c1ba 76df ae3c 8ece 723c
00000150: 8607 153d bf0d c1bc 0ef9 a43d 1a24 82bb
00000160: 7abe 90ba fd85 9bbc 7986 dfba 1a43 11bc
00000170: 6bcb 613c 9ae1 a03d 586e 4bbd adac 82bc
00000180: 32e9 9e3c e1b7 083c e45f 323d a7be 563d
00000190: 4855 3abd bd0d 8dbc a250 e5bc bb7c 4c3d
000001a0: bbc0 a53c 6c1d e9bc 644a 63bd 5de2 a13c
000001b0: 3f90 913b 38ac 5e3b 3fff 3fbd a7d3 20bd
000001c0: d298 b33c 3fd0 4fbd a02a cbbd b205 07bd
000001d0: e6ab 153d 9177 463d adcb 013c 42a7 603d
000001e0: 1234 5e3d b1a7 65ba 4cb0 97bb e003 803c
000001f0: bc6c 533c f364 843b 7579 12bd 9e76 d6bc
00000200: 38f4 153c 7173 01bd a95d a23c ec36 133c
00000210: a400 91bd 5a51 203d 0b1d 92bc 8ae0 dfbc
00000220: ef01 e0ba def4 4f3c fcb0 013d 5191 273d
00000230: 5bfa 953d 56f7 dd3d 2edc a53c 1f54 8bbc
00000240: e582 81ba 3664 15bd a5e4 1e3d e1fc 2cbd
00000250: c1bd 203d 98f9 753d 163f 42bd d475 c8bc
00000260: 3dc0 cfbc 9483 083b f316 c6bb 594f 2ebc
00000270: 5425 fd3a e46b 07bd acfc bebc d6ca 933c
00000280: 5e5a 563c c750 0e3d f51b dabc ffe2 303d
00000290: d99d 04bd 9f22 7e3c 46e4 13ba a084 a4bc
000002a0: 7b7d 3dbc f877 f4ba e289 a6bc 0b9c 83bc
000002b0: 5a2a 6a3d a7b4 d13b 3b77 95bc 8490 14bd
000002c0: 57ef b23d 379f 48bd 5a6e 7e3d 915d babc
000002d0: 40d9 8bbd 0c80 e5bb 9196 55bd 0c0f acbb
000002e0: c985 b2bc 1946 f2bb ef45 183d 199d 46bd
000002f0: fd1b 043d 0948 05bc 198f aa3d 7211 123c
00000300: fd54 aebc 2a8f 413d 25d4 99bc 3dde acbc
00000310: 43da 9c3d 3d87 c83b 45a2 cf3c dff5 8e3c
00000320: e233 443d 71d7 3e3a 5ef3 383d 7d18 fe3b
00000330: 53a2 7a3d 38d1 153d 4c8d 40b8 234d 683b
00000340: 4243 943b 9032 0fbd 7cfb 44bd c0df 90bc
00000350: 130b 5bbd a4ed e83a 4bdf 49bd d83c 143d
00000360: ac7d 143d 32ff 00bc 84fb 85ba da16 34bd
00000370: fd0e 2c3c 4d1e 6c3a d683 453c af5a 913d
00000380: f4fe 15bd f28f fab9 f4cf d03c 4d68 83bd
00000390: babe 5c38 30ef 6d3c c9a5 973d 0202 5ebd
000003a0: a591 abbd c568 8cbc e2b9 e439 d254 b8bc
000003b0: 2c21 86bd e987 82bd 62c3 3c3d 37c7 bebd
000003c0: 1a7b 923c 3691 30bd b8f1 87bd 646e 1cba
000003d0: 71f4 02bc 3dd0 093d 2a27 8abd c119 1b3d
000003e0: 8004 9c3c a423 ed3c 5bd2 56bb cfa3 123c
000003f0: 8f6a 05bc 80f5 a9bc 51f0 24bd 61e3 0d3d
0.015678918 0.003807537 0.0027659636 0.08486902 0.052874636 -0.0019278625 -0.007936816 0.011581216
-0.0039518736 -0.026094928 -0.0015555999 0.09279049 -0.059905693 0.00912241 0.06254595 -0.00715316
0.024918651 0.06189053 0.09069466 0.046567846 -0.01659753 0.05805721 0.02400382 0.0064006248
-0.056330077 0.0154593475 -0.038449883 -0.028458606 -0.030110845 0.027581636 -0.04741041 -0.032101616
-0.007538201 -0.056234024 -0.059637472 -0.027854124 -0.010012751 -0.073921554 0.025629057 -0.09095488
0.042436372 -0.013295818 -0.06318922 0.012658627 -0.04801995 -0.023918577 0.008113421 0.030583758
-0.030595725 -0.0016163484 -0.025949052 -0.0013428055 -0.03478211 0.056966096 0.0269338 0.019721825
-0.010532601 -0.017731866 -0.029731706 -0.012385914 -0.016421085 -0.017146887 0.022410955 0.09081019
-0.06702296 -0.007852376 0.024866987 0.05944387 0.044265427 0.023846203 -0.024115952 -0.033472866
0.12330813 -0.04610575 0.017904358 -0.05140714 -0.017549593 -0.012140322 -0.019777736 -0.017596051
-0.013762055 -0.0014784804 0.021346789 0.014819754 0.036384128 -0.023566125 0.08055316 -0.003971589
-0.0011043095 -0.018984789 -0.0017053626 -0.008866096 0.013781409 0.0785553 -0.04966578 -0.015951479
0.019398306 0.008344621 0.04354848 0.052427914 -0.045491487 -0.017218465 -0.02799255 0.04992364
0.020233503 -0.028456412 -0.055490866 0.019761259 0.0044422443 0.0033977162 -0.04687428 -0.039264347
0.021923456 -0.05073571 -0.099202394 -0.032964416 0.03654089 0.04845387 0.007922095 0.05484701
0.054248877 -0.00087606447 -0.0046291705 0.015626848 0.012904342 0.0040403544 -0.03576036 -0.026179608
0.009152465 -0.031604234 0.019820051 0.008985262 -0.070802 0.039140083 -0.017836114 -0.027328748
-0.001709042 0.012692658 0.031662926 0.04091007 0.07323142 0.10838191 0.020246591 -0.017007886
-0.0009880929 -0.03647252 0.03879227 -0.04223335 0.039243463 0.060052484 -0.047423445 -0.024470247
-0.025360221 0.002083038 -0.006045216 -0.010639035 0.0019313493 -0.033061877 -0.023313843 0.018041056
0.013083069 0.034745004 -0.02662466 0.04318523 -0.032377098 0.015511184 -0.00056416204 -0.020082772
-0.011565561 -0.0018651476 -0.02032942 -0.016065618 0.057169296 0.0063997093 -0.01824533 -0.036270633
0.08737057 -0.048979964 0.06211696 -0.022749694 -0.068285465 -0.00700379 -0.052145544 -0.005250817
-0.02179231 -0.00739361 0.03717607 -0.048489664 0.032253254 -0.00813485 0.08328075 0.008915292
-0.02128076 0.047255673 -0.018777916 -0.021102065 0.076588176 0.0061196373 0.02534593 0.017451225
0.04790104 0.0007280028 0.045153968 0.007754384 0.06118996 0.03657648 -4.590796e-05 0.0035446368
0.0045246193 -0.03496033 -0.048091397 -0.017684817 -0.053477358 0.0017771018 -0.049285214 0.036190838
0.036252663 -0.007873343 -0.0010222052 -0.043967105 0.01050162 0.0009007201 0.012055358 0.07097375
-0.036620095 -0.00047790963 0.025489785 -0.06416378 5.2629715e-05 0.014522359 0.07404668 -0.054201134
-0.08377389 -0.017139802 0.00043626042 -0.022501383 -0.06549296 -0.06373579 0.04608477 -0.09315341
0.017880965 -0.043107234 -0.06637901 -0.0005967377 -0.00799285 0.033645857 -0.06745751 0.037866358
0.019045115 0.028947659 -0.003277919 0.008950188 -0.008143081 -0.020746946 -0.040268246 0.034640674

conv2.bias f4 [64]
00000000: a223 50bd e614 ac3a 11f2 ad3c b932 f6bc
00000010: 04da 1dbc 7e01 7fbc fad0 053c 5586 03bd
00000020: d096 bbba 1250 0d3d 7921 2ebd 89c7 1dbc
00000030: d6c5 18bd 3b36 273d 3377 2dbc 5659 ee3b
00000040: 354d e0bc 8fc5 bcbc bd07 8fbc 105c d3bb
00000050: 4005 3cbd af10 013b d90e 8cbc 036d 29bb
00000060: 9399 08ba 5d41 54bb 0f20 02bc 781a 44bd
00000070: c7b2 4f3d 0773 253c 2eda be3b 8a2b 343b
00000080: 5fbf 5f3d fc0f 013c 9633 2abc a1f3 373d
00000090: 9551 04bd 1c0e b2bc 6a78 0a3d 4b04 d53c
000000a0: bf27 eb3a 785b 5b3d 30e5 16bb 77ff c0bc
000000b0: a6f9 173c ac08 4c3c 5c4d 50bd eea0 6bbc
000000c0: 24b0 d4b8 7976 49bd 8843 99bb 5623 f63c
000000d0: c110 6a3d 06d4 e3bc 6c7d 23bc 9d15 08bc
000000e0: 3dfc f9bc 4b27 003d ade3 a1bc d405 9a3c
000000f0: acff b3bb ef27 943d 9a44 dcbb 8edb fa3c
-0.050815232 0.0013128787 0.02123359 -0.030053483 -0.0096344985 -0.015564321 0.0081675 -0.03211053
-0.0014311913 0.03450019 -0.04251239 -0.009630092 -0.037298046 0.040823203 -0.010587501 0.0072738333
-0.027380565 -0.023043422 -0.017459745 -0.0064501837 -0.045903444 0.0019693782 -0.017096924 -0.002585233
-0.00052108726 -0.0032387592 -0.007942214 -0.047876805 0.050707605 0.010098225 0.005824349 0.0027491772
0.054625865 0.007877346 -0.010388276 0.044910077 -0.032304365 -0.021735243 0.033806242 0.026003024
0.0017940922 0.05355403 -0.002302479 -0.023559315 0.009275829 0.012453239 -0.050855026 -0.01438163
-0.000101417565 -0.04918525 -0.00467724 0.030046146 0.057144884 -0.027811062 -0.009978633 -0.008305934
-0.030515784 0.031287473 -0.019761885 0.018801607 -0.005493125 0.07234179 -0.006722045 0.03062227

conv3.weight f4 [32, 64, 5, 5]
00000000: 8595 7a3b 2ce5 5c3a 8347 bc3b 857c 4aba
00000010: ba16 9cb9 981e a13b 31bf ac3b 9025 413b
00000020: 593d 0b3b 896e 8138 997b fa3c 3188 24bb
00000030: 3870 1b3d 46bb 5a3c ad13 c23c 0c5f fa3c
00000040: bede 843c b971 153d b037 103d d078 40bc
00000050: 459a 133b d063 b43c 1652 8d3c aa2d 7f3d
00000060: 8d60 ae3b a3b1 5a3b d430 0b3a 85b6 16bb
00000070: 56f2 77bb 1116 2738 6dfe a83a d3c4 de3b
00000080: 4281 9a3a 20f8 913a b669 c7b7 cb86 f53c
00000090: fe62 333c 6b6c 6b3c 4ac4 943b 0829 303d
000000a0: 02ce 32bc 33a7 82b9 0111 223d 5abb 9b3c
000000b0: 00fe 993c 9453 1d3c f24a f9bb d088 583b
000000c0: 1b7c 1d3d ca6b 293c 119a 99bb 7c58 96b7
000000d0: f58b 373a aa9e ea39 1513 be38 9fd3 5abb
000000e0: 03fa 16bb 0a68 8e3b 10ba 883a b119 bf37
000000f0: e0ed 20bc 5489 a03c 3010 a33c 4ecb c03c
00000100: d5ee 92ba c485 c13a 0ad9 09bc 6cfe 7cbc
00000110: 63aa 3e3c 9e83 e63c 1605 83bc d6a8 293c
00000120: b732 16bc 7646 84bc 7e54 fb3c 1f32 eeba
00000130: d935 493a d1b0 843a 3e68 ccb8 2cb9 1038
00000140: 596d 3abb 349f ac3b 94bd 5bba 2efd faba
00000150: 5196 4338 0f51 55bc 4457 edbb 8938 9fb8
00000160: b22b c63c 2b61 dc3c f7f6 723a 63b3 8bbb
00000170: 66ef da3c d301 7d3c e0ee acbb d498 c7bb
00000180: 700f d1bb 8f1c 17bd d4e0 513c 47c9 95bc
00000190: dd95 433b a242 fc3b 3ae7 7a3b f91b 323b
000001a0: 7af1 5037 25f4 b33b c627 2ebb 3a7d 003c
000001b0: 7119 4f3b a6d3 2838 0ab1 fc3c 46a8 613b
000001c0: cb36 d13c 8ba4 2a3c 194a 213b 51dc 133c
000001d0: 65b5 1fbd d4b6 c23c 2afc a83b 4f88 22bc
000001e0: 7868 2dbc 9675 96bb 2f2f 043c 6e06 023d
000001f0: 5b14 6a3c 88e7 cf39 9c14 bdbb 0b2e 0539
00000200: 2ced 08ba 7671 2538 bc45 f4ba 12a3 9b3a
00000210: f774 d3ba cd4f 843a fe6f 6d38 4c56 b1bb
00000220: 44ff b63c 368f 97bc 0fb3 403d 874d 0a3b
00000230: 2b6d 8bbc ab15 b93c e9f7 aabc 9b7f 943b
00000240: 407f d43b a3a4 8fbb 8e88 99bb eda9 043c
00000250: a941 043d 5079 dd3c 9679 34bb b7b8 5e3b
00000260: 036c 36ba ac35 503b c85f 90b9 b73a 1c3c
00000270: f955 043c 57d1 3cbb f4da 4b3a 1c56 dd39
00000280: e33e 443d 604f 78bb b64a 4c3c 5e3b fd3c
00000290: 1b01 123d 4177 97ba 8065 3d3d 6299 fd3c
000002a0: 1bd2 b53a 9347 b4bc 581d dfb7 1f3b a93c
000002b0: 46ea c0bc db32 e9bb d310 fabc 7784 6a3b
000002c0: 384e 443b 3792 5e3a c505 dc3a 7cf7 dfb8
000002d0: 4427 883b 93d5 f33b d471 d93b 2d13 aa3b
000002e0: 1d4b 4d39 3a28 a93c 4798 9e3a 7fb0 153c
000002f0: 2860 653c 0533 20bc 91d7 063d 60bf 973b
00000300: 306c 8d3c 4b8a 893c 0d7a 4bbc 1bf7 03bc
00000310: 9b8f 803c 0602 803c 6356 d43b 872b fdbc
00000320: 069f 4abb bf39 9abb 703c 9dba bb26 b5ba
00000330: f27e e7b7 f36e d2bb 70c3 73bb 5c3b af3b
00000340: 0e6d 05bb e4d7 6538 d41b a0bc 595b 8b3c
00000350: 38b6 503b 7495 583c e6f5 7f3c 9742 10bb
00000360: 061e 2d3d 22f7 823c 464a 643c 0231 523b
00000370: a1bf f83b 51c5 cebb c1d0 c13c 3708 75bc
00000380: cfab 383c 9b9b 3b3b b1ad 073c 7b52 3f3c
00000390: a69e 053b 5874 5639 f468 193c 3f57 f03b
000003a0: f462 2cb9 7649 613b 3128 86b8 b682 2c3d
000003b0: 4bf1 debb ebae 133d 58a4 803c ccad e83b
000003c0: e12d 9d3c 1921 f3bb 61fd 913b b202 c33c
000003d0: f34b 6a3a 25ea 483c b061 c3bb c3b0 3d3c
000003e0: 4d85 6abc 19d7 773c a13d 38b9 de4d fb39
000003f0: 4015 d5b9 f0f7 ea39 a807 9cb9 e8d2 ebb9
0.0038236093 0.0008426483 0.0057458295 -0.00077242433 -0.0002977157 0.004916977 0.005271815 0.0029471852
0.0021246283 6.171788e-05 0.030576514 -0.002510559 0.037948817 0.0133503135 0.023691023 0.0305629
0.016219493 0.036485408 0.035209358 -0.011747554 0.0022522372 0.02202025 0.017251056 0.062299408
0.0053215683 0.003337004 0.0005309705 -0.0022996974 -0.0037833652 3.9836454e-05 0.0012893208 0.0067983656
0.0011787789 0.0011136569 -2.3771874e-05 0.0299715 0.010948895 0.014369111 0.004540001 0.04300788
-0.010913374 -0.00024920105 0.039566997 0.019010235 0.018797874 0.009602446 -0.007607811 0.003304053
0.038448434 0.01034064 -0.0046875556 -1.7922597e-05 0.0007001751 0.00044750172 9.06346e-05 -0.0033390296
-0.0023037202 0.0043458985 0.0010431428 2.2780938e-05 -0.009822339 0.019596733 0.01990518 0.023534443
-0.0011210094 0.0014764597 -0.008413563 -0.015441518 0.011637303 0.028138932 -0.015993636 0.010355195
-0.009167365 -0.01614688 0.030679937 -0.0018172896 0.00076755654 0.0010123496 -9.746895e-05 3.450473e-05
-0.0028446524 0.005268002 -0.00083824364 -0.001914894 4.6631616e-05 -0.013019814 -0.007243069 -7.592241e-05
0.024190757 0.026901802 0.0009268368 -0.004263328 0.026725482 0.015442329 -0.0052774996 -0.0060912166
-0.006380014 -0.03689247 0.012809951 -0.018284453 0.0029843964 0.007698373 0.0038284794 0.0027177318
1.2453989e-05 0.005491751 -0.0026574 0.007842356 0.0031600858 4.0251434e-05 0.030846138 0.0034432574
0.025538823 0.010415207 0.0024610816 0.0090246955 -0.03899135 0.02376882 0.0051570134 -0.009920194
-0.010583989 -0.004591654 0.00806789 0.031744413 0.01428708 0.0003965462 -0.005770279 0.00012701021
-0.00052233296 3.9444734e-05 -0.0018636505 0.001187416 -0.0016132881 0.0010094583 5.6609504e-05 -0.0054118987
0.022338517 -0.018500905 0.047045764 0.0021103339 -0.017019829 0.02259334 -0.020870166 0.0045318133
0.006484896 -0.00438364 -0.004685468 0.008097154 0.03228918 0.027035385 -0.0027538291 0.003398461
-0.0006958844 0.0031770272 -0.00027537183 0.009535483 0.008077138 -0.00288113 0.0007776462 0.0004221656
0.047911536 -0.0037889108 0.012468984 0.030912098 0.035645586 -0.0011555926 0.046239376 0.030956928
0.001387182 -0.022006785 -2.6597336e-05 0.020658074 -0.02354921 -0.007116658 -0.0305256 0.0035784522
0.0029953849 0.00084904156 0.0016786387 -0.00010679566 0.0041550715 0.0074412315 0.006635884 0.005190274
0.00019578305 0.020649064 0.0012099826 0.009136318 0.013999976 -0.009777789 0.032920424 0.004630968
0.017263502 0.016789576 -0.012419236 -0.00805452 0.015693476 0.015625965 0.0064800247 -0.030904545
-0.003091754 -0.004706591 -0.0011996161 -0.0013820747 -2.759646e-05 -0.0064219176 -0.0037195347 0.0053476524
-0.002035919 5.479892e-05 -0.01954452 0.017011331 0.0031846892 0.013219226 0.015622592 -0.0022012347
0.04226496 0.015986983 0.013933724 0.0032072668 0.0075912033 -0.006310143 0.023659112 -0.014955572
0.011271431 0.0028626684 0.008281157 0.01167738 0.0020388751 0.00020451972 0.009363402 0.0073346193
-0.00016440061 0.0034376062 -6.397104e-05 0.042116843 -0.0068036667 0.036055487 0.015703365 0.0071007963
0.019186916 -0.007419717 0.004455254 0.023804996 0.0008937709 0.012262856 -0.005962573 0.011577788
-0.014314008 0.015126967 -0.00017570566 0.00047932466 -0.00040642358 0.00044816686 -0.00029760343 -0.0004497983

conv3.bias f4 [32]
00000000: c233 6fbc 293d 123c 81d2 f0bc 0fb8 da3b
00000010: 2bf2 b3b9 7793 833a b499 f039 5f7e 16bb
00000020: 0e86 11bd 29e5 7f3c 4d11 43bb 2429 2f3d
00000030: 3ec4 2b3b 23ae aabc 5465 ba3c 7d4f 29bd
00000040: d693 423d 9e17 9a3c 0b9f 7bbc 8e5b 9c3c
00000050: ce91 f8ba 12d5 25bc 86d8 d53a 0348 063d
00000060: 30b1 4cbb 4df7 913c e5fd 15bb 3dc0 6a3d
00000070: c1ea bebc 6725 973c 7f3c af3b a999 553d
-0.014599742 0.0089257145 -0.029397251 0.0066747735 -0.0003432197 0.0010038455 0.00045890885 -0.0022963507
-0.035528235 0.015618601 -0.002976495 0.042763844 0.0026209499 -0.020834988 0.022753395 -0.04133557
0.04750427 0.01881009 -0.015357743 0.019086625 -0.0018964352 -0.010121601 0.0016315139 0.03278352
-0.0031233542 0.017818118 -0.0022886929 0.05731224 -0.023305299 0.018450452 0.005347788 0.052148495

fc_1.weight f4 [8, 32]
00000000: f5ea 7e3d 76c9 883e 5be6 74be 72d9 c53e
00000010: b08a e4bd 25ca 67bb 5ffd 94ba 5a8b 1a3e
00000020: 9e07 ab3c 36db 28bd 907f 60bd 3e84 003e
00000030: 41bd 45bd b58a 09be 15e4 40bd 2eb3 9abe
00000040: 5e80 f63c 3acd 7a3e 5cde 1abd 4916 f03d
00000050: 6465 253d 4a17 283e 957c 55bc ea7f bd3e
00000060: cc01 e7bb 1992 03be 5089 ec3c c672 e23c
00000070: 9b1a c3be 900e 2b3c 4f1f f33e c49a 8dbd
00000080: de23 fb3d 9fc0 8a3d 25c3 acbd 9db3 30be
00000090: c664 a8bd 7f2c 393e 3ce2 173b ac5d 5bb9
000000a0: 7bd9 54be 6892 e23d c745 163c 7e08 1d3d
000000b0: 3d7f 613d 3910 c43b 3d63 89bd c447 21be
000000c0: 1bd1 b13e a0a1 cebd 6878 8bbe 1730 d33e
000000d0: 511b bbbc b6a4 1dbe 46f2 393d b5d8 bb3c
000000e0: 14a5 493d 9afe 8bbb 734e 19b9 9cdb 113e
000000f0: cad7 843d c0bb 5fbd 7876 63bd 678c 793e
00000100: 8630 4a3d 3143 c03d 75a7 1e3d 94bd 3f3e
00000110: ffe7 5abc 54d7 913e d425 fd3a 2d4d a0b8
00000120: 20be 933e 7a76 1cbd e2b7 0abe 4ea2 67bd
00000130: adf8 86be 7fae e43d 53be 22bf 9a6c c23c
00000140: 50ef eabd 03bc 373e 4703 6cbe dc2c 503d
00000150: d3cb 9cb9 c363 d33d e0c9 a4bd b267 4e3d
00000160: f70b 11bd eb27 9bbe 9c1f 84b8 5a22 85be
00000170: 0019 dcba 7e51 6fbd 1661 923e ff7b 90be
00000180: f388 223e 4d25 c8bd f13f 00bd 1f18 453e
00000190: e29c cf3d 9325 9abd 8573 c13d e475 f1b7
000001a0: e980 8dbd c1ea 59be 3928 bdb8 37bd 60be
000001b0: 3237 fc3d 870c c8bc d873 a73e d390 083d
000001c0: 2e61 2fbd ee30 46be d448 583e a5bb 6cbe
000001d0: fc83 0f39 4dee f3bd 2c19 e83b bfa8 9cbd
000001e0: a57a 443e 6c3d 12be 953a 5639 72f3 a5be
000001f0: fe5a 08bc 3e58 3ebe 6e2f bfbe 13aa 8b3c
00000200: 3166 3d3e 45ef 233d 9aca 2d3e 10b3 23bd
00000210: e1df 79be 488a 8ebb d9dd 013b f1b2 40bd
00000220: b16b a9bd 6a9e c3be 197e 29be 82c3 79be
00000230: 02f4 543e f917 8cbc 7a37 5f3e bd96 d83d
00000240: d68c 54be 20e9 b4bd 13b5 4dbc e742 19bd
00000250: e21d 3abb 0cfb 8a3d b069 73b7 6a8a 753e
00000260: b903 a23d c0c0 28be 0357 14be da07 47be
00000270: e273 13be 8105 c1be ae67 8b3d bd09 c9be
00000280: be23 d93d 311b 36be d036 ce3e 5345 a73d
00000290: 0c23 953d 7436 94be aa6d 92bd be60 3639
000002a0: 1de2 efba 3b70 fb3d 0f8b cf3e 6a62 8b3c
000002b0: 09ca 0fbd 685f efbc ef84 0dbe a214 143e
000002c0: 0006 29be a7d1 9f3d 05dc 07be f76b a5be
000002d0: ee39 d5b9 84ec 0fbc b163 953d 4215 88bd
000002e0: 9699 193e acb5 b93d 440c 26bd 3966 99bd
000002f0: 09b6 f2bd fe51 f53d 67eb 233e 8282 27be
00000300: 04bc 68bd 4b8b afbe 5b41 08bd d466 cbbc
00000310: a264 95bd 3030 613e 1f8e 4238 00d1 0bb4
00000320: 62c0 d83d 7256 22be 99ac 83bc 05b4 2abe
00000330: a3de 66be ecc8 813e ba44 ca3d be24 7dbe
00000340: d64c f03b c94e b73e 1677 7bbd c630 aabe
00000350: 4861 033b 5f2c 35be 9f72 14bb 4e0d 933e
00000360: 2ba0 50ba d1a5 26bd e60c f0b7 9906 1cbd
00000370: ea4e b4bc a12b af3d 6bd5 2fbe 8d69 98bd
00000380: f835 ddbd 1dd7 e5bd 4f87 dd3d 8d5b e23e
00000390: 3d4c a93e d13f afbe bb23 51b8 6d8c 1aba
000003a0: 3cf4 d2bd 84b5 9a3e ed9d a0bc 19f4 553b
000003b0: d893 7dbd 7aab 90be 461c b13d dafd 843d
000003c0: 06e9 ba3e 47d8 f93c dd9f 59be b1d0 84be
000003d0: 0308 e838 aa77 b5be e563 49bc 16ed ab3d
000003e0: 8e39 ff3d bd77 393e a58c d0bd 7a6a fc3d
000003f0: c1c5 26be 52d1 073e 74ba 823d 4e22 9a3d
0.06223579 0.26716202 -0.23915999 0.3864246 -0.11159265 -0.003536829 -0.0011367014 0.15092221
0.020877656 -0.04122468 -0.054809153 0.12550446 -0.04827619 -0.13431819 -0.047092516 -0.30214828
0.030090507 0.2449235 -0.037809715 0.117230006 0.040379897 0.16415134 -0.013030191 0.37011653
-0.0070497748 -0.128487 0.02887407 0.027642619 -0.38106236 0.010440484 0.47484824 -0.06914285
0.122627005 0.06775021 -0.08435658 -0.17256017 -0.08222346 0.1808338 0.0023175618 -0.00020920363
-0.20786087 0.11063081 0.00917191 0.038338177 0.055052985 0.005983379 -0.06708381 -0.15750033
0.34729847 -0.10089421 -0.272403 0.41247627 -0.022840174 -0.15394863 0.045397066 0.022930482
0.049229696 -0.004272294 -0.00014620442 0.1424393 0.06486471 -0.05462241 -0.055532902 0.24369965
0.04936268 0.09387816 0.03873392 0.18724662 -0.013360976 0.28484595 0.0019313642 -7.64377e-05
0.2885599 -0.038198926 -0.13546708 -0.05655127 -0.263616 0.11166095 -0.6357166 0.023733426
-0.114714265 0.17942815 -0.23048125 0.05082403 -0.000299065 0.103217624 -0.08046317 0.05039186
-0.0354118 -0.30303892 -6.300138e-05 -0.2600277 -0.0016792119 -0.058427326 0.28589696 -0.28219602
0.15872554 -0.097727396 -0.03131098 0.19247483 0.10137345 -0.07526698 0.09445862 -2.8784336e-05
-0.06909353 -0.21280958 -9.019714e-05 -0.2194718 0.12315215 -0.024420036 0.3270557 0.03334124
-0.042817287 -0.19354603 0.21121532 -0.23118456 0.00013686711 -0.11910687 0.007083079 -0.07649373
0.1918741 -0.14281243 0.00020430454 -0.32412297 -0.0083224755 -0.18588349 -0.37340873 0.017048871
0.18496014 0.040023107 0.16971818 -0.03996569 -0.2440181 -0.0043499805 0.001981607 -0.04704565
-0.08272494 -0.38206798 -0.16552009 -0.24390987 0.20796207 -0.017101275 0.21798506 0.10575626
-0.2075685 -0.088335276 -0.0125553785 -0.03741732 -0.002839916 0.06786165 -1.4508536e-05 0.23978582
0.07910866 -0.16479778 -0.14486317 -0.19436589 -0.14399675 -0.37699512 0.06806885 -0.39265242
0.106025204 -0.1778381 0.40276194 0.081675194 0.07282075 -0.28947794 -0.07149823 0.00017392912
-0.001830164 0.12277266 0.4053578 0.0170147 -0.035104785 -0.029220298 -0.13820241 0.14460996
-0.16506195 0.0780366 -0.13267525 -0.32308933 -0.00040669687 -0.008784417 0.07294405 -0.066446796
0.14999995 0.09067854 -0.04053904 -0.074902005 -0.11851127 0.119785294 0.16007768 -0.16358379
-0.05681993 -0.3428596 -0.033265453 -0.024829306 -0.07294585 0.21991038 4.6385565e-05 -1.3021418e-07
0.10583569 -0.15853289 -0.016073512 -0.16670235 -0.22545867 0.25348604 0.0987639 -0.24721047
0.0073333783 0.35802296 -0.061392866 -0.33240336 0.0020046998 -0.17692707 -0.0022651327 0.28721088
-0.0007958437 -0.04068548 -2.8616236e-05 -0.03809223 -0.022010285 0.085532434 -0.17171256 -0.07442007
-0.10801309 -0.1122267 0.10816824 0.44210473 0.33065978 -0.34228376 -4.986276e-05 -0.0005895559
-0.1030049 0.3021661 -0.019606555 0.0032646714 -0.061908573 -0.28255826 0.08647971 0.06493731
0.36505908 0.030498637 -0.21252389 -0.2594047 0.000110641144 -0.3544286 -0.012291883 0.0839483
0.124621496 0.18112083 -0.10183076 0.12324996 -0.16286375 0.13263443 0.06383219 0.07526074

fc_1.bias f4 [8]
00000000: de8a 033d 3c11 de3c 566f 36bd 2440 a9bc
00000010: e7d9 bcbc 1466 80bc 6432 a83b 4527 c53b
0.032114856 0.027107827 -0.044539772 -0.020660467 -0.023053123 -0.015673675 0.00513296 0.006016644
