checkpoints/source/epoch=1.checkpoint.pth.tar (torch, 317556 bytes, 10 tensors)

conv1.weight f4 [16, 3, 5, 5]
0	0x3e546236	0.2074059
1	0x3e21c1aa	0.15796533
2	0x3dc005d9	0.09376115
3	0xbe7dd7f0	-0.24789405
4	0x3d8a11c4	0.0674167
5	0xbe1c63fd	-0.15272518
6	0xbc870b3c	-0.01648485
7	0xbe44bc55	-0.19212468
8	0xbdc22c6d	-0.0948113
9	0x3e34c40c	0.17652911
10	0xbd6971e0	-0.056993365
11	0xbe2ff6ba	-0.17183962
12	0xbdc02873	-0.09382715
13	0xbd9a8a7a	-0.075459436
14	0xbdcefc0d	-0.101066686
15	0x3d9c14d5	0.07621161
16	0x3e33e54c	0.17567939
17	0xbcf5750f	-0.029963044
18	0xbd906464	-0.07050398
19	0x3d0a4297	0.03375491
20	0xbdc64681	-0.09681416
21	0x3de413c9	0.11136586
22	0x3da2a7cc	0.07942161
23	0x3e34c5b5	0.17653544
24	0x3e0341ed	0.12818117
25	0x3e0d3632	0.13790205
26	0x3d7b6ec7	0.061384942
27	0x3e15d185	0.14630707
28	0xbd03c9e9	-0.03217498
29	0xbb1c2368	-0.0023824815
30	0xbd1d3660	-0.038381934
31	0x3db7ad60	0.089686155
32	0xbe2562fa	-0.16151038
33	0xbdd74333	-0.10510864
34	0xbd0933c6	-0.03349664
35	0x3e3dcc3f	0.18534945
36	0x3cdb2eff	0.026755808
37	0xbd5d01a8	-0.053956658
38	0x3cd4d6ea	0.025981385
39	0xbdc9d17d	-0.0985441
40	0xbe3def82	-0.18548396
41	0x3dd4fccc	0.1039978
42	0xbdda8c28	-0.10671264
43	0xbda1e12d	-0.07904277
44	0xbe215087	-0.15753375
45	0x3e6ef234	0.2333458
46	0xbe18bc85	-0.14915664
47	0xbd805966	-0.062670514
48	0xbdedceba	-0.116116956
49	0xbdb73fe4	-0.08947733
50	0x39fb3eac	0.00047921145
51	0x3d57557c	0.05257176
52	0xbd7b4125	-0.061341424
53	0x3e03e70f	0.1288111
54	0xbdcde8c1	-0.1005416
55	0xbdbd7d80	-0.09252453
56	0xbe2ad72f	-0.16683649
57	0xbb214d2c	-0.0024612648
58	0xbc6c1e66	-0.014411544
59	0x3d8aeef9	0.06783862
60	0xbca95a2a	-0.020672876
61	0x3e4dc2cc	0.2009384
62	0xbe1038d1	-0.14084174
63	0x3e17cbb7	0.14823805
64	0x3e1d413b	0.15356915
65	0x3db6c61f	0.08924507
66	0x3e7963e8	0.24354517
67	0x3d4f4358	0.050601333
68	0x3cebbbad	0.028776014
69	0xbd0f55a4	-0.034993783
70	0xbe024331	-0.12720944
71	0x3e0c536a	0.13703695
72	0xbceb0679	-0.02868961
73	0x3d43a0e4	0.04776086
74	0xbbf57950	-0.007491268
75	0x3d2cae05	0.042158145
76	0x3d766919	0.060158823
77	0xbd9f5896	-0.07780568
78	0xbe8304e1	-0.2558966
79	0xbdb8d301	-0.09024621
80	0xbbc9837f	-0.0061497088
81	0xbd39d43b	-0.045368414
82	0xbe21990b	-0.15781038
83	0xbd951c0e	-0.07280742
84	0x3d5ed75b	0.054404598
85	0x3d59bd54	0.053159073
86	0x3df7fcf6	0.12108795
87	0x39b40c1f	0.00034341306
88	0x3d9e371b	0.07725354
89	0xbd7af8e6	-0.061272524
90	0xbe021bc8	-0.1270591
91	0x3d72df26	0.059294842
92	0xbe4f0571	-0.2021692
93	0xbdcdaa58	-0.10042256
94	0x3e147f73	0.14501743
95	0x3d397a0a	0.0452824
96	0xbe972895	-0.2952315
97	0x3d3d1f0c	0.046172187
98	0x3da4e278	0.08051008
99	0xbb546839	-0.0032410754
100	0x3d881819	0.06645221
101	0x3d791543	0.060811292
102	0x3ded7e0e	0.11596309
103	0xbd6884d7	-0.05676731
104	0xbcdd5183	-0.027016407
105	0x3da02ae3	0.0782068
106	0x3d1efda8	0.038816124
107	0x3c649b84	0.013953093
108	0x3cc12577	0.023577435
109	0x3e0d0be3	0.13774066
110	0xbc1721a7	-0.009224332
111	0xbd338bf7	-0.043834653
112	0xbe31d648	-0.17366898
113	0xbc9e6631	-0.019335838
114	0xbd996655	-0.074902214
115	0x3d34cedc	0.04414259
116	0x3d946b55	0.072470345
117	0x3a9820e0	0.0011606477
118	0xbd58d7c3	-0.05294014
119	0x3d594539	0.05304453
120	0xbc47b0bd	-0.012188134
121	0x3c8718c7	0.016491307
122	0x3b9dcd9d	0.004815771
123	0x3d9ed796	0.077559635
124	0x3df0411e	0.1173117
125	0x3d04dafb	0.0324354
126	0x3d9cec1b	0.07662221
127	0x3d2a9ddf	0.041654464
128	0x3e5bf33c	0.21479505
129	0x3ddfb91e	0.1092398
130	0xbe2eabe6	-0.17057762
131	0xbe0a985c	-0.13534683
132	0xbcb09c24	-0.021558829
133	0x3e3859b5	0.1800297
134	0x3d8a80ef	0.067628734
135	0x3d6b64ed	0.057469297
136	0x3df8c520	0.121469736
137	0xbbca8feb	-0.006181707
138	0xbe59d866	-0.21273956
139	0x3dc9f372	0.09860887
140	0xbd5555bb	-0.052083712
141	0x3ddd5d1c	0.10808775
142	0xbdb3e91d	-0.08784697
143	0x3d8110d1	0.063020356
144	0xbdf18da2	-0.117945924
145	0x3dca9c2a	0.09893067
146	0x3e31fa46	0.17380628
147	0x3e1e2e65	0.15447386
148	0x3ca5d03b	0.020240894
149	0xbd03d0be	-0.032181494
150	0xbd9a93e1	-0.07547737
151	0x3ca7cfab	0.020484766
152	0x3d35d260	0.044390082
153	0x3de963c6	0.113959834
154	0xbd418252	-0.047243424
155	0x3e42bac5	0.1901656
156	0xbe8c3634	-0.27385104
157	0xbd2ce798	-0.042213053
158	0xbe04ff15	-0.12987931
159	0x3dc3ab16	0.095541164
160	0xbe5668a5	-0.20938356
161	0x3cfb54fb	0.03068017
162	0x3bbdbe05	0.0057904744
163	0xbd11bbe4	-0.035579577
164	0x3ce38d68	0.027777389
165	0xbd9e8b24	-0.07741383
166	0x3cb5c43c	0.022188298
167	0xbdfac0a9	-0.12243778
168	0xbe3acfea	-0.18243375
169	0x3e118a6b	0.14212959
170	0x3e189d04	0.14903647
171	0x3bb1e999	0.0054294583
172	0xbe351d47	-0.1768695
173	0x3d9878bd	0.07444904
174	0x3d9be2e7	0.076116376
175	0x3e7536b6	0.23946652
176	0x3c7d9f64	0.015479896
177	0x3cace331	0.021104427
178	0xbdadad97	-0.08480375
179	0xbc87672d	-0.01652869
180	0xbdc2e4c3	-0.09516289
181	0xbe2e7534	-0.17036897
182	0xbdf8a63c	-0.12141082
183	0xbd52768a	-0.05138258
184	0xbd58f4c2	-0.052967794
185	0xbe257355	-0.16157277
186	0xbe576f3d	-0.21038528
187	0x3cadca28	0.02121456
188	0x3dfa0700	0.122083664
189	0xbd828b82	-0.06374265
190	0x3db46837	0.0880894
191	0x3db1beda	0.0867898
192	0x3e523328	0.20527327
193	0xbdd29820	-0.10282922
194	0x3dcf13e8	0.10111219
195	0xbcffa3bd	-0.031206006
196	0xbe03df04	-0.12878042
197	0x3d26c103	0.040711414
198	0x3d4186c4	0.047247663
199	0x3e13edc3	0.14446168
200	0x3d901aa1	0.07036329
201	0x3e7ffc4e	0.2499859
202	0xbd4e6830	-0.05039233
203	0xbdca2232	-0.098698035
204	0x3ceae153	0.028671896
205	0x3e06d742	0.13168052
206	0x3e218f13	0.15777235
207	0x3d71ad68	0.059003264
208	0xbdae1247	-0.0849958
209	0xbde0e231	-0.109806426
210	0xbd3f9721	-0.046774987
211	0xbd71da57	-0.059046116
212	0x3cc1f484	0.023676164
213	0x3d61cd7e	0.055127613
214	0xbc9c9165	-0.019112298
215	0xbe82117e	-0.2540397
216	0xbd1bc7be	-0.038032286
217	0x3dff8004	0.12475589
218	0xbe4e3d8b	-0.20140664
219	0x3e2485bd	0.16066642
220	0x3d309f83	0.043120872
221	0xbd52a5f6	-0.051427804
222	0x3de9cb9e	0.1141579
223	0x3e39c8ae	0.1814296
224	0xbc38c28e	-0.011276854
225	0x3e39e762	0.18154672
226	0x3c007bac	0.007841986
227	0xbe0288c9	-0.12747492
228	0xbd9430ec	-0.072358936
229	0x3af284cc	0.0018502711
230	0x3d18d57e	0.037312977
231	0x3e5f19c6	0.21787176
232	0xbc74435c	-0.014908638
233	0xbde1ea12	-0.110309735
234	0xbe758269	-0.23975529
235	0xbe05a958	-0.13052881
236	0xbbe0a325	-0.006855386
237	0xb9c379e4	-0.00037284114
238	0x3c4b9563	0.012425753
239	0x3d18b522	0.037282117
240	0xbde583cf	-0.11206781
241	0x3cbe5134	0.02323208
242	0xbd8ffb9d	-0.07030413
243	0x3d2fc2b1	0.04291028
244	0xbddfaba0	-0.10921407
245	0xbc1bd464	-0.009511087
246	0xbd482f03	-0.04887296
247	0x3e20f9e4	0.15720326
248	0x3e075dca	0.13219371
249	0xbdbcf6d5	-0.09226767
250	0x3db5b330	0.08872068
251	0x3d485baa	0.048915543
252	0x3d5871f3	0.052843045
253	0x3d68ce5a	0.056837417
254	0x3d4a9bc4	0.049464956
255	0x3c8a43b5	0.016877988

conv1.bias f4 [16]
0	0xbc6727af	-0.014108582
1	0xbc139262	-0.009007068
2	0xbc2d7b35	-0.010588457
3	0xbb1f6ef6	-0.0024327612
4	0xbb9efab2	-0.0048516626
5	0xbbae84ae	-0.0053258752
6	0xbb65c5b3	-0.0035060465
7	0xbbfa98d1	-0.0076476117
8	0xbc3fab9d	-0.011698631
9	0xbbc7b71c	-0.0060948264
10	0xbbaf2828	-0.005345363
11	0xbac97ff6	-0.0015373218
12	0xbb951e59	-0.004550737
13	0xbc499d3d	-0.012305555
14	0xbc08858f	-0.008332624
15	0xbc3f7c30	-0.011687323

conv2.weight f4 [64, 16, 5, 5]
0	0x3ca0db0b	0.019635698
1	0x3c4fc04c	0.0126801245
2	0x3d1d4946	0.038399957
3	0x3dca2a82	0.09871389
4	0x3cc11065	0.023567388
5	0x3c92d77e	0.01792502
6	0xbb952110	-0.0045510605
7	0x3d55d26e	0.052202635
8	0xbcbe0129	-0.023193913
9	0xbd176aa4	-0.036966935
10	0xbc426ba0	-0.01186648
11	0x3ddfa43e	0.109199986
12	0xbd116392	-0.03549535
13	0xbbeb72bd	-0.0071853087
14	0x3da8c8c4	0.08241418
15	0xbc5ffc59	-0.013671004
16	0xb9df07f0	-0.00042539788
17	0x3d682cd0	0.05668336
18	0x3d9fe084	0.07806495
19	0x3d4c0d52	0.04981739
20	0xbbcb7750	-0.0062092915
21	0x3d0bf077	0.034164872
22	0x3c035ba5	0.008017455
23	0xbc81e00b	-0.015853902
24	0xbdb60c7c	-0.088891
25	0x3cae10b0	0.021248192
26	0xbd18b704	-0.037283912
27	0xbbda483b	-0.0066614426
28	0xbc3d8901	-0.011568309
29	0x3d8af2aa	0.06784566
30	0xbd931b06	-0.07182889
31	0xbc91bf25	-0.01779134
32	0x3b7e6201	0.003881574
33	0xbd8cee2c	-0.06881365
34	0xbda0968a	-0.07841213
35	0xbcdc8302	-0.026917938
36	0x3cce1a0d	0.025158906
37	0xbd82a9a8	-0.063800156
38	0x3d7f4223	0.062318932
39	0xbdbfcd1d	-0.09365294
40	0x3d8df773	0.06931963
41	0x3c34510d	0.011005652
42	0xbd52139c	-0.051288232
43	0x3d14a050	0.0362857
44	0xbd091aa3	-0.03347267
45	0xbc937085	-0.01799799
46	0x3ca4b185	0.02010418
47	0x3d355cb8	0.044277877
48	0xbcad3e0b	-0.021147748
49	0x3d191eda	0.037382938
50	0xbd060da8	-0.032727867
51	0x3c224be9	0.009905794
52	0xbcfb95bd	-0.03071105
53	0x3d5a214d	0.053254414
54	0x3cde37fa	0.027126301
55	0x3d70a0be	0.058747046
56	0x3cdc53ea	0.026895482
57	0xbd493a08	-0.04912761
58	0xbd062f57	-0.03275999
59	0x3c029ed0	0.007972434
60	0xbccfc895	-0.0253642
61	0xbcac0df5	-0.021002749
62	0x3d2dd753	0.042441677
63	0x3de4fb02	0.111806884
64	0xbda19b6b	-0.07890972
65	0xbd1b74fe	-0.03795337
66	0x3d0f568b	0.034994643
67	0x3d5f90d9	0.054581497
68	0x3d5c8777	0.053840127
69	0x3c234ef0	0.009967551
70	0xbd209bd3	-0.039211106
71	0xbcdcdc40	-0.026960492
72	0x3e03df30	0.12878108
73	0xbda50487	-0.08057504
74	0x3cc9319b	0.024559787
75	0xbd91abd5	-0.071128525
76	0xbcc3254b	-0.023821494
77	0xbb40565a	-0.0029348345
78	0xbce89779	-0.02839254
79	0xbd62a205	-0.055330295
80	0xbc80c25c	-0.015717678
81	0xbc6b6c9d	-0.014369157
82	0x3d5b8abc	0.053599104
83	0x3bff54f8	0.0077921115
84	0x3cf29747	0.02961315
85	0xbd409b9f	-0.04702341
86	0x3d690596	0.056890093
87	0x3c824fcc	0.01590719
88	0xbc9aaaf9	-0.018880354
89	0xbd209e38	-0.03921339
90	0xbbe20d68	-0.006898571
91	0xbce0b1e2	-0.027428571
92	0x3ba0155e	0.0048853597
93	0x3dadefaa	0.08492978
94	0xbd8cbeb5	-0.06872312
95	0xbb50868c	-0.0031818477
96	0x3c39a361	0.0113304565
97	0x3c716e64	0.014735792
98	0x3d1c8d1e	0.038220517
99	0x3d6ad7ef	0.057334837
100	0xbd205168	-0.039140135
101	0xbd7a2367	-0.06106892
102	0xbcf2a5d7	-0.029620094
103	0x3d90b6f6	0.07066147
104	0x3c89e062	0.016830627
105	0xbcbb0ff3	-0.022834754
106	0xbd6491c4	-0.055803075
107	0x3d8ff3cf	0.07028925
108	0x3b58664f	0.0033019965
109	0x3bb4102a	0.005495091
110	0xbd471d81	-0.04861212
111	0xbc4c7454	-0.012478907
112	0x3d23629c	0.039888963
113	0xbd2ba229	-0.041902695
114	0xbdd7f011	-0.10543836
115	0xbd0c6837	-0.034279075
116	0x3d3c53ee	0.04597848
117	0x3d87a50a	0.066232756
118	0x3b40e504	0.002943338
119	0x3d84dddd	0.064876296
120	0x3d8ea5e7	0.06965237
121	0xbb3c1008	-0.0028696079
122	0xbccda543	-0.025103217
123	0xbb9dbd48	-0.004813824
124	0x3d087107	0.033310916
125	0x3bf31bb8	0.007419076
126	0xbcb0fbe2	-0.021604482
127	0xbcbae390	-0.022813588
128	0x3c2b3746	0.01045019
129	0xbd8c90ce	-0.06863557
130	0x3cd4693d	0.025929088
131	0xbc981385	-0.018563995
132	0xbdb7ffcf	-0.089843385
133	0x3c18b606	0.0093207415
134	0xbc9c9cd9	-0.01911776
135	0xbd5ad9b3	-0.05343027
136	0xbc489370	-0.012242183
137	0x3ba6ec88	0.0050941147
138	0x3bc2261d	0.0059249536
139	0x3d79ec41	0.061016325
140	0x3db7f7ef	0.089828365
141	0x3ddad5ba	0.10685296
142	0x3aed1ec9	0.001809084
143	0xbd6959bb	-0.05697034
144	0xbc986a29	-0.018605309
145	0xbcd1c3c5	-0.025606045
146	0x3d0afeea	0.03393451
147	0xbd6efc1c	-0.0583459
148	0x3c837589	0.016047256
149	0x3d2082e7	0.03918734
150	0xbd402d27	-0.04691806
151	0xbcaea629	-0.021319466
152	0xbd422407	-0.04739764
153	0xb9303538	-0.00016804493
154	0xbcd1cf90	-0.025611669
155	0x3ca65315	0.020303288
156	0x3c78307d	0.015148279
157	0xbd1f47a4	-0.03888668
158	0xbcb45d31	-0.022017093
159	0x3d11ac61	0.035564784
160	0x3ce18964	0.027531333
161	0x3d7bc7a9	0.061469708
162	0xbc15d1b0	-0.009144232
163	0x3d8a6642	0.067577854
164	0xbd0ed398	-0.03486976
165	0x3ca428c4	0.02003897
166	0xbc32287f	-0.010873913
167	0xbc189813	-0.009313601
168	0xbc128748	-0.008943386
169	0xbcd4e64a	-0.025988717
170	0x3b30dbd8	0.0026986506
171	0xbbefb9b9	-0.007315841
172	0x3d9409c2	0.07228424
173	0x3bdced2d	0.0067421407
174	0xbcc53a25	-0.024075577
175	0xbcb635f1	-0.022242518
176	0x3e126c46	0.14299116
177	0xbd4d4e08	-0.050123245
178	0x3dc50ce1	0.09621597
179	0xbd4fdba7	-0.050746586
180	0xbd9b4908	-0.07582289
181	0x3bbaa563	0.005695985
182	0xbd259430	-0.040424526
183	0xbc647eb5	-0.013946225
184	0xbd325e3a	-0.043546893
185	0x3bf0bbeb	0.0073466203
186	0x3d194a2e	0.03742426
187	0xbd8553d2	-0.06510128
188	0x3d769833	0.060203742
189	0x3bb1c82f	0.005425475
190	0x3dcae78e	0.09907447
191	0xbab966c3	-0.0014145005
192	0xbd4d7de7	-0.050168898
193	0x3d4110b6	0.047135077
194	0xbbc6cd7c	-0.006066976
195	0xbd630a5c	-0.0554298
196	0x3d13d901	0.036095623
197	0xbc259b32	-0.010107802
198	0xbc8c14b4	-0.017099716
199	0xbc2fa5d4	-0.010720689
200	0x3da06d4f	0.07833349
201	0x3bd819d3	0.0065948754
202	0x3da86ff4	0.08224478
203	0xbc019cac	-0.007910889
204	0x3d68517c	0.056718335
205	0x3d756037	0.05990621
206	0x3c7bd582	0.015370728
207	0x3bec1b19	0.0072053787
208	0x3c24fc48	0.010069914
209	0xbd56b46d	-0.05241816
210	0xbd42f5b5	-0.047597606
211	0xbcafd911	-0.02146581
212	0xbd2914cb	-0.041279595
213	0x3cc9d19f	0.024636088
214	0xbd269c4f	-0.04067641
215	0x3d2c51c8	0.04207018
216	0x3d122749	0.035681996
217	0xbc4ee70b	-0.012628327
218	0x3c623f93	0.013809103
219	0xbd72ecb2	-0.05930776
220	0xbceb6baf	-0.028737871
221	0xbc912ea0	-0.017722428
222	0x3bf1213e	0.007358699
223	0x3d46cda1	0.048535947
224	0xbd2a0962	-0.041512854
225	0x3cade010	0.021225005
226	0x3d361bab	0.04445998
227	0xbd31e5fb	-0.043432217
228	0x3ca2835c	0.019838028
229	0x3cd2ee01	0.025748255
230	0x3dbf7a50	0.09349501
231	0xbd2a9dd6	-0.04165443
232	0xbd802107	-0.062562995
233	0xbba48552	-0.005020776
234	0x3c9e90b3	0.019356107
235	0xbccb2fa9	-0.024803
236	0xbd27cbe2	-0.040965922
237	0xbd18f8d4	-0.037346676
238	0x3d958375	0.07300464
239	0xbd9828f3	-0.074296854
240	0x3d010610	0.031499922
241	0xbca11711	-0.01966432
242	0xbd4127de	-0.04715716
243	0x3ca4b2dd	0.02010482
244	0x3c1a6d16	0.009425422
245	0x3d07f336	0.03319093
246	0xbd801aad	-0.06255088
247	0x3d748bee	0.05970376
248	0x3caf9818	0.021434829
249	0x3d7a9e09	0.06118587
250	0x39788fca	0.00023704689
251	0x3c612a32	0.01374297
252	0xbb543943	-0.0032382763
253	0xbb94438a	-0.004524653
254	0xbd1a9693	-0.037741255
255	0x3d6d5155	0.057938892

conv2.bias f4 [64]
0	0x3a304686	0.0006724376
1	0x39f29471	0.00046268434
2	0xbc19d432	-0.00938897
3	0xbb8e881d	-0.004349722
4	0x3b7b9244	0.0038386742
5	0xbc23acfa	-0.009989971
6	0xbb6dee29	-0.0036305285
7	0xbb8d3778	-0.004309591
8	0x3a8e34d2	0.0010849482
9	0xbc1074a7	-0.008816875
10	0xbb8895dc	-0.0041682553
11	0xbbac58e3	-0.0052596196
12	0xbc40c671	-0.011766062
13	0x3b8862d2	0.004162171
14	0xbb8e6116	-0.0043450696
15	0xbbb321d7	-0.0054666805
16	0xbb058b89	-0.002037736
17	0xbbc02d18	-0.0058647506
18	0x3a01afe7	0.0004947171
19	0xbbba2dcb	-0.0056817285
20	0xbbc072e5	-0.0058730715
21	0xbb961cb3	-0.004581058
22	0xb98e02ea	-0.00027086522
23	0xbb9f7da7	-0.004867274
24	0xb9edfd67	-0.00045392962
25	0xbc11e9ef	-0.008905872
26	0xbbe04f6c	-0.0068454053
27	0xbb677e7f	-0.00353232
28	0x3b073b3c	0.0020634672
29	0xbbecb655	-0.007223884
30	0xbc4ced59	-0.01250776
31	0xbc19b12a	-0.009380618
32	0x3bcd9ade	0.006274565
33	0xbbd5ca5f	-0.0065243687
34	0xbba2671c	-0.0049561393
35	0xba8c8534	-0.001072085
36	0xbb1eadf5	-0.0024212573
37	0xbbaa0980	-0.005189121
38	0xbb7b9193	-0.003838633
39	0xbbf9ba67	-0.007621098
40	0xba6f8424	-0.0009136817
41	0xbac4b324	-0.0015007001
42	0xbc02a329	-0.007973471
43	0xbb62f0fd	-0.0034628503
44	0xbb475b05	-0.0030419242
45	0xbc29d3a6	-0.010365402
46	0xbbac2cd0	-0.0052543655
47	0x3a0a6868	0.000527984
48	0x3af68de8	0.0018810602
49	0x3a19a510	0.0005861083
50	0xbb4fa96d	-0.003168668
51	0xbb26c82c	-0.0025448902
52	0xbb64636c	-0.00348493
53	0xbb65070b	-0.0034946825
54	0xbb98b411	-0.0046601375
55	0xbbe55e82	-0.0069997916
56	0xbb36d9c9	-0.0027900806
57	0xbad30a89	-0.0016101162
58	0xbc116d46	-0.0088761505
59	0x3b4f1213	0.0031596466
60	0xbb2c9784	-0.0026335428
61	0x3b7ab58e	0.0038255188
62	0xbb959118	-0.0045644157
63	0xbb461167	-0.0030222775

conv3.weight f4 [32, 64, 5, 5]
0	0x3a391e83	0.00070617365
1	0x3ac0e069	0.0014715317
2	0xbb0cf6d6	-0.002150943
3	0xbb34f0e2	-0.0027609398
4	0xbb333972	-0.0027347472
5	0xbccce5a2	-0.025011841
6	0x3c8d6101	0.01725817
7	0x3af1ce15	0.0018448258
8	0x3d08750d	0.033314753
9	0xbbba4720	-0.0056847483
10	0x3d04ab75	0.032390077
11	0xbba2bc51	-0.0049662967
12	0x3cf85d63	0.030317968
13	0xbc00ce1b	-0.007861639
14	0x3beb8455	0.007187406
15	0x3cd97855	0.026546637
16	0xbc3a723f	-0.011379777
17	0x3cd8ddc6	0.026472937
18	0x3c777e36	0.015105775
19	0xbc952270	-0.018204898
20	0x3b914d9d	0.004434301
21	0x3b4d6437	0.003134025
22	0xbb43676b	-0.002981628
23	0x3d152855	0.036415417
24	0x3b16f66c	0.0023035062
25	0x3c863219	0.01638131
26	0xbb679751	-0.0035337994
27	0xbc8a9078	-0.016914591
28	0xbc3e8b10	-0.011629835
29	0xbaf3c6e3	-0.0018598702
30	0xbba67b5d	-0.005080624
31	0xbc36ecc9	-0.011164852
32	0x3d217539	0.039418433
33	0x3ce928f2	0.028461907
34	0x3aa09bae	0.0012253427
35	0x3d2219cd	0.039575387
36	0x3b7409cf	0.0037237292
37	0x3b80912f	0.0039235572
38	0xbc3ecb7b	-0.011645193
39	0x3d6621ea	0.056184687
40	0xbc703a64	-0.014662359
41	0xbc0c3900	-0.008558512
42	0x3cf3be74	0.029753901
43	0x3b854e74	0.00406819
44	0x3c024dcc	0.0079531185
45	0xbc0c410c	-0.00856043
46	0xbc60ffad	-0.013732833
47	0xbc779b40	-0.015112698
48	0x3c6ab771	0.014325962
49	0xbc6eed34	-0.014582921
50	0xbbb1c7f7	-0.005425449
51	0xbcc34a0f	-0.023839025
52	0xbd04608e	-0.032318644
53	0x3b77a95c	0.0037790155
54	0x3afc1d25	0.001923476
55	0x3c1119e7	0.008856273
56	0x3cd35742	0.025798444
57	0xbc4d8994	-0.012545008
58	0xbbab5041	-0.005228073
59	0xba22107a	-0.0006182265
60	0xbcf3912d	-0.029732311
61	0x3cd8da22	0.026471201
62	0x3c06c1c3	0.008224907
63	0x3c681836	0.014165929
64	0x3a1858c1	0.0005811565
65	0x3c816a4a	0.015797753
66	0xbc1bf1e3	-0.0095181195
67	0xbd2ab5b7	-0.041677203
68	0x3c2f30de	0.010692803
69	0x3d0623bd	0.032748926
70	0xbd3669be	-0.044534437
71	0x3c086514	0.00832488
72	0xbd01040c	-0.031498
73	0xbcf7e787	-0.030261768
74	0x3c829200	0.015938759
75	0xbcb22cb4	-0.021749832
76	0xbc2a49ec	-0.010393601
77	0xbceecdf2	-0.029150937
78	0xbbe95d78	-0.007121738
79	0x3b2eb1c6	0.0026656254
80	0x3c6c5ada	0.014425958
81	0xb89a125e	-7.3467134e-05
82	0xbcc203a9	-0.023683386
83	0xbbbd4abc	-0.0057767313
84	0x3a861fa3	0.0010232817
85	0xbcb78f6d	-0.022407258
86	0xbcbec551	-0.023287447
87	0xbc268a7d	-0.010164854
88	0x3cf1d637	0.02952109
89	0x3d127f00	0.035765648
90	0x3c30181a	0.010747934
91	0xb9a41698	-0.0003129735
92	0x3d085b42	0.033290155
93	0x3c8c9e74	0.0171654
94	0xbb0a318f	-0.0021086668
95	0xbc270974	-0.010195125
96	0xbc9c0df5	-0.019049624
97	0xbd267d92	-0.040647097
98	0x3c65f186	0.014034634
99	0xbd03c134	-0.032166675
100	0xbc78b3e3	-0.015179607
101	0x39e58c6c	0.00043782906
102	0x3a413187	0.0007369746
103	0xbd0f0f48	-0.034926683
104	0xbc86cadb	-0.01645415
105	0x3bbbf448	0.0057359077
106	0xb9f6d775	-0.00047081304
107	0x3c35954c	0.011082958
108	0xbc7eb9c6	-0.0155472215
109	0xbcce2452	-0.025163803
110	0x3cf8e2b5	0.03038154
111	0xb98ea486	-0.0002720693
112	0xbbb2de62	-0.005458639
113	0x3c14a9d6	0.009073695
114	0xbbe281db	-0.0069124526
115	0xbcd7f0c0	-0.026359916
116	0xbcaab63b	-0.020838847
117	0x3cce9f32	0.025222395
118	0xbbcd6818	-0.0062685125
119	0xbc8c295f	-0.017109571
120	0xbd586f8f	-0.052840766
121	0x3b3e8b43	0.0029074706
122	0xbd0f8cda	-0.035046436
123	0xbc149316	-0.009068271
124	0x3bf16419	0.007366669
125	0xbc7de3cc	-0.015496206
126	0xbd188dbb	-0.03724454
127	0x3b201bfd	0.0024430745
128	0x3c024f15	0.007953425
129	0x3c075d77	0.00826203
130	0xbc31d29f	-0.010853439
131	0x3c7b87a1	0.015352161
132	0x3a4f77e3	0.0007914288
133	0xbafdd5cd	-0.0019366086
134	0xbcb8968a	-0.02253272
135	0x3c6ddb6b	0.014517645
136	0x3c8d2354	0.01722876
137	0xbd02a99a	-0.031900026
138	0x3d22524a	0.03962926
139	0xbaf6811c	-0.0018806788
140	0xbd28a675	-0.04117437
141	0x3bba684a	0.0056887018
142	0xbcc88613	-0.024477994
143	0xbc58a89b	-0.013223792
144	0xbc00c3a0	-0.007859141
145	0xbca1006c	-0.019653521
146	0xbcd2197c	-0.025646918
147	0xbc512efb	-0.012767549
148	0x3c37e919	0.011225008
149	0x3cd4d21d	0.025979096
150	0xbd1142c2	-0.035464056
151	0x3cb1b8f7	0.021694643
152	0xbbac69c8	-0.0052616335
153	0x3ca7b024	0.020469733
154	0x3b2d21ce	0.0026417854
155	0x3a0db593	0.000540578
156	0xbce7fc8d	-0.028318668
157	0x3d10312c	0.035203144
158	0x3c98e9ec	0.01866623
159	0x3aa7dc48	0.0012806738
160	0x3d18219a	0.03714142
161	0xbd3374a2	-0.0438124
162	0xb8e072d8	-0.00010702544
163	0x3c9ae706	0.018908989
164	0x3d30d2ce	0.04316979
165	0xbce75c0f	-0.02824214
166	0x3c80c5f1	0.015719386
167	0xbbdb62d6	-0.006695132
168	0xbcbe9d5c	-0.023268394
169	0xbc013db5	-0.007888247
170	0xbc5ec9a9	-0.013597884
171	0x3c8973f4	0.016778924
172	0xbafb0092	-0.001914995
173	0xbc214e48	-0.009845324
174	0xbd87975f	-0.066206686
175	0xbbd33823	-0.006445901
176	0x3c68b328	0.01420287
177	0xbb187ba6	-0.002326706
178	0xbb131521	-0.0022443014
179	0x3b9bfcb2	0.0047603482
180	0xbbbfc688	-0.005852524
181	0xbb7806cc	-0.0037845848
182	0xb9cd6f14	-0.00039183407
183	0xbc482cb9	-0.012217694
184	0xba1055d5	-0.0005505954
185	0x3c998235	0.018738845
186	0xbb158c18	-0.0022819098
187	0x3c9faa33	0.019490337
188	0x3bbe3847	0.0058050486
189	0xbcdac3d3	-0.026704704
190	0x3d3574c5	0.044300813
191	0xbb1dbc43	-0.0024068512
192	0x3c7e82a5	0.015534078
193	0xb93ee8f0	-0.00018206588
194	0x3c6b9bbf	0.0143803945
195	0xbccb4126	-0.024811339
196	0x3d3b317a	0.04570148
197	0xbbd6ea41	-0.006558687
198	0xbc81aea4	-0.015830345
199	0xbcfaa03d	-0.030593986
200	0xbc8dbbfb	-0.01730155
201	0xbd2e4edc	-0.042555675
202	0x3b169e18	0.0022982415
203	0x3b4db7c6	0.0031390055
204	0xbb07e7ab	-0.002073745
205	0x3c4177ad	0.011808318
206	0x3c537259	0.012905681
207	0xbd0903cf	-0.033450898
208	0x3cd4749d	0.025934512
209	0x3cb94c3d	0.022619361
210	0xbba9e2c7	-0.0051845047
211	0x3ccc7015	0.024955789
212	0xbb8031e1	-0.003912196
213	0x3a9a16bd	0.0011756044
214	0x3d24d3a1	0.040240888
215	0xba2dc8a4	-0.0006629324
216	0x3d652ad0	0.055949032
217	0x3c1b5311	0.009480254
218	0xbc3b5674	-0.011434186
219	0xbca642c3	-0.020295506
220	0xbc9ed408	-0.019388214
221	0xbc745978	-0.014913909
222	0x3cd91e68	0.026503757
223	0xbd71cea5	-0.059034962
224	0xbc876402	-0.01652718
225	0x3bb75ed3	0.0055960207
226	0xbc3777cc	-0.011197995
227	0xbd0e31b5	-0.034715373
228	0x3ca6c6d4	0.02035848
229	0xb7ad4908	-2.0657215e-05
230	0x3cbddadb	0.023175647
231	0x3d0c68e2	0.03427971
232	0xbc408209	-0.011749753
233	0x3c1a302f	0.009410902
234	0x38737e5a	5.805339e-05
235	0x3d130ebf	0.035902735
236	0xbd184b7b	-0.03718136
237	0x3c5c2574	0.013436664
238	0x3c5d163b	0.01349407
239	0x3ae1491d	0.0017187927
240	0x3c6c2b8b	0.014414678
241	0xbca1edf7	-0.01976679
242	0xbcc7a17b	-0.024368992
243	0xbc339a3d	-0.010962066
244	0xba574eb8	-0.0008213329
245	0x3b8a3528	0.0042177625
246	0x3bc59e13	0.006030807
247	0xbc119576	-0.008885732
248	0xbc5f3e59	-0.013625705
249	0xba3c24cd	-0.00071771146
250	0xbae899ff	-0.001774609
251	0x3c203786	0.009778863
252	0xbc0a9b21	-0.008459837
253	0xbc2343e3	-0.009964916
254	0x3ae3e3f2	0.0017386659
255	0x3ccc3245	0.024926314

conv3.bias f4 [32]
0	0xbb948a40	-0.0045330822
1	0x38fd66d5	0.00012083134
2	0xba740523	-0.0009308627
3	0x3b25ad14	0.0025280165
4	0x3b230bf9	0.0024878962
5	0xbb097ffb	-0.0020980823
6	0xbbd78b1f	-0.006577864
7	0xbbc73655	-0.006079475
8	0xbaffa46b	-0.0019503956
9	0x3b8e0cee	0.0043350374
10	0xbba21ecd	-0.0049475194
11	0x39e650ca	0.0004392921
12	0xbab07f76	-0.0013465721
13	0xbb54f043	-0.003249184
14	0x3ada249b	0.0016642989
15	0xbb18e280	-0.0023328364
16	0x3a38eea6	0.00070546044
17	0xbb375627	-0.0027974935
18	0xbbbebe22	-0.0058210054
19	0x398d8581	0.00026993084
20	0xbbb8c909	-0.0056391996
21	0x3ad51a44	0.0016258438
22	0xbba7cef5	-0.0051211067
23	0x3ab7d6a0	0.0014025755
24	0xbbce793d	-0.006301074
25	0x3b59d1e7	0.0033236684
26	0xbbba851b	-0.005692137
27	0x3b47a246	0.0030461713
28	0xb8f3055c	-0.00011588141
29	0x39cc3a86	0.00038953515
30	0xbb892d01	-0.004186273
31	0x3ba0c9eb	0.004906883

fc1.weight f4 [8, 32]
0	0x3d89c6fa	0.06727405
1	0x3e7637cb	0.24044721
2	0xbe42e013	-0.1903079
3	0x3ebc239d	0.3674592
4	0xbd87ab05	-0.06624416
5	0xbb92815b	-0.004470987
6	0x3debf7fe	0.1152191
7	0x3eb3f2a2	0.35146052
8	0x3c6645fe	0.014054773
9	0xbce3a292	-0.02778748
10	0xbdf9de0c	-0.12200555
11	0x3d8768ad	0.06611762
12	0xbd1aa5c1	-0.03775573
13	0xbe0c111a	-0.13678399
14	0xbd5f577b	-0.054526787
15	0xbe76643e	-0.24061677
16	0x3d9f72ac	0.07785544
17	0x3e7c56a6	0.24642429
18	0xbd35cfbd	-0.044387568
19	0x3da36415	0.079780735
20	0x3e5d9c5c	0.21641678
21	0x3e0a363f	0.13497256
22	0xbe00199f	-0.12509774
23	0x3eb03e18	0.34422374
24	0xbd8e92bb	-0.0696158
25	0xbe16ae32	-0.14714888
26	0x3e41d7fa	0.18930045
27	0xbc10198c	-0.008795153
28	0xbea9cadf	-0.3316259
29	0xbd0bbcd1	-0.034115616
30	0x3f087213	0.53299063
31	0xbdce8d39	-0.1008553
32	0x3e025e0d	0.1273119
33	0x3d352059	0.044220302
34	0xbda6a8c7	-0.081376605
35	0xbe31cf4c	-0.17364234
36	0xbdcf7f30	-0.10131681
37	0x3e52b479	0.20576657
38	0xbd3988bd	-0.04529642
39	0x3c8fd3d8	0.01755707
40	0xbe49aac3	-0.19694047
41	0x3da9495b	0.082659446
42	0x3d47b350	0.04875499
43	0x3b838c12	0.0040145004
44	0x3d598388	0.053103954
45	0x3c273d88	0.010207541
46	0xbd8d360b	-0.068950735
47	0xbe158e0a	-0.14604965
48	0x3eb8303e	0.35974306
49	0xbe0b8426	-0.1362463
50	0xbe8cb1c5	-0.27479377
51	0x3ec84eed	0.39122716
52	0xbe668217	-0.22510563
53	0xbe337340	-0.17524433
54	0x3e3b0145	0.18262203
55	0x3c89d857	0.016826792
56	0x3e0bbf54	0.13647205
57	0xbcd7b3f7	-0.026330931
58	0xbd947b4e	-0.07250081
59	0x3defb165	0.11703757
60	0x3d8b658c	0.06806478
61	0xbd91d42c	-0.07120547
62	0xbda16f0c	-0.07882509
63	0x3e5ede87	0.21764575
64	0x3d754cb4	0.059887603
65	0x3df3ac87	0.11898141
66	0x3cf027bf	0.029315827
67	0x3e4f3abd	0.2023725
68	0xbd0383df	-0.032108184
69	0x3e96ec86	0.29477328
70	0xbe0c7fa1	-0.13720562
71	0xbe0202c6	-0.1269637
72	0x3e902717	0.28154823
73	0xbcbbf05a	-0.022941757
74	0xbe5ca6ab	-0.21547954
75	0xbb8713da	-0.0041222395
76	0xbe7f6575	-0.24941047
77	0x3e000815	0.12503083
78	0xbf1a3413	-0.6023571
79	0x3c233ceb	0.009963254
80	0xbdb5c7e7	-0.08876019
81	0x3e834b38	0.25643325
82	0xbe5d652e	-0.21620628
83	0x3dae0738	0.084974706
84	0xbe0819a9	-0.13291039
85	0x3e0b2954	0.13589984
86	0xbe81806b	-0.25293288
87	0x3df11688	0.117718756
88	0xbde3e5f3	-0.11127844
89	0xbe8ffdf3	-0.28123435
90	0xbdd8dc3d	-0.10588882
91	0xbe59ff74	-0.21288854
92	0xbd07bd5d	-0.033139575
93	0xbd283dfd	-0.04107474
94	0x3ed54c8b	0.4165996
95	0xbe857e71	-0.2607303
96	0x3e2ce8f8	0.16885746
97	0xbdb8226a	-0.08990939
98	0xbca794d7	-0.020456715
99	0x3e2aba71	0.16672684
100	0x3d96588e	0.07341109
101	0xbdb17876	-0.08665554
102	0x3ea2c80c	0.3179325
103	0x3d0e4599	0.034734342
104	0xbda200cf	-0.079103105
105	0xbe79acda	-0.24382344
106	0xbb4d0ba7	-0.0031287463
107	0xbe7f2c06	-0.24919137
108	0x3e166e8a	0.14690605
109	0xbcfa76a3	-0.030574149
110	0x3eb2216c	0.34791124
111	0x3ce5a6cb	0.028033635
112	0xbd966ab2	-0.07344569
113	0xbe5e1343	-0.21687035
114	0x3e527924	0.20554024
115	0xbe6dfd21	-0.23241092
116	0x3e004a73	0.125284
117	0xbde93033	-0.113861464
118	0x3e13bd13	0.14427595
119	0xbd1aaca5	-0.037762303
120	0x3eb9cb74	0.36288035
121	0xbe072abf	-0.131999
122	0xbd9f2eed	-0.07772622
123	0xbea71230	-0.32631063
124	0xbce9297c	-0.028462164
125	0xbe4ce57c	-0.20009416
126	0xbef0a66c	-0.4700197
127	0xbc8406d6	-0.01611654
128	0x3e3153d2	0.17317131
129	0x3d7d089d	0.061775792
130	0x3e092444	0.1339274
131	0x3ca8b23c	0.020592801
132	0xbe7bfbe4	-0.24607807
133	0xba9f32f8	-0.0012145927
134	0xbe017362	-0.12641671
135	0xbe5b8159	-0.21436061
136	0xbd9e2b92	-0.07723154
137	0xbecbeb33	-0.3982788
138	0xbe7fded6	-0.24987349
139	0xbe3a6477	-0.18202387
140	0x3e33282e	0.17495796
141	0xbca05256	-0.01957051
142	0x3e4fb4c6	0.20283803
143	0x3d6c95ba	0.057759978
144	0xbe3b86d7	-0.18313156
145	0xbd9494e5	-0.07254962
146	0xbcb9036a	-0.022584636
147	0xbbe50f19	-0.006990325
148	0xbe21c23a	-0.15796748
149	0x3d8c5a52	0.06853165
150	0x3bea981c	0.007159246
151	0x3e716e99	0.23577346
152	0x3e40c774	0.18826085
153	0xbe1e02c6	-0.15430745
154	0xbeb98481	-0.36233905
155	0xbe1cdcd9	-0.15318622
156	0xbe1823aa	-0.14857355
157	0xbe9dfe3c	-0.30858028
158	0x3da6c877	0.081437044
159	0xbeaf35e7	-0.34220812
160	0x3e00c55b	0.12575285
161	0xbe4307ab	-0.19045894
162	0x3ede4cff	0.43418118
163	0x3de4257f	0.11139964
164	0x3de45c54	0.11150423
165	0xbe95b42a	-0.29239017
166	0xbe91ad48	-0.28452516
167	0xbce66171	-0.028122636
168	0x3c844cfc	0.01614999
169	0x3e061d09	0.13097014
170	0x3ef2fe92	0.47459847
171	0xbcd18079	-0.025573956
172	0xbce7b9fe	-0.02828693
173	0xbcd15420	-0.02555281
174	0xbe09babf	-0.13450144
175	0x3e40b5d4	0.18819362
176	0xbe43744a	-0.1908733
177	0x3d65d9d1	0.05611593
178	0xbdfffcd4	-0.12499395
179	0xbeaf28d9	-0.34210852
180	0xbd8e6921	-0.069536455
181	0xbc812edb	-0.015769413
182	0x3e2d3d6c	0.16917962
183	0xbdd80af6	-0.10548966
184	0x3e5e2c67	0.21696626
185	0x3db20036	0.086914465
186	0xbe492cb3	-0.19645958
187	0xbdff0d29	-0.12453682
188	0xbdc8b4b4	-0.098000914
189	0x3dd43c80	0.10363102
190	0x3e40196f	0.18759702
191	0xbe3b2fa7	-0.18279897
192	0xbd47d0f6	-0.048783265
193	0xbeb2e68d	-0.3494152
194	0xbcbdddd5	-0.023177067
195	0xbc4a5947	-0.012350387
196	0xbd3a07c6	-0.04541757
197	0x3e6efd55	0.23338826
198	0xbc19a2ac	-0.009377163
199	0x3bc78f4d	0.006090081
200	0x3df01974	0.11723605
201	0xbe11ea29	-0.14249481
202	0xbd8f67d3	-0.07002225
203	0xbe13ad66	-0.14421615
204	0xbe73ac06	-0.2379609
205	0x3e84ff87	0.25976202
206	0x3da39c37	0.0798878
207	0xbe764a3d	-0.24051757
208	0x3d2ab1f2	0.041673608
209	0x3ed063ff	0.4070129
210	0xbd851c44	-0.06499532
211	0xbea5afd5	-0.32360712
212	0xbe230607	-0.15920268
213	0xbe37b3a8	-0.17939627
214	0x3e1cc00d	0.15307637
215	0x3e919bd2	0.28439194
216	0xbc8be396	-0.017076295
217	0xbcc99bbd	-0.024610395
218	0xbd88c24e	-0.06677686
219	0xbcdc3e0d	-0.026885057
220	0xba3e4bf7	-0.00072592444
221	0x3dd9a88c	0.10627851
222	0xbe65f4d8	-0.22456682
223	0xbd6ecb06	-0.058299087
224	0xbd9fb33a	-0.07797857
225	0xbd805473	-0.062661074
226	0x3dcf5e71	0.10125435
227	0x3ef7772d	0.4833311
228	0x3eae4c25	0.3404247
229	0xbea5b86c	-0.32367265
230	0xbd638317	-0.05554494
231	0x3e1da0a6	0.15393314
232	0xbd9ea4fe	-0.077463135
233	0x3ea367e1	0.3191519
234	0xbd8e241f	-0.06940483
235	0x3d8840db	0.06652995
236	0xbd355026	-0.04426589
237	0xbe8164b1	-0.25272134
238	0x3de0afd3	0.10971036
239	0x3d420ff3	0.04737849
240	0x3eced9ed	0.4040064
241	0x3da74641	0.08167697
242	0xbe40c37c	-0.18824571
243	0xbe71b7b1	-0.23605229
244	0x3d971df3	0.07378759
245	0xbe9a6b82	-0.30160147
246	0xbdc3d05e	-0.09561227
247	0x3e1d829b	0.15381853
248	0x3e6d4d3d	0.23173995
249	0x3e329dd7	0.17443024
250	0xbea90ef8	-0.33019233
251	0x3e164e33	0.14678268
252	0xbe2d0160	-0.16895056
253	0x3e1ac3ec	0.15113801
254	0x3dfaf978	0.12254614
255	0x3dd8b7f3	0.105819605

fc1.bias f4 [8]
0	0xbb9bc0e5	-0.0047532194
1	0xba8df743	-0.0010831136
2	0x3a1858ca	0.00058115704
3	0xbb60bdb0	-0.003429275
4	0x3ba02721	0.004887477
5	0xbb20d18b	-0.002453896
6	0x38c6e522	9.484055e-05
7	0x3c19060c	0.009339821

fc_1.weight f4 [8, 32]
0	0x3d89c6fa	0.06727405
1	0x3e7637cb	0.24044721
2	0xbe42e013	-0.1903079
3	0x3ebc239d	0.3674592
4	0xbd87ab05	-0.06624416
5	0xbb92815b	-0.004470987
6	0x3debf7fe	0.1152191
7	0x3eb3f2a2	0.35146052
8	0x3c6645fe	0.014054773
9	0xbce3a292	-0.02778748
10	0xbdf9de0c	-0.12200555
11	0x3d8768ad	0.06611762
12	0xbd1aa5c1	-0.03775573
13	0xbe0c111a	-0.13678399
14	0xbd5f577b	-0.054526787
15	0xbe76643e	-0.24061677
16	0x3d9f72ac	0.07785544
17	0x3e7c56a6	0.24642429
18	0xbd35cfbd	-0.044387568
19	0x3da36415	0.079780735
20	0x3e5d9c5c	0.21641678
21	0x3e0a363f	0.13497256
22	0xbe00199f	-0.12509774
23	0x3eb03e18	0.34422374
24	0xbd8e92bb	-0.0696158
25	0xbe16ae32	-0.14714888
26	0x3e41d7fa	0.18930045
27	0xbc10198c	-0.008795153
28	0xbea9cadf	-0.3316259
29	0xbd0bbcd1	-0.034115616
30	0x3f087213	0.53299063
31	0xbdce8d39	-0.1008553
32	0x3e025e0d	0.1273119
33	0x3d352059	0.044220302
34	0xbda6a8c7	-0.081376605
35	0xbe31cf4c	-0.17364234
36	0xbdcf7f30	-0.10131681
37	0x3e52b479	0.20576657
38	0xbd3988bd	-0.04529642
39	0x3c8fd3d8	0.01755707
40	0xbe49aac3	-0.19694047
41	0x3da9495b	0.082659446
42	0x3d47b350	0.04875499
43	0x3b838c12	0.0040145004
44	0x3d598388	0.053103954
45	0x3c273d88	0.010207541
46	0xbd8d360b	-0.068950735
47	0xbe158e0a	-0.14604965
48	0x3eb8303e	0.35974306
49	0xbe0b8426	-0.1362463
50	0xbe8cb1c5	-0.27479377
51	0x3ec84eed	0.39122716
52	0xbe668217	-0.22510563
53	0xbe337340	-0.17524433
54	0x3e3b0145	0.18262203
55	0x3c89d857	0.016826792
56	0x3e0bbf54	0.13647205
57	0xbcd7b3f7	-0.026330931
58	0xbd947b4e	-0.07250081
59	0x3defb165	0.11703757
60	0x3d8b658c	0.06806478
61	0xbd91d42c	-0.07120547
62	0xbda16f0c	-0.07882509
63	0x3e5ede87	0.21764575
64	0x3d754cb4	0.059887603
65	0x3df3ac87	0.11898141
66	0x3cf027bf	0.029315827
67	0x3e4f3abd	0.2023725
68	0xbd0383df	-0.032108184
69	0x3e96ec86	0.29477328
70	0xbe0c7fa1	-0.13720562
71	0xbe0202c6	-0.1269637
72	0x3e902717	0.28154823
73	0xbcbbf05a	-0.022941757
74	0xbe5ca6ab	-0.21547954
75	0xbb8713da	-0.0041222395
76	0xbe7f6575	-0.24941047
77	0x3e000815	0.12503083
78	0xbf1a3413	-0.6023571
79	0x3c233ceb	0.009963254
80	0xbdb5c7e7	-0.08876019
81	0x3e834b38	0.25643325
82	0xbe5d652e	-0.21620628
83	0x3dae0738	0.084974706
84	0xbe0819a9	-0.13291039
85	0x3e0b2954	0.13589984
86	0xbe81806b	-0.25293288
87	0x3df11688	0.117718756
88	0xbde3e5f3	-0.11127844
89	0xbe8ffdf3	-0.28123435
90	0xbdd8dc3d	-0.10588882
91	0xbe59ff74	-0.21288854
92	0xbd07bd5d	-0.033139575
93	0xbd283dfd	-0.04107474
94	0x3ed54c8b	0.4165996
95	0xbe857e71	-0.2607303
96	0x3e2ce8f8	0.16885746
97	0xbdb8226a	-0.08990939
98	0xbca794d7	-0.020456715
99	0x3e2aba71	0.16672684
100	0x3d96588e	0.07341109
101	0xbdb17876	-0.08665554
102	0x3ea2c80c	0.3179325
103	0x3d0e4599	0.034734342
104	0xbda200cf	-0.079103105
105	0xbe79acda	-0.24382344
106	0xbb4d0ba7	-0.0031287463
107	0xbe7f2c06	-0.24919137
108	0x3e166e8a	0.14690605
109	0xbcfa76a3	-0.030574149
110	0x3eb2216c	0.34791124
111	0x3ce5a6cb	0.028033635
112	0xbd966ab2	-0.07344569
113	0xbe5e1343	-0.21687035
114	0x3e527924	0.20554024
115	0xbe6dfd21	-0.23241092
116	0x3e004a73	0.125284
117	0xbde93033	-0.113861464
118	0x3e13bd13	0.14427595
119	0xbd1aaca5	-0.037762303
120	0x3eb9cb74	0.36288035
121	0xbe072abf	-0.131999
122	0xbd9f2eed	-0.07772622
123	0xbea71230	-0.32631063
124	0xbce9297c	-0.028462164
125	0xbe4ce57c	-0.20009416
126	0xbef0a66c	-0.4700197
127	0xbc8406d6	-0.01611654
128	0x3e3153d2	0.17317131
129	0x3d7d089d	0.061775792
130	0x3e092444	0.1339274
131	0x3ca8b23c	0.020592801
132	0xbe7bfbe4	-0.24607807
133	0xba9f32f8	-0.0012145927
134	0xbe017362	-0.12641671
135	0xbe5b8159	-0.21436061
136	0xbd9e2b92	-0.07723154
137	0xbecbeb33	-0.3982788
138	0xbe7fded6	-0.24987349
139	0xbe3a6477	-0.18202387
140	0x3e33282e	0.17495796
141	0xbca05256	-0.01957051
142	0x3e4fb4c6	0.20283803
143	0x3d6c95ba	0.057759978
144	0xbe3b86d7	-0.18313156
145	0xbd9494e5	-0.07254962
146	0xbcb9036a	-0.022584636
147	0xbbe50f19	-0.006990325
148	0xbe21c23a	-0.15796748
149	0x3d8c5a52	0.06853165
150	0x3bea981c	0.007159246
151	0x3e716e99	0.23577346
152	0x3e40c774	0.18826085
153	0xbe1e02c6	-0.15430745
154	0xbeb98481	-0.36233905
155	0xbe1cdcd9	-0.15318622
156	0xbe1823aa	-0.14857355
157	0xbe9dfe3c	-0.30858028
158	0x3da6c877	0.081437044
159	0xbeaf35e7	-0.34220812
160	0x3e00c55b	0.12575285
161	0xbe4307ab	-0.19045894
162	0x3ede4cff	0.43418118
163	0x3de4257f	0.11139964
164	0x3de45c54	0.11150423
165	0xbe95b42a	-0.29239017
166	0xbe91ad48	-0.28452516
167	0xbce66171	-0.028122636
168	0x3c844cfc	0.01614999
169	0x3e061d09	0.13097014
170	0x3ef2fe92	0.47459847
171	0xbcd18079	-0.025573956
172	0xbce7b9fe	-0.02828693
173	0xbcd15420	-0.02555281
174	0xbe09babf	-0.13450144
175	0x3e40b5d4	0.18819362
176	0xbe43744a	-0.1908733
177	0x3d65d9d1	0.05611593
178	0xbdfffcd4	-0.12499395
179	0xbeaf28d9	-0.34210852
180	0xbd8e6921	-0.069536455
181	0xbc812edb	-0.015769413
182	0x3e2d3d6c	0.16917962
183	0xbdd80af6	-0.10548966
184	0x3e5e2c67	0.21696626
185	0x3db20036	0.086914465
186	0xbe492cb3	-0.19645958
187	0xbdff0d29	-0.12453682
188	0xbdc8b4b4	-0.098000914
189	0x3dd43c80	0.10363102
190	0x3e40196f	0.18759702
191	0xbe3b2fa7	-0.18279897
192	0xbd47d0f6	-0.048783265
193	0xbeb2e68d	-0.3494152
194	0xbcbdddd5	-0.023177067
195	0xbc4a5947	-0.012350387
196	0xbd3a07c6	-0.04541757
197	0x3e6efd55	0.23338826
198	0xbc19a2ac	-0.009377163
199	0x3bc78f4d	0.006090081
200	0x3df01974	0.11723605
201	0xbe11ea29	-0.14249481
202	0xbd8f67d3	-0.07002225
203	0xbe13ad66	-0.14421615
204	0xbe73ac06	-0.2379609
205	0x3e84ff87	0.25976202
206	0x3da39c37	0.0798878
207	0xbe764a3d	-0.24051757
208	0x3d2ab1f2	0.041673608
209	0x3ed063ff	0.4070129
210	0xbd851c44	-0.06499532
211	0xbea5afd5	-0.32360712
212	0xbe230607	-0.15920268
213	0xbe37b3a8	-0.17939627
214	0x3e1cc00d	0.15307637
215	0x3e919bd2	0.28439194
216	0xbc8be396	-0.017076295
217	0xbcc99bbd	-0.024610395
218	0xbd88c24e	-0.06677686
219	0xbcdc3e0d	-0.026885057
220	0xba3e4bf7	-0.00072592444
221	0x3dd9a88c	0.10627851
222	0xbe65f4d8	-0.22456682
223	0xbd6ecb06	-0.058299087
224	0xbd9fb33a	-0.07797857
225	0xbd805473	-0.062661074
226	0x3dcf5e71	0.10125435
227	0x3ef7772d	0.4833311
228	0x3eae4c25	0.3404247
229	0xbea5b86c	-0.32367265
230	0xbd638317	-0.05554494
231	0x3e1da0a6	0.15393314
232	0xbd9ea4fe	-0.077463135
233	0x3ea367e1	0.3191519
234	0xbd8e241f	-0.06940483
235	0x3d8840db	0.06652995
236	0xbd355026	-0.04426589
237	0xbe8164b1	-0.25272134
238	0x3de0afd3	0.10971036
239	0x3d420ff3	0.04737849
240	0x3eced9ed	0.4040064
241	0x3da74641	0.08167697
242	0xbe40c37c	-0.18824571
243	0xbe71b7b1	-0.23605229
244	0x3d971df3	0.07378759
245	0xbe9a6b82	-0.30160147
246	0xbdc3d05e	-0.09561227
247	0x3e1d829b	0.15381853
248	0x3e6d4d3d	0.23173995
249	0x3e329dd7	0.17443024
250	0xbea90ef8	-0.33019233
251	0x3e164e33	0.14678268
252	0xbe2d0160	-0.16895056
253	0x3e1ac3ec	0.15113801
254	0x3dfaf978	0.12254614
255	0x3dd8b7f3	0.105819605

fc_1.bias f4 [8]
0	0xbb9bc0e5	-0.0047532194
1	0xba8df743	-0.0010831136
2	0x3a1858ca	0.00058115704
3	0xbb60bdb0	-0.003429275
4	0x3ba02721	0.004887477
5	0xbb20d18b	-0.002453896
6	0x38c6e522	9.484055e-05
7	0x3c19060c	0.009339821
