checkpoints/source/epoch=15.checkpoint.pth.tar (torch, 320640 bytes, 10 tensors)

conv1.weight f4 [16, 3, 5, 5]
0	0x3e539b0b	0.20664613
1	0x3e2837e1	0.16427566
2	0x3d4d9ffd	0.050201405
3	0xbe787bb4	-0.24265939
4	0x3d82499b	0.063616954
5	0xbdd991b4	-0.10623494
6	0xbbfdef89	-0.007749502
7	0xbe7a31ce	-0.24433061
8	0xbe25b360	-0.16181707
9	0x3e1599fc	0.14609522
10	0xbc513065	-0.012767886
11	0xbdcb33f6	-0.0992202
12	0xbe1ea6be	-0.15493295
13	0xbe21225e	-0.15735766
14	0xbdcfed8c	-0.1015273
15	0x3e027d68	0.12743151
16	0x3e6aa0a0	0.22912836
17	0xbccfc8e0	-0.02536434
18	0xbded12a7	-0.11575823
19	0xb9f3cc82	-0.00046500942
20	0xbcd69017	-0.026191754
21	0x3e2d5be9	0.16929592
22	0x3dd32498	0.10309714
23	0x3e0e2e2c	0.138848
24	0x3dcbd1db	0.09952136
25	0x3e144ebe	0.14483163
26	0x3daacce8	0.08339864
27	0x3dc87a41	0.09788943
28	0xbd978ec6	-0.07400279
29	0x3b00678e	0.0019592973
30	0xbc78c820	-0.015184432
31	0x3d9d003f	0.076660626
32	0xbe5c1867	-0.21493684
33	0xbe312fb0	-0.17303348
34	0xbcdac457	-0.02670495
35	0x3e3eceba	0.18633547
36	0x3d7acb71	0.061229173
37	0xbdf2e578	-0.11860174
38	0xbd997b5c	-0.07494232
39	0xbdd40f96	-0.10354535
40	0xbdcf4f24	-0.10122517
41	0x3e270171	0.16309144
42	0xbdbe1d7a	-0.09282966
43	0xbdff3227	-0.12460738
44	0xbe207344	-0.1566897
45	0x3e7f56a5	0.24935396
46	0xbd6f15a8	-0.058370262
47	0xbcb92209	-0.022599237
48	0xbdd1a7cd	-0.102370836
49	0xbd9bd824	-0.07609585
50	0x3cbfb55f	0.023401914
51	0x3d91dfbd	0.07122753
52	0xbd84bbca	-0.064811304
53	0x3d83ca17	0.0643503
54	0xbda78e67	-0.08181458
55	0xbd847acd	-0.06468735
56	0xbe081012	-0.1328738
57	0xbd956535	-0.07294694
58	0xbdb754b3	-0.08951702
59	0x3d4fba04	0.050714508
60	0x3c578759	0.013154828
61	0x3e5378db	0.20651571
62	0xbe3027dc	-0.17202705
63	0x3d218c9b	0.039440732
64	0x3dd87f56	0.105711624
65	0x3e04fd38	0.1298722
66	0x3e8d5a76	0.2760808
67	0x3d2fdf81	0.04293776
68	0xbca087f6	-0.019596081
69	0xbd354263	-0.044252764
70	0xbd7bb9d1	-0.061456505
71	0x3e363bf2	0.17796305
72	0x3b9fccfe	0.004876732
73	0x3d257177	0.04039141
74	0xbb1799b9	-0.0023132397
75	0x3b2268c9	0.0024781695
76	0x3c9aa2ab	0.018876394
77	0xbdc27550	-0.09495032
78	0xbe778606	-0.2417222
79	0xbdbdf8f9	-0.092760034
80	0xbd3caaa2	-0.046061166
81	0xbd9d8899	-0.076920696
82	0xbe326300	-0.17420578
83	0xbdd2b30b	-0.10288056
84	0x3c87c82c	0.016574942
85	0x3b90905e	0.004411741
86	0x3d3b3fc6	0.045715116
87	0xbd85f2cf	-0.06540453
88	0x3aa587be	0.0012628955
89	0xbdb0ce50	-0.08633101
90	0xbe0dc77d	-0.1384563
91	0xbb0112b5	-0.0019694988
92	0xbe661eac	-0.22472638
93	0xbe0e1779	-0.13876142
94	0x3da1d2d9	0.07901544
95	0xbb20b16c	-0.0024519814
96	0xbe8cdccd	-0.27512208
97	0xba9cd7eb	-0.0011966204
98	0x3ccfb2a4	0.025353737
99	0xbd03f268	-0.0322136
100	0x3da86440	0.08222246
101	0x3da89fb4	0.08233586
102	0x3e02a285	0.12757309
103	0xbca30c9e	-0.019903477
104	0x3c3d35a1	0.011548431
105	0x3db45008	0.08804327
106	0x3d74dbd0	0.059779942
107	0x3d0995dd	0.033590186
108	0x3d2ba3db	0.04190431
109	0x3e0fc433	0.14039688
110	0x3c86150f	0.016367463
111	0xbca35a09	-0.019940393
112	0xbe07e0ac	-0.132693
113	0xbbcfec02	-0.006345273
114	0xbd23726f	-0.039904054
115	0x3d6cadf3	0.05778308
116	0x3d947aa6	0.07249956
117	0x3b3b8fc3	0.0028619624
118	0xbd0f8b64	-0.035045043
119	0x3d836aca	0.06416853
120	0x3c167289	0.009182581
121	0x3d146965	0.036233325
122	0x3cf8065d	0.030276472
123	0x3db05f19	0.086118884
124	0x3df7a948	0.12092835
125	0x3da9e1ea	0.08295043
126	0x3dffa180	0.124819756
127	0x3dc83c3b	0.09777113
128	0x3e6b9e5a	0.23009625
129	0x3e15066c	0.14553231
130	0xbdaf9a54	-0.08574358
131	0xbd4e04f8	-0.050297707
132	0x3d1f2fed	0.038864065
133	0x3e4c4c7e	0.19951054
134	0x3dde2ab4	0.10847989
135	0x3dc9e574	0.09858218
136	0x3e168f45	0.1470309
137	0x3d19581a	0.037437536
138	0xbe0379d2	-0.1283944
139	0x3dffa816	0.12483232
140	0x3bc2990c	0.0059386548
141	0x3e0465c0	0.1292944
142	0xbd1db00d	-0.038497973
143	0x3dad77f0	0.08470142
144	0xbd6326c3	-0.055456888
145	0x3df3f605	0.11912159
146	0x3e3c5076	0.18390068
147	0x3e2dc44a	0.1696941
148	0x3d5f85c0	0.054570913
149	0x3c2c9d82	0.0105356
150	0x3b9d3bdf	0.004798397
151	0x3d713ab4	0.058893874
152	0x3c4bf451	0.012448386
153	0x3d6be9a8	0.05759588
154	0xbd262e77	-0.040571656
155	0x3e1df2d7	0.15424667
156	0xbe871698	-0.26384425
157	0xbdb52ac2	-0.08846046
158	0xbe2099fc	-0.1568374
159	0x3d83e6ef	0.064405315
160	0xbe7cfabd	-0.24705024
161	0xbd22061f	-0.03955662
162	0xbd25733b	-0.040393095
163	0xbd422272	-0.04739613
164	0x3d6bf524	0.05760683
165	0xbdf40649	-0.11915261
166	0xbcbe487f	-0.023227928
167	0xbddafbae	-0.10692535
168	0xbde92a17	-0.11384981
169	0x3e5bbdcc	0.2145912
170	0x3df8d81a	0.12150593
171	0xbb301c20	-0.0026872233
172	0xbde95ba9	-0.11394436
173	0x3e1c6fd4	0.15277034
174	0x3e38aa7f	0.18033789
175	0x3e8c1039	0.27356127
176	0x3d761917	0.06008252
177	0xbb264b93	-0.0025374636
178	0xbde1d213	-0.110263966
179	0xbce7cf2b	-0.028297028
180	0xbd858e71	-0.06521309
181	0xbe2bc6bc	-0.1677503
182	0xbe185ad9	-0.14878406
183	0xbdbee950	-0.093218446
184	0xbd85639f	-0.06513142
185	0xbe481ae3	-0.19541506
186	0xbe71e313	-0.23621778
187	0xbca3b7b9	-0.019985067
188	0x3daa3d7b	0.08312508
189	0xbc94d126	-0.018166136
190	0x3cebdaa9	0.028790789
191	0x3d0d69d9	0.034524772
192	0x3e26291a	0.16226617
193	0xbd5f7b18	-0.05456075
194	0x3e30034f	0.17188762
195	0xbc7e3f73	-0.015518057
196	0xbde00d5a	-0.109400466
197	0x3d737ae2	0.059443362
198	0x3dedf23e	0.1161847
199	0x3e64d25c	0.2234587
200	0x3dfe21e0	0.12408805
201	0x3e7925e5	0.24330862
202	0xbd5ba22e	-0.053621463
203	0xbde24e50	-0.11050093
204	0x3c889d1b	0.016676476
205	0x3df75ae7	0.12077885
206	0x3dcfe87e	0.10151766
207	0x3bcb6a2c	0.006207725
208	0xbde137bd	-0.10996959
209	0xbdd27d36	-0.10277788
210	0xbdba52fb	-0.090978585
211	0xbdd05c07	-0.10173803
212	0xbbd9e304	-0.006649377
213	0x3d188085	0.03723194
214	0x3c917091	0.017753871
215	0xbe7c8d2a	-0.24663225
216	0xbd8295df	-0.06376242
217	0x3dceaf00	0.10091972
218	0xbe12dd65	-0.14342268
219	0x3e50ea6e	0.20401928
220	0x3d4dc6e5	0.05023851
221	0xbd4846f6	-0.0488958
222	0x3de40c47	0.11135154
223	0x3e55ffb9	0.20898332
224	0x3d853d28	0.06505805
225	0x3e471d7f	0.19444846
226	0x3d702b54	0.05863507
227	0xbdc182db	-0.09448787
228	0xbde015b0	-0.109416366
229	0xbdb24ecb	-0.08706435
230	0x3d96561c	0.07340643
231	0x3e78096f	0.24222349
232	0x3c19bbab	0.009383122
233	0xbe248457	-0.16066109
234	0xbe9df3a0	-0.30849934
235	0xbdbe2663	-0.092846654
236	0x3d25cca7	0.040478375
237	0x3cd1c85d	0.025608236
238	0xbd18e753	-0.037329983
239	0xbdb760e3	-0.089540266
240	0xbdd18267	-0.102299504
241	0x3d34db40	0.044154406
242	0xbca299e3	-0.01984877
243	0x3ccadd75	0.024763802
244	0xbe3cad84	-0.18425566
245	0xbcc4a893	-0.024006164
246	0xbc233701	-0.009961844
247	0x3e261027	0.16217099
248	0x3dd29bad	0.10283599
249	0xbe1b9ee5	-0.15197332
250	0x3debaf1e	0.1150801
251	0x3db53d87	0.08849626
252	0x3d554671	0.05206913
253	0xbb47a707	-0.0030464546
254	0xbd2c18a6	-0.042015694
255	0x3d69c299	0.05707035

conv1.bias f4 [16]
0	0xbda06b77	-0.07832997
1	0x3d846f27	0.06466513
2	0xbd826a50	-0.06367934
3	0xbd13d85b	-0.036095005
4	0xbd80ba69	-0.06285555
5	0xbda569f6	-0.08076851
6	0x3c051c66	0.0081244465
7	0xbbac9c6a	-0.0052676694
8	0xbd20a658	-0.039221138
9	0x3da678e1	0.081285246
10	0x3d0c1c18	0.03420648
11	0x3d2a9029	0.041641388
12	0x3c076bf2	0.008265482
13	0x3cdb21e7	0.026749564
14	0xbd857584	-0.06516555
15	0x3caa64db	0.020800045

conv2.weight f4 [64, 16, 5, 5]
0	0x3ca7b24c	0.02047076
1	0x3960e9f1	0.00021449455
2	0x3c11f839	0.008909279
3	0x3dbdf018	0.0927431
4	0x3d921dfd	0.07134626
5	0x3bfef5ff	0.00778079
6	0xbb088b0b	-0.002083483
7	0x3c6ec72e	0.014573855
8	0x3c219f8d	0.0098647
9	0xbc2b1e3a	-0.010444218
10	0x3c62593f	0.013815223
11	0x3dcebef1	0.10095013
12	0xbd48927e	-0.04896783
13	0x3baa2734	0.0051926617
14	0x3d91d0b9	0.07119889
15	0x3b95d60f	0.004572637
16	0x3d481f54	0.048858
17	0x3da1196b	0.07866176
18	0x3dd290a1	0.10281492
19	0x3d80b396	0.06284253
20	0xbc89e888	-0.016834512
21	0x3d90eea4	0.07076767
22	0x3cf7093f	0.030155776
23	0x3cc56d0b	0.024099847
24	0xbd1ca7ca	-0.038245954
25	0x3cec84a5	0.028871844
26	0xbce6bb22	-0.028165404
27	0xbc9b1724	-0.018931933
28	0xbcdb0e6b	-0.026740273
29	0x3c043b84	0.00807083
30	0xbcbaf7a4	-0.022823162
31	0xbccd3fc3	-0.025054818
32	0x3b7d1621	0.0038617926
33	0xbd60f788	-0.054923564
34	0xbd733c90	-0.05938393
35	0xbc617673	-0.013761151
36	0xbc57b902	-0.013166668
37	0xbd8a01ad	-0.06738601
38	0x3ca40630	0.020022482
39	0xbdbaf355	-0.09128443
40	0x3d3883a5	0.04504742
41	0xbc200dda	-0.0097689275
42	0xbd646fcb	-0.055770677
43	0x3c695404	0.014241222
44	0xbd252a6a	-0.040323652
45	0xbcaf7688	-0.021418825
46	0x3c76c20e	0.015060915
47	0x3d01c062	0.03167761
48	0xbcbf944c	-0.023386143
49	0xbc3c8dcc	-0.011508416
50	0xbcedfc48	-0.029050961
51	0x3c58d60b	0.013234626
52	0xbd46ca7d	-0.04853295
53	0x3d8b0c1c	0.06789419
54	0x3cb6fa99	0.022336291
55	0x3bcdcf0c	0.0062807854
56	0xbc8f74f5	-0.017511824
57	0x3bd7dea9	0.0065878225
58	0xbcccbb25	-0.024991581
59	0xbcd1ced0	-0.025611311
60	0xbca6f645	-0.020381102
61	0xbc6dcfb4	-0.014514852
62	0x3cc58803	0.024112707
63	0x3dd2e312	0.102972165
64	0xbda26045	-0.07928518
65	0xbb9a0c07	-0.004701141
66	0x3d10032b	0.03515927
67	0x3d9b27a4	0.0757592
68	0x3d4ad80d	0.04952245
69	0x3d3a5b0a	0.045496978
70	0xbc4af9ea	-0.012388686
71	0xbd121127	-0.03566089
72	0x3e0be2b8	0.13660705
73	0xbd122e57	-0.035688724
74	0x3c9b7871	0.01897833
75	0xbd27fa3e	-0.041010134
76	0xbc55729b	-0.013027812
77	0xbbcaeb7e	-0.0061926236
78	0xbc6c8035	-0.014434864
79	0x3b2fc52a	0.00268204
80	0x3c2ee1bd	0.010673937
81	0x3d036f9a	0.032088853
82	0x3cf8669f	0.030322371
83	0x3d0644cf	0.032780465
84	0x3d66808d	0.05627494
85	0x3ba97787	0.0051717195
86	0x3ddfa316	0.10919778
87	0x3b230ff9	0.0024881347
88	0xbb6a3909	-0.0035739562
89	0x3c449968	0.0119994655
90	0x3c6ae0bb	0.0143358065
91	0x3c4206bc	0.011842426
92	0x3cb4b894	0.02206067
93	0x3d9afb54	0.07567468
94	0xbcca6178	-0.02470468
95	0xbcc8e103	-0.024521356
96	0x3cf74f94	0.030189313
97	0x3c87bb16	0.016568702
98	0x3d4d3194	0.05009611
99	0x3d83648b	0.064156614
100	0xbcdccda1	-0.02695352
101	0x3ca01c67	0.019544793
102	0xbc37ad82	-0.011210801
103	0x3d3c018d	0.045899916
104	0x3cbed77e	0.023296114
105	0xbcf46db3	-0.029837465
106	0xbd358cce	-0.044323735
107	0xb90f4bca	-0.00013665776
108	0x3cb566cd	0.022143746
109	0x3cd7299c	0.026264958
110	0xbd2a3627	-0.04155555
111	0xbd62397d	-0.055230606
112	0x3cfa7675	0.030574063
113	0xbcf35b92	-0.02970675
114	0xbdab45cc	-0.08362922
115	0xbd3516e4	-0.044211283
116	0x3d4b4427	0.049625542
117	0x3d9a80c5	0.07544092
118	0x3ce76c85	0.028249988
119	0x3d98e73c	0.074659795
120	0x3d33ff68	0.043944746
121	0x3bdd3d2d	0.0067516775
122	0x3cd57712	0.026057754
123	0x3d09085a	0.03345523
124	0xbb1b6563	-0.0023711554
125	0x3c20a27a	0.009804362
126	0xbd474680	-0.04865122
127	0xbb8adb01	-0.004237533
128	0x3cc77286	0.024346601
129	0xbc9b2784	-0.018939741
130	0x3cc6b8fd	0.024258131
131	0x3ce26962	0.027638141
132	0xbd4d193d	-0.050072897
133	0x3d5c4fe8	0.053787142
134	0xbca0f427	-0.01964767
135	0xbbee3a01	-0.007270098
136	0x3bdd39d9	0.0067512807
137	0x3d17aebf	0.037031885
138	0x3d209236	0.039201938
139	0x3d2fc7c8	0.042915136
140	0x3da26fde	0.07931493
141	0x3de20b1d	0.11037276
142	0x3d05dbcf	0.03268033
143	0xbb205ebc	-0.0024470529
144	0x3c67961f	0.014134913
145	0xbd280988	-0.041024715
146	0x3cff5677	0.03116916
147	0xbd290894	-0.041267946
148	0x3d834e0b	0.0641137
149	0x3da7452d	0.08167491
150	0xbd86d503	-0.065835975
151	0xbce7d8c0	-0.028301597
152	0xbcb85a92	-0.022504125
153	0x3c0a2da7	0.008433736
154	0x3c274c1d	0.010211018
155	0xbca05ced	-0.01957556
156	0x3c97a523	0.01851136
157	0xbc547a7f	-0.0129686585
158	0xbc62845f	-0.013825505
159	0x3c974cce	0.01846924
160	0x3c51dbe7	0.012808776
161	0x3d27c790	0.040961802
162	0xbcd631a7	-0.026146723
163	0x3d3062e9	0.043063078
164	0xbcdea838	-0.027179822
165	0x3c9ce0a7	0.019150091
166	0x3c9ed00f	0.01938632
167	0xb864d2dd	-5.4555818e-05
168	0x3b59932d	0.0033199296
169	0x3c3e7815	0.0116253095
170	0xbd028d4e	-0.03187304
171	0xbca27357	-0.019830389
172	0x3d869d7b	0.06573006
173	0x3d1642f0	0.03668493
174	0x3bce3368	0.006292749
175	0xbd1481dc	-0.036256656
176	0x3d8e25c8	0.069408
177	0xbd1fe9d2	-0.039041348
178	0x3d6d7ef1	0.05798239
179	0x3b9068c2	0.0044070194
180	0xbd5639c1	-0.052301172
181	0xba2ec7ac	-0.00066673267
182	0xbd5f719a	-0.0545517
183	0xbbe6570c	-0.0070294198
184	0x3be0c8e2	0.0068598846
185	0xb8614b7e	-5.3714488e-05
186	0x3d3dff50	0.046386063
187	0xbd284fdc	-0.041091785
188	0x3abf6de1	0.001460489
189	0x3be28b7f	0.006913602
190	0x3dc53373	0.09628954
191	0x3c1171bf	0.008877217
192	0xbca59b71	-0.020215722
193	0x3d3a972a	0.045554318
194	0xbcc5366f	-0.024073808
195	0xbbe9f227	-0.0071394625
196	0x3dc342e1	0.095342405
197	0x3c486734	0.012231637
198	0x3d03b6cf	0.03215676
199	0x3cc49314	0.023995914
200	0x3d7743b2	0.060367294
201	0x3cdcb8d2	0.026943598
202	0x3d065e2f	0.032804664
203	0x3d0b0836	0.033943377
204	0x3d9f81ad	0.077884056
205	0x3d2ca4ad	0.042149235
206	0x3c4ee188	0.012627013
207	0x3b7fd72f	0.0039038172
208	0x3cd0f653	0.025508082
209	0xbc3422be	-0.010994611
210	0xbd4aba82	-0.049494274
211	0xbc2bc42e	-0.010483785
212	0xbd458db2	-0.048230834
213	0x3c18a9e6	0.009317851
214	0xbd15bdc8	-0.036557943
215	0x3d1cadf9	0.03825185
216	0x3d52e025	0.051483292
217	0x3c35e516	0.011101982
218	0x39fd7ed6	0.0004835042
219	0xbcdc0d84	-0.026861914
220	0x3d2526b3	0.04032011
221	0x3c6ec7e4	0.014574025
222	0x3ced63da	0.028978277
223	0x3dc71289	0.09720332
224	0xbd0b0453	-0.03393967
225	0x3c015f00	0.007896185
226	0x3d1bcb41	0.038035635
227	0xbd7369a3	-0.059426915
228	0x3c392f9b	0.011302854
229	0x3cc10876	0.023563605
230	0x3dad3729	0.084577866
231	0xbd36e01e	-0.04464733
232	0xbdad2bf1	-0.08455647
233	0xbc8252c7	-0.015908612
234	0x3ae1906f	0.0017209182
235	0xbb3d0ab8	-0.00288455
236	0xbd828e45	-0.06374792
237	0xbd795cd9	-0.060879562
238	0x3d5a481a	0.053291418
239	0xbdc2f9df	-0.095203154
240	0x3c8fd5ff	0.017558096
241	0xbd3a624c	-0.0455039
242	0xbd6a7c83	-0.05724765
243	0x38cacf04	9.67067e-05
244	0x3b9995a1	0.0046870266
245	0x3d2f01e7	0.042726424
246	0xbd72afd2	-0.059249707
247	0x3d2370e8	0.039902598
248	0x3cd8f9b5	0.026486257
249	0x3cdef22e	0.02721509
250	0xbb754e9a	-0.0037430883
251	0x3c02abf7	0.00797557
252	0x3ad3cf21	0.0016159752
253	0xbcbf41b0	-0.023346752
254	0xbd2f3e85	-0.042784233
255	0x3d22e39c	0.039767846

conv2.bias f4 [64]
0	0xbd83ba7c	-0.064320534
1	0x3bc5ddff	0.006038427
2	0x3c34f44c	0.011044573
3	0xbd3f5156	-0.046708427
4	0xbd4dd621	-0.050253037
5	0xbd01ada7	-0.03165975
6	0x3c5cec06	0.013484007
7	0xbd4849f2	-0.048898645
8	0xbca0f1d0	-0.019646555
9	0x3d3d073c	0.046149477
10	0xbd85b391	-0.0652839
11	0xbc730977	-0.0148338
12	0xbd58f192	-0.052964754
13	0x3d19731a	0.037463285
14	0xbcd10ca7	-0.025518728
15	0x3b1cb274	0.0023910077
16	0xbcb68814	-0.022281684
17	0xbce32bb8	-0.027730808
18	0xbcc4e4f8	-0.024034962
19	0xbcda6ec0	-0.026664138
20	0xbd9bfaf7	-0.07616227
21	0xbb9afeab	-0.004730066
22	0xbceaea2e	-0.028676119
23	0xbc7c681b	-0.01540568
24	0xbca38a9d	-0.019963557
25	0xbc06d3e1	-0.008229227
26	0xbac7288b	-0.0015194578
27	0xbd9c3a6f	-0.07628333
28	0x3d6f822c	0.05847375
29	0xbc1d8e70	-0.009616479
30	0x3c393def	0.01130627
31	0x3c08df30	0.008353993
32	0x3d7e4779	0.06207988
33	0x3af071b8	0.0018344438
34	0xbc0a50ca	-0.008442113
35	0x3d4a2e4f	0.04936057
36	0xbd28f2c5	-0.041247148
37	0xbd094781	-0.033515457
38	0x3d265002	0.040603645
39	0x3d4925a1	0.04910815
40	0xbc3700eb	-0.011169652
41	0x3d8a75ed	0.06760774
42	0xbbc0007a	-0.005859432
43	0xbd313e50	-0.043272316
44	0x3cf3e889	0.029773967
45	0x3cbd8ef8	0.023139462
46	0xbd953b8a	-0.07286747
47	0xbcd6ae61	-0.026206197
48	0xbb9793c7	-0.0046257707
49	0xbd80984a	-0.06279047
50	0x3b85475f	0.004067346
51	0x3d3695e2	0.044576533
52	0x3da269ba	0.07930322
53	0xbcba55bf	-0.022745965
54	0xbc72cf91	-0.0148199955
55	0xbc62ff4c	-0.013854813
56	0xbcfdfbd7	-0.031003876
57	0x3d16ffde	0.036865108
58	0xbd15af2c	-0.03654401
59	0x3cbde307	0.023179544
60	0x3b360f5a	0.0027780146
61	0x3dd2f9b8	0.10301536
62	0x3c85f61b	0.016352704
63	0x3d40dd09	0.047085796

conv3.weight f4 [32, 64, 5, 5]
0	0x3d478038	0.048706263
1	0x3c0396af	0.008031531
2	0x3c52b4c5	0.012860482
3	0xbbf42472	-0.0074506337
4	0xb9bd2d95	-0.0003608285
5	0x3cb86e96	0.022513669
6	0x3c15b3c9	0.009137102
7	0xbc0e287a	-0.008676643
8	0xbc466f14	-0.012111444
9	0xb92def2d	-0.00016587666
10	0x3ccb9ec6	0.024855983
11	0xbcbdb512	-0.02315763
12	0x3cad644b	0.021165987
13	0xbbcd5a7c	-0.00626689
14	0x3cfdd002	0.030982975
15	0x3c870f6a	0.016486842
16	0x3c18d715	0.009328623
17	0x3ca9e53c	0.02073919
18	0x3c9269e5	0.01787276
19	0xbc96f804	-0.01842881
20	0xbc54c1a2	-0.012985619
21	0x3c57d2b6	0.013172796
22	0x3cc010a1	0.02344543
23	0x3d879e39	0.066219755
24	0xba94f1bc	-0.0011363546
25	0x3c534009	0.012893685
26	0x3b974b49	0.004617129
27	0xbc86b395	-0.016443053
28	0xbc746052	-0.014915543
29	0xb9a4dec1	-0.00031446482
30	0x3bf2a977	0.0074054557
31	0xbc698d98	-0.01425495
32	0xbc20135b	-0.00977024
33	0xbc3eaf58	-0.011638485
34	0xba134156	-0.0005617341
35	0x3c05be80	0.0081630945
36	0xbb169413	-0.0022976443
37	0xb9963825	-0.0002865206
38	0xbc0d4a5a	-0.008623684
39	0x3d1f21ed	0.038850714
40	0xbcc405a4	-0.02392847
41	0xbc77a78e	-0.015115632
42	0x3cdbc35f	0.026826559
43	0x3b6b9b02	0.0035950546
44	0x3b6cb583	0.0036118932
45	0x3cc3fe65	0.023925016
46	0xbcd58ea6	-0.026068997
47	0x3ac09a40	0.0014694408
48	0x3d0f0181	0.034913544
49	0x3c8c4c55	0.017126242
50	0xbcb2b9c5	-0.021817097
51	0xbc2fc1e6	-0.010727381
52	0xbc131f7b	-0.0089796735
53	0xbc83122d	-0.015999878
54	0x38536dbc	5.040852e-05
55	0x3abad63a	0.0014254518
56	0x3a1f116e	0.0006067966
57	0xbcbaeb02	-0.022817139
58	0xbcfc511a	-0.030800391
59	0xb6260d7a	-2.4743772e-06
60	0xbced80d6	-0.028992098
61	0x3cc88145	0.024475703
62	0x3c3f6524	0.011681829
63	0x3ccce66a	0.025012214
64	0xbbb07d6d	-0.0053860457
65	0xbcf2ffc8	-0.029662982
66	0xbbed7d19	-0.007247579
67	0xbcd1e263	-0.025620645
68	0x3bc6a694	0.006062338
69	0x3d2527f2	0.040321298
70	0xbb9a8450	-0.00471548
71	0x3caef730	0.021358103
72	0xbcb08760	-0.021548927
73	0xbbf6fdfa	-0.0075376006
74	0x3d3969dd	0.045266975
75	0xbc419bb1	-0.011816905
76	0xbbf088b6	-0.007340516
77	0x3ab0dba1	0.0013493189
78	0xbc335619	-0.01094582
79	0xb803041e	-3.123667e-05
80	0x3c155ab8	0.009115867
81	0x3c5b5c5f	0.013388722
82	0xbcd0a04f	-0.025467066
83	0x3bc87027	0.006116885
84	0xba857c92	-0.001018422
85	0xbc3807de	-0.011232344
86	0xbc8d915d	-0.017281229
87	0xbc666a30	-0.014063403
88	0x3c90b90c	0.017666362
89	0x3d3e8df3	0.046522092
90	0x3b57c5df	0.0032924337
91	0xbb597303	-0.0033180125
92	0x3c8e74e1	0.017389717
93	0x3bad4942	0.005288274
94	0x39c8cc18	0.00038299034
95	0xbab6f1f0	-0.0013957601
96	0xbbb47ddf	-0.005508169
97	0xbcd9b346	-0.026574742
98	0x3b975e62	0.0046194056
99	0xbcc5e953	-0.02415911
100	0x3c358a66	0.01108036
101	0xb9f3550c	-0.00046411937
102	0xbc649fc4	-0.013954107
103	0xbce3a7f7	-0.027790053
104	0xba842e77	-0.0010084648
105	0x3c5bb390	0.01340951
106	0xbcc770c4	-0.024345763
107	0xbc280376	-0.010254731
108	0x3987180f	0.00025767132
109	0xba91797c	-0.0011098827
110	0x3c2326c1	0.00995797
111	0xbc783592	-0.015149491
112	0x3c9722de	0.018449243
113	0xbc7915a0	-0.01520291
114	0x3c94cb7a	0.018163431
115	0xbc422c5f	-0.011851399
116	0xbd8e3423	-0.06943538
117	0x3bc50c2d	0.0060134144
118	0xbc1f8a14	-0.00973751
119	0xbc217c1f	-0.009856253
120	0xbbc8f6b8	-0.006132927
121	0xbbd8b5da	-0.0066134753
122	0x3bc9cfc3	0.0061588003
123	0x3d611adf	0.054957267
124	0x3caeea9d	0.021352107
125	0xbc41d598	-0.01183071
126	0xbc923a38	-0.017850026
127	0xbc8043d7	-0.015657349
128	0xbba53f3f	-0.00504294
129	0xb6d4c52e	-6.341047e-06
130	0x3c358770	0.011079654
131	0x3c8439dd	0.016140873
132	0x3bb582c3	0.0055392697
133	0xbc9e656e	-0.019335475
134	0xb91a3592	-0.00014706541
135	0x3c9dbb08	0.019254223
136	0x3d1d8809	0.03845981
137	0xbd228b13	-0.039683413
138	0x3d1b28df	0.037880775
139	0xbabaff0e	-0.0014266686
140	0xbc59ec29	-0.013300934
141	0x3bd3dfd9	0.0064658937
142	0xbd397dd3	-0.04528601
143	0xbb8be526	-0.00426926
144	0x3ca11729	0.019664364
145	0x3cb7e3e7	0.02244754
146	0x3b2432db	0.0025054726
147	0x3a3af3fc	0.00071316934
148	0x3cbe5dec	0.023238145
149	0x3cece3c9	0.02891721
150	0x3b4d4585	0.0031321954
151	0x3c41150e	0.011784805
152	0x3b8e219d	0.004337503
153	0x3bbd100b	0.0057697347
154	0xba6b7ff8	-0.00089836074
155	0x3ca4f11c	0.020134501
156	0x3c8d0b2b	0.01721724
157	0xbc92050d	-0.017824674
158	0xbb101d5f	-0.0021990163
159	0xba3daef6	-0.0007235849
160	0x3d3fac92	0.046795435
161	0x3bc51fe5	0.006015765
162	0x3bf7e08b	0.0075646094
163	0x3ca004df	0.019533573
164	0x3cf652e1	0.030068817
165	0xbca5abc4	-0.020223506
166	0x3d353b51	0.04424602
167	0x3d099a94	0.033594683
168	0x3bc223f9	0.0059246984
169	0xbccc9899	-0.024975108
170	0xbc894174	-0.016754843
171	0x3c23ec3b	0.010005052
172	0xbd3e8f68	-0.04652348
173	0xbcdf76a4	-0.027278252
174	0xbcea046b	-0.02856656
175	0x3d0dab65	0.034587283
176	0x3cbb1a99	0.022839831
177	0x3ad39a38	0.0016143983
178	0x3bffa2b8	0.00780138
179	0xb9fac552	-0.0004783073
180	0x3d4c4846	0.049873613
181	0x3c95d86e	0.018291678
182	0xbb3a21c8	-0.0028401483
183	0x3d0b38d8	0.033989757
184	0xbacee9c0	-0.0015786216
185	0x3cf6c0eb	0.030121287
186	0xbc9e39a2	-0.01931459
187	0xbc5c2906	-0.013437515
188	0xbc40830f	-0.011749997
189	0x3c385636	0.011251023
190	0x3cd64550	0.026156098
191	0xbc9f6c95	-0.019460956
192	0x3cd7a95b	0.026325872
193	0x3aa30ded	0.0012440063
194	0xbd1d8e22	-0.038465627
195	0xbcb7b813	-0.02242664
196	0x3bfe6adf	0.007764205
197	0x3d1273db	0.03575502
198	0x3c9efe3a	0.019408334
199	0xbd4ef364	-0.050525084
200	0x3b0f1b6a	0.0021836408
201	0xbba02731	-0.0048874845
202	0x3bd325f9	0.0064437357
203	0xbae492f4	-0.0017438815
204	0xb150729b	-3.033313e-09
205	0x3b0ad2bd	0.0021182739
206	0x3bf87441	0.007582218
207	0x3c518dad	0.012790126
208	0xbc4d54af	-0.012532397
209	0xb9add989	-0.00033159208
210	0xba8b6d18	-0.0010637371
211	0x3cf51635	0.029917816
212	0xbc5a1324	-0.013310228
213	0xbca801bf	-0.020508645
214	0x3d0f550c	0.034993216
215	0x3bc7946d	0.006090692
216	0x3c38bafc	0.011275049
217	0x3b6981a8	0.003563026
218	0x3bc1fb48	0.0059198476
219	0x3bf4418c	0.007454103
220	0x3c4529b2	0.012033867
221	0xbd200468	-0.039066702
222	0x3cab9c3d	0.020948524
223	0xb94d894c	-0.0001960147
224	0x3cc068c9	0.023487465
225	0xbbc3a054	-0.0059700403
226	0xbbfca7eb	-0.007710447
227	0x3b43bf61	0.002986871
228	0xbbc925ef	-0.0061385552
229	0xb791fa2c	-1.7401842e-05
230	0x3b8431f9	0.0040342775
231	0x3c86b952	0.01644579
232	0xbc9d8ff2	-0.019233678
233	0xbc4de9a6	-0.012567913
234	0xb98e8a0d	-0.00027187206
235	0x3d0391aa	0.032121338
236	0xbc90795b	-0.017635992
237	0x3d0b423a	0.033998705
238	0x3ae6b9c9	0.0017602976
239	0x3cb321fe	0.021866795
240	0xbca784ae	-0.020449009
241	0xbc97e34e	-0.018541005
242	0xbbc5f0d2	-0.006040671
243	0x3d3fa107	0.046784427
244	0xbc5f08e1	-0.013612957
245	0xbd1e460e	-0.038641028
246	0xbcefeffb	-0.029289236
247	0x3b05e82c	0.0020432575
248	0xbd828368	-0.0637272
249	0x3c81357c	0.015772574
250	0x39669c04	0.0002199263
251	0x3bad18d8	0.0052825026
252	0xbc95f190	-0.018303663
253	0xbbee3d12	-0.0072704637
254	0xba894771	-0.0010473562
255	0x3b504da8	0.0031784568

conv3.bias f4 [32]
0	0xbd0b7cd2	-0.034054585
1	0x3a901fa6	0.001099576
2	0xbd1ec09e	-0.038757913
3	0x3bb09495	0.005388806
4	0x3b7f9b17	0.0039002353
5	0xbbdcf91f	-0.0067435647
6	0xbabc37e5	-0.001435992
7	0xbb0949b7	-0.0020948478
8	0xbd3862dd	-0.04501616
9	0x3d0a6c11	0.033794466
10	0xbbe88185	-0.007095518
11	0x3d41da2b	0.0473272
12	0xbb0b966e	-0.002129938
13	0xbcc7e690	-0.024401933
14	0x3d0ad6ba	0.033896185
15	0xbd69fb22	-0.057124265
16	0x3d8de763	0.06928899
17	0x3cc4947b	0.023996582
18	0xbc9b7049	-0.01897444
19	0x3ca933c2	0.020654563
20	0xbb90658e	-0.0044066375
21	0xbd0a3f02	-0.033751495
22	0xbb0b860c	-0.0021289615
23	0x3d37aeb2	0.044844337
24	0xbb48f6aa	-0.0030664601
25	0x3d306c65	0.043072123
26	0xbad2047d	-0.0016023066
27	0x3da604fb	0.08106419
28	0xbd0f3631	-0.03496379
29	0x3d173fb1	0.036925975
30	0xbb77beb4	-0.0037802877
31	0x3d8bfffd	0.06835935

fc1.weight f4 [8, 32]
0	0x3d501b49	0.05080727
1	0x3e995e3a	0.29954702
2	0xbe8a823e	-0.27052492
3	0x3ecfbe86	0.40575045
4	0xbe1e35fe	-0.15450284
5	0xbc443ae6	-0.011976933
6	0x3b82c17d	0.0039903508
7	0x3db47ea2	0.08813216
8	0x3ca1eb4c	0.019765519
9	0xbd53ef7b	-0.05174206
10	0xbd5e7847	-0.054313924
11	0x3e0fe662	0.14052728
12	0xbd908e01	-0.07058335
13	0xbe22aff1	-0.15887429
14	0xbd7b75f2	-0.06139178
15	0xbea9f486	-0.3319437
16	0xbc839514	-0.016062297
17	0x3e838915	0.25690523
18	0xbd260b3b	-0.040538054
19	0x3def3b2b	0.11681207
20	0x3c8855bd	0.016642446
21	0x3e306bb7	0.1722859
22	0xb9c9befc	-0.00038480002
23	0x3ebcfa27	0.369096
24	0xbb54bc6a	-0.0032460936
25	0xbe0bff52	-0.13671616
26	0x3c827b34	0.015927888
27	0x3c8db904	0.017300136
28	0xbed58201	-0.41700748
29	0x3c74f415	0.014950772
30	0x3ee9084f	0.4551415
31	0xbdbc1e09	-0.09185416
32	0x3e05b034	0.13055497
33	0x3d93a20c	0.07208642
34	0xbdd053ee	-0.10172258
35	0xbe540562	-0.20705178
36	0xbdc6adcc	-0.09701118
37	0x3e352484	0.17689711
38	0xb653aecf	-3.1543202e-06
39	0xb5297879	-6.3132717e-07
40	0xbe7fe807	-0.24990855
41	0x3de9a0cc	0.11407623
42	0x3cb7c5eb	0.022433242
43	0x3d188ac2	0.037241705
44	0x3d6f1ae6	0.05837526
45	0xbb7917e0	-0.0038008615
46	0xbd991810	-0.07475293
47	0xbe327a99	-0.1742958
48	0x3ec2fb7c	0.38082492
49	0xbe112b4e	-0.14176676
50	0xbe94756b	-0.28995833
51	0x3ee47f24	0.4462825
52	0xbbead1cc	-0.007166123
53	0xbe2bd8ff	-0.16781996
54	0x3bb9ddc7	0.00567219
55	0x3a98f324	0.0011669141
56	0x3cb1d059	0.021705793
57	0x3bcff770	0.0063466355
58	0xb7b4eda4	-2.1568332e-05
59	0x3e2a2fd7	0.16619812
60	0x3d6566b0	0.056006134
61	0xbd8408f5	-0.06447021
62	0xbdb33cb4	-0.087518126
63	0x3e89d6d6	0.2692172
64	0x3d694c9a	0.05695782
65	0x3e0b26b9	0.1358899
66	0x3d14fed4	0.036375836
67	0x3e53b348	0.20673859
68	0xbc5174c8	-0.0127841905
69	0x3e9fab3b	0.31185326
70	0xbafae584	-0.0019141887
71	0xb898805c	-7.2718336e-05
72	0x3eaa4a13	0.3325964
73	0xbd2e300a	-0.042526282
74	0xbe0d688b	-0.13809411
75	0xbd2ea743	-0.042639982
76	0xbe969a15	-0.2941443
77	0x3e092433	0.13392715
78	0xbf2ec4b1	-0.6826888
79	0x3d14598b	0.036218207
80	0xbe0f25da	-0.13979283
81	0x3e4826e9	0.19546093
82	0xbe6ca243	-0.23108773
83	0x3da32ee6	0.079679295
84	0xbc6af55e	-0.014340727
85	0x3e042984	0.12906462
86	0xbd35869f	-0.044317838
87	0x3d4da781	0.050208572
88	0xbd3e6f48	-0.046492845
89	0xbeba0999	-0.36335447
90	0xb778c21e	-1.4827148e-05
91	0xbe9a42cc	-0.30129087
92	0x3c806150	0.015671402
93	0xbd6b625d	-0.057466853
94	0x3e8e90f1	0.27844957
95	0xbe992c12	-0.29916435
96	0x3e34cd06	0.17656335
97	0xbdd0657d	-0.10175607
98	0xbd27916e	-0.040910177
99	0x3e605f05	0.21911247
100	0x3e0ed2c9	0.13947596
101	0xbd8c9017	-0.068634205
102	0x3d3b7c86	0.04577305
103	0xb469317e	-2.1717821e-07
104	0xbd8d9bff	-0.069145195
105	0xbe590b78	-0.21195781
106	0xbb4315a5	-0.002976754
107	0xbe4cd34d	-0.2000248
108	0x3e1ba5f8	0.15200031
109	0xbc1ed520	-0.009694368
110	0x3eb9b602	0.36271673
111	0x3d15a650	0.03653556
112	0xbd3edc4c	-0.04659681
113	0xbe5b625d	-0.21424241
114	0x3e7fd36c	0.24982995
115	0xbe67d11e	-0.22638366
116	0x3cb937d0	0.022609621
117	0xbdd7cc18	-0.10536975
118	0x3bef2ba7	0.007298905
119	0xbde15665	-0.110028066
120	0x3e050c52	0.12992981
121	0xbe373a1b	-0.17893259
122	0xb7540b07	-1.2638752e-05
123	0xbebe1c19	-0.37130812
124	0x3c42f3e0	0.011898965
125	0xbe4395c8	-0.19100106
126	0xbebfa34a	-0.37429267
127	0x3d89dfb0	0.06732118
128	0x3e55cf94	0.20879966
129	0x3d91c2d6	0.0711724
130	0x3e497e55	0.19677098
131	0xbd8abbf0	-0.067741275
132	0xbe8bcd6e	-0.27305168
133	0xba03286f	-0.00050032785
134	0xbb041837	-0.0020156035
135	0xbccb7b64	-0.02483911
136	0xbdb99e80	-0.090634346
137	0xbed275e0	-0.41105556
138	0xbe277e0e	-0.1635668
139	0xbe8d5bee	-0.276092
140	0x3e856232	0.2605148
141	0xbc90eca3	-0.017690962
142	0x3e74cc4a	0.23906055
143	0x3e056026	0.13024959
144	0xbe466945	-0.19376095
145	0xbddf47c2	-0.109023586
146	0xbbda9c47	-0.0066714617
147	0xbc1cf2e1	-0.009579391
148	0xbb373eb5	-0.002796096
149	0x3d9c4556	0.07630412
150	0x39d550ce	0.0004068673
151	0x3e8f7622	0.28019816
152	0x3d83f593	0.06443324
153	0xbe1e98a9	-0.15487923
154	0xbda52e3f	-0.08065461
155	0xbe336d0a	-0.17522064
156	0xbe13d682	-0.14437297
157	0xbedf03e4	-0.43557656
158	0x3da147a8	0.078749955
159	0xbede13bf	-0.4337444
160	0x3ded726f	0.11594092
161	0xbe42a4b8	-0.19008148
162	0x3ed931a9	0.424207
163	0x3d827242	0.06369449
164	0x3db7adc7	0.08968692
165	0xbe9ac03b	-0.30224785
166	0xbd07f96e	-0.03319686
167	0xb8b86a2d	-8.7935805e-05
168	0xbaad7dc2	-0.0013236331
169	0x3e1ad9b1	0.15122105
170	0x3ed751dc	0.4205464
171	0x3d7d9ac1	0.061915163
172	0xbcadbdf1	-0.021208735
173	0xbcc6a39d	-0.024247939
174	0xbe1479e1	-0.14499618
175	0x3e1e0936	0.15433201
176	0xbe3fbd73	-0.18724613
177	0x3dd3daed	0.10344491
178	0xbdfcc87d	-0.123429276
179	0xbeb16c95	-0.34653154
180	0x3b4b5612	0.0031026644
181	0x3c2b4b98	0.010455035
182	0x3d894f56	0.06704585
183	0xbdc5f47c	-0.09665772
184	0x3e2e519d	0.1702332
185	0x3e024c60	0.12724447
186	0xbcbab737	-0.022792442
187	0xbd6b12d7	-0.057391014
188	0xbdda6cd4	-0.106652886
189	0x3e1cd4cf	0.15315555
190	0x3e47dcc1	0.19517805
191	0xbe11b508	-0.14229214
192	0xbd83ba8c	-0.06432065
193	0xbecf2c4f	-0.40463492
194	0xbca6c15b	-0.020355871
195	0xbd238128	-0.039918095
196	0xbda01f8d	-0.07818518
197	0x3e7a1eb7	0.2442578
198	0x3736959d	1.088288e-05
199	0xb39531b9	-6.947398e-08
200	0x3e093228	0.1339804
201	0xbe228925	-0.15872629
202	0xbd2620c9	-0.04055861
203	0xbe38e1a2	-0.18054822
204	0xbe8663bb	-0.26247963
205	0x3e95837a	0.2920187
206	0x3df403d9	0.119147964
207	0xbe7d0c0a	-0.24711624
208	0x3c33c313	0.010971802
209	0x3ed142c4	0.4087125
210	0xbd3e8d68	-0.046521574
211	0xbebd2f4f	-0.36950156
212	0x3a7f1dbd	0.00097319094
213	0xbe35670e	-0.17715093
214	0x3ac6065d	0.0015108098
215	0x3ea546b8	0.32280517
216	0xbc068271	-0.008209811
217	0xbc9ec14b	-0.019379279
218	0xb6148cce	-2.2135678e-06
219	0xbaefa2b7	-0.0018282746
220	0xbbe50bdf	-0.0069899405
221	0x3e002cd5	0.12517102
222	0xbe27dff6	-0.16394028
223	0xbd864802	-0.06556703
224	0xbe047784	-0.12936217
225	0xbde94296	-0.113896534
226	0x3df58947	0.11989074
227	0x3ef00a80	0.4688301
228	0x3eb684e8	0.35648274
229	0xbeb00cd6	-0.34384793
230	0xb69e4839	-4.7171748e-06
231	0x3b28a4b9	0.0025732948
232	0xbddb784f	-0.107163064
233	0x3ea5a44e	0.32351917
234	0xbd53652d	-0.05161016
235	0xbb9c0a0e	-0.004761941
236	0xbd7eb6c6	-0.062186025
237	0xbe9ce10c	-0.30640447
238	0x3dd255e9	0.10270292
239	0x3dadc80e	0.08485423
240	0x3ed1d3cf	0.4098191
241	0x3c13a36a	0.009011129
242	0xbe63331d	-0.22187467
243	0xbe84547d	-0.2584571
244	0xbaaa41ad	-0.0012989544
245	0xbec0fe0f	-0.3769383
246	0xbc5d9272	-0.013523685
247	0x3dc4f7d4	0.09617582
248	0x3dd7c4d2	0.10535587
249	0x3e5ea958	0.21744287
250	0xbd4c3bcb	-0.04986171
251	0x3e21a2da	0.15784779
252	0xbe20abd5	-0.15690549
253	0x3e11934a	0.14216343
254	0x3d1e1b9e	0.038600557
255	0x3da8153d	0.08207176

fc1.bias f4 [8]
0	0x3d28fded	0.041257787
1	0x3d15972c	0.03652112
2	0xbd7011fa	-0.058610894
3	0xbcb64da0	-0.022253811
4	0xbcb44c4a	-0.022009034
5	0xbc878cf8	-0.016546711
6	0x3ce2b5eb	0.027674636
7	0x3cb86a3d	0.022511596

fc_1.weight f4 [8, 32]
0	0x3d501b49	0.05080727
1	0x3e995e3a	0.29954702
2	0xbe8a823e	-0.27052492
3	0x3ecfbe86	0.40575045
4	0xbe1e35fe	-0.15450284
5	0xbc443ae6	-0.011976933
6	0x3b82c17d	0.0039903508
7	0x3db47ea2	0.08813216
8	0x3ca1eb4c	0.019765519
9	0xbd53ef7b	-0.05174206
10	0xbd5e7847	-0.054313924
11	0x3e0fe662	0.14052728
12	0xbd908e01	-0.07058335
13	0xbe22aff1	-0.15887429
14	0xbd7b75f2	-0.06139178
15	0xbea9f486	-0.3319437
16	0xbc839514	-0.016062297
17	0x3e838915	0.25690523
18	0xbd260b3b	-0.040538054
19	0x3def3b2b	0.11681207
20	0x3c8855bd	0.016642446
21	0x3e306bb7	0.1722859
22	0xb9c9befc	-0.00038480002
23	0x3ebcfa27	0.369096
24	0xbb54bc6a	-0.0032460936
25	0xbe0bff52	-0.13671616
26	0x3c827b34	0.015927888
27	0x3c8db904	0.017300136
28	0xbed58201	-0.41700748
29	0x3c74f415	0.014950772
30	0x3ee9084f	0.4551415
31	0xbdbc1e09	-0.09185416
32	0x3e05b034	0.13055497
33	0x3d93a20c	0.07208642
34	0xbdd053ee	-0.10172258
35	0xbe540562	-0.20705178
36	0xbdc6adcc	-0.09701118
37	0x3e352484	0.17689711
38	0xb653aecf	-3.1543202e-06
39	0xb5297879	-6.3132717e-07
40	0xbe7fe807	-0.24990855
41	0x3de9a0cc	0.11407623
42	0x3cb7c5eb	0.022433242
43	0x3d188ac2	0.037241705
44	0x3d6f1ae6	0.05837526
45	0xbb7917e0	-0.0038008615
46	0xbd991810	-0.07475293
47	0xbe327a99	-0.1742958
48	0x3ec2fb7c	0.38082492
49	0xbe112b4e	-0.14176676
50	0xbe94756b	-0.28995833
51	0x3ee47f24	0.4462825
52	0xbbead1cc	-0.007166123
53	0xbe2bd8ff	-0.16781996
54	0x3bb9ddc7	0.00567219
55	0x3a98f324	0.0011669141
56	0x3cb1d059	0.021705793
57	0x3bcff770	0.0063466355
58	0xb7b4eda4	-2.1568332e-05
59	0x3e2a2fd7	0.16619812
60	0x3d6566b0	0.056006134
61	0xbd8408f5	-0.06447021
62	0xbdb33cb4	-0.087518126
63	0x3e89d6d6	0.2692172
64	0x3d694c9a	0.05695782
65	0x3e0b26b9	0.1358899
66	0x3d14fed4	0.036375836
67	0x3e53b348	0.20673859
68	0xbc5174c8	-0.0127841905
69	0x3e9fab3b	0.31185326
70	0xbafae584	-0.0019141887
71	0xb898805c	-7.2718336e-05
72	0x3eaa4a13	0.3325964
73	0xbd2e300a	-0.042526282
74	0xbe0d688b	-0.13809411
75	0xbd2ea743	-0.042639982
76	0xbe969a15	-0.2941443
77	0x3e092433	0.13392715
78	0xbf2ec4b1	-0.6826888
79	0x3d14598b	0.036218207
80	0xbe0f25da	-0.13979283
81	0x3e4826e9	0.19546093
82	0xbe6ca243	-0.23108773
83	0x3da32ee6	0.079679295
84	0xbc6af55e	-0.014340727
85	0x3e042984	0.12906462
86	0xbd35869f	-0.044317838
87	0x3d4da781	0.050208572
88	0xbd3e6f48	-0.046492845
89	0xbeba0999	-0.36335447
90	0xb778c21e	-1.4827148e-05
91	0xbe9a42cc	-0.30129087
92	0x3c806150	0.015671402
93	0xbd6b625d	-0.057466853
94	0x3e8e90f1	0.27844957
95	0xbe992c12	-0.29916435
96	0x3e34cd06	0.17656335
97	0xbdd0657d	-0.10175607
98	0xbd27916e	-0.040910177
99	0x3e605f05	0.21911247
100	0x3e0ed2c9	0.13947596
101	0xbd8c9017	-0.068634205
102	0x3d3b7c86	0.04577305
103	0xb469317e	-2.1717821e-07
104	0xbd8d9bff	-0.069145195
105	0xbe590b78	-0.21195781
106	0xbb4315a5	-0.002976754
107	0xbe4cd34d	-0.2000248
108	0x3e1ba5f8	0.15200031
109	0xbc1ed520	-0.009694368
110	0x3eb9b602	0.36271673
111	0x3d15a650	0.03653556
112	0xbd3edc4c	-0.04659681
113	0xbe5b625d	-0.21424241
114	0x3e7fd36c	0.24982995
115	0xbe67d11e	-0.22638366
116	0x3cb937d0	0.022609621
117	0xbdd7cc18	-0.10536975
118	0x3bef2ba7	0.007298905
119	0xbde15665	-0.110028066
120	0x3e050c52	0.12992981
121	0xbe373a1b	-0.17893259
122	0xb7540b07	-1.2638752e-05
123	0xbebe1c19	-0.37130812
124	0x3c42f3e0	0.011898965
125	0xbe4395c8	-0.19100106
126	0xbebfa34a	-0.37429267
127	0x3d89dfb0	0.06732118
128	0x3e55cf94	0.20879966
129	0x3d91c2d6	0.0711724
130	0x3e497e55	0.19677098
131	0xbd8abbf0	-0.067741275
132	0xbe8bcd6e	-0.27305168
133	0xba03286f	-0.00050032785
134	0xbb041837	-0.0020156035
135	0xbccb7b64	-0.02483911
136	0xbdb99e80	-0.090634346
137	0xbed275e0	-0.41105556
138	0xbe277e0e	-0.1635668
139	0xbe8d5bee	-0.276092
140	0x3e856232	0.2605148
141	0xbc90eca3	-0.017690962
142	0x3e74cc4a	0.23906055
143	0x3e056026	0.13024959
144	0xbe466945	-0.19376095
145	0xbddf47c2	-0.109023586
146	0xbbda9c47	-0.0066714617
147	0xbc1cf2e1	-0.009579391
148	0xbb373eb5	-0.002796096
149	0x3d9c4556	0.07630412
150	0x39d550ce	0.0004068673
151	0x3e8f7622	0.28019816
152	0x3d83f593	0.06443324
153	0xbe1e98a9	-0.15487923
154	0xbda52e3f	-0.08065461
155	0xbe336d0a	-0.17522064
156	0xbe13d682	-0.14437297
157	0xbedf03e4	-0.43557656
158	0x3da147a8	0.078749955
159	0xbede13bf	-0.4337444
160	0x3ded726f	0.11594092
161	0xbe42a4b8	-0.19008148
162	0x3ed931a9	0.424207
163	0x3d827242	0.06369449
164	0x3db7adc7	0.08968692
165	0xbe9ac03b	-0.30224785
166	0xbd07f96e	-0.03319686
167	0xb8b86a2d	-8.7935805e-05
168	0xbaad7dc2	-0.0013236331
169	0x3e1ad9b1	0.15122105
170	0x3ed751dc	0.4205464
171	0x3d7d9ac1	0.061915163
172	0xbcadbdf1	-0.021208735
173	0xbcc6a39d	-0.024247939
174	0xbe1479e1	-0.14499618
175	0x3e1e0936	0.15433201
176	0xbe3fbd73	-0.18724613
177	0x3dd3daed	0.10344491
178	0xbdfcc87d	-0.123429276
179	0xbeb16c95	-0.34653154
180	0x3b4b5612	0.0031026644
181	0x3c2b4b98	0.010455035
182	0x3d894f56	0.06704585
183	0xbdc5f47c	-0.09665772
184	0x3e2e519d	0.1702332
185	0x3e024c60	0.12724447
186	0xbcbab737	-0.022792442
187	0xbd6b12d7	-0.057391014
188	0xbdda6cd4	-0.106652886
189	0x3e1cd4cf	0.15315555
190	0x3e47dcc1	0.19517805
191	0xbe11b508	-0.14229214
192	0xbd83ba8c	-0.06432065
193	0xbecf2c4f	-0.40463492
194	0xbca6c15b	-0.020355871
195	0xbd238128	-0.039918095
196	0xbda01f8d	-0.07818518
197	0x3e7a1eb7	0.2442578
198	0x3736959d	1.088288e-05
199	0xb39531b9	-6.947398e-08
200	0x3e093228	0.1339804
201	0xbe228925	-0.15872629
202	0xbd2620c9	-0.04055861
203	0xbe38e1a2	-0.18054822
204	0xbe8663bb	-0.26247963
205	0x3e95837a	0.2920187
206	0x3df403d9	0.119147964
207	0xbe7d0c0a	-0.24711624
208	0x3c33c313	0.010971802
209	0x3ed142c4	0.4087125
210	0xbd3e8d68	-0.046521574
211	0xbebd2f4f	-0.36950156
212	0x3a7f1dbd	0.00097319094
213	0xbe35670e	-0.17715093
214	0x3ac6065d	0.0015108098
215	0x3ea546b8	0.32280517
216	0xbc068271	-0.008209811
217	0xbc9ec14b	-0.019379279
218	0xb6148cce	-2.2135678e-06
219	0xbaefa2b7	-0.0018282746
220	0xbbe50bdf	-0.0069899405
221	0x3e002cd5	0.12517102
222	0xbe27dff6	-0.16394028
223	0xbd864802	-0.06556703
224	0xbe047784	-0.12936217
225	0xbde94296	-0.113896534
226	0x3df58947	0.11989074
227	0x3ef00a80	0.4688301
228	0x3eb684e8	0.35648274
229	0xbeb00cd6	-0.34384793
230	0xb69e4839	-4.7171748e-06
231	0x3b28a4b9	0.0025732948
232	0xbddb784f	-0.107163064
233	0x3ea5a44e	0.32351917
234	0xbd53652d	-0.05161016
235	0xbb9c0a0e	-0.004761941
236	0xbd7eb6c6	-0.062186025
237	0xbe9ce10c	-0.30640447
238	0x3dd255e9	0.10270292
239	0x3dadc80e	0.08485423
240	0x3ed1d3cf	0.4098191
241	0x3c13a36a	0.009011129
242	0xbe63331d	-0.22187467
243	0xbe84547d	-0.2584571
244	0xbaaa41ad	-0.0012989544
245	0xbec0fe0f	-0.3769383
246	0xbc5d9272	-0.013523685
247	0x3dc4f7d4	0.09617582
248	0x3dd7c4d2	0.10535587
249	0x3e5ea958	0.21744287
250	0xbd4c3bcb	-0.04986171
251	0x3e21a2da	0.15784779
252	0xbe20abd5	-0.15690549
253	0x3e11934a	0.14216343
254	0x3d1e1b9e	0.038600557
255	0x3da8153d	0.08207176

fc_1.bias f4 [8]
0	0x3d28fded	0.041257787
1	0x3d15972c	0.03652112
2	0xbd7011fa	-0.058610894
3	0xbcb64da0	-0.022253811
4	0xbcb44c4a	-0.022009034
5	0xbc878cf8	-0.016546711
6	0x3ce2b5eb	0.027674636
7	0x3cb86a3d	0.022511596
