checkpoints/source/epoch=6.checkpoint.pth.tar (torch, 318516 bytes, 10 tensors)

conv1.weight f4 [16, 3, 5, 5]
000000 75 4b 4d 3e 72 69 22 3e 2b ac a0 3d da fa 74 be
       0.20048316 0.15860537 0.078453384 -0.23923817
000010 00 f2 79 3d 0b 28 08 be a1 6c 2a bc bc 5f 4c be
       0.061021805 -0.13296525 -0.010401876 -0.19958395
000020 20 70 e2 bd ff 29 24 3e 1f 92 30 bd 78 d4 11 be
       -0.110565424 0.16031645 -0.043108102 -0.14241207
000030 2e 10 de bd 5a 7d c1 bd 9c 97 c2 bd bc ef ba 3d
       -0.1084293 -0.09447737 -0.095015734 0.09127757
000040 27 08 41 3e 93 a4 f5 bc d3 e6 a2 bd 87 6a b1 3c
       0.18850766 -0.029985702 -0.079541825 0.021657242
000050 53 2f 8e bd e3 83 01 3e 95 db a5 3d ed 6c 23 3e
       -0.0694262 0.12647967 0.080985226 0.1595952
000060 bc ee eb 3d 4e b1 09 3e da a3 8d 3d c4 13 01 3e
       0.11520144 0.13446543 0.06916018 0.12605196
000070 10 ad 4e bd 14 a0 b2 bb 59 bb fb bc 33 e5 aa 3d
       -0.050458014 -0.0054512117 -0.030728983 0.083444975
000080 85 61 31 be 64 c1 fe bd b8 7f ff bc 5e 95 35 3e
       -0.17322357 -0.1243923 -0.03118883 0.1773276
000090 18 3e 14 3d b9 55 92 bd c3 ae 4f bb 28 63 bd bd
       0.03619203 -0.071452565 -0.003168986 -0.09247428
0000a0 5d 8b 1b be f9 a3 f4 3d 18 c0 cf bd f0 3a b1 bd
       -0.15189882 0.11945338 -0.10144061 -0.086538196
0000b0 5a b9 18 be 5c 0c 6e 3e 82 0c eb bd f4 4d 50 bd
       -0.14914456 0.23246902 -0.11476995 -0.050855592
0000c0 5b 5d d7 bd 6d c2 9e bd a6 8a fb 3b 55 f2 71 3d
       -0.10515853 -0.077519275 0.0076764403 0.059068996
0000d0 c2 40 82 bd ee 40 c5 3d eb 56 c6 bd 1e e4 a5 bd
       -0.06360008 0.09631525 -0.09684547 -0.081001505
0000e0 07 07 1b be 19 41 eb bc 70 74 2e bd b4 e2 67 3d
       -0.151394 -0.028717564 -0.042591512 0.056612685
0000f0 71 5c 4b bc db 4c 46 3e d4 aa 19 be 72 9a df 3d
       -0.0124121765 0.19365256 -0.15006572 0.1091813
000100 00 1d 09 3e 0a 86 c9 3d 55 72 79 3e e3 8a 26 3d
       0.13389969 0.09840019 0.2436002 0.040659796
000110 39 88 45 3c 2f 6e 1f bd 20 76 ce bd cb b8 13 3e
       0.012056404 -0.03892344 -0.10081124 0.14425962
000120 13 64 ba bc 66 f1 2c 3d a9 1d ce bb 4a fa fb 3c
       -0.022752797 0.042222403 -0.006290157 0.030758996
000130 77 43 52 3d 34 44 9c bd c8 ab 76 be 05 6d b1 bd
       0.05133387 -0.07630196 -0.24088967 -0.08663372
000140 d1 7f 95 bc 94 96 43 bd 95 11 1e be 90 a4 9a bd
       -0.018249424 -0.047751024 -0.15436395 -0.07550919
000150 27 70 32 3d a8 9e 1c 3d cd 1c cc 3d 26 47 ac bc
       0.043563988 0.038237244 0.09966431 -0.02103002
000160 c6 71 54 3d 1f c6 7f bd b6 71 00 be 5e 84 26 3d
       0.051866315 -0.062444802 -0.12543377 0.04065358
000170 1e 2c 52 be d1 03 e1 bd f4 ee fa 3d f7 ff d7 3c
       -0.20524642 -0.10987056 0.12252608 0.02636717
000180 ff 83 90 be 6e c4 d2 3c bf c5 70 3d 90 be 59 bc
       -0.28225705 0.02572843 0.058782335 -0.013290063
000190 64 47 96 3d b5 94 92 3d eb 1c f3 3d 1e 4a 33 bd
       0.073378354 0.0715727 0.1187075 -0.043771856
0001a0 9f 8c 64 bc c2 6b a3 3d 52 0a 4a 3d 1d ba a8 3c
       -0.013949542 0.079795375 0.04932625 0.020596558
0001b0 c4 69 f9 3c 4b b1 0b 3e 60 0d e4 b9 58 9c 01 bd
       0.03044594 0.1364185 -0.00043497514 -0.03164324
0001c0 4a a2 23 be 9d 9f 87 bc 7b b5 6a bd 53 30 40 3d
       -0.15979877 -0.016555602 -0.05730198 0.046921086
0001d0 88 eb 90 3d dd d3 34 bb 18 10 45 bd 1e 7f 6a 3d
       0.07076174 -0.00275921 -0.04811105 0.057250135
0001e0 e3 66 15 bc 73 92 9a 3c 29 aa 08 3c e4 c5 9a 3d
       -0.009118768 0.01886866 0.008341351 0.07557276
0001f0 90 71 ea 3d b8 b2 53 3d 59 38 bf 3d 37 e4 69 3d
       0.114474416 0.05168411 0.09336919 0.05710241
000200 c0 fc 55 3e ea 1c ea 3d cf 3d 0d be 9e 4c cf bd
       0.20897198 0.11431296 -0.1379311 -0.101220354
000210 f8 69 91 bb 97 5d 36 3e 45 af 9e 3d 84 ea 8a 3d
       -0.0044376813 0.17809139 0.07748274 0.067830116
000220 9c c5 00 3e d5 1e 52 ba 1c 41 3d be a6 c3 d9 3d
       0.12575382 -0.00080154586 -0.18481869 0.1063302
000230 af 09 10 bd c9 17 dc 3d 40 8f a1 bd f3 0b 7c 3d
       -0.035165485 0.10746724 -0.07888651 0.061534833
000240 3f c9 c1 bd ed 38 c1 3d 89 f6 26 3e f8 3c 14 3e
       -0.09462213 0.09434686 0.16304983 0.14476383
000250 01 30 bb 3c 56 f1 ac bc 3f a7 1d bd a5 fe 1b 3d
       0.022850038 -0.021111172 -0.038489576 0.038084645
000260 6e 83 08 3d 65 25 c2 3d 72 a2 20 bd 86 43 38 3e
       0.033328466 0.09479789 -0.03921742 0.17994508
000270 f4 32 84 be 6e ee 4f bd 7b cc 03 be b0 e3 b0 3d
       -0.25820124 -0.050764494 -0.12870972 0.08637178
000280 01 e9 5a be 9f ad 1a 3c df 1f b1 bb 82 53 0c bd
       -0.21377946 0.009440809 -0.0054054107 -0.034259327
000290 53 60 19 3d e3 10 af bd ec 21 18 3c fe 79 e3 bd
       0.037445378 -0.08548143 0.009285431 -0.111072525
0002a0 36 45 1f be ac 80 25 3e 8f 3c 0e 3e 3a 1e ae 3a
       -0.15553746 0.16162366 0.13890289 0.0013284155
0002b0 0a 42 1c be 01 05 c4 3d 52 d7 e1 3d 47 b4 7f 3e
       -0.15259567 0.09571267 0.11027397 0.24971114
0002c0 4d ae 05 3d a7 4f 3a 3c 38 b0 b7 bd 00 86 89 bc
       0.03263693 0.01137153 -0.08969158 -0.016787529
0002d0 b6 17 9e bd d9 d8 24 be b4 c0 fb bd ff 07 6e bd
       -0.07719366 -0.16098346 -0.122926146 -0.058113094
0002e0 ef 86 57 bd 61 f4 29 be ff b1 58 be ae 82 11 3c
       -0.052618917 -0.1659713 -0.2116165 0.008881254
0002f0 09 06 dc 3d ca 26 42 bd 9a 58 8f 3d af ec 8b 3d
       0.107433386 -0.047400273 0.06999321 0.06832253
000300 5a 5d 3b 3e 14 af b9 bd b9 45 f2 3d 76 a8 b2 bc
       0.1829733 -0.090665966 0.11829705 -0.021808844
000310 c2 ca f8 bd 08 af 1d 3d 25 eb 7a 3d 2c 3b 28 3e
       -0.12148048 0.038497 0.061259408 0.16428822
000320 a4 bb b1 3d 21 9f 72 3e f5 50 68 bd f7 76 d2 bd
       0.08678368 0.23693515 -0.05671783 -0.10276597
000330 91 b7 d2 3c a7 34 fb 3d 7e ed 05 3e fd c8 14 3d
       0.025722297 0.12265902 0.13078877 0.03632449
000340 e8 5f bc bd d3 97 d5 bd c0 3e 77 bd 7e 03 99 bd
       -0.0919798 -0.10429349 -0.060362577 -0.07471369
000350 cd 05 02 3c 76 79 2e 3d eb 37 1e bc bc 31 79 be
       0.007935953 0.042596303 -0.009656887 -0.24335378
000360 42 af 4a bd f0 1c d2 3d 17 88 40 be 5a 60 27 3e
       -0.049483545 0.10259426 -0.18801914 0.16345349
000370 ea c6 34 3d dd 18 6a bd 94 ec c2 3d 76 61 30 3e
       0.04413501 -0.057152618 0.0951778 0.17224678
000380 a9 7e f4 3b a2 74 36 3e 00 1c 9c 3c 2d 27 ee bd
       0.007461388 0.1781793 0.01905632 -0.11628566
000390 a6 b8 a3 bd ba ec aa bc 5a 3c 46 3d 9f d4 5e 3e
       -0.07994203 -0.020864833 0.0483974 0.21760796
0003a0 31 0e 0a bc 1e a2 eb bd 2f f9 76 be 71 c8 e1 bd
       -0.008426235 -0.11505531 -0.24118493 -0.11024559
0003b0 dc ff 22 3c 32 c7 df 3b 62 bd 47 3b a6 a6 2d 3c
       0.009948697 0.006829166 0.0030477871 0.010598814
0003c0 f7 67 c4 bd 42 da 0c 3d 63 2b 52 bd 70 b2 24 3d
       -0.09590142 0.034387834 -0.051310908 0.040209234
0003d0 56 28 f4 bd 69 68 ed b9 70 9f e9 bc fb 34 1c 3e
       -0.11921756 -0.00045281954 -0.028518409 0.15254585
0003e0 c9 8b f0 3d d9 75 d9 bd 65 35 b9 3d 26 bd 5d 3d
       0.11745412 -0.10618181 0.09043387 0.054135464
0003f0 19 f9 42 3d d7 09 1d 3d d1 4c c3 3c 02 1f da 3c
       0.04760084 0.038339462 0.02384034 0.026626114

conv1.bias f4 [16]
000000 be a3 52 bd 03 85 80 3c 56 ec 1d bd de cc 02 bd
       -0.051425688 0.015688425 -0.038555466 -0.031933658
000010 c2 cf 07 bd 40 16 3c bd 1f ad 3a 3c ee d5 82 bc
       -0.033157118 -0.045919657 0.011393814 -0.01597115
000020 4d 38 c2 bc 3b 5b 16 3d b6 d3 c4 3b ea c7 98 3c
       -0.023708487 0.036708098 0.006006683 0.018650014
000030 49 69 f0 bb e1 68 53 bc f7 e7 ce bc 06 82 1c ba
       -0.0073367697 -0.012903423 -0.025257094 -0.0005970303

conv2.weight f4 [64, 16, 5, 5]
000000 f4 9a d4 3c 32 78 7f 3c f3 5a 72 3c 76 22 bc 3d
       0.025952794 0.015592622 0.014792192 0.091862604
000010 a5 2f 53 3d 2a 24 47 3c 0c a8 30 bb e9 da bb 3c
       0.05155911 0.012154618 -0.0026955632 0.022931533
000020 c2 23 87 bb ca e2 9a bc 56 51 74 3b 2f a9 d0 3d
       -0.0041241357 -0.01890697 0.0037279925 0.10188519
000030 fb cc 40 bd 25 8e 0f 3c a6 f5 98 3d 3b fa 97 ba
       -0.047070485 0.008761917 0.07468729 -0.001159496
000040 07 19 d5 3c 23 15 8d 3d e4 cf bd 3d a7 8c 5e 3d
       0.02601291 0.06888797 0.092681676 0.054333355
000050 ae c9 1e bc 85 82 69 3d 96 7d 00 3d 84 1b c7 3b
       -0.009691639 0.05700924 0.031369768 0.006076278
000060 39 88 73 bd 2c da b0 3c 2a 51 1c bd 0c 98 b6 bc
       -0.059456084 0.021588407 -0.03816334 -0.022289298
000070 5e f6 ba bc c6 e6 37 3d 00 6c 4f bd 2c ef f1 bc
       -0.022822555 0.044897817 -0.050640106 -0.029532991
000080 58 e0 e5 bb 18 fd 67 bd 90 e8 6d bd 88 45 f1 bc
       -0.0070152692 -0.056637853 -0.058083117 -0.0294521
000090 32 59 5f bb 5a 4e 96 bd f2 1a 1d 3d ad d3 b8 bd
       -0.0034080264 -0.07339163 0.038355775 -0.09024749
0000a0 7b 04 51 3d ed 1c 8f bb 9b 82 69 bd 05 63 c4 3c
       0.051029664 -0.004367462 -0.05700932 0.023972997
0000b0 a1 88 1c bd ab 45 a5 bc 41 97 92 3c 6a c7 27 3d
       -0.038216237 -0.020174822 0.01789439 0.04096166
0000c0 4a 6b b3 bc 62 99 a3 3c 88 64 c9 bc 84 6d 14 3c
       -0.021901745 0.0199706 -0.02458407 0.009059314
0000d0 5d 65 d2 bc 63 b8 86 3d b8 f8 26 3d ce cc 19 3d
       -0.0256831 0.06578138 0.04076454 0.037548833
0000e0 3f 30 f4 3b fe e1 b0 bc 37 38 a5 bc 9f cd b5 3b
       0.0074520404 -0.021592136 -0.020168407 0.0055481936
0000f0 92 a4 43 bc 57 e6 54 bc f9 a9 17 3d e7 aa d5 3d
       -0.011941092 -0.01299437 0.037027333 0.10432988
000100 f2 09 76 bd ba 62 f5 bb e2 bd 0a 3d 62 4d 85 3d
       -0.06006808 -0.0074885758 0.033872493 0.065089
000110 9e af 65 3d 14 74 fd 3c 79 8d bb bc dc 18 cf bc
       0.056075685 0.03093914 -0.022894608 -0.025280409
000120 60 0f 03 3e 4d 75 47 bd e4 80 f9 3c f1 ab 2e bd
       0.12798834 -0.04869585 0.030456968 -0.042644445
000130 e1 db 3c bc ed 1b e9 b9 aa 71 31 bc 79 19 6f bc
       -0.011527033 -0.0004446203 -0.010830322 -0.0145934755
000140 b2 f7 30 bb ec 6a fb ba ac 45 09 3d be a2 9a 3c
       -0.0027003107 -0.0019181645 0.03351371 0.01887643
000150 a3 20 41 3d 03 79 af bc 17 45 99 3d 6f 49 57 3b
       0.047150265 -0.021420008 0.07483881 0.0032850166
000160 69 e9 91 ba 10 67 8c bc da e1 17 3b 37 83 0e bc
       -0.0011132184 -0.017138988 0.002317539 -0.008698276
000170 3f 2c 9e 3c d9 fa b0 3d dc 15 4d bd bf bd 05 bc
       0.019308208 0.086415954 -0.050069675 -0.008162915
000180 5d d9 bb 3c 91 fe 98 3c ff 6a 48 3d 31 ef 72 3d
       0.022930795 0.018676074 0.048930164 0.059310142
000190 61 81 28 bd 29 9b 02 bd 05 40 cb bc f3 66 78 3d
       -0.04113901 -0.031886254 -0.0248108 0.060645055
0001a0 11 cf e9 3c de 30 d5 bc c2 ff 5a bd 67 d1 05 3d
       0.02854112 -0.026024278 -0.053466566 0.032670405
0001b0 46 07 10 3c 0a 5c 22 3c c8 48 36 bd 2d 7e ea bc
       0.008790797 0.009909639 -0.044503003 -0.028624618
0001c0 4f 37 fc 3c ef 0e 2b bd 23 01 c6 bd 1a 21 da bc
       0.030788092 -0.04176229 -0.096681856 -0.026627112
0001d0 80 32 42 3d d4 b2 6e 3d c1 65 69 3c 64 80 82 3d
       0.04741144 0.058276013 0.014245451 0.06372145
0001e0 b7 25 7b 3d 02 53 4c 3b cc 0e bd bb 5b 07 9c 3c
       0.061315265 0.0031177406 -0.005769586 0.019046476
0001f0 ef f2 d7 3c 02 ab 60 3c e9 5b a6 bc 88 e8 bc bc
       0.026360957 0.013712646 -0.020307498 -0.023060098
000200 c4 a3 7b 3c d1 20 f3 bc 07 4b fc 3c 24 ee 0f 3c
       0.015358869 -0.029678734 0.030797495 0.0087848045
000210 23 36 8c bd cb 03 18 3d e4 e5 8d bb 56 3d df bc
       -0.06846263 0.037112992 -0.0043303836 -0.027250927
000220 eb e7 fb ba cc df 85 3c 51 80 dc 3c 93 48 62 3d
       -0.0019218897 0.016342066 0.026916655 0.055244993
000230 1c d1 a7 3d a8 94 e5 3d 7b bb c7 3c b2 f7 ad bc
       0.08194181 0.112099946 0.02438139 -0.021236274
000240 ac 12 72 3b f2 d9 d4 bc 9a 08 30 3d 2a ba 10 bd
       0.00369374 -0.02598283 0.042976953 -0.03533379
000250 dc 11 26 3d de 93 84 3d 7b 1b 16 bd 74 46 66 bc
       0.040544376 0.06473516 -0.0366473 -0.014054883
000260 60 c6 a4 bc 48 6c 64 3c 5c 09 f9 b9 74 e7 e4 3b
       -0.020114124 0.013941832 -0.00047499954 0.006985599
000270 e2 52 3d 3c 7c fd d7 bc 47 21 6c bc eb 3e 05 3d
       0.011555405 -0.026365988 -0.014412231 0.032530706
000280 f4 a1 a5 3c 4c 9f 33 3d 71 a7 8c bc 29 12 57 3d
       0.020218827 0.04385309 -0.017169686 0.052507553
000290 9a fc ef bc 42 0a a7 3c 64 53 1d bb 45 01 7d bc
       -0.029295254 0.020390633 -0.0024006004 -0.015442197
0002a0 6f f2 00 bc 9f a3 c8 bb 05 50 9d bb 58 fe 96 bb
       -0.007870301 -0.006123021 -0.004800799 -0.004607957
0002b0 d0 0e 84 3d aa 25 0a 3c 88 cc 95 bc 09 de d3 bc
       0.06448138 0.008431831 -0.018286005 -0.02586271
0002c0 2b 0b db 3d 94 72 37 bd a6 7a 9a 3d 3a b2 cc bc
       0.106954895 -0.044787005 0.075429246 -0.024987329
0002d0 df ff 82 bd d4 f5 f4 ba 54 dc 43 bd 49 68 33 bb
       -0.0639646 -0.0018688985 -0.047817543 -0.0027375391
0002e0 a6 d0 bb bc 78 9b fd 3a 49 33 2a 3d 01 06 5f bd
       -0.02292664 0.0019348701 0.041552816 -0.054449085
0002f0 3f e6 28 3d b4 05 2f bb 03 1e bb 3d 2d bc 85 3c
       0.041235205 -0.002670628 0.09136584 0.01632508
000300 f1 de 9b bc 6d 20 51 3d ff 2c 80 bc bf bb b6 bc
       -0.019027205 0.051056314 -0.015646456 -0.022306321
000310 5f 11 9f 3d 4e fb 04 3c 23 69 a1 3c 6d ac d8 3b
       0.07766985 0.008116556 0.019703453 0.0066123516
000320 a1 b1 61 3d 8d 85 10 3b fa 9d 6c 3d bd 50 cc 3b
       0.05510104 0.0022052259 0.057767846 0.0062352107
000330 44 5b 77 3d e1 95 35 3d 6e 76 41 3c 63 31 11 3c
       0.060389772 0.04433239 0.011808021 0.008861872
000340 51 71 13 3c f4 27 1e bd 2f 66 29 bd b9 80 46 bc
       0.008999185 -0.03861232 -0.041357215 -0.012115651
000350 10 8a 31 bd 93 df 2b 3c 21 c2 37 bd 53 c0 42 3d
       -0.043344557 0.010490316 -0.04486287 0.047546696
000360 01 c7 31 3d cb 21 67 bb 85 62 2f 3c f5 96 32 bd
       0.043402676 -0.0035267945 0.010704641 -0.043600995
000370 65 20 0a 3c a4 be 1c 3c b8 48 81 3c 8b d6 8f 3d
       0.008430575 0.009566937 0.015781745 0.07023343
000380 79 51 00 bd b1 1f 01 3c 78 f2 de 3c ed 64 6d bd
       -0.0313277 0.007881091 0.027215227 -0.05795758
000390 c7 69 0a 3c 59 dd b8 3c 22 62 a2 3d cc d1 57 bd
       0.008448071 0.022566484 0.079288736 -0.052690312
0003a0 e7 ea a1 bd af c6 46 bc 87 4a 17 3c 3e 57 be bc
       -0.07906132 -0.012132331 0.009234077 -0.02323496
0003b0 99 76 7c bd 1c 41 73 bd 49 80 5d 3d ff 47 af bd
       -0.06163654 -0.059388265 0.05407742 -0.08558654
0003c0 2c c9 d1 3c a9 bd 0b bd ff 2f 7e bd a8 eb 1d 3c
       0.025608622 -0.03411642 -0.06205749 0.009638704
0003d0 ba 58 c1 b7 7c 6f 16 3d 35 34 7b bd 3b 5f 40 3d
       -2.304871e-05 0.036727414 -0.061329085 0.04696582
0003e0 5e 33 c2 3c 66 79 3a 3d 30 2b fc 3b 50 56 b5 3c
       0.023706134 0.04552593 0.007695578 0.022135884
0003f0 01 34 98 3b 63 ba 97 bb eb 3e cb bc fd 01 4b 3d
       0.004644871 -0.0046303733 -0.024810275 0.049562443

conv2.bias f4 [64]
000000 c5 3f 08 bd 55 37 58 3b 0b 1a 84 3c ed fa 99 bc
       -0.03326394 0.0032991965 0.0161257 -0.018796409
000010 23 ec 90 3b 91 51 69 bc d5 73 56 3c 5d 02 82 bc
       0.004422681 -0.014240638 0.01308914 -0.015870268
000020 08 23 2b 3b da ec aa 3c ad 50 c7 bc b4 43 d2 bb
       0.002611341 0.020864893 -0.024330461 -0.0064167622
000030 73 dc 03 bd 25 db a8 3c 14 5f 69 bc c5 27 2a bb
       -0.03219266 0.020612309 -0.01424386 -0.0025963646
000040 bb 47 72 bc ae 05 88 bc 48 73 7a bc 87 fa 40 bb
       -0.01478761 -0.01660427 -0.015286274 -0.00294462
000050 a3 43 fc bc a0 a2 d6 bb 5c 0f 83 ba 13 21 0a bc
       -0.03079397 -0.006550148 -0.0009999084 -0.008430737
000060 db e8 6e bb dd 42 52 bc 25 71 02 bc cf ba fe bc
       -0.003645471 -0.012833324 -0.007961546 -0.031094937
000070 ef 91 12 3d 6c 2b e6 39 2d 25 07 3b f7 75 eb ba
       0.035783704 0.0004390137 0.0020621524 -0.0017964233
000080 7e 57 27 3d 32 a9 6b bb c2 0b be bb 87 58 ee 3c
       0.040854923 -0.0035959003 -0.0057997415 0.029094948
000090 ea 6e 98 bc 63 3d 82 bc bb 74 8c 3c 18 ad 12 3c
       -0.018607575 -0.015898412 0.017145505 0.008952402
0000a0 af d6 20 bb 93 33 01 3d 63 b2 00 bc 5c 42 ae bc
       -0.0024542024 0.031543326 -0.007855031 -0.021271877
0000b0 41 7f f4 3b 35 80 cd bb 06 a5 09 bd 59 dc ee bb
       0.007461459 -0.006271387 -0.033604644 -0.007289451
0000c0 14 27 74 b9 ac f1 fc bc f7 2a d3 bb de 2e 8c 3c
       -0.00023284211 -0.030876957 -0.006444331 0.017112192
0000d0 eb bd 0f 3d 20 1b 9d bc 4f e2 53 bc 06 94 bb bc
       0.03509323 -0.019177973 -0.012932374 -0.022897732
0000e0 42 25 b5 bc 78 8d b0 3c be b6 8f bc 0b d6 0a 3c
       -0.022112492 0.021551833 -0.017543193 0.008473883
0000f0 f1 79 da bb f3 66 5c 3d f2 73 8b bc 7f 10 80 3c
       -0.0066673686 0.053809118 -0.01702306 0.015632866

conv3.weight f4 [32, 64, 5, 5]
000000 78 80 98 3b 44 f8 a1 3b 34 5a 35 3b da 45 10 bb
       0.0046539865 0.0049429256 0.0027672173 -0.002201429
000010 d4 ac 10 bb 28 9e 79 b9 fe df e0 ba ef 88 d3 b9
       -0.002207567 -0.00023805408 -0.0017156599 -0.0004034708
000020 2c db 86 3b b1 a8 02 bb 24 a0 fb 3c 3a 98 c3 bb
       0.004115483 -0.0019936974 0.03071601 -0.0059690746
000030 f9 9e ff 3c 8f a5 46 3b 9e e3 86 3c 14 9a c4 3c
       0.031203734 0.0030311083 0.016465958 0.023999251
000040 50 28 75 3b 9f c7 eb 3c 1d fb c6 3c fe cf 4b bc
       0.0037408061 0.02878171 0.024289662 -0.012439726
000050 e5 13 10 bc db be 5a 3c 52 ad 8c 3b f4 00 5c 3d
       -0.008793806 0.013351168 0.0042931223 0.053711846
000060 cf 87 10 3c 61 3c f1 3b d0 b0 9a 3b 49 ba 45 bb
       0.008821442 0.007361934 0.0047207847 -0.003017085
000070 34 32 e4 ba 60 32 81 3b 9a dd de 3b 16 3a 32 3b
       -0.0017409981 0.0039427727 0.0068013193 0.0027195266
000080 c1 43 bb 3b 2a d6 72 ba 66 5a c7 3a 56 8f ef 3c
       0.005714864 -0.00092634803 0.0015209436 0.029243153
000090 ad 8f 39 3c 5a 90 2a 3c 5a 6f a8 bb 9b 03 52 3d
       0.011325759 0.010410393 -0.0051402273 0.05127297
0000a0 a9 7d 96 bc 3e f0 8c bb 6b 4a 12 3d e3 60 84 3c
       -0.018370466 -0.0043011 0.0357155 0.01615948
0000b0 f8 95 9e 3c 86 26 b1 ba a5 5e 60 bc 69 78 d9 bb
       0.01935862 -0.0013515509 -0.01369444 -0.0066366685
0000c0 26 0a e0 3c eb b5 0a 3c a5 fa a7 b7 75 78 f7 39
       0.02734859 0.008466224 -2.0024667e-05 0.0004720126
0000d0 50 d3 d6 bb 8c f0 03 bb 56 a7 97 3b b3 61 07 3c
       -0.006555952 -0.002013239 0.0046281023 0.008263039
0000e0 b4 e7 ff 3b 4c 6c 40 ba 5b 57 01 bb f5 93 c5 3a
       0.0078096036 -0.0007340356 -0.0019735906 0.0015074002
0000f0 ee dd e1 bc fa e3 c5 3c 41 c3 70 3c f4 a7 89 3c
       -0.027571645 0.02415656 0.01469499 0.01680372
000100 89 2e a2 ba 9a d3 5e 3b 20 ab 58 bb de 9a df bc
       -0.0012373488 0.0034000636 -0.0033060983 -0.027295526
000110 12 74 d1 3b 1f 03 06 3d 43 aa df bc c4 bc f4 3b
       0.0063920105 0.03271782 -0.027302867 0.0074687917
000120 88 86 bd bc a5 31 f8 bc c2 fe 09 3d cb 37 4d bb
       -0.023135439 -0.03029711 0.03369022 -0.0031313773
000130 56 71 62 ba 6a 79 cf bb b6 44 0f bb e8 f9 2a 36
       -0.0008638104 -0.0063316124 -0.0021861023 2.5477439e-06
000140 e3 fc 15 bb 47 13 91 3b 6c cd 13 bc c0 6a 87 ba
       -0.0022886328 0.004427347 -0.009021144 -0.0010331497
000150 4c 8c 38 3b 8d 32 ad bc e5 c4 ad bc 69 66 94 bb
       0.0028159795 -0.021142269 -0.02121205 -0.00452881
000160 e8 05 b7 3c 01 26 e2 3c 60 22 b4 ba 6b 36 ec bb
       0.022341684 0.027606012 -0.0013743155 -0.0072086356
000170 cf 1f f1 3c c0 d2 64 3c f7 9c 01 bc 3b ed 88 bc
       0.029434113 0.013966262 -0.0079109585 -0.016714683
000180 bb 80 a1 bc 5c 42 14 bd b8 1a 79 3c 9f 42 db bc
       -0.019714704 -0.036196098 0.015204124 -0.026765166
000190 cd d4 04 3c 88 16 54 3a 38 93 c4 ba 9c 33 04 39
       0.008107376 0.00080905156 -0.0014997488 0.00012607727
0001a0 02 97 54 3a f1 09 e0 3b e0 7a 02 bb f3 ce a5 3b
       0.000810966 0.0068371226 -0.0019909665 0.0050600707
0001b0 04 16 43 3b 7c bd ba 3b 74 7b 93 3c 5c a6 f0 39
       0.002976776 0.005698858 0.018003203 0.00045900315
0001c0 dc 53 4b 3c e6 fe 79 3b 48 58 a6 ba e6 1f 2c bc
       0.01241013 0.0038146316 -0.0012691105 -0.010505652
0001d0 42 58 33 bd ed 3e df 3c 40 c5 49 3a 35 56 52 bc
       -0.04378534 0.027251685 0.0007696934 -0.012837936
0001e0 6f 82 f1 bc 8f 36 1e bc de b1 d4 bb 18 d9 ae 3c
       -0.02948114 -0.0096565625 -0.00649093 0.021343753
0001f0 28 68 a5 3c 06 11 6c 3b e4 c5 65 ba 2d b7 72 ba
       0.020191267 0.003602089 -0.0008765145 -0.00092588627
000200 e8 2b 30 b9 bb 8e 0b ba 76 2d 95 3b a0 45 02 3c
       -0.00016801024 -0.00053236977 0.0045525385 0.00795117
000210 5c a1 f7 b9 ed a6 73 ba d8 0d 0e bb c4 ac c3 3a
       -0.00047231733 -0.0009294588 -0.0021675732 0.0014928808
000220 fa f5 d2 3c 88 14 c5 bc 6c 74 30 3d f7 ad d5 3b
       0.025752056 -0.024057642 0.04307978 0.0065209824
000230 4a f9 06 bd 47 2f 1d 3c 15 3a d2 bc 47 69 4e bc
       -0.032952584 0.009593791 -0.025662461 -0.012598342
000240 4e 4e d9 3b 03 3a 74 bc 33 19 b9 bc 8b fd f9 bb
       0.006631649 -0.014906409 -0.022595024 -0.0076291016
000250 e2 c8 97 3c 5e 30 0f 3d 15 f9 13 bc 9d ef 40 3b
       0.018528406 0.034958236 -0.009031554 0.0029439696
000260 c4 77 e5 bb 9e fb e9 3a 7a e7 d6 bb 4c f1 fb 38
       -0.0070028026 0.0017851477 -0.006558356 0.00012013558
000270 45 68 b9 ba 84 c8 5e 3b f0 8e 1e 3a 5a 8e 0d bb
       -0.0014145455 0.0033994028 0.0006048521 -0.002159974
000280 87 6a 26 3d 6f b2 98 bc 98 5e b7 3b 1f a0 d2 3c
       0.040628936 -0.018639771 0.0055959933 0.025711117
000290 86 64 13 3d 9c 56 7a bc b3 48 0a 3d e3 64 70 3c
       0.03598454 -0.015279438 0.033760738 0.014672491
0002a0 3e e8 02 bc 42 8a b9 bc a3 b5 4a bc 73 ba 70 3c
       -0.007989941 -0.022648934 -0.012372407 0.01469289
0002b0 de c6 ae bc f2 e0 b2 bb e0 d4 2a bd af ae 74 3a
       -0.021335062 -0.0054589445 -0.04170692 0.0009333891
0002c0 b8 ef 2e 3a b7 c3 db ba a3 e7 06 bb 6a a4 c3 39
       0.0006673294 -0.0016766702 -0.0020584844 0.00037315796
0002d0 23 9d 15 3b 90 e8 01 3c 0e 97 e8 3b 8e ef 4c ba
       0.0022829256 0.007928982 0.0070980852 -0.0007817679
0002e0 0b b6 4a 3b 98 6f 4d 3c 5c 93 ca bb 21 ca 44 3c
       0.003093126 0.012538813 -0.0061821174 0.012011082
0002f0 44 bb dd 3b 37 f1 cd bc c6 b3 08 3d 45 e1 f2 39
       0.0067667086 -0.025139434 0.03337457 0.00046325676
000300 64 04 50 3c 99 4e 32 3c 25 97 0a bc 9d 99 ae bc
       0.012696359 0.010882997 -0.008458887 -0.021313483
000310 14 92 ac 3c c3 bf 64 3c 68 98 bc b9 6b 2b f9 bc
       0.02106575 0.013961735 -0.00035971706 -0.030416211
000320 9c 29 ec 3a cb d1 10 3b e2 86 97 ba a9 5b 71 ba
       0.0018017772 0.0022097703 -0.0011560584 -0.0009207079
000330 bf 1e 89 ba 36 e7 3d 3b d6 d1 d5 3a 6f cd 7d bb
       -0.0010461434 0.0028976924 0.0016313146 -0.0038727184
000340 12 af 84 3b 6f 99 39 ba c5 da 4b bc f4 ff b6 3c
       0.0040491903 -0.00070800533 -0.012442295 0.022338845
000350 1f 68 a5 3b 95 b3 1c 3c 85 69 11 3d 76 7b e3 bb
       0.0050478126 0.0095643 0.035501022 -0.006942208
000360 34 e1 2d 3d 00 a0 31 3c 80 ac 8d b6 e8 0c a9 bb
       0.0424511 0.01084137 -4.222209e-06 -0.0051590092
000370 e1 03 06 bc a7 c5 83 bc 0b e6 af 3c 02 a4 0e bd
       -0.008179636 -0.016085459 0.021471998 -0.03482438
000380 18 df 49 3c e0 d1 56 3a a0 3c e5 ba 7a e7 0e 3a
       0.012321256 0.0008194726 -0.0017489381 0.0005451363
000390 26 42 84 b8 69 57 ea 39 e5 6e 5a 3b c6 e1 34 3b
       -6.3065716e-05 0.00044697084 0.0033330258 0.0027600392
0003a0 e7 7f 34 39 9d d2 e4 38 ac 0c a1 b8 d1 d9 f3 3c
       0.00017213785 0.00010911117 -7.6794386e-05 0.029766949
0003b0 41 cb d8 bc c2 93 ac 3c d4 d9 95 3b 2b 36 91 3a
       -0.026464107 0.02106655 0.0045730863 0.0011078765
0003c0 c3 77 9f 3b b5 e2 9e bc 50 a4 59 bc 55 0c 3f bb
       0.0048665716 -0.019395212 -0.013283804 -0.0029151638
0003d0 84 00 22 bb 57 47 57 bb aa 29 64 bc 4e 04 8c ba
       -0.0024719546 -0.0032848918 -0.013925949 -0.0010682435
0003e0 41 f6 9d bc 25 92 7b 3c 54 9a 68 b9 ba 6a 1b 3b
       -0.019282462 0.015354668 -0.00022182736 0.0023714737
0003f0 95 8c c1 bb 32 12 78 bb 02 f3 a5 bb 46 86 1e 3b
       -0.0059066513 -0.0037852642 -0.005064369 0.002418892

conv3.bias f4 [32]
000000 29 15 82 bc 74 e7 5b ba 04 7e 74 bc 33 24 37 3b
       -0.01587923 -0.0008388676 -0.014922623 0.002794516
000010 ff 40 22 3c 92 ec 61 bb 0f 67 9d bb 49 8d 89 bb
       0.009903192 -0.0034473282 -0.0048035453 -0.0041977507
000020 ca 9b af bc 86 74 b9 3c a5 db a0 bb 09 81 cb 3c
       -0.02143659 0.02263857 -0.004908996 0.024841802
000030 21 c8 2f bb 82 21 57 bc 18 f7 50 3c bd d3 c2 bc
       -0.0026822167 -0.0131305475 0.012754224 -0.023782605
000040 b1 21 01 3d 3b 73 36 3c 1f 6b 51 bc af f8 21 3c
       0.03152627 0.0111358715 -0.012781887 0.009885951
000050 26 ea 4a bb 7b 56 7f bc 08 af 90 bb 39 fb 7c 3c
       -0.0030962317 -0.015584583 -0.0044153966 0.0154407555
000060 98 c2 b7 bb b7 d3 a5 3c 86 e3 89 bb dd d9 1d 3d
       -0.005607914 0.020242555 -0.004208031 0.03853785
000070 f7 a8 41 bc 51 a1 9d 3c 2c f1 89 bb 10 0f 1e 3d
       -0.0118200695 0.01924196 -0.004209658 0.038588583

fc1.weight f4 [8, 32]
000000 6e c6 5d 3d 26 30 81 3e 83 29 70 be 37 f2 bb 3e
       0.054144315 0.25232047 -0.23453335 0.36708233
000010 5a e6 e5 bd d1 f9 ec bb 9a 7f 57 3d 1b 8e 76 3e
       -0.11225577 -0.007231929 0.052611925 0.24077646
000020 4f 37 77 3c 85 78 4e bd 3b 8b cf bd de 47 d9 3d
       0.01508887 -0.050407905 -0.10133978 0.10609411
000030 05 81 4c bd a2 88 06 be 89 c4 4a bd 25 b2 97 be
       -0.04992773 -0.13138059 -0.049503837 -0.296281
000040 f8 55 01 3d 13 e7 76 3e 30 2a 37 bd ca bc d0 3d
       0.031576127 0.24111585 -0.044717968 0.10192259
000050 2a 17 f2 3d df a7 1c 3e 9a aa 06 bd 7b 32 b9 3e
       0.118208244 0.15298413 -0.032877542 0.36171326
000060 c8 f1 0e bd 47 f4 13 be 5d 1d d2 3d cb dc 4c 3c
       -0.03489855 -0.14448653 0.10259507 0.012503813
000070 5b 5c c1 be 5b 05 22 bc e4 38 f8 3e de 5a a9 bd
       -0.37765774 -0.009888972 0.48480904 -0.08269285
000080 2d 83 f0 3d bf 52 7b 3d 8a 5a b1 bd 6e ea 2e be
       0.1174377 0.06135821 -0.08659847 -0.17081615
000090 71 34 b3 bd ff 84 32 3e de 29 90 bb c2 9b 51 3a
       -0.08750237 0.17433546 -0.004399522 0.0007995927
0000a0 2e 15 5a be 4a 5c c6 3d 31 28 24 3d f1 c8 ec 3c
       -0.21297142 0.096855715 0.040077392 0.02890441
0000b0 62 3f 67 3d 72 69 69 bb b0 69 8d bd d3 0f 21 be
       0.05645693 -0.0035615829 -0.06904924 -0.15728693
0000c0 38 71 ad 3e 7d 66 e4 bd 7e af 8d be 4f 77 cd 3e
       0.33875442 -0.111523606 -0.27672952 0.40130088
0000d0 ea 69 cc bd 34 d7 23 be 2b 6d 9d 3d 90 8a bc 3c
       -0.09981139 -0.16000062 0.07686838 0.02301529
0000e0 80 5f b5 3d c3 10 e9 bb 86 ff 53 bc 32 01 0b 3e
       0.08856106 -0.007112594 -0.0129393395 0.13574675
0000f0 49 5d 5d 3d af 0c 7a bd 2d ea 75 bd c3 a6 6e 3e
       0.05404404 -0.061047252 -0.06003778 0.23305802
000100 01 8a 7a 3d 7e c6 cd 3d 0d e2 3a 3d 01 36 49 3e
       0.061166767 0.10047625 0.045625735 0.19649507
000110 96 00 01 bc f3 43 96 3e 1e 0f 4c bd 9a d3 d1 bc
       -0.007873675 0.29348716 -0.049819104 -0.025613595
000120 36 21 95 3e 88 c2 f8 bc 65 76 47 be 0b 4b 2c bd
       0.291269 -0.030366197 -0.19478758 -0.042063754
000130 ee 42 81 be 94 b4 f6 3d 8a fc 1d bf 76 cf de 3c
       -0.25246376 0.12046161 -0.6171347 0.027198534
000140 5d f2 ba bd 2f e5 4c 3e 23 4d 5f be 28 0e 71 3d
       -0.091282584 0.20009302 -0.21806769 0.05885139
000150 20 c1 12 bd f0 12 e7 3d 62 ab 25 be f9 05 8c 3d
       -0.03582871 0.11282909 -0.16178659 0.06837077
000160 a3 f0 b9 bd c9 f6 91 be cc ef 6b bc b4 86 73 be
       -0.09079101 -0.28508595 -0.014400434 -0.23781854
000170 ec aa 35 3b 52 31 39 bd 35 9e aa 3e e0 e1 88 be
       0.0027720286 -0.04521305 0.33323827 -0.2673483
000180 6e a4 2a 3e 7a be b3 bd 8a 72 8d bc e9 53 48 3e
       0.16664287 -0.08776565 -0.01726653 0.19563259
000190 d3 ca d7 3d 1f f0 93 bd a3 b2 3c 3e 7a ae 03 b7
       0.105367325 -0.07223534 0.1842752 -7.848832e-06
0001a0 51 0d 82 bd 19 80 56 be 5f d4 45 bb dd 36 60 be
       -0.06350196 -0.20947303 -0.0030186397 -0.21895929
0001b0 70 2d 04 3e 56 31 b0 bc bc 35 a9 3e be b9 2f 3d
       0.12907958 -0.0215079 0.3304881 0.042901747
0001c0 46 84 17 bd 49 39 47 be a2 6e 59 3e 25 54 69 be
       -0.03699138 -0.19455446 0.2123361 -0.22786005
0001d0 80 9c d2 3c d9 6f ea bd 79 09 91 3d 14 7a 80 bd
       0.02570939 -0.114471145 0.07081885 -0.062732846
0001e0 d1 05 8e 3e cc dd 03 be 41 be 3d bc a1 16 a0 be
       0.27738813 -0.12877578 -0.011581005 -0.31267264
0001f0 f1 ba 98 bb 09 0f 35 be a9 5e ce be be 88 5c 3c
       -0.004660957 -0.17681517 -0.40306595 0.013460336
000200 8e db 41 3e d0 5a 48 3d 1d 71 29 3e ae 78 b4 bc
       0.1893141 0.04891473 0.16547056 -0.0220302
000210 2b f6 75 be 43 90 81 3b a3 e4 43 bd d5 26 ff bd
       -0.24019687 0.003953965 -0.047825467 -0.124585785
000220 01 23 9b bd e3 a8 bf be c2 0b 68 be fb a5 5f be
       -0.07575036 -0.37433538 -0.22660735 -0.2184066
000230 3c a1 4e 3e 64 44 32 bc 05 4f 61 3e 52 31 cc 3d
       0.20178694 -0.010880563 0.220028 0.099703446
000240 f4 33 42 be ed ce 92 bd 73 2d 09 bc e1 26 c6 bc
       -0.18965131 -0.07168374 -0.008372652 -0.02418846
000250 2f 67 87 bd 8c c0 9b 3d 7c 54 7e 3b f0 4a 78 3e
       -0.066114776 0.07605085 0.003880768 0.24247336
000260 25 df 15 3e a7 ce 1b be 59 c0 72 be 60 40 32 be
       0.14635904 -0.1521555 -0.23706187 -0.1740737
000270 02 d1 0e be d4 9e b4 be 86 19 9c 3d a3 28 bf be
       -0.13946918 -0.35277426 0.07622056 -0.3733569
000280 6e d6 ed 3d ad ff 30 be d4 4b d4 3e 30 3c d2 3d
       0.11613165 -0.17285033 0.41464102 0.10265386
000290 c2 0c ae 3d a5 df 8e be 82 e0 21 be 66 87 06 bc
       0.08498527 -0.27905002 -0.15808299 -0.008210992
0002a0 b2 ff 21 3c 6e 10 02 3e 14 77 ec 3e 4b 58 23 3c
       0.009887623 0.1270158 0.461846 0.009969781
0002b0 6d 76 ec bc 3c 54 ba bc cc b6 03 be 3c 33 22 3e
       -0.028865064 -0.022745244 -0.128627 0.15839857
0002c0 83 8e 22 be 78 74 9e 3d 5a 2c 00 be ad 41 a3 be
       -0.15874676 0.077370584 -0.12516919 -0.31886044
0002d0 33 b5 b6 bc 70 b6 ba bb 60 63 0b 3e b5 34 7d bd
       -0.0223032 -0.005698018 0.13612127 -0.061817843
0002e0 87 e0 51 3e e4 42 b6 3d 7e 31 ec bd ee 53 a1 bd
       0.20495807 0.08899477 -0.115328774 -0.078773364
0002f0 bb 0b e1 bd 44 f0 f1 3d 83 f0 34 3e 28 84 27 be
       -0.109885655 0.11813405 0.17669873 -0.16359007
000300 b2 72 41 bd 53 41 aa be dd 3e e5 bc a6 b5 2f bc
       -0.047228523 -0.33252963 -0.027984077 -0.010724461
000310 ad 5d 90 bd 87 0a 71 3e 4e 54 b5 35 be 17 53 39
       -0.07049117 0.23539172 1.3510087e-06 0.00020131373
000320 7d 08 f7 3d 8a 5c 23 be df e4 80 bd 60 28 1d be
       0.12062166 -0.1595327 -0.06293654 -0.15347433
000330 ef d6 68 be 13 18 86 3e 1a 39 cb 3d 8c de 78 be
       -0.2273824 0.26190242 0.09923001 -0.24303645
000340 71 c2 06 3c fd e9 c2 3e ab 02 65 bd 0e b9 a5 be
       0.008225069 0.38069144 -0.055910747 -0.32367748
000350 52 ae 4d bd a8 ee 29 be 9c 98 4e 3d 0e 68 98 3e
       -0.050215073 -0.16594946 0.05043851 0.29766887
000360 2c 29 68 bc 0f be 2e bd 36 09 c9 bb 5c 71 18 bd
       -0.014169972 -0.042661723 -0.006135131 -0.037217483
000370 3e ed 70 bc 67 3d c1 3d 40 17 3e be d6 22 94 bd
       -0.014705 0.0943554 -0.18563557 -0.07233207
000380 c6 93 ae bd 23 1a be bd 76 17 e7 3d a2 10 e8 3e
       -0.08524279 -0.09282329 0.11283772 0.4532519
000390 4b da ad 3e 4b 5e ab be c5 99 9c bb 2c 79 6d 3d
       0.33955607 -0.33470377 -0.004779073 0.057976887
0003a0 55 8a c3 bd a6 c0 a2 3e a4 31 84 bd 9c b7 d8 3c
       -0.09547869 0.31787604 -0.06454781 0.02645474
0003b0 98 fd 31 bd 3c bc 89 be 8e bb c4 3d 0d 1a 8b 3d
       -0.043454736 -0.26901424 0.09606086 0.06792078
0003c0 86 e5 bf 3e 44 3d 2f 3d bf 8e 4c be 9d 76 75 be
       0.374798 0.042783037 -0.19976328 -0.23971029
0003d0 7d ca b0 3c 74 6b ab be 5d 3d 79 bd a6 40 c7 3d
       0.021580929 -0.33480418 -0.060849536 0.097291276
0003e0 85 03 45 3e 40 95 40 3e 4f 66 45 be 40 ac 05 3e
       0.19239624 0.18806934 -0.19277309 0.1305399
0003f0 b0 5d 1e be 4a 2c 14 3e 92 3f b7 3d 1c 0b c4 3d
       -0.15465426 0.1447002 0.08947672 0.095724314

fc1.bias f4 [8]
000000 3e fb 68 3c ef 35 95 3c 3c 0d d3 bc 68 19 29 bc
       0.014220057 0.018214194 -0.025763147 -0.010320999
000010 4d 66 3f bc 2e 6c be bb 9d 20 23 3c 44 c4 6d 3c
       -0.011682105 -0.005811236 0.009956506 0.014512125

fc_1.weight f4 [8, 32]
000000 6e c6 5d 3d 26 30 81 3e 83 29 70 be 37 f2 bb 3e
       0.054144315 0.25232047 -0.23453335 0.36708233
000010 5a e6 e5 bd d1 f9 ec bb 9a 7f 57 3d 1b 8e 76 3e
       -0.11225577 -0.007231929 0.052611925 0.24077646
000020 4f 37 77 3c 85 78 4e bd 3b 8b cf bd de 47 d9 3d
       0.01508887 -0.050407905 -0.10133978 0.10609411
000030 05 81 4c bd a2 88 06 be 89 c4 4a bd 25 b2 97 be
       -0.04992773 -0.13138059 -0.049503837 -0.296281
000040 f8 55 01 3d 13 e7 76 3e 30 2a 37 bd ca bc d0 3d
       0.031576127 0.24111585 -0.044717968 0.10192259
000050 2a 17 f2 3d df a7 1c 3e 9a aa 06 bd 7b 32 b9 3e
       0.118208244 0.15298413 -0.032877542 0.36171326
000060 c8 f1 0e bd 47 f4 13 be 5d 1d d2 3d cb dc 4c 3c
       -0.03489855 -0.14448653 0.10259507 0.012503813
000070 5b 5c c1 be 5b 05 22 bc e4 38 f8 3e de 5a a9 bd
       -0.37765774 -0.009888972 0.48480904 -0.08269285
000080 2d 83 f0 3d bf 52 7b 3d 8a 5a b1 bd 6e ea 2e be
       0.1174377 0.06135821 -0.08659847 -0.17081615
000090 71 34 b3 bd ff 84 32 3e de 29 90 bb c2 9b 51 3a
       -0.08750237 0.17433546 -0.004399522 0.0007995927
0000a0 2e 15 5a be 4a 5c c6 3d 31 28 24 3d f1 c8 ec 3c
       -0.21297142 0.096855715 0.040077392 0.02890441
0000b0 62 3f 67 3d 72 69 69 bb b0 69 8d bd d3 0f 21 be
       0.05645693 -0.0035615829 -0.06904924 -0.15728693
0000c0 38 71 ad 3e 7d 66 e4 bd 7e af 8d be 4f 77 cd 3e
       0.33875442 -0.111523606 -0.27672952 0.40130088
0000d0 ea 69 cc bd 34 d7 23 be 2b 6d 9d 3d 90 8a bc 3c
       -0.09981139 -0.16000062 0.07686838 0.02301529
0000e0 80 5f b5 3d c3 10 e9 bb 86 ff 53 bc 32 01 0b 3e
       0.08856106 -0.007112594 -0.0129393395 0.13574675
0000f0 49 5d 5d 3d af 0c 7a bd 2d ea 75 bd c3 a6 6e 3e
       0.05404404 -0.061047252 -0.06003778 0.23305802
000100 01 8a 7a 3d 7e c6 cd 3d 0d e2 3a 3d 01 36 49 3e
       0.061166767 0.10047625 0.045625735 0.19649507
000110 96 00 01 bc f3 43 96 3e 1e 0f 4c bd 9a d3 d1 bc
       -0.007873675 0.29348716 -0.049819104 -0.025613595
000120 36 21 95 3e 88 c2 f8 bc 65 76 47 be 0b 4b 2c bd
       0.291269 -0.030366197 -0.19478758 -0.042063754
000130 ee 42 81 be 94 b4 f6 3d 8a fc 1d bf 76 cf de 3c
       -0.25246376 0.12046161 -0.6171347 0.027198534
000140 5d f2 ba bd 2f e5 4c 3e 23 4d 5f be 28 0e 71 3d
       -0.091282584 0.20009302 -0.21806769 0.05885139
000150 20 c1 12 bd f0 12 e7 3d 62 ab 25 be f9 05 8c 3d
       -0.03582871 0.11282909 -0.16178659 0.06837077
000160 a3 f0 b9 bd c9 f6 91 be cc ef 6b bc b4 86 73 be
       -0.09079101 -0.28508595 -0.014400434 -0.23781854
000170 ec aa 35 3b 52 31 39 bd 35 9e aa 3e e0 e1 88 be
       0.0027720286 -0.04521305 0.33323827 -0.2673483
000180 6e a4 2a 3e 7a be b3 bd 8a 72 8d bc e9 53 48 3e
       0.16664287 -0.08776565 -0.01726653 0.19563259
000190 d3 ca d7 3d 1f f0 93 bd a3 b2 3c 3e 7a ae 03 b7
       0.105367325 -0.07223534 0.1842752 -7.848832e-06
0001a0 51 0d 82 bd 19 80 56 be 5f d4 45 bb dd 36 60 be
       -0.06350196 -0.20947303 -0.0030186397 -0.21895929
0001b0 70 2d 04 3e 56 31 b0 bc bc 35 a9 3e be b9 2f 3d
       0.12907958 -0.0215079 0.3304881 0.042901747
0001c0 46 84 17 bd 49 39 47 be a2 6e 59 3e 25 54 69 be
       -0.03699138 -0.19455446 0.2123361 -0.22786005
0001d0 80 9c d2 3c d9 6f ea bd 79 09 91 3d 14 7a 80 bd
       0.02570939 -0.114471145 0.07081885 -0.062732846
0001e0 d1 05 8e 3e cc dd 03 be 41 be 3d bc a1 16 a0 be
       0.27738813 -0.12877578 -0.011581005 -0.31267264
0001f0 f1 ba 98 bb 09 0f 35 be a9 5e ce be be 88 5c 3c
       -0.004660957 -0.17681517 -0.40306595 0.013460336
000200 8e db 41 3e d0 5a 48 3d 1d 71 29 3e ae 78 b4 bc
       0.1893141 0.04891473 0.16547056 -0.0220302
000210 2b f6 75 be 43 90 81 3b a3 e4 43 bd d5 26 ff bd
       -0.24019687 0.003953965 -0.047825467 -0.124585785
000220 01 23 9b bd e3 a8 bf be c2 0b 68 be fb a5 5f be
       -0.07575036 -0.37433538 -0.22660735 -0.2184066
000230 3c a1 4e 3e 64 44 32 bc 05 4f 61 3e 52 31 cc 3d
       0.20178694 -0.010880563 0.220028 0.099703446
000240 f4 33 42 be ed ce 92 bd 73 2d 09 bc e1 26 c6 bc
       -0.18965131 -0.07168374 -0.008372652 -0.02418846
000250 2f 67 87 bd 8c c0 9b 3d 7c 54 7e 3b f0 4a 78 3e
       -0.066114776 0.07605085 0.003880768 0.24247336
000260 25 df 15 3e a7 ce 1b be 59 c0 72 be 60 40 32 be
       0.14635904 -0.1521555 -0.23706187 -0.1740737
000270 02 d1 0e be d4 9e b4 be 86 19 9c 3d a3 28 bf be
       -0.13946918 -0.35277426 0.07622056 -0.3733569
000280 6e d6 ed 3d ad ff 30 be d4 4b d4 3e 30 3c d2 3d
       0.11613165 -0.17285033 0.41464102 0.10265386
000290 c2 0c ae 3d a5 df 8e be 82 e0 21 be 66 87 06 bc
       0.08498527 -0.27905002 -0.15808299 -0.008210992
0002a0 b2 ff 21 3c 6e 10 02 3e 14 77 ec 3e 4b 58 23 3c
       0.009887623 0.1270158 0.461846 0.009969781
0002b0 6d 76 ec bc 3c 54 ba bc cc b6 03 be 3c 33 22 3e
       -0.028865064 -0.022745244 -0.128627 0.15839857
0002c0 83 8e 22 be 78 74 9e 3d 5a 2c 00 be ad 41 a3 be
       -0.15874676 0.077370584 -0.12516919 -0.31886044
0002d0 33 b5 b6 bc 70 b6 ba bb 60 63 0b 3e b5 34 7d bd
       -0.0223032 -0.005698018 0.13612127 -0.061817843
0002e0 87 e0 51 3e e4 42 b6 3d 7e 31 ec bd ee 53 a1 bd
       0.20495807 0.08899477 -0.115328774 -0.078773364
0002f0 bb 0b e1 bd 44 f0 f1 3d 83 f0 34 3e 28 84 27 be
       -0.109885655 0.11813405 0.17669873 -0.16359007
000300 b2 72 41 bd 53 41 aa be dd 3e e5 bc a6 b5 2f bc
       -0.047228523 -0.33252963 -0.027984077 -0.010724461
000310 ad 5d 90 bd 87 0a 71 3e 4e 54 b5 35 be 17 53 39
       -0.07049117 0.23539172 1.3510087e-06 0.00020131373
000320 7d 08 f7 3d 8a 5c 23 be df e4 80 bd 60 28 1d be
       0.12062166 -0.1595327 -0.06293654 -0.15347433
000330 ef d6 68 be 13 18 86 3e 1a 39 cb 3d 8c de 78 be
       -0.2273824 0.26190242 0.09923001 -0.24303645
000340 71 c2 06 3c fd e9 c2 3e ab 02 65 bd 0e b9 a5 be
       0.008225069 0.38069144 -0.055910747 -0.32367748
000350 52 ae 4d bd a8 ee 29 be 9c 98 4e 3d 0e 68 98 3e
       -0.050215073 -0.16594946 0.05043851 0.29766887
000360 2c 29 68 bc 0f be 2e bd 36 09 c9 bb 5c 71 18 bd
       -0.014169972 -0.042661723 -0.006135131 -0.037217483
000370 3e ed 70 bc 67 3d c1 3d 40 17 3e be d6 22 94 bd
       -0.014705 0.0943554 -0.18563557 -0.07233207
000380 c6 93 ae bd 23 1a be bd 76 17 e7 3d a2 10 e8 3e
       -0.08524279 -0.09282329 0.11283772 0.4532519
000390 4b da ad 3e 4b 5e ab be c5 99 9c bb 2c 79 6d 3d
       0.33955607 -0.33470377 -0.004779073 0.057976887
0003a0 55 8a c3 bd a6 c0 a2 3e a4 31 84 bd 9c b7 d8 3c
       -0.09547869 0.31787604 -0.06454781 0.02645474
0003b0 98 fd 31 bd 3c bc 89 be 8e bb c4 3d 0d 1a 8b 3d
       -0.043454736 -0.26901424 0.09606086 0.06792078
0003c0 86 e5 bf 3e 44 3d 2f 3d bf 8e 4c be 9d 76 75 be
       0.374798 0.042783037 -0.19976328 -0.23971029
0003d0 7d ca b0 3c 74 6b ab be 5d 3d 79 bd a6 40 c7 3d
       0.021580929 -0.33480418 -0.060849536 0.097291276
0003e0 85 03 45 3e 40 95 40 3e 4f 66 45 be 40 ac 05 3e
       0.19239624 0.18806934 -0.19277309 0.1305399
0003f0 b0 5d 1e be 4a 2c 14 3e 92 3f b7 3d 1c 0b c4 3d
       -0.15465426 0.1447002 0.08947672 0.095724314

fc_1.bias f4 [8]
000000 3e fb 68 3c ef 35 95 3c 3c 0d d3 bc 68 19 29 bc
       0.014220057 0.018214194 -0.025763147 -0.010320999
000010 4d 66 3f bc 2e 6c be bb 9d 20 23 3c 44 c4 6d 3c
       -0.011682105 -0.005811236 0.009956506 0.014512125
