checkpoints/source/epoch=3.checkpoint.pth.tar (torch, 317940 bytes, 10 tensors)

conv1.weight f4 [16, 3, 5, 5]
00000000: 8cf5 483e 1096 193e 2779 aa3d 0fd0 7bbe
00000010: f39c 6e3d 3ab2 17be f83e 8dbc 7384 46be
00000020: 0cbd cdbd ac8b 283e 69b6 60bd e7b8 26be
00000030: 01cd ccbd 81bd aabd 3795 cebd 0a3e 9f3d
00000040: 8d29 313e a658 10bd dbe1 9cbd 4b17 ca3c
00000050: 4100 b4bd f047 e43d 1508 973d 9d40 273e
00000060: d5dc ef3d 5b49 073e 4c0f 773d 4afe 0b3e
00000070: 7414 21bd 2954 e6bb 3ce9 12bd 1656 b23d
00000080: 53cf 25be 62c2 dfbd 7f0e 0cbd 54eb 383e
00000090: 8117 f73c 1b0b 6cbd 057a 883c c9df c2bd
000000a0: 2075 2ebe 5e34 da3d b6c8 d6bd d131 a4bd
000000b0: 5987 1cbe 5c86 6c3e bc58 0bbe 48f5 74bd
000000c0: f2bd e5bd 07bf acbd da49 2b3b 199d 5b3d
000000d0: 5720 7cbd 641a ed3d 621e cdbd 045e b0bd
000000e0: 7a65 21be 6b16 14bc d93f b8bc 2dc5 7f3d
000000f0: f463 85bc 2523 4a3e ff2f 10be 598c 093e
00000100: 4927 153e dc9a be3d fbe8 753e a3ca 3c3d
00000110: beed be3c 9223 14bd 9d44 e9bd 556f 0d3e
00000120: 947b dcbc 6fe5 363d e0d7 e4bb 26b8 233d
00000130: 6e01 7b3d 8d92 93bd cc70 78be bbbb a8bd
00000140: 0ffd 02bc f984 26bd e697 1bbe 52e8 8abd
00000150: 8884 663d b852 513d 176b ee3d 4ab7 e0bb
00000160: aca7 8e3d 9bbd 63bd 397d f7bd 6078 673d
00000170: 90be 4dbe 221a d2bd c10a 0e3e c19c 293d
00000180: 54d5 91be b180 1b3d fdf4 923d d48c 9ebb
00000190: 3ab5 8f3d 5bd9 8b3d 337b f43d eb44 41bd
000001a0: e471 8abc e2d7 a43d c6de 403d 5776 983c
000001b0: 40de f73c cf83 113e 7849 15bb 6521 0fbd
000001c0: 96a9 2abe 14e0 82bc ff8d 7dbd e8f2 483d
000001d0: 065f 9a3d 0cc9 9037 9c6d 4ebd ac39 6d3d
000001e0: f90d f7bb 2189 a03c a27f ac3b 1e0c 9b3d
000001f0: 1b86 f03d e53d 223d b336 ad3d bbe4 473d
00000200: b011 5b3e f263 e93d 8504 20be ff1e f3bd
00000210: ae9c 6abc c1d8 383e 12e8 993d 39f2 7f3d
00000220: 0d4b fd3d 1e64 c3bb bff7 4cbe 5eae d73d
00000230: 06bc 32bd 2313 de3d 6536 b0bd 89b2 783d
00000240: 19a0 d7bd 1300 c73d 92d6 2b3e abbf 153e
00000250: f799 993c 9559 d9bc b200 85bd 28d9 b43c
00000260: 4460 153d 9ad4 d33d ae70 41bd 04c8 3b3e
00000270: 6ca0 88be b680 3cbd 3441 04be 37ad b33d
00000280: ec8f 56be ed8f b33c 4823 de39 4912 12bd
00000290: beaf d93c 3639 a2bd 2ba3 883c 732f f1bd
000002a0: 12a3 2fbe 8116 143e 689c 113e 9d00 813a
000002b0: 1dd9 2bbe 65b2 a03d 5280 ae3d 7d47 733e
000002c0: f885 933c eb69 723c 0ef8 b3bd 0250 a1bc
000002d0: 0c88 b5bd 231c 2abe be49 f8bd 7bb0 5abd
000002e0: 639c 61bd e4db 24be 956d 55be 0670 843c
000002f0: 48f9 eb3d 3f15 77bd 782d aa3d 602d a53d
00000300: 2421 483e 7aa6 c7bd 859a d53d 11d8 d6bc
00000310: 3d2c 00be 7ea8 1e3d 88d3 4d3d eaaf 173e
00000320: 774d 973d c979 753e 59b6 5bbd 99e5 cdbd
00000330: 7edb cd3c af1e 013e d1ea 143e 776b 4d3d
00000340: 0316 b1bd 870b debd 72df 4bbd b0d6 80bd
00000350: 97c6 943c 22ac 4d3d 68a3 8cbc eaaf 79be
00000360: 42c4 1ebd a475 ef3d 5469 45be a776 233e
00000370: 763e 3c3d cb9d 53bd 8fae d93d 09de 333e
00000380: 10f5 a0bb 059f 353e e727 eb3b df09 02be
00000390: d359 9bbd 747c c2bb c553 263d 170f 5a3e
000003a0: 8744 81bc 5835 e2bd 3aad 6fbe ac4c f4bd
000003b0: 889a 71ba 80d7 1fb6 c8e6 243c deeb 073d
000003c0: 92d5 cdbd 63af e03c f236 85bd f06b 283d
000003d0: fe55 dbbd f37a 0b39 333b 23bd b957 1b3e
000003e0: 8394 fd3d bf4e bfbd 6d35 b13d 6689 3c3d
000003f0: 3a74 3e3d 66c5 453d 80a1 223d d6d6 9d3c
0.19624919 0.1499865 0.08323889 -0.24591087 0.058255147 -0.14814082 -0.01724194 -0.19386463
-0.100458235 0.1645953 -0.05486146 -0.16281472 -0.10000039 -0.08336926 -0.10087054 0.07775505
0.17301007 -0.03524079 -0.07660266 0.02466931 -0.08789111 0.111465335 0.073745884 0.16333242
0.11712042 0.13211577 0.060317323 0.13671222 -0.039326146 -0.0070290756 -0.03586696 0.08707826
-0.16192369 -0.109257475 -0.034193512 0.1805852 0.030162575 -0.05762778 0.016659746 -0.0951534
-0.17036867 0.106545195 -0.10487501 -0.08017314 -0.15286006 0.23098129 -0.13608068 -0.05980423
-0.1121787 -0.08434873 0.0026136548 0.053616617 -0.06155428 0.11577299 -0.10015561 -0.08611682
-0.15761366 -0.009038548 -0.022491382 0.0624439 -0.016283013 0.19739969 -0.14080809 0.13432445
0.14565767 0.09306881 0.24014656 0.046091687 0.023306724 -0.036166735 -0.1139004 0.13812001
-0.026914395 0.0446524 -0.006983742 0.03997054 0.06128066 -0.07205687 -0.24261779 -0.08238932
-0.007994904 -0.040654156 -0.15194663 -0.06782593 0.056278735 0.051104277 0.116415195 -0.0068577873
0.069655746 -0.055600744 -0.12084431 0.056511283 -0.20092225 -0.10258891 0.1387129 0.041409258
-0.2848307 0.037964527 0.07175634 -0.0048385654 0.07016988 0.06828567 0.11937561 -0.047184866
-0.01690001 0.08048989 0.047087453 0.018611116 0.030257344 0.14210437 -0.0022779386 -0.034943957
-0.16666254 -0.01597599 -0.061902996 0.04905978 0.075376555 1.7259757e-05 -0.0503975 0.05791633
-0.0075395075 0.019596638 0.0052642385 0.075706705 0.117443286 0.03960981 0.08457699 0.04880212
0.21393466 0.11396016 -0.15626724 -0.118711464 -0.014319582 0.18051435 0.07514967 0.06248686
0.123678304 -0.0059628626 -0.20016383 0.10531305 -0.043636344 0.10843494 -0.08604125 0.06071714
-0.10528583 0.09716811 0.16781071 0.14623897 0.018750174 -0.026531974 -0.06494273 0.022076204
0.03646876 0.10343285 -0.0472266 0.18338019 -0.26684892 -0.046021186 -0.12915498 0.087732725
-0.2095334 0.021919215 0.00042369426 -0.03566197 0.026573058 -0.07921068 0.016679367 -0.11776628
-0.1715205 0.1446171 0.1421982 0.0009842102 -0.16782041 0.07846526 0.08520569 0.2375774
0.018008217 0.014795761 -0.08787547 -0.019691471 -0.088638395 -0.16612296 -0.1212344 -0.05339096
-0.055080783 -0.16099507 -0.20842583 0.016166698 0.11522156 -0.060322996 0.08309454 0.08065295
0.19543892 -0.0974855 0.10429863 -0.026226075 -0.12516876 0.038734905 0.05025056 0.148132
0.07387822 0.23972239 -0.053640697 -0.10053558 0.025129076 0.12609361 0.145427 0.050151315
-0.086467765 -0.108420424 -0.04977364 -0.062909484 0.018161101 0.050212987 -0.017167762 -0.24383512
-0.038761385 0.1169236 -0.1927846 0.15963231 0.045958005 -0.051664155 0.106289975 0.17565168
-0.004912026 0.17736442 0.0071763876 -0.12699078 -0.07585492 -0.005935246 0.040607233 0.21294819
-0.015779747 -0.11045331 -0.23405924 -0.119286865 -0.00092164474 -2.3818284e-06 0.010064788 0.033183925
-0.10050501 0.02742738 -0.065046206 0.041118562 -0.10709761 0.00013301875 -0.03985138 0.15170182
0.12381842 -0.093411915 0.08652768 0.04602947 0.04649756 0.048283957 0.0397048 0.01926748

conv1.bias f4 [16]
00000000: 7c79 e5bc 1e35 8d3b 2a40 8ebc 6655 8fbc
00000010: ed07 3fbc 0da0 9bbc 561c 6639 ee54 53bc
00000020: 6477 5bbc 57f4 0a3c 96bc babb 4cbf c53b
00000030: 184a 93bb 795c 77bc 7ead 33bc 7a9c 26bc
-0.02801203 0.0043093106 -0.01736458 -0.017496776 -0.0116596045 -0.018997217 0.00021945065 -0.012898667
-0.013395164 0.008481107 -0.0056987507 0.0060347673 -0.0044949166 -0.015097731 -0.010966657 -0.010169143

conv2.weight f4 [64, 16, 5, 5]
00000000: 68c7 ec3c d7a9 853c 201a 043d f72c bc3d
00000010: 51c0 f63c 2499 c63c 27ee 8cbb ee73 2d3d
00000020: 8ffd 78bc 273c e4bc 15cf 383a db5b d53d
00000030: 7484 11bd 808d e6b9 8c49 983d f346 7dbb
00000040: 3e9f 4c3c 0e98 803d 4f61 a93d 4bec 463d
00000050: d2b1 803a bc11 3f3d ba6a c23c 20d9 a8bb
00000060: 6cad 9dbd 2b34 a43c 9ca6 21bd a67a 6dbc
00000070: 1083 9bbc 31be 6c3d e94b 83bd b9f5 bebc
00000080: 50b8 5fbb f94e 86bd 3434 8fbd ae8f e9bc
00000090: a8a5 613c 7a94 8abd 84cb 4f3d 3652 bcbd
000000a0: 6ba2 813d 4630 f13b b6e9 54bd 72b1 f83c
000000b0: 7843 06bd 0a7d 54bc 2e9d b43c 3297 353d
000000c0: 3ed0 a1bc 37eb 0e3d 49f6 bebc d4e8 983c
000000d0: c2e3 8ebc dd43 793d c1c1 103d 524c 6e3d
000000e0: ff0f f33c 9158 0bbd d771 bcbc 2226 733c
000000f0: 5ce2 65bc 9184 65bc e02f 213d 6ca7 d53d
00000100: 6de9 87bd 8899 a2bc 5dd0 193d cedb 723d
00000110: debe 6a3d 9e9d b23c 5fdc d1bc 05f8 92bc
00000120: 8f0a 073e c36a 70bd 3194 ea3c ac74 3ebd
00000130: 9bdf 37bc 4c5b 813b 2e51 89bc e1a4 11bd
00000140: 1643 96ba 10d7 b6bb dabd 4a3d 6102 533c
00000150: f3c6 173d bbe1 03bd bcc4 813d e86c 6d3c
00000160: 5b96 40bc 0b8b f6bc e292 c93a 8e53 82bc
00000170: 8411 883c c20e ad3d ec3e 7abd 52fb 9db9
00000180: 1cbd a63c 9fcf be3c 4f1d 293d 7910 763d
00000190: c9f3 26bd 4119 43bd fcf1 ccbc 4685 893d
000001a0: 78a6 ae3c f491 c8bc 425f 45bd 943d 6b3d
000001b0: a695 b83b 7639 063c 7d15 3bbd 4ab3 4abc
000001c0: c0ac 1a3d bf33 35bd 5be4 cdbd 6903 d3bc
000001d0: 2855 4c3d d004 7f3d 3db4 b73b 06ba 883d
000001e0: d5ee 913d 5a58 a83b 4587 77bc fd7c 113c
000001f0: b7fc 1b3d bcd3 ac3c 0871 85bc 0361 90bc
00000200: eed8 633c 4c2d 42bd 140d 1c3d 9fad e2bb
00000210: 5c75 92bd e7f5 bb3c 0a18 1cbc e1e7 1abd
00000220: 12a5 01bc 4083 1a3c 48a0 673c e687 5d3d
00000230: 7a60 be3d a0f6 e63d 3ec0 833c a00f 25bd
00000240: 8f7f 41bc 2ab6 79bc 6e8c 2b3d 4a42 24bd
00000250: e408 f83c 46ab 543d 95f3 0abd 0e19 35bc
00000260: 3d91 ecbc 7781 3c3c 0dc4 02bc c1c8 b63c
00000270: 996f 903c b6e0 f4bc 7f6a 76bc 3f45 123d
00000280: 0da1 b63c 635a 5c3d d2d4 33bc d5d5 7f3d
00000290: eb87 06bd 2328 b83c bacb c3bb 1a9f 10bc
000002a0: 6842 03bc d4c9 92bc abf3 0f3b 9b77 5cbb
000002b0: b21b 953d e65a f23b e3bb abbc c40c b1bc
000002c0: e79f 013e 7cb3 45bd ddc6 ae3d 42cc 26bd
000002d0: bba4 89bd 9c51 933b 8ae2 21bd c5ea 05bc
000002e0: 915c 16bd 1389 993b 9873 143d ac7f 7abd
000002f0: 87b5 453d b86f e2ba 9252 ba3d 0852 a33b
00000300: d94c 1cbd 0752 2e3d 0ee6 51bc 2c9b 26bd
00000310: 969b 633d a08f 0139 2cf6 83bb 9552 d3bb
00000320: c162 863d 0342 a63b dca8 913d d775 80bb
00000330: 9eb3 623d 5479 503d c43f 9f3c e928 2f3c
00000340: 9021 1c3c 65b4 38bd 6714 2ebd 67c9 67bc
00000350: 8524 28bd edb1 6f3c 5c5e 26bd 0570 3c3d
00000360: 85f6 213d ff3c 39bc 5b3f 393c 6352 4bbd
00000370: 9c9e 6ebc 6a07 ef3a 5f16 4c3c d6d3 693d
00000380: 1a21 17bd c549 0d3c 6528 ff3c 37ec 5cbd
00000390: 61b9 263c 976e af3c 707d a43d fa51 46bd
000003a0: 18c1 92bd ad6a 5cbc 0ea5 403c 7963 efbc
000003b0: 678e 51bd 7d5d 4bbd d4eb 6d3d 9daf a6bd
000003c0: edfa ef3c 48ef d4bc a877 66bd b31e 2d3c
000003d0: e8cc b53b cc2e 103d 7a2c 7cbd ec93 593d
000003e0: 22ca ad3c 6dab 683d 3c18 1a3c 64e7 b53c
000003f0: a766 a83b c8ca 843a 2d85 d0bc 8e81 6f3d
0.028903678 0.016316338 0.032251477 0.09188264 0.030121 0.024242945 -0.004300851 0.042346887
-0.015197172 -0.027860714 0.00070499006 0.10417911 -0.035526708 -0.00043974444 0.07435903 -0.0038647025
0.012489138 0.06279002 0.08270513 0.04856519 0.000981862 0.046647772 0.023732532 -0.0051528364
-0.07699093 0.020044407 -0.03946553 -0.014494574 -0.018983394 0.05779857 -0.06410963 -0.023310529
-0.0034136958 -0.065580316 -0.06992379 -0.028510895 0.013772406 -0.06766601 0.050731197 -0.09195368
0.06329807 0.007360491 -0.051980697 0.03035805 -0.032779187 -0.012969265 0.022047605 0.044333644
-0.019752618 0.034892287 -0.023310797 0.018665709 -0.017442588 0.060855735 0.035341028 0.058178253
0.029670713 -0.03402001 -0.023003502 0.014840635 -0.014031019 -0.014008657 0.039352298 0.10432324
-0.06636319 -0.0198486 0.037552226 0.059291653 0.05731093 0.021803673 -0.025617776 -0.01794053
0.13187622 -0.058695566 0.028635116 -0.046497986 -0.011222745 0.003947651 -0.016762342 -0.03555763
-0.0011464085 -0.0055798367 0.049497463 0.012878985 0.037054967 -0.032197695 0.06336352 0.014491297
-0.011754598 -0.030095598 0.0015378857 -0.015908983 0.016609915 0.084500805 -0.061095163 -0.00030132622
0.020353846 0.02329236 0.041287716 0.060074303 -0.040759835 -0.047631506 -0.02501773 0.06714873
0.021319613 -0.024483658 -0.048186548 0.057431772 0.005633074 0.008192411 -0.04567479 -0.012371847
0.037762403 -0.044238802 -0.10053321 -0.025758462 0.0498859 0.06226045 0.005606203 0.06676106
0.07125632 0.0051374855 -0.015107934 0.008879897 0.038082805 0.021097057 -0.016289249 -0.017624384
0.013906701 -0.04740648 0.03809841 -0.00691767 -0.07151291 0.022944404 -0.009527216 -0.037818793
-0.007912891 0.0094307065 0.014137335 0.05408468 0.09295745 0.11277509 0.01608288 -0.040298104
-0.0118101975 -0.015241185 0.04188197 -0.04010228 0.030277677 0.05192115 -0.033923704 -0.011053337
-0.028877849 0.011505476 -0.007981312 0.022312524 0.017631339 -0.029892307 -0.015040039 0.03571057
0.022293592 0.053797137 -0.010976033 0.062459785 -0.032844465 0.022480076 -0.005975214 -0.008826995
-0.008011438 -0.017918505 0.0021965306 -0.0033640626 0.07280673 0.00739609 -0.020963615 -0.021612532
0.12658654 -0.048266873 0.08534024 -0.04072214 -0.06720873 0.0044958126 -0.039522685 -0.008173649
-0.036709372 0.00468553 0.03624305 -0.061156914 0.04826882 -0.0017275726 0.0909778 0.004984144
-0.038159225 0.042558696 -0.012811197 -0.040675327 0.0555683 0.00012355903 -0.0040271487 -0.0064490535
0.065618046 0.005073787 0.071122855 -0.0039202976 0.055347078 0.050896958 0.019439586 0.010690906
0.009529486 -0.045093913 -0.042499926 -0.014147139 -0.041050453 0.014629823 -0.04061733 0.046005268
0.03954174 -0.0113060465 0.011306609 -0.049639117 -0.014564183 0.0018236462 0.012456506 0.057086788
-0.036896802 0.008623545 0.031147191 -0.05393621 0.010176034 0.021415038 0.08031738 -0.048418023
-0.07165736 -0.013453168 0.011758102 -0.029222237 -0.051161196 -0.049649704 0.05808623 -0.08138964
0.029294455 -0.025993004 -0.056266457 0.010566401 0.0055481084 0.03520088 -0.061565854 0.053119585
0.021214548 0.05680411 0.009405192 0.022205062 0.0051391902 0.0010131234 -0.025454128 0.058473162

conv2.bias f4 [64]
00000000: 88ee 41bc d03e 4438 1d59 6b3b 9b50 cdbb
00000010: 9dcb 3c3c a00c 0bbc e445 243b d198 d6bb
00000020: b321 a83b 5c91 2b3a 2cd3 98bb 9159 ccbb
00000030: 4516 97bc d590 023c 4ed9 98bb 85e4 afbb
00000040: 46bf 8fbb 4c95 bdbb 138d eebb 0424 3ebb
00000050: 07f5 63bc 19f5 4fbb 2c9e 4a3b 7324 afbb
00000060: ac87 8c3a 3763 ccbb 9eab 1dbc da34 4abc
00000070: facb 633c ca70 20bb 9c72 0abc 73b5 01bc
00000080: bd20 993c 8e13 96bb 7bac a4bb 25c7 2d3c
00000090: cd78 03bc b673 f5bb b53c 793b c1d8 ddba
000000a0: 2d92 46ba 05fa cb3b 7bb1 e6bb e869 6abc
000000b0: bf23 413b 3767 ecbb 90ae 67bc 27b8 34bb
000000c0: e706 2c3b e0e2 22bc e74e d638 8c05 703b
000000d0: 2dc1 073c 8739 08bc d2b4 b9bb 740c 15bc
000000e0: 315d 15bc 7f7d bb3a 3c01 0fbc 79e4 d839
000000f0: 9d5d 64bb 262d b23c 17b3 b4bb 3e64 3c3b
-0.011836655 4.678854e-05 0.003591127 -0.0062657124 0.011523155 -0.008486897 0.0025066072 -0.006548979
0.0051309704 0.00065447926 -0.0046638455 -0.006236263 -0.018443236 0.007969101 -0.0046645766 -0.005367818
-0.0043868152 -0.00578562 -0.007280001 -0.0029013166 -0.0139134 -0.0031731783 0.0030917032 -0.0053449213
0.0010721586 -0.0062374133 -0.009623436 -0.012341702 0.013903612 -0.002448129 -0.008450177 -0.007916796
0.018692369 -0.004579968 -0.005025444 0.010606562 -0.008024407 -0.0074906005 0.003803057 -0.001692556
-0.00075748825 0.006224873 -0.0070402003 -0.014307477 0.002947077 -0.0072144526 -0.01414074 -0.0027575584
0.0026249231 -0.0099417865 0.00010219012 0.00366244 0.008285803 -0.008314497 -0.0056673074 -0.009097207
-0.009116457 0.0014304369 -0.008728322 0.00041368956 -0.0034845837 0.021750044 -0.0055145132 0.0028746272

conv3.weight f4 [32, 64, 5, 5]
00000000: 9619 2fbb 9ebf d6ba 0c46 eeba 2e94 4dbb
00000010: 0f5a e9ba f138 4abb 65ea c8ba 591b d0ba
00000020: 6aba 2a3b 756e 92ba 081d 133d cf39 d73a
00000030: 82a8 0f3d 306f 2bbb 0539 f33b 8413 d83c
00000040: 91b6 443b 2375 033d 6a91 be3c c3ec 54bc
00000050: 5cff 1f3b 48c0 8a3c 2df4 cd3a f51f 433d
00000060: 98b6 0e3c 4661 ac3a 7900 d2ba aec2 51bb
00000070: 46e9 a6b9 cca8 543b 860f a3ba ba53 80bb
00000080: 33da 863c 637c 043c 0e13 c83a 6005 173d
00000090: eebd 083c 52f6 ee3b 0301 08bc 9fd9 603d
000000a0: 6c7b 72bc cc56 4dba 55fb 0f3d 1c57 213c
000000b0: 8106 5b3c cfb3 a4bb cc95 1fbc 3d6e edbb
000000c0: 8a64 a83c 36ca 98bb e5cd 2cba 0651 e2bb
000000d0: 89c7 8abc 40e7 c53a 4d4b 563b dfb1 333b
000000e0: eaf5 643c ae07 d1ba 7120 38bb 1be6 0bba
000000f0: b3bb ebbc 078c d13c 8b58 233c 305f 603c
00000100: fff3 c43a 5866 3d3c e42b dabb 735c 15bd
00000110: 7130 ed3b fdc0 f73c 88a9 1bbd e6f4 0b3c
00000120: ff57 dbbc a2e8 00bd fc54 bd3c e80f 29bc
00000130: 34d2 dbbb f902 88bc 98c6 9abb cc56 4e3b
00000140: bd0a 653b fa05 9fba c048 7fbc 0d81 4fbb
00000150: 7480 913b 2c56 a8bc 69c8 b6bc 9c68 f5bb
00000160: 2550 de3c a1c3 fb3c 7bc9 fe3b 420d d0ba
00000170: 28f6 f53c bcc1 653c 4394 a2bb 11a7 3cbc
00000180: 4e05 8ebc 2603 22bd fa18 3d3c ad91 14bd
00000190: 4d5c 48bb e568 eab9 48f1 09ba 7a12 79bb
000001a0: 8c40 b03a 6562 8638 1832 62b9 aedc c939
000001b0: 6445 273b f1d0 753a 8ed8 e63c 71e5 863b
000001c0: 030a 843b 1949 313c 930d 53bb ce13 67bc
000001d0: 7c54 95bc 9deb ee3c 52d6 ebbb 1365 85bc
000001e0: d81a 0cbd e646 36b8 53bc 5bbc 59de 2c3c
000001f0: 2cb0 613c 239b c039 b140 7abc fc57 b139
00000200: 0189 0d3b f196 fcb9 c330 5eba 5fd2 dd3b
00000210: ba18 bb39 a6f7 a3ba 7531 a6ba 37c0 1b3c
00000220: 8e26 893c 577e f4bc 3422 253d 637f 263b
00000230: fc83 1bbd 92b1 923b 73ea b9bc 13aa 60bc
00000240: 3ca2 70ba 4507 9bbc 7d23 c7bc 0b4f dabb
00000250: d27e 663c c0b1 ef3c 0dad b0bc baca 033c
00000260: b2be d6bb 28e7 2c3c d13a 84ba 9549 14bb
00000270: e92a 53bc c63f 7b3c 5503 e33b f248 163b
00000280: 45ea 203d 1f9e f1bc 9c05 1eba 87db ae3c
00000290: d7fe 163d a823 8abc ea1a d83c 45a1 99ba
000002a0: 3cfe 50bc 098b 2cbc 04ec 08bc dc04 9a3c
000002b0: 7a59 3dbc 9a60 54bb 900f 47bd b1c2 02bb
000002c0: 9a16 43bb ad1d 46bb 87b4 62bb 3fd0 ac3a
000002d0: 04da 7aba 3c8b 07bb a0c5 b6ba b635 a2ba
000002e0: 523f 193b 1d99 b53c 7060 09bb ba45 963c
000002f0: 1e55 fd3b 3844 e0bc 2fed 393d 3c23 5b3c
00000300: 5619 b03c 4f57 a53b c4ec ef3a 8968 38bc
00000310: b977 343d bb63 153c e810 efbb 2ac8 03bd
00000320: 0bb9 8739 1a20 1ebc d7d5 8639 a065 9d39
00000330: 4657 1a3b ab33 ce39 be40 2b3b 3a2b 70bc
00000340: 4326 2c3c 20fc e03a 0fc2 0fbc 553b b23c
00000350: 44d4 7c3b 54aa 9b3b 9b45 173d 67e4 d4bb
00000360: 8ca6 503d 4c31 5d3c 4d58 d8bb 10fe 5abc
00000370: 958b 70bc 776a 16bc 3074 dc3c 4ee8 4abd
00000380: 75c7 0abb b875 37b9 0185 f1ba 6970 39bc
00000390: 07b6 8a3b cd9b 9e39 2924 b83b 2787 8b3c
000003a0: 4779 34bb 2252 5d3b 4dab 333b b979 0b3d
000003b0: a20a 0abd 46f3 563c de3b 3e3c a376 e63a
000003c0: 1787 4e3c 5838 94bc 0f17 9ebc 3d3a 38bc
000003d0: 66ab 9bba bc12 8a3b eeeb 503a 1884 efbb
000003e0: b27a 8bbc 2c32 943b ef5c 46bb 96d3 353b
000003f0: ce20 75ba 7e10 5cba 82de 57ba c453 8c3b
-0.0026718131 -0.0016384011 -0.0018178835 -0.003136884 -0.0017803329 -0.0030856694 -0.0015328644 -0.0015877291
0.0026051053 -0.0011171835 0.03591636 0.0016420427 0.03507281 -0.0026158802 0.0074225687 0.026376493
0.0030016045 0.032094132 0.023262698 -0.0129959015 0.002441368 0.01693739 0.0015713029 0.0476379
0.008710526 0.0013151548 -0.0016021869 -0.0032006907 -0.0003183579 0.0032449244 -0.001244054 -0.003916231
0.016461467 0.008086297 0.0015264468 0.03687036 0.008346064 0.0072925473 -0.008301022 0.05489504
-0.014799934 -0.0007833063 0.0351518 0.009847429 0.01336825 -0.0050263177 -0.009740304 -0.0072458074
0.020555753 -0.0046627773 -0.000659196 -0.0069066314 -0.016940849 0.0015098825 0.0032698691 0.0027419252
0.013974646 -0.0015947723 -0.0028095508 -0.00053367176 -0.028776025 0.025579466 0.009969841 0.0136945695
0.001502633 0.011560045 -0.006658064 -0.03646512 0.0072384407 0.030243391 -0.038003474 0.008542275
-0.026775358 -0.031471856 0.023111813 -0.010318734 -0.006708408 -0.01660298 -0.0047233813 0.003148484
0.0034949027 -0.0012132518 -0.01558131 -0.0031662614 0.0044403616 -0.020548902 -0.02231236 -0.007489277
0.027137825 0.030732932 0.007775483 -0.0015873092 0.030024603 0.014023241 -0.004961522 -0.011514441
-0.017336514 -0.039553784 0.011541599 -0.03627174 -0.0030572594 -0.0004471011 -0.0005262089 -0.0038005398
0.0013446971 6.407945e-05 -0.00021571701 0.00038502127 0.0025523538 0.0009377143 0.028179433 0.004116707
0.004029514 0.0108206505 -0.0032204136 -0.014103843 -0.018228762 0.029165084 -0.00719718 -0.016283548
-0.034205288 -4.345821e-05 -0.013411599 0.010551059 0.013774913 0.0003673668 -0.015274213 0.00033825624
0.0021596553 -0.00048177646 -0.0008475894 0.006769463 0.00035685842 -0.0012509718 -0.0012679534 0.009506277
0.016742017 -0.0298454 0.04031582 0.0025405518 -0.037967667 0.0044767344 -0.022694802 -0.013712424
-0.0009179448 -0.018924365 -0.024308914 -0.0066622547 0.014068322 0.029259562 -0.021566892 0.008043939
-0.0065534944 0.010553159 -0.001008833 -0.0022626866 -0.012888649 0.015335029 0.0069278874 0.0022931662
0.039285917 -0.029494343 -0.00060280575 0.021344913 0.036864128 -0.016862705 0.026380021 -0.0011721036
-0.012755927 -0.010531195 -0.008357052 0.018801145 -0.011556977 -0.0032406212 -0.048598826 -0.001995247
-0.002976811 -0.003023009 -0.0034592466 0.0013184621 -0.000956923 -0.0020682355 -0.0013944395 -0.0012375626
0.002338369 0.022167737 -0.0020962022 0.018343795 0.007731094 -0.02737628 0.04539221 0.0133751
0.021496456 0.0050458084 0.0018304815 -0.011255392 0.04405949 0.009118016 -0.0072957166 -0.032173313
0.00025887074 -0.009651208 0.00025717795 0.0003002109 0.0023550554 0.00039329877 0.0026131119 -0.0146587435
0.010507169 0.0017164983 -0.0087742945 0.021756807 0.0038578669 0.0047505293 0.036931615 -0.0064969542
0.05094008 0.013500523 -0.006602323 -0.013366237 -0.014681716 -0.009180657 0.026910871 -0.04953795
-0.0021176015 -0.00017496094 -0.0018426479 -0.011318305 0.004233125 0.0003025219 0.005619545 0.01703222
-0.0027538107 0.0033770879 0.0027415336 0.03405163 -0.033701546 0.013119524 0.011610953 0.0017582964
0.01260545 -0.018093273 -0.019298105 -0.011244354 -0.0011876642 0.004213659 0.00079697266 -0.007309448
-0.01702628 0.0045225825 -0.0030267795 0.0027744523 -0.00093508966 -0.00083947915 -0.00082347554 0.0042824466

conv3.bias f4 [32]
00000000: e82a 04bc a42e 37ba 37f0 c6bb ec70 e539
00000010: 550f 223c 16a7 09bb df22 d6bb d0a4 b7bb
00000020: 2fe6 29bc 6fe4 4d3c 6f9d a8bb 87bd 153c
00000030: 53de 16bb fdc5 e8bb c674 cd3b 56f8 20bc
00000040: b13d 233c a63e cd3a 1e40 f7bb 5b4d a13b
00000050: d5f1 c2bb 614e cfbb e11b a8bb 96ba bb3b
00000060: 0f1a d0bb a237 283c d34c afbb 4ff0 823c
00000070: 8ded 27bb 82b5 093c b6c5 a5bb 5f78 a23c
-0.00806687 -0.0006987846 -0.0060711163 0.00043762417 0.009891351 -0.0021004132 -0.0065349187 -0.005604364
-0.010369821 0.01256667 -0.0051457207 0.009139425 -0.00230207 -0.00710368 0.006270024 -0.009824833
0.009963439 0.001565893 -0.007545485 0.0049225516 -0.005949239 -0.006326482 -0.0051302765 0.00572903
-0.0063507627 0.01026717 -0.0053497343 0.015983729 -0.002562377 0.008405091 -0.0050589694 0.019832788

fc1.weight f4 [8, 32]
00000000: ea7e 7e3d 9600 813e 90d1 5bbe 3413 bb3e
00000010: e42f bfbd 7f27 153b 556a b83d 86e7 9d3e
00000020: 70f4 873c 66a0 5bbd ff77 ecbd 3a20 ad3d
00000030: 0061 1fbd 9ead 02be 1048 3ebd 0c1e 8abe
00000040: fa0c 543d f0d7 763e 16b1 2bbd 63aa c43d
00000050: 10ed 343e 8f34 1b3e ba37 a5bd d4df b93e
00000060: 79df 67bd 4072 26be 54a1 1e3e cb4b a9bb
00000070: bf85 b6be 849b 0abd 9e80 033f 4415 c0bd
00000080: 1ae3 f93d be57 573d 4006 acbd b95b 2ebe
00000090: ea8a bbbd 85c3 3d3e fb8d bcbc 60d6 f43b
000000a0: 0e58 51be 7257 b23d 2f9a 3b3d cfd2 743c
000000b0: c30a 723d 88e4 8f3b 7491 88bd 4926 1abe
000000c0: c9b7 ae3e ccea f7bd dd22 8bbe d53f ca3e
000000d0: e217 2cbe 3583 28be 244d 0b3e c2d2 993c
000000e0: c559 f43d 3a27 94bc 70d9 2fbd 04cb f83d
000000f0: 5d96 733d fbee 87bd 445b 91bd 4d42 633e
00000100: 4ba6 7b3d 4217 d23d a963 303d b830 4a3e
00000110: b75d 75bc cbb3 923e 2eef c9bd 3361 98bd
00000120: 17d7 8f3e 57cb 91bc 89c1 55be 4850 b8bc
00000130: 7964 7ebe 30fd f13d 717a 1bbf 07f1 a73c
00000140: 7783 b4bd 3f2f 653e 0cc3 5ebe e3a4 7c3d
00000150: 4281 b0bd ae04 f03d 5061 5fbe 1909 b43d
00000160: fbc4 d5bd 7593 89be 2b17 63bd 5860 53be
00000170: 037d 2bbc cb3f 15bd 5ac1 c83e c405 85be
00000180: 667f 2b3e 2062 b5bd 2813 65bc 95f1 3a3e
00000190: 3791 b83d 767b a1bd ba2b 853e 1022 cb3b
000001a0: 5b61 8ebd 1cc6 61be 460b 5abb dc0e 70be
000001b0: 71b6 0a3e 072c d8bc ae4c ab3e 55f3 1a3d
000001c0: fcb5 63bd cd89 4fbe ce4e 533e 757d 6cbe
000001d0: d85f 973d d2d1 eebd 1a5c eb3d f77b 42bd
000001e0: 731d aa3e b943 f6bd 82e0 30bd 4a35 9cbe
000001f0: 34c9 73bc 3d48 38be 44de e3be 962b 86bb
00000200: 14ac 353e 0f02 593d 7ea1 143e b883 1fba
00000210: fffa 74be 415a 55bb 185e bdbd 9a8f 37be
00000220: 883a a1bd d2d8 c0be 4729 78be ad86 48be
00000230: 0bb1 3b3e c01a a5bc 68a4 503e 65c0 a13d
00000240: 7a42 2fbe 66e4 90bd 842e afbc c341 85bc
00000250: 25c5 f2bd 4cd6 8f3d 5a2b c83b 76f0 6b3e
00000260: 32b7 323e b749 1bbe a94e 9fbe bcb7 20be
00000270: be82 15be 9181 a9be 779e 9d3d e6ff b3be
00000280: a020 fa3d a422 3bbe 6e7a da3e c42e ee3d
00000290: b142 c83d 1036 8dbe 98be 6bbe 3b07 9fbc
000002a0: 44f5 ab3c 095b f83d bde7 f03e 4747 6bbc
000002b0: 31de fdbc 020e b2bc c67b 02be f9ab 313e
000002c0: e6d3 29be 4875 7d3d 54b5 f7bd 1680 a9be
000002d0: 6038 49bd 34a2 2ebc 81f2 213e 5bf7 a5bd
000002e0: 9629 5a3e 0174 a93d 4142 29be 7c34 e9bd
000002f0: 413e d1bd db3d de3d f0aa 3b3e 94ed 34be
00000300: fc53 47bd dfc0 acbe b402 edbc f781 fbbb
00000310: 595c 77bd c4d1 713e f34a 8e39 230b 143b
00000320: a5f6 f23d 35ef 17be 7d5f 8abd 87cb 15be
00000330: edc2 6ebe d64d 843e 3636 ba3d 3898 7abe
00000340: 167f e63c 0091 c83e e1f7 7cbd 3deb a3be
00000350: b0e2 dbbd 8e9e 2fbe 7de0 d73d 2b90 943e
00000360: 43ef 81bc d29c 05bd 4c7f 05bd dbdc 09bd
00000370: d9a0 28bc f6a2 c83d 69a1 59be 4554 89bd
00000380: 61b9 a0bd c5a8 a0bd 6b2f d63d 0c9a eb3e
00000390: effb aa3e f5e3 a9be ba01 dcbc bde2 e33d
000003a0: 237e b5bd aa3b a33e 98a6 8abd 1c51 583d
000003b0: af82 2cbd 361c 83be 9267 cf3d e281 623d
000003c0: adf2 be3e 550b 933d dac5 46be 3531 71be
000003d0: 59fb 4f3d 7ac9 a2be 9e53 aabd 3020 003e
000003e0: 7447 603e 1fd4 363e 086b 8abe 28a8 093e
000003f0: f066 26be e593 1a3e 2d56 e73d 42f5 d63d
0.062132753 0.2519576 -0.2146666 0.36538088 -0.09335306 0.0022759137 0.09004656 0.308407
0.01659605 -0.053619765 -0.11546325 0.08453412 -0.038910866 -0.12761542 -0.046455443 -0.2697605
0.051770188 0.24105811 -0.04191693 0.09602811 0.17668557 0.15156768 -0.080672696 0.3630358
-0.056609605 -0.1625452 0.1549123 -0.005166506 -0.35648915 -0.033839718 0.5136813 -0.09379056
0.12201519 0.05257391 -0.083996296 -0.17027177 -0.09157355 0.18531616 -0.02301692 0.0074718446
-0.20443746 0.08708085 0.045801338 0.014942839 0.059092294 0.0043912567 -0.06668368 -0.15053667
0.34124592 -0.12105331 -0.27175036 0.39501825 -0.16805986 -0.16456302 0.13603646 0.018777255
0.11931185 -0.018085111 -0.042931974 0.12148097 0.05946957 -0.06637379 -0.07097486 0.2219326
0.061437886 0.10258342 0.043063793 0.19745147 -0.014975957 0.28652796 -0.09860073 -0.07440414
0.28093788 -0.017797155 -0.20874609 -0.022499219 -0.24843015 0.1181587 -0.60733706 0.020500673
-0.088141374 0.22381304 -0.21754092 0.061680686 -0.08618404 0.117196426 -0.21814466 0.08790798
-0.10437962 -0.26870313 -0.055442017 -0.20642221 -0.010466817 -0.03643779 0.39210016 -0.2598096
0.16747817 -0.088566065 -0.013981618 0.18256219 0.090120725 -0.078848764 0.26009923 0.006199129
-0.06952163 -0.22048229 -0.003327088 -0.23443168 0.13546158 -0.026388181 0.3345694 0.037829716
-0.055593476 -0.2026741 0.2063553 -0.23094733 0.073913276 -0.11661114 0.11492176 -0.047481503
0.33225593 -0.12024636 -0.043182857 -0.30509406 -0.0148795135 -0.17996307 -0.44505513 -0.0040945513
0.17741424 0.05298048 0.1451473 -0.0006084996 -0.23923872 -0.0032555016 -0.092464626 -0.17925873
-0.07872492 -0.3766542 -0.24234496 -0.19582625 0.18329255 -0.020154357 0.20375216 0.078980245
-0.17115203 -0.070748135 -0.021384485 -0.01626671 -0.118540086 0.07023296 0.0061086835 0.23040947
0.17452696 -0.15164839 -0.311147 -0.15695089 -0.14600655 -0.33106664 0.076962404 -0.35156173
0.12213254 -0.18274933 0.4267153 0.116300136 0.097783454 -0.2758031 -0.23021924 -0.019412627
0.020990975 0.121267386 0.47051802 -0.014360256 -0.030989738 -0.021735195 -0.12742528 0.17350759
-0.16584739 0.061879426 -0.120951325 -0.33105534 -0.04912603 -0.010658789 0.15815164 -0.0810382
0.21304926 0.08274079 -0.1652918 -0.11386964 -0.10216952 0.10851642 0.18326926 -0.17668754
-0.048664078 -0.337409 -0.028931953 -0.007675405 -0.060390804 0.23615175 0.00027140192 0.0022589646
0.1186345 -0.14837344 -0.06756494 -0.14628421 -0.23316546 0.25840634 0.09092371 -0.2447213
0.028136771 0.39173126 -0.061759833 -0.3201541 -0.107365966 -0.17150328 0.105408646 0.2901624
-0.01586116 -0.03262026 -0.032592103 -0.03365789 -0.010292255 0.09796707 -0.2125298 -0.06705526
-0.07847858 -0.0784469 0.10458263 0.46015966 0.33395335 -0.3318173 -0.026856292 0.11127231
-0.08861949 0.31881458 -0.067700565 0.052811727 -0.042116817 -0.2560746 0.10127176 0.055299647
0.37294522 0.07179896 -0.19411412 -0.23553927 0.050776813 -0.3179434 -0.0831673 0.12512279
0.21902257 0.17854355 -0.27034783 0.13443053 -0.16250205 0.1509548 0.112957336 0.10495998

fc1.bias f4 [8]
00000000: 6e8f 1d3b 2b21 ee3b 4d47 35bc ac89 91bb
00000010: 942c a9bb a033 24bb 8ab3 733b c80c 363c
0.002404179 0.0072671375 -0.011064363 -0.0044414606 -0.005162785 -0.0025055185 0.003718587 0.011111446

fc_1.weight f4 [8, 32]
00000000: ea7e 7e3d 9600 813e 90d1 5bbe 3413 bb3e
00000010: e42f bfbd 7f27 153b 556a b83d 86e7 9d3e
00000020: 70f4 873c 66a0 5bbd ff77 ecbd 3a20 ad3d
00000030: 0061 1fbd 9ead 02be 1048 3ebd 0c1e 8abe
00000040: fa0c 543d f0d7 763e 16b1 2bbd 63aa c43d
00000050: 10ed 343e 8f34 1b3e ba37 a5bd d4df b93e
00000060: 79df 67bd 4072 26be 54a1 1e3e cb4b a9bb
00000070: bf85 b6be 849b 0abd 9e80 033f 4415 c0bd
00000080: 1ae3 f93d be57 573d 4006 acbd b95b 2ebe
00000090: ea8a bbbd 85c3 3d3e fb8d bcbc 60d6 f43b
000000a0: 0e58 51be 7257 b23d 2f9a 3b3d cfd2 743c
000000b0: c30a 723d 88e4 8f3b 7491 88bd 4926 1abe
000000c0: c9b7 ae3e ccea f7bd dd22 8bbe d53f ca3e
000000d0: e217 2cbe 3583 28be 244d 0b3e c2d2 993c
000000e0: c559 f43d 3a27 94bc 70d9 2fbd 04cb f83d
000000f0: 5d96 733d fbee 87bd 445b 91bd 4d42 633e
00000100: 4ba6 7b3d 4217 d23d a963 303d b830 4a3e
00000110: b75d 75bc cbb3 923e 2eef c9bd 3361 98bd
00000120: 17d7 8f3e 57cb 91bc 89c1 55be 4850 b8bc
00000130: 7964 7ebe 30fd f13d 717a 1bbf 07f1 a73c
00000140: 7783 b4bd 3f2f 653e 0cc3 5ebe e3a4 7c3d
00000150: 4281 b0bd ae04 f03d 5061 5fbe 1909 b43d
00000160: fbc4 d5bd 7593 89be 2b17 63bd 5860 53be
00000170: 037d 2bbc cb3f 15bd 5ac1 c83e c405 85be
00000180: 667f 2b3e 2062 b5bd 2813 65bc 95f1 3a3e
00000190: 3791 b83d 767b a1bd ba2b 853e 1022 cb3b
000001a0: 5b61 8ebd 1cc6 61be 460b 5abb dc0e 70be
000001b0: 71b6 0a3e 072c d8bc ae4c ab3e 55f3 1a3d
000001c0: fcb5 63bd cd89 4fbe ce4e 533e 757d 6cbe
000001d0: d85f 973d d2d1 eebd 1a5c eb3d f77b 42bd
000001e0: 731d aa3e b943 f6bd 82e0 30bd 4a35 9cbe
000001f0: 34c9 73bc 3d48 38be 44de e3be 962b 86bb
00000200: 14ac 353e 0f02 593d 7ea1 143e b883 1fba
00000210: fffa 74be 415a 55bb 185e bdbd 9a8f 37be
00000220: 883a a1bd d2d8 c0be 4729 78be ad86 48be
00000230: 0bb1 3b3e c01a a5bc 68a4 503e 65c0 a13d
00000240: 7a42 2fbe 66e4 90bd 842e afbc c341 85bc
00000250: 25c5 f2bd 4cd6 8f3d 5a2b c83b 76f0 6b3e
00000260: 32b7 323e b749 1bbe a94e 9fbe bcb7 20be
00000270: be82 15be 9181 a9be 779e 9d3d e6ff b3be
00000280: a020 fa3d a422 3bbe 6e7a da3e c42e ee3d
00000290: b142 c83d 1036 8dbe 98be 6bbe 3b07 9fbc
000002a0: 44f5 ab3c 095b f83d bde7 f03e 4747 6bbc
000002b0: 31de fdbc 020e b2bc c67b 02be f9ab 313e
000002c0: e6d3 29be 4875 7d3d 54b5 f7bd 1680 a9be
000002d0: 6038 49bd 34a2 2ebc 81f2 213e 5bf7 a5bd
000002e0: 9629 5a3e 0174 a93d 4142 29be 7c34 e9bd
000002f0: 413e d1bd db3d de3d f0aa 3b3e 94ed 34be
00000300: fc53 47bd dfc0 acbe b402 edbc f781 fbbb
00000310: 595c 77bd c4d1 713e f34a 8e39 230b 143b
00000320: a5f6 f23d 35ef 17be 7d5f 8abd 87cb 15be
00000330: edc2 6ebe d64d 843e 3636 ba3d 3898 7abe
00000340: 167f e63c 0091 c83e e1f7 7cbd 3deb a3be
00000350: b0e2 dbbd 8e9e 2fbe 7de0 d73d 2b90 943e
00000360: 43ef 81bc d29c 05bd 4c7f 05bd dbdc 09bd
00000370: d9a0 28bc f6a2 c83d 69a1 59be 4554 89bd
00000380: 61b9 a0bd c5a8 a0bd 6b2f d63d 0c9a eb3e
00000390: effb aa3e f5e3 a9be ba01 dcbc bde2 e33d
000003a0: 237e b5bd aa3b a33e 98a6 8abd 1c51 583d
000003b0: af82 2cbd 361c 83be 9267 cf3d e281 623d
000003c0: adf2 be3e 550b 933d dac5 46be 3531 71be
000003d0: 59fb 4f3d 7ac9 a2be 9e53 aabd 3020 003e
000003e0: 7447 603e 1fd4 363e 086b 8abe 28a8 093e
000003f0: f066 26be e593 1a3e 2d56 e73d 42f5 d63d
0.062132753 0.2519576 -0.2146666 0.36538088 -0.09335306 0.0022759137 0.09004656 0.308407
0.01659605 -0.053619765 -0.11546325 0.08453412 -0.038910866 -0.12761542 -0.046455443 -0.2697605
0.051770188 0.24105811 -0.04191693 0.09602811 0.17668557 0.15156768 -0.080672696 0.3630358
-0.056609605 -0.1625452 0.1549123 -0.005166506 -0.35648915 -0.033839718 0.5136813 -0.09379056
0.12201519 0.05257391 -0.083996296 -0.17027177 -0.09157355 0.18531616 -0.02301692 0.0074718446
-0.20443746 0.08708085 0.045801338 0.014942839 0.059092294 0.0043912567 -0.06668368 -0.15053667
0.34124592 -0.12105331 -0.27175036 0.39501825 -0.16805986 -0.16456302 0.13603646 0.018777255
0.11931185 -0.018085111 -0.042931974 0.12148097 0.05946957 -0.06637379 -0.07097486 0.2219326
0.061437886 0.10258342 0.043063793 0.19745147 -0.014975957 0.28652796 -0.09860073 -0.07440414
0.28093788 -0.017797155 -0.20874609 -0.022499219 -0.24843015 0.1181587 -0.60733706 0.020500673
-0.088141374 0.22381304 -0.21754092 0.061680686 -0.08618404 0.117196426 -0.21814466 0.08790798
-0.10437962 -0.26870313 -0.055442017 -0.20642221 -0.010466817 -0.03643779 0.39210016 -0.2598096
0.16747817 -0.088566065 -0.013981618 0.18256219 0.090120725 -0.078848764 0.26009923 0.006199129
-0.06952163 -0.22048229 -0.003327088 -0.23443168 0.13546158 -0.026388181 0.3345694 0.037829716
-0.055593476 -0.2026741 0.2063553 -0.23094733 0.073913276 -0.11661114 0.11492176 -0.047481503
0.33225593 -0.12024636 -0.043182857 -0.30509406 -0.0148795135 -0.17996307 -0.44505513 -0.0040945513
0.17741424 0.05298048 0.1451473 -0.0006084996 -0.23923872 -0.0032555016 -0.092464626 -0.17925873
-0.07872492 -0.3766542 -0.24234496 -0.19582625 0.18329255 -0.020154357 0.20375216 0.078980245
-0.17115203 -0.070748135 -0.021384485 -0.01626671 -0.118540086 0.07023296 0.0061086835 0.23040947
0.17452696 -0.15164839 -0.311147 -0.15695089 -0.14600655 -0.33106664 0.076962404 -0.35156173
0.12213254 -0.18274933 0.4267153 0.116300136 0.097783454 -0.2758031 -0.23021924 -0.019412627
0.020990975 0.121267386 0.47051802 -0.014360256 -0.030989738 -0.021735195 -0.12742528 0.17350759
-0.16584739 0.061879426 -0.120951325 -0.33105534 -0.04912603 -0.010658789 0.15815164 -0.0810382
0.21304926 0.08274079 -0.1652918 -0.11386964 -0.10216952 0.10851642 0.18326926 -0.17668754
-0.048664078 -0.337409 -0.028931953 -0.007675405 -0.060390804 0.23615175 0.00027140192 0.0022589646
0.1186345 -0.14837344 -0.06756494 -0.14628421 -0.23316546 0.25840634 0.09092371 -0.2447213
0.028136771 0.39173126 -0.061759833 -0.3201541 -0.107365966 -0.17150328 0.105408646 0.2901624
-0.01586116 -0.03262026 -0.032592103 -0.03365789 -0.010292255 0.09796707 -0.2125298 -0.06705526
-0.07847858 -0.0784469 0.10458263 0.46015966 0.33395335 -0.3318173 -0.026856292 0.11127231
-0.08861949 0.31881458 -0.067700565 0.052811727 -0.042116817 -0.2560746 0.10127176 0.055299647
0.37294522 0.07179896 -0.19411412 -0.23553927 0.050776813 -0.3179434 -0.0831673 0.12512279
0.21902257 0.17854355 -0.27034783 0.13443053 -0.16250205 0.1509548 0.112957336 0.10495998

fc_1.bias f4 [8]
00000000: 6e8f 1d3b 2b21 ee3b 4d47 35bc ac89 91bb
00000010: 942c a9bb a033 24bb 8ab3 733b c80c 363c
0.002404179 0.0072671375 -0.011064363 -0.0044414606 -0.005162785 -0.0025055185 0.003718587 0.011111446
