checkpoints/source/epoch=4.checkpoint.pth.tar (torch, 318132 bytes, 10 tensors)

conv1.weight f4 [16, 3, 5, 5]
00000000: 70dc 4a3e cf8d 1c3e d6bc a63d 070f 7abe
00000010: 367f 6d3d bf5b 11be 1247 6cbc fd47 48be
00000020: e7a3 d5bd d94e 263e 4246 51bd 999a 1fbe
00000030: fb24 d3bd e8a5 b2bd 44e8 c8bd 6f2a a73d
00000040: 220b 353e 71c8 0dbd 44d1 9ebd 53f2 c63c
00000050: 2303 a8bd e68f eb3d 44c1 993d 9f3c 253e
00000060: 3072 ef3d 3eb9 083e 007f 823d 490f 083e
00000070: c8a5 34bd 12ab fbbb 9bbb 09bd d1ea af3d
00000080: 7395 29be 4769 ebbd b160 09bd 8349 373e
00000090: a27a 033d 5a96 7fbd 90c8 1b3c 5a52 bfbd
000000a0: 458e 27be f08d e13d 79fe d5bd 1922 a8bd
000000b0: 9ff5 19be 4981 6c3e 4554 04be 58c0 6abd
000000c0: 9f42 e0bd 3893 a4bd 51e4 9e3b b11e 633d
000000d0: fa78 80bd bbf1 db3d 1050 cdbd c703 acbd
000000e0: 6e24 1fbe cdd4 87bc ee7a fbbc 06ac 733d
000000f0: d468 7cbc 6bc6 473e e556 14be 597f fe3d
00000100: c69b 103e 0fab c13d b7b0 753e 8270 2e3d
00000110: 2dd0 963c 194a 18bd 709b dfbd 3747 0e3e
00000120: 86db dabc ad1e 2f3d f7b8 d1bb 955f 163d
00000130: c533 6d3d 68e9 95bd 94ba 76be 387c aabd
00000140: 0425 43bc b59c 2dbd cd9a 1abe 2af3 8dbd
00000150: 4230 553d 5ac5 403d ddcd e43d bee3 11bc
00000160: df12 873d 379f 66bd d41a f8bd 6d3a 583d
00000170: e302 4cbe 27aa d0bd d7fb 0a3e 4b1c 183d
00000180: 5939 90be 2fe2 123d f5aa 8e3d 92e9 a8bb
00000190: 9502 8f3d fdd5 8b3d 923e f13d 5e4a 3ebd
000001a0: 7b11 86bc b0f8 a03d 43ab 413d 50d1 9f3c
000001b0: 9150 f93c 69d9 0e3e daeb 07bb cbff 08bd
000001c0: 0e54 26be 3855 6cbc 2869 72bd 5e83 463d
000001d0: b700 993d d7a1 5d3a f2d6 41bd a606 753d
000001e0: 0767 08bc 810d a53c 75fb f53b 1a11 9e3d
000001f0: 8321 f23d 3a6d 2a3d 8e81 ae3d c939 483d
00000200: 9feb 563e 5621 e53d 828b 1bbe 33b2 e9bd
00000210: acbd 47bc 9b4f 363e 3086 973d e80d 813d
00000220: ff6c fc3d 161c 89bb 7648 47be 0c6b d73d
00000230: 07ec 29bd 9553 dc3d 778f aabd 133c 7b3d
00000240: b592 cebd a4b3 c13d ff16 293e fc93 143e
00000250: 1c1f a43c ddf9 c6bc d2bc 60bd 2ef5 e83c
00000260: 86d7 193d 4e3d d33d 78d3 2bbd 536d 3b3e
00000270: 9f58 86be 2da5 3abd e07a 01be 4e77 b63d
00000280: 0b94 56be 8aad 973c 0485 74ba 2586 0bbd
00000290: 6c51 fd3c a8fc a4bd 462a 703c 695b ebbd
000002a0: cd50 29be 08cb 193e 4042 103e 3d7e c33a
000002b0: b479 25be 62a3 ac3d 9873 bf3d 52ef 773e
000002c0: 3a42 c13c d105 803c e030 afbd bb9d 83bc
000002d0: ded8 abbd c04a 27be 848d f5bd cafe 57bd
000002e0: 73dc 55bd d894 25be fb6f 55be fc86 683c
000002f0: 8bbe e73d 875d 62bd af33 a13d ebf2 9c3d
00000300: c1df 433e cd1f c2bd 6845 de3d 4995 cabc
00000310: e6d2 fcbd 7cc2 203d 079a 5d3d 4ad2 1c3e
00000320: 0086 a13d e65a 743e 0027 5abd 57bf cabd
00000330: d31f e13c 6b41 003e aaeb 0f3e ed22 3e3d
00000340: 16e7 b1bd e128 d8bd 0145 57bd a049 88bd
00000350: f564 693c 1663 413d 0f2d 72bc 8a31 79be
00000360: f807 30bd d591 e33d 0f34 44be bc5b 233e
00000370: f21c 373d ae04 5ebd d0b8 d03d 3dab 313e
00000380: b854 c8ba 7072 373e dd1d 543c d8b2 f6bd
00000390: 029f 95bd a451 e8bb 584e 3a3d 05c1 5d3e
000003a0: 921b 37bc 64ae ddbd 176c 6ebe 192b e7bd
000003b0: 4cd7 b43b a3b6 8c3b fa4a 2c3c 6392 eb3c
000003c0: a42f c4bd 459f 053d f739 6ebd 35a1 2d3d
000003d0: a6a6 dfbd dc23 593b 14cf 05bd 90a5 1d3e
000003e0: 5216 fb3d f6de c4bd 6653 b63d 4de7 4c3d
000003f0: 1fff 493d 7d28 473d 4f3a 1b3d 5b92 c03c
0.19810653 0.1528847 0.08141486 -0.24419795 0.057982646 -0.14195155 -0.014421241 -0.19558711
-0.104316525 0.16241015 -0.051092394 -0.15586318 -0.10309788 -0.0872305 -0.09809926 0.081623904
0.17680028 -0.034614984 -0.07754758 0.024285471 -0.08203723 0.11502056 0.075075656 0.16136406
0.116917014 0.13351914 0.063718796 0.13287081 -0.044103414 -0.0076803053 -0.03362618 0.085897096
-0.16560917 -0.114946894 -0.033539478 0.17899136 0.032099374 -0.062399246 0.009508267 -0.09341879
-0.16362865 0.110134006 -0.104489274 -0.082096286 -0.15035103 0.23096193 -0.12922771 -0.05731234
-0.10950207 -0.08035892 0.004848995 0.05544919 -0.062730744 0.10739466 -0.10025036 -0.08399158
-0.1554124 -0.016580964 -0.030698266 0.059490226 -0.015405852 0.19509284 -0.14486273 0.124266334
0.14121923 0.09456455 0.23993193 0.042587765 0.018409813 -0.03718004 -0.10918319 0.13894354
-0.026716005 0.042753864 -0.0064002234 0.036712248 0.0579107 -0.07319909 -0.24094611 -0.08324474
-0.011910681 -0.042385776 -0.15098114 -0.069311455 0.052047975 0.04706321 0.11172078 -0.008904396
0.06595396 -0.056304183 -0.12114492 0.052790094 -0.19922976 -0.10188704 0.13572632 0.037136357
-0.28168753 0.035860237 0.06966201 -0.005154797 0.06982914 0.068279244 0.117795125 -0.04645764
-0.016365757 0.078599334 0.04728247 0.019508988 0.030433925 0.13950123 -0.0020739944 -0.03344707
-0.16243002 -0.014424615 -0.059182316 0.048465125 0.074708395 0.0008454597 -0.04732413 0.059820794
-0.008325345 0.02014804 0.0075067827 0.077181056 0.11822798 0.041608073 0.08520804 0.048883233
0.2098832 0.11187999 -0.15189937 -0.11410942 -0.012191217 0.17803805 0.07398641 0.063014805
0.12325477 -0.0041842563 -0.19461235 0.105184644 -0.04148486 0.107581295 -0.08328145 0.061336588
-0.10086576 0.09458092 0.16512679 0.14509577 0.020034365 -0.024289066 -0.054867573 0.028437223
0.037559055 0.10314427 -0.04194972 0.18303423 -0.26239488 -0.04556768 -0.1264453 0.08909474
-0.20954911 0.018515367 -0.0009327682 -0.034063477 0.030922614 -0.08056003 0.014658516 -0.114920445
-0.1653473 0.15018857 0.14087772 0.0014914941 -0.16159707 0.084296 0.0934822 0.24212387
0.02359115 0.015627773 -0.08554244 -0.016066423 -0.083909735 -0.16337109 -0.119898826 -0.05273322
-0.05221219 -0.1617006 -0.20843498 0.014192339 0.1131564 -0.055264976 0.07871186 0.076635204
0.19128324 -0.09478722 0.10853082 -0.024729388 -0.12344913 0.039247975 0.05410197 0.15314594
0.078868866 0.238628 -0.05325985 -0.098997764 0.027480995 0.12524955 0.14054742 0.046420027
-0.08686654 -0.10554672 -0.05255604 -0.06654668 0.014245261 0.047213636 -0.014781251 -0.24335304
-0.04297635 0.111118 -0.19160484 0.15952963 0.04470534 -0.05420368 0.101915 0.17350478
-0.0015284037 0.17914748 0.012946573 -0.120458305 -0.07305719 -0.0070898104 0.04548487 0.21655662
-0.011176007 -0.10824278 -0.2328342 -0.11287517 0.0055188295 0.004294233 0.010515923 0.028756326
-0.09579399 0.032622594 -0.05816075 0.042390067 -0.109204575 0.0033132946 -0.03266819 0.15395188
0.12260117 -0.09612839 0.08902626 0.050025273 0.049315568 0.048622597 0.037897404 0.023507288

conv1.bias f4 [16]
00000000: f12b 16bd c09d ce3b 064a d3bc ff6d aabc
00000010: f0a7 9bbc e583 edbc 48a1 633b 78fa 61bc
00000020: 45a6 72bc 8a90 983c b579 4fbb b0ca 373c
00000030: 8eb1 acbb c3b1 94bc 9e63 59bc a25a 1bbc
-0.036663 0.0063054264 -0.025792133 -0.020804403 -0.019000977 -0.028993556 0.0034733582 -0.013792627
-0.01481015 0.01862361 -0.0031658236 0.011217758 -0.0052701896 -0.01815117 -0.0132683795 -0.009482058

conv2.weight f4 [64, 16, 5, 5]
00000000: e781 e33c 6053 713c 5eb3 c53c ff1b c13d
00000010: f841 1b3d b007 b53c 0613 a1bb 23d5 0b3d
00000020: 5733 3abc 5c45 babc b714 563b 00c0 cd3d
00000030: eaf0 25bd 2616 1d3b 82de 963d e585 97ba
00000040: 0751 933c dbfb 833d 61be ae3d b66d 503d
00000050: b63a 7fbb 3e5e 503d 2972 d13c a636 05bb
00000060: 850a 90bd 9e54 a73c c974 20bd 1354 87bc
00000070: 365a a4bc dfa1 563d ec47 6ebd 9fe6 d0bc
00000080: e821 9abb b51f 7ebd 0bf6 88bd e7e5 f7bc
00000090: 4678 a23b 6e33 92bd 757e 373d 46dc c0bd
000000a0: 6013 713d d490 2b3b df21 60bd f149 e23c
000000b0: 3fe7 11bd 9b3a 78bc 6bf1 ad3c 182a 323d
000000c0: 1a95 a6bc 0d87 f13c 87e7 bebc 7548 6e3c
000000d0: 6b8f 98bc ca32 833d e0f1 193d 67fe 463d
000000e0: 2200 b53c bd81 efbc 1e15 b5bc 59b7 523c
000000f0: d35c 5fbc 05a9 81bc da1f 193d cff4 d23d
00000100: 50bb 7cbd 81f4 5bbc 2d74 113d 8f01 7d3d
00000110: 243b 6a3d cfeb ce3c c301 cfbc 8f3d bbbc
00000120: 1778 023e 036a 5dbd a2e5 e83c e2a9 35bd
00000130: fd53 4cbc 0d5e 453b fa37 60bc 5b39 dfbc
00000140: 8051 d7b7 878e c6bb 650c 2b3d 893f 833c
00000150: a9ae 2d3d beea dfbc 51eb 813d f72c 083c
00000160: 76fc 0ebc e857 cfbc e235 113b a3ea 84bc
00000170: 483b 683c c1e2 ac3d 7386 68bd 6663 47bb
00000180: 25cc a73c 8804 ae3c 6115 363d c182 743d
00000190: 9184 22bd 9566 33bd 1191 c5bc 7985 863d
000001a0: 877f cd3c 658b c0bc b9f6 4fbd 8cf3 463d
000001b0: f1bc d33b c98b f73b 1967 3cbd 4b1e a0bc
000001c0: a873 053d 2fa1 38bd cc60 cdbd 3e30 d6bc
000001d0: 075a 4e3d 1077 783d 494f 023c 8913 843d
000001e0: 2d3b 893d 8144 4e3b aa14 5fbc bb86 493c
000001f0: ddf0 0b3d 23eb a03c 81ce 96bc 557d afbc
00000200: 13ac 7e3c 4265 1fbd 5af7 1e3d 0cfa 6abb
00000210: c77f 91bd 9da2 ea3c 9cbe ccbb c0cc 08bd
00000220: 8c78 10bc c7b5 343c a368 983c 13a4 5c3d
00000230: e355 b43d 37ee e53d bd2a 8d3c ad28 0abd
00000240: 4e6b ccbb e302 a4bc 92e4 2d3d 1359 1bbd
00000250: 879e 053d 7bb4 683d 1809 11bd 2e18 4cbc
00000260: 9750 d2bc 5849 5e3c 90ed 68bb cd1e 8c3c
00000270: f81f 7f3c d662 e7bc e2a5 58bc 9b36 153d
00000280: 3921 af3c 185d 4a3d 307c 63bc 6748 723d
00000290: e94e 00bd 2ead 9a3c 7b36 15bc 7458 46bc
000002a0: 8e6f d5bb f525 41bc dca9 71bb b847 abbb
000002b0: 9abf 8c3d bbef ba3b ff94 abbc a26f acbc
000002c0: a6a3 f53d 6b9f 3dbd 92fc aa3d 594a 09bd
000002d0: 1984 7dbd 11ed ac3a 054d 33bd 2735 b0bb
000002e0: 400b f7bc 2d4d b13b 2a63 1a3d f059 73bd
000002f0: dbcc 3a3d 2f44 99ba 313a bb3d ebf8 2d3c
00000300: 9b5c f7bc f452 3d3d 3ad9 4cbc 98e5 0abd
00000310: eee5 843d 0ff5 8b3b d6fc a53b 2eb8 daba
00000320: 1c7e 783d 8036 903b 2a78 883d dba3 b93a
00000330: a3dd 6d3d 72a1 3b3d bf10 853c 8939 183c
00000340: eeba 183c 7154 2abd 5872 32bd 778e 53bc
00000350: e53c 26bd b034 543c 9dbb 1fbd e1fa 403d
00000360: 2caf 2e3d 4be2 f9bb 7f40 383c f640 38bd
00000370: af91 dbbb f409 2f3b 66d8 3f3c 13ee 763d
00000380: 6f10 14bd b2fe 113c 25be e83c 1508 62bd
00000390: 8b8c 1b3c f964 b53c d838 a23d a31d 52bd
000003a0: 7f9e 97bd 1b53 69bc 4b57 283c b374 eabc
000003b0: 4163 69bd 8642 61bd ba90 623d ae60 aabd
000003c0: 3859 f03c 7d21 eabc b6ef 71bd b0ca 363c
000003d0: 68ea 9c3b b6ff 173d f991 78bd 5d23 503d
000003e0: fc7d bf3c 2bd6 5b3d 487e 013c 260b b23c
000003f0: 8060 9c3b 2cad dbb9 7d6d bebc 1413 643d
0.027771903 0.014729351 0.02413338 0.09429168 0.03790471 0.022098392 -0.004915598 0.03413881
-0.011364779 -0.022738151 0.0032666156 0.10046387 -0.040512957 0.00239695 0.07366659 -0.001156029
0.017982973 0.06444522 0.08532406 0.05088588 -0.0038944907 0.050871126 0.025567131 -0.0020326762
-0.070332564 0.02042609 -0.039173875 -0.016519582 -0.020062547 0.052400466 -0.05817406 -0.025500594
-0.004703749 -0.062041957 -0.06687554 -0.030260993 0.0049581854 -0.07138716 0.044798333 -0.09417014
0.058856368 0.0026178854 -0.054719802 0.027623149 -0.035620924 -0.015150691 0.021233281 0.043497175
-0.020334769 0.029483343 -0.02330376 0.014543642 -0.018623075 0.064061716 0.037584186 0.04858246
0.02209479 -0.029236669 -0.022104796 0.012861096 -0.013632971 -0.015827665 0.03738389 0.103006
-0.061702073 -0.0134249935 0.035511184 0.061769065 0.057185307 0.025258927 -0.025269395 -0.022856502
0.12741123 -0.05405618 0.02842981 -0.044351466 -0.012471196 0.0030115873 -0.013685221 -0.027249029
-2.5667949e-05 -0.006059471 0.041759867 0.016021507 0.042402897 -0.027333613 0.06343711 0.008311502
-0.008727184 -0.025310472 0.002215736 -0.016225165 0.01417429 0.084416874 -0.056768846 -0.0030424236
0.020483086 0.021242395 0.044453982 0.05969501 -0.039677206 -0.043799 -0.024117025 0.06568427
0.025085224 -0.023503968 -0.050772402 0.04857211 0.0064617326 0.0075545055 -0.04599676 -0.019545695
0.032581 -0.04507559 -0.10028228 -0.02614605 0.050378826 0.06066042 0.007953473 0.064490385
0.0670074 0.0031473937 -0.013615767 0.012300189 0.034165252 0.019643372 -0.018409016 -0.021422068
0.015543955 -0.038914926 0.03881011 -0.0035854606 -0.0710445 0.028641993 -0.0062483083 -0.03339839
-0.008817803 0.011029667 0.018604582 0.05386741 0.08805444 0.112270765 0.017232293 -0.033730198
-0.0062383777 -0.020020908 0.04245431 -0.037926745 0.032621887 0.056812745 -0.035409063 -0.012456937
-0.025673194 0.013567291 -0.003554199 0.01710453 0.015571587 -0.02824537 -0.013223143 0.03642903
0.021378146 0.049405187 -0.013884589 0.05915108 -0.031325255 0.018881407 -0.009107227 -0.01210605
-0.0065135425 -0.011788835 -0.0036874926 -0.0052270554 0.068724826 0.0057048476 -0.02094507 -0.021049324
0.11994104 -0.04629461 0.08348955 -0.03351817 -0.061893556 0.001319321 -0.043774623 -0.00537743
-0.030156732 0.0054108114 0.037692226 -0.059411943 0.04560552 -0.0011693294 0.091419585 0.010618429
-0.030195525 0.04622169 -0.012502963 -0.033910364 0.06489168 0.0042711566 0.005065541 -0.001668697
0.060667142 0.004401028 0.066635445 0.0014163213 0.058072697 0.045808263 0.016243337 0.009291061
0.009321911 -0.041584436 -0.043566078 -0.012912384 -0.040585417 0.012952015 -0.03899728 0.047114257
0.042647526 -0.007625853 0.011245846 -0.044983827 -0.0067007164 0.0026708813 0.011709308 0.06028564
-0.036148485 0.008910822 0.02841098 -0.05518349 0.009493957 0.022142874 0.07920998 -0.051297795
-0.074032776 -0.014241005 0.0102747185 -0.0286201 -0.05697942 -0.054995082 0.055313803 -0.083192214
0.029339418 -0.028580422 -0.059066497 0.011156723 0.0047886856 0.0371091 -0.060686085 0.050814975
0.023375504 0.053671043 0.007903643 0.021733832 0.004772246 -0.00041899958 -0.023245567 0.055682257

conv2.bias f4 [64]
00000000: 1639 a4bc 7b9a 9d3a c669 f03b 18fd 2cbc
00000010: 6a4a 3e3c cdaf 48bc e22b b03b 03a2 09bc
00000020: e0e9 713b 553c 163c 3653 35bc ad73 f5bb
00000030: 6e0c c9bc c015 423c 7148 35bc c001 a2bb
00000040: 2f49 fcbb 3565 0fbc 9951 2abc f9db a0ba
00000050: 3466 97bc 7d2d 90bb c23e 313b cf01 cbbb
00000060: f95c 35bb 7481 23bc d4bf 1bbc 7420 91bc
00000070: 28db b43c 6e26 d1ba 227d 30bb 629e dabb
00000080: e88e e83c 37ce 84bb 4aae aabb 9ec0 8b3c
00000090: d037 44bc ba02 48bc 5b5e 103c b44c c33a
000000a0: c741 98b9 e0ea 813c f92d b0bb cfb4 8bbc
000000b0: f284 863b cffc 0dbc dd08 a0bc e837 86bb
000000c0: eabe 1f3b 8cdd 8fbc 1ba8 c5ba e9d7 c93b
000000d0: 47cb 9b3c a2ef 49bc 9d0f ffbb 49f1 c2bc
000000e0: 3e0d 62bc b16b 183c 94f1 2fbc cee5 193b
000000f0: 5d5c 5bbb f827 0d3d 9594 ebbb da4f dc3b
-0.020046752 0.0012024188 0.007336828 -0.010558389 0.011614421 -0.012248945 0.005376325 -0.008400443
0.0036913082 0.009169658 -0.011067202 -0.0074905963 -0.02454206 0.011846006 -0.011064635 -0.0049440563
-0.007699154 -0.008752157 -0.010395431 -0.0012272588 -0.018481351 -0.004399954 0.0027045463 -0.006195284
-0.0027673824 -0.0099795945 -0.009506185 -0.01771567 0.022077158 -0.0015956888 -0.0026930054 -0.0066717127
0.028388456 -0.004052903 -0.005208765 0.01705962 -0.011976197 -0.012207681 0.008811559 0.0014900179
-0.00029040707 0.015859067 -0.005376574 -0.01705399 0.004105204 -0.008666231 -0.019535476 -0.00409602
0.0024375268 -0.017561696 -0.0015080007 0.0061597717 0.019017829 -0.012325199 -0.0077838437 -0.023796694
-0.0137971025 0.009303019 -0.010738749 0.0023482922 -0.00334718 0.034461945 -0.007189343 0.0067233862

conv3.weight f4 [32, 64, 5, 5]
00000000: 9663 7f3b 3cd6 613b 9a8c 8c3b 3813 1dbb
00000010: 4343 8cbb e81b 92b8 53fe c7b9 25a9 81ba
00000020: 8b89 ee3b 0845 48bb 4ea3 003d 5463 38b9
00000030: 8ef4 0c3d e4f2 2fba cf1d 5d3c 84dc c83c
00000040: b3c1 3e3b 2414 ff3c 59af b83c f150 76bc
00000050: 81c3 93ba 8e43 8b3c aa49 2b3b 6504 4c3d
00000060: 6b76 293c 71bb 43bb 3f31 7cbb c20b 27bb
00000070: 7823 7fba ce5a 053c 151f af3a 7ebc 4639
00000080: 055e 1c3c 2634 7f3a 42e8 893b 6e3f 103d
00000090: 7ec7 1a3c 11da 003c e9da eabb 6dce 5e3d
000000a0: bdeb 90bc 8548 b339 58bc 143d 8a3c 503c
000000b0: 58f2 8f3c 0730 f2bb fd78 54bc 855e cbbb
000000c0: 23d2 be3c 064b 8c39 ece3 7abb bb42 b0bb
000000d0: 001e 7dbc aa2e d6bb 6a4e 093c e9b6 ed3a
000000e0: 8add 213c 487e 80ba 5fd0 a7bb 5056 423b
000000f0: cb97 debc f694 e13c 0a79 3e3c a49c 7e3c
00000100: 5e1e a4ba c92a 153c 2280 8ebb a7c6 03bd
00000110: 0c99 183c 04f2 0d3d 4ee0 0bbd 4fad e43b
00000120: c798 d9bc a8f1 fdbc 5c8c ee3c b379 afbb
00000130: 75af a1bb b903 3dbc d96c 82ba 8d24 ee3a
00000140: a515 a93a 30ff 9bba 4a5a 8dbc 1aa3 e539
00000150: d57f cb3b 0ace adbc 3dfc c4bc 7a84 0cbc
00000160: 8ddd bb3c 6da0 de3c 2b83 983b 30b2 b1bb
00000170: f23b e63c 5cd6 523c e1fd c9bb eaad 64bc
00000180: 092d 8fbc 8938 1cbd 7110 363c 4462 15bd
00000190: c1b9 31bb 9f7c 873a 8db4 3bbb e62e dd39
000001a0: 9fc6 893b 6a87 1dbb 9d3e faba 9ab2 d03a
000001b0: 8878 b039 6b85 363c caa0 cf3c b7f4 f53a
000001c0: da53 933b 4d7a f53b c795 a4bb 16b1 60bc
000001d0: 9e2c ccbc c8b4 e93c 2ba0 cabb fddc 9cbc
000001e0: 6ca6 05bd 9ad0 a4bb b9aa 37bc 098b 3e3c
000001f0: f3b4 283c a3f8 2cbb d03b 0dbc 61cd 97b9
00000200: 7665 7aba 0ab6 e6b9 0261 d83a 3287 ca3b
00000210: 6381 d03a a82d a8b8 28fd 7bbb 0718 d13b
00000220: 714d a13c f847 d8bc bfde 2b3d 4d4b bf3b
00000230: 9d5b 15bd a901 ae3b 7b00 bbbc ee1d 65bc
00000240: 4b77 9f3b f72c 82bc a664 bfbc aba4 b4bb
00000250: d149 7b3c fc3b 083d 5d0c 52bc 68d6 cc3b
00000260: 4e08 30bc a403 b53b 5d1a 21bc fb72 fbba
00000270: c790 00bc 0076 8f3b 107d 233b 894a 273b
00000280: 28a2 193d d87b edbc 6eeb 7db9 b087 ab3c
00000290: 5b6c 083d 37bb 83bc 7c92 e63c effd 0b3b
000002a0: d736 59bc 40f5 84bc 72a5 4cbc 96b2 723c
000002b0: 505a 8fbc b9a4 4fbb 2f50 40bd 292e 943a
000002c0: 674a 253a b8b4 cdba 1a2f 8239 cd29 933b
000002d0: a568 50ba 6545 afba 1ce2 11ba fd7d e4bb
000002e0: 2eb6 103c 796f 9e3c 20f1 88bb 1bf0 553c
000002f0: 938e 9f3b 2537 eebc 71dc 263d 4de7 273c
00000300: 24d9 983c 88d4 cf3b 94d1 42bb 555c 65bc
00000310: 2e13 133d af56 523c ca23 91bb 9e6d 0bbd
00000320: fe0c 09bb f29d 4cbb 5c8c 70b9 d96a 98ba
00000330: 663c 70b9 aacf ad3a ab64 833a 1a8e 3fbc
00000340: 6bca 1b3c 1781 cfba 630f 16bc fb3b a93c
00000350: 07a4 cf3b 7f5c d63b 48a2 133d d328 03bc
00000360: 9f18 443d 5aff 4f3c b05f b0bb 2d67 12bc
00000370: 4bce 4fbc 3e00 2dbc 8275 cc3c 8946 3ebd
00000380: 656d 473b 8386 11ba 3465 e5b9 48cf 47bb
00000390: ca81 f6b9 ab11 883b a9f1 d73a d54c 323c
000003a0: f4e9 06bb 7558 01bb 29d9 8a3b f223 053d
000003b0: 6d44 04bd a02c 643c 44aa 0e3c 54c9 93ba
000003c0: 0bc1 263c 41bf 7ebc 2291 82bc cb6f 2fbc
000003d0: c963 3cba 3cd0 003b 7ed4 96bb 3d70 a3bb
000003e0: 2774 8abc b2ee 0d3c 2503 a8bb 7c31 08ba
000003f0: 6d94 a0bb 2d83 65bb 9779 debb 3f2e f1b9
0.003896927 0.003445997 0.004289222 -0.0023967754 -0.004280479 -6.9670205e-05 -0.00038145724 -0.0009892328
0.00727958 -0.0030558724 0.03140574 -0.0001758461 0.034412913 -0.0006711914 0.013495876 0.024519213
0.0029107153 0.031137533 0.02254455 -0.015033946 -0.0011273475 0.016999986 0.0026136436 0.04980888
0.010343174 -0.0029866362 -0.0038481501 -0.0025489186 -0.0009732763 0.008139325 0.0013360704 0.0001895297
0.0095439 0.0009735249 0.0042085955 0.03521674 0.009446977 0.007864491 -0.0071672094 0.05439608
-0.017690534 0.00034195572 0.03631243 0.012709746 0.017571613 -0.007390979 -0.012968299 -0.006206336
0.02329356 0.00026758778 -0.0038282825 -0.0053790486 -0.015449047 -0.0065363245 0.008380512 0.0018136177
0.009879479 -0.000980326 -0.0051212753 0.0029653497 -0.02717199 0.02753685 0.011625538 0.015540276
-0.0012521257 0.009104439 -0.0043487707 -0.03217187 0.009313833 0.034654632 -0.03414946 0.006978668
-0.026562108 -0.03099902 0.029119663 -0.005355084 -0.004934246 -0.011536532 -0.0009950652 0.0018168852
0.0012900127 -0.0011901613 -0.017254967 0.00043799804 0.006210307 -0.021216411 -0.024046058 -0.008576507
0.022932792 0.027176106 0.0046543083 -0.005422853 0.028104756 0.01286849 -0.006164298 -0.01395748
-0.01747753 -0.038139854 0.011112318 -0.036470667 -0.0027118775 0.0010336823 -0.0028641552 0.00042187347
0.0042045857 -0.0024037012 -0.0019092147 0.0015922368 0.0003365914 0.011140208 0.025345225 0.0018764947
0.00449608 0.007491386 -0.0050227377 -0.013714096 -0.024923619 0.028528586 -0.0061836443 -0.019148344
-0.032629415 -0.00502975 -0.011210137 0.011629828 0.010297048 -0.0026393316 -0.008620217 -0.00028953984
-0.0009551862 -0.00044004648 0.0016508403 0.0061806673 0.0015907701 -8.0193684e-05 -0.0038450453 0.006381038
0.019690247 -0.026401505 0.041960474 0.005837834 -0.036464322 0.0053102565 -0.022827378 -0.013984187
0.0048665158 -0.015890582 -0.023363423 -0.005512794 0.015337423 0.03326033 -0.01282033 0.006251145
-0.0107441675 0.0055241156 -0.009832946 -0.0019184047 -0.007847018 0.0043780804 0.002494637 0.0025526604
0.03750816 -0.028989717 -0.00024215665 0.020938724 0.03330646 -0.016080482 0.028146021 0.0021361073
-0.013257704 -0.016230226 -0.012490617 0.014813086 -0.017499119 -0.0031683876 -0.04695147 0.0011305261
0.00063053373 -0.0015694117 0.00024830626 0.004491067 -0.00079501636 -0.0013372122 -0.0005565004 -0.006973027
0.0088324975 0.019340264 -0.004179135 0.013057734 0.004869291 -0.02907903 0.040737573 0.0102480175
0.018658228 0.0063424744 -0.002972697 -0.013999064 0.035906963 0.01283805 -0.004429315 -0.034040086
-0.0020912285 -0.0031222072 -0.00022940472 -0.0011628523 -0.00022910684 0.0013260741 0.0010024508 -0.0116915945
0.009508709 -0.0015831318 -0.009158942 0.020658484 0.0063366923 0.006541788 0.036043435 -0.008005339
0.047875043 0.012695158 -0.0053825006 -0.008935732 -0.012683461 -0.01055914 0.024958376 -0.046453986
0.0030430194 -0.0005551355 -0.00043753686 -0.003048854 -0.00047017477 0.004152497 0.0016475219 0.010882576
-0.0020586224 -0.0019736562 0.0042373133 0.032504983 -0.03229182 0.013926655 0.008707587 -0.001127521
0.010177861 -0.015548528 -0.015938345 -0.010707806 -0.00071865 0.0019655367 -0.0046029678 -0.004987745
-0.016901089 0.008662866 -0.005127328 -0.0005195362 -0.004900506 -0.0035020814 -0.006789397 -0.00046001558

conv3.bias f4 [32]
00000000: 98c3 3ebc 5456 06bb a766 04bc e387 483a
00000010: ec41 273c 42a1 08bb bfcd c3bb c1d1 a8bb
00000020: 50e2 5dbc f966 8b3c 2b52 a6bb 179a 6b3c
00000030: 5616 64bb 62a4 05bc 7fd6 fe3b 4c75 58bc
00000040: 89f4 9e3c c63a 9a3b 6a25 2bbc 41b5 cc3b
00000050: 3b6f a1bb 9175 33bc 45ea a0bb 5bb7 1c3c
00000060: e8b0 c8bb 0a3a 6f3c a774 a3bb e507 cd3c
00000070: 40cb 91bb d938 573c e066 81bb 3991 e53c
-0.011643313 -0.0020498233 -0.008081115 0.0007649643 0.010208588 -0.002084807 -0.0059754546 -0.0051519577
-0.013542727 0.017016875 -0.005075713 0.01438 -0.0034803352 -0.008156868 0.007777035 -0.0132115595
0.019403713 0.0047067134 -0.010445932 0.006247193 -0.00492659 -0.010953323 -0.0049107396 0.0095652
-0.0061246045 0.01460124 -0.0049882713 0.025028178 -0.004449278 0.013136112 -0.0039490312 0.02802335

fc1.weight f4 [8, 32]
00000000: 2bd4 5c3d 02ee 7c3e 3a3f 66be 9506 bb3e
00000010: 8f66 d0bd 1b9d 4cbb 7444 9d3d 4e31 923e
00000020: 27f9 803c 9321 60bd dc99 e3bd 443c bb3d
00000030: d2b2 4dbd c6c0 04be a9d5 4dbd 0770 92be
00000040: aa45 243d 036f 763e 32a2 37bd cdda bd3d
00000050: 7502 203e f908 183e fbbd 7cbd cae2 b83e
00000060: fa45 49bd 33bc 1bbe 2708 0c3e 381a 8ab7
00000070: 977b bcbe ea10 c8bc e6a3 003f 5fe4 b9bd
00000080: b726 f23d 5c6d 5c3d 5a2e b3bd 02da 2fbe
00000090: 8fc7 bcbd 43f1 373e b937 6bbc 4e46 833b
000000a0: 878f 57be ceef b23d 176c 343d fa53 963c
000000b0: 7247 673d c070 41b8 b1e9 88bd 0b8b 1ebe
000000c0: e5c5 ac3e 0203 eebd 92ab 8bbe 73a1 ca3e
000000d0: 795d 12be 2e4e 27be dc07 ea3d d3ad a73c
000000e0: cec1 df3d acaa 5fbc 8725 f8bc a28c 013e
000000f0: 0d3e 603d 547e 83bd a393 8cbd 885d 653e
00000100: 4209 843d 0ae5 d33d c2dc 413d e8ad 4a3e
00000110: dc97 3bbc 7a78 943e 368a a4bd edb9 5dbd
00000120: 953a 923e 4453 a5bc 3a76 51be 9030 03bd
00000130: 63e0 7bbe fe5c f33d 4531 1cbf 68ad d93c
00000140: defa b3bd f121 573e 1ef7 5dbe 68d6 803d
00000150: e0a9 87bd 8329 ef3d 62eb 4bbe b6b4 a43d
00000160: 6436 cdbd 5929 8cbe 02dd 18bd 87ef 5dbe
00000170: 4aa3 44bb 08a6 2abd ebd5 bf3e 2503 86be
00000180: a932 293e 9efb b6bd fca1 80bc 7dc1 403e
00000190: 3e7d c73d 0922 9fbd cfd5 6e3e d56c cf3a
000001a0: 9d3f 8bbd 442b 5cbe b0f5 53bb 3f3c 68be
000001b0: b6b0 053e 6cf0 d1bc f1ae a93e e432 203d
000001c0: 04e1 40bd 3728 49be 29e9 543e 2750 6ebe
000001d0: 3cfe 5c3d 8027 f0bd aca6 cb3d acd4 5fbd
000001e0: 5703 a13e 13f5 f4bd d254 f1bc eaab 9cbe
000001f0: b0c6 4ebc e490 35be e6c1 dcbe 3f8b 283a
00000200: 0279 393e 7a6f 473d 7f97 1e3e 442b 46bc
00000210: 0b81 72be 3300 d639 538d 9bbd 7a58 24be
00000220: 22f4 98bd f4ba bebe d251 73be 1b74 50be
00000230: 792b 403e 8392 66bc 70c8 563e 21d5 b53d
00000240: 4ea4 31be 5126 82bd 0aea 90bc 103b a9bc
00000250: 0686 cbbd 6aac 933d a471 af3b c3b3 703e
00000260: 70aa 293e 9908 1cbe 2937 92be 345c 26be
00000270: 0709 0fbe 7cc8 abbe fc0b a03d 8550 b7be
00000280: 0623 f83d 9f67 34be 9d0d d83e 5339 eb3d
00000290: fc99 bd3d 32ee 8cbe f484 51be c7f9 77bc
000002a0: 72b7 913c b200 f83d 9598 ef3e 4bf2 b2bb
000002b0: 1d81 f3bc d1aa b1bc 38d0 01be 272d 2b3e
000002c0: 0826 28be 941e 863d 0ea2 f8bd 459a a5be
000002d0: 28c2 1fbd 2cb2 cabb 52f5 1a3e 0dd1 94bd
000002e0: f3b3 573e cac2 a93d 56d6 17be 5a27 d2bd
000002f0: 9de5 d7bd 2bf2 e13d 5b17 393e fa61 30be
00000300: 7546 37bd 16e1 a8be c2a7 e9bc 3171 ebbb
00000310: 478c 84bd 13e2 733e 7ce0 d637 eb79 973a
00000320: daed f63d f831 1cbe a287 87bd 9c17 16be
00000330: 6dbd 67be c10f 853e 3365 c63d 1923 79be
00000340: 42e2 b63c 6176 c43e c538 69bd 911d a1be
00000350: 1a94 aebd bf2e 2abe 9eb7 ac3d 133a 973e
00000360: 0670 7bbc 15f5 1fbd bc5c a5bc c981 10bd
00000370: da75 3dbc ec96 c53d 8be5 50be 1654 8abd
00000380: 9615 a4bd 67db a7bd 9f32 dc3d f91f e93e
00000390: ccf8 ab3e 58a4 abbe 3069 86bc 1024 bb3d
000003a0: abfd c0bd 1305 a43e b3ba 88bd 17a0 313d
000003b0: a240 1cbd ce82 85be 40bc ca3d 7afd 7b3d
000003c0: d2d7 bd3e 0d4a 743d 98da 4abe 7ff4 70be
000003d0: 13f1 213d d26b a6be 4d67 9bbd 9566 eb3d
000003e0: fadc 573e e121 393e c7a5 78be 0296 083e
000003f0: 9e6f 22be b1b0 173e e52a d93d 5f75 d43d
0.053913277 0.24700168 -0.22485057 0.3652846 -0.101758115 -0.0031221572 0.07679072 0.28553241
0.015743805 -0.05471952 -0.11113331 0.09142354 -0.050219364 -0.12964162 -0.05025259 -0.28601095
0.0401055 0.24065785 -0.044832416 0.092702486 0.15625937 0.14847173 -0.061704617 0.36110526
-0.049139 -0.15208511 0.13674985 -1.6463091e-05 -0.36813042 -0.024422128 0.5025009 -0.090767615
0.118237905 0.05381523 -0.08749075 -0.17173007 -0.0921775 0.17963128 -0.014356547 0.0040061837
-0.21050845 0.08737145 0.044048395 0.01835059 0.05646462 -4.6119792e-05 -0.06685198 -0.15482728
0.33744732 -0.116216674 -0.27279335 0.395763 -0.1429347 -0.16338417 0.1142728 0.020468628
0.10925637 -0.013651531 -0.030291332 0.12651303 0.054746676 -0.064205796 -0.06864097 0.2239896
0.06447078 0.1034642 0.04732967 0.19792902 -0.01144978 0.28998166 -0.08034174 -0.05413239
0.2856032 -0.020181306 -0.20455256 -0.032028735 -0.24597315 0.11882971 -0.6101268 0.026571944
-0.087880835 0.21009041 -0.21676299 0.06290895 -0.06624198 0.116778396 -0.1991401 0.080422804
-0.1002014 -0.27375296 -0.037320144 -0.21673404 -0.0030004554 -0.041662246 0.37467894 -0.26174274
0.16523232 -0.08934711 -0.01570224 0.1882381 0.09740685 -0.077701636 0.23323749 0.0015825281
-0.06799243 -0.2150088 -0.0032342486 -0.22679232 0.13055691 -0.025627337 0.33141282 0.039111033
-0.04708959 -0.19644247 0.20792069 -0.23272763 0.053953394 -0.11726284 0.099438995 -0.05464618
0.3144786 -0.11960807 -0.02945939 -0.3059991 -0.012620613 -0.17731053 -0.43116683 0.00064294407
0.18112567 0.048690297 0.15487479 -0.012095276 -0.23682038 0.0004081741 -0.07595315 -0.16049376
-0.0746844 -0.3725201 -0.2376168 -0.2035679 0.18766584 -0.014073017 0.20974898 0.08878542
-0.17347834 -0.063549645 -0.017689724 -0.020658046 -0.09937672 0.0721062 0.005354123 0.23506074
0.16568923 -0.15237655 -0.2855771 -0.1624611 -0.13968287 -0.33551395 0.07814786 -0.3580362
0.12116055 -0.17617653 0.42197886 0.11485543 0.09257886 -0.2752548 -0.20460874 -0.015135235
0.017787669 0.121095076 0.46796098 -0.0054610125 -0.029724652 -0.021687897 -0.12677085 0.16716443
-0.16420758 0.06548801 -0.121402845 -0.3234426 -0.03900352 -0.0061857905 0.15132645 -0.07266436
0.21064739 0.08289106 -0.14827856 -0.10261412 -0.10541842 0.11032518 0.18075316 -0.17224875
-0.044744927 -0.32984227 -0.028522376 -0.0071851243 -0.06472068 0.23816709 2.5615322e-05 0.001155672
0.12057085 -0.15253437 -0.06617667 -0.14657444 -0.22630854 0.25988582 0.09687271 -0.24329795
0.022324685 0.38371566 -0.056938905 -0.3146787 -0.08524342 -0.16619395 0.0843346 0.29536495
-0.015346533 -0.039052088 -0.02018582 -0.035280023 -0.0115637425 0.09647927 -0.20400064 -0.06754319
-0.0801193 -0.081961446 0.10751843 0.45532206 0.33588254 -0.33523822 -0.01640758 0.09137738
-0.09423383 0.3203512 -0.06676235 0.043365564 -0.038147576 -0.2607636 0.09899187 0.06152103
0.3707872 0.059640933 -0.1980995 -0.23530768 0.039536547 -0.32504135 -0.075880624 0.11494175
0.2108039 0.1807933 -0.24281989 0.13338473 -0.15862891 0.14813496 0.106038846 0.10373949

fc1.bias f4 [8]
00000000: 1678 963b 5105 343c 29ca 7cbc 466f eebb
00000010: 107c f8bb 18d8 67bb c80a dc3b f501 583c
0.004591952 0.010987596 -0.015429058 -0.0072764484 -0.007583149 -0.0035376605 0.0067151524 0.01318406

fc_1.weight f4 [8, 32]
00000000: 2bd4 5c3d 02ee 7c3e 3a3f 66be 9506 bb3e
00000010: 8f66 d0bd 1b9d 4cbb 7444 9d3d 4e31 923e
00000020: 27f9 803c 9321 60bd dc99 e3bd 443c bb3d
00000030: d2b2 4dbd c6c0 04be a9d5 4dbd 0770 92be
00000040: aa45 243d 036f 763e 32a2 37bd cdda bd3d
00000050: 7502 203e f908 183e fbbd 7cbd cae2 b83e
00000060: fa45 49bd 33bc 1bbe 2708 0c3e 381a 8ab7
00000070: 977b bcbe ea10 c8bc e6a3 003f 5fe4 b9bd
00000080: b726 f23d 5c6d 5c3d 5a2e b3bd 02da 2fbe
00000090: 8fc7 bcbd 43f1 373e b937 6bbc 4e46 833b
000000a0: 878f 57be ceef b23d 176c 343d fa53 963c
000000b0: 7247 673d c070 41b8 b1e9 88bd 0b8b 1ebe
000000c0: e5c5 ac3e 0203 eebd 92ab 8bbe 73a1 ca3e
000000d0: 795d 12be 2e4e 27be dc07 ea3d d3ad a73c
000000e0: cec1 df3d acaa 5fbc 8725 f8bc a28c 013e
000000f0: 0d3e 603d 547e 83bd a393 8cbd 885d 653e
00000100: 4209 843d 0ae5 d33d c2dc 413d e8ad 4a3e
00000110: dc97 3bbc 7a78 943e 368a a4bd edb9 5dbd
00000120: 953a 923e 4453 a5bc 3a76 51be 9030 03bd
00000130: 63e0 7bbe fe5c f33d 4531 1cbf 68ad d93c
00000140: defa b3bd f121 573e 1ef7 5dbe 68d6 803d
00000150: e0a9 87bd 8329 ef3d 62eb 4bbe b6b4 a43d
00000160: 6436 cdbd 5929 8cbe 02dd 18bd 87ef 5dbe
00000170: 4aa3 44bb 08a6 2abd ebd5 bf3e 2503 86be
00000180: a932 293e 9efb b6bd fca1 80bc 7dc1 403e
00000190: 3e7d c73d 0922 9fbd cfd5 6e3e d56c cf3a
000001a0: 9d3f 8bbd 442b 5cbe b0f5 53bb 3f3c 68be
000001b0: b6b0 053e 6cf0 d1bc f1ae a93e e432 203d
000001c0: 04e1 40bd 3728 49be 29e9 543e 2750 6ebe
000001d0: 3cfe 5c3d 8027 f0bd aca6 cb3d acd4 5fbd
000001e0: 5703 a13e 13f5 f4bd d254 f1bc eaab 9cbe
000001f0: b0c6 4ebc e490 35be e6c1 dcbe 3f8b 283a
00000200: 0279 393e 7a6f 473d 7f97 1e3e 442b 46bc
00000210: 0b81 72be 3300 d639 538d 9bbd 7a58 24be
00000220: 22f4 98bd f4ba bebe d251 73be 1b74 50be
00000230: 792b 403e 8392 66bc 70c8 563e 21d5 b53d
00000240: 4ea4 31be 5126 82bd 0aea 90bc 103b a9bc
00000250: 0686 cbbd 6aac 933d a471 af3b c3b3 703e
00000260: 70aa 293e 9908 1cbe 2937 92be 345c 26be
00000270: 0709 0fbe 7cc8 abbe fc0b a03d 8550 b7be
00000280: 0623 f83d 9f67 34be 9d0d d83e 5339 eb3d
00000290: fc99 bd3d 32ee 8cbe f484 51be c7f9 77bc
000002a0: 72b7 913c b200 f83d 9598 ef3e 4bf2 b2bb
000002b0: 1d81 f3bc d1aa b1bc 38d0 01be 272d 2b3e
000002c0: 0826 28be 941e 863d 0ea2 f8bd 459a a5be
000002d0: 28c2 1fbd 2cb2 cabb 52f5 1a3e 0dd1 94bd
000002e0: f3b3 573e cac2 a93d 56d6 17be 5a27 d2bd
000002f0: 9de5 d7bd 2bf2 e13d 5b17 393e fa61 30be
00000300: 7546 37bd 16e1 a8be c2a7 e9bc 3171 ebbb
00000310: 478c 84bd 13e2 733e 7ce0 d637 eb79 973a
00000320: daed f63d f831 1cbe a287 87bd 9c17 16be
00000330: 6dbd 67be c10f 853e 3365 c63d 1923 79be
00000340: 42e2 b63c 6176 c43e c538 69bd 911d a1be
00000350: 1a94 aebd bf2e 2abe 9eb7 ac3d 133a 973e
00000360: 0670 7bbc 15f5 1fbd bc5c a5bc c981 10bd
00000370: da75 3dbc ec96 c53d 8be5 50be 1654 8abd
00000380: 9615 a4bd 67db a7bd 9f32 dc3d f91f e93e
00000390: ccf8 ab3e 58a4 abbe 3069 86bc 1024 bb3d
000003a0: abfd c0bd 1305 a43e b3ba 88bd 17a0 313d
000003b0: a240 1cbd ce82 85be 40bc ca3d 7afd 7b3d
000003c0: d2d7 bd3e 0d4a 743d 98da 4abe 7ff4 70be
000003d0: 13f1 213d d26b a6be 4d67 9bbd 9566 eb3d
000003e0: fadc 573e e121 393e c7a5 78be 0296 083e
000003f0: 9e6f 22be b1b0 173e e52a d93d 5f75 d43d
0.053913277 0.24700168 -0.22485057 0.3652846 -0.101758115 -0.0031221572 0.07679072 0.28553241
0.015743805 -0.05471952 -0.11113331 0.09142354 -0.050219364 -0.12964162 -0.05025259 -0.28601095
0.0401055 0.24065785 -0.044832416 0.092702486 0.15625937 0.14847173 -0.061704617 0.36110526
-0.049139 -0.15208511 0.13674985 -1.6463091e-05 -0.36813042 -0.024422128 0.5025009 -0.090767615
0.118237905 0.05381523 -0.08749075 -0.17173007 -0.0921775 0.17963128 -0.014356547 0.0040061837
-0.21050845 0.08737145 0.044048395 0.01835059 0.05646462 -4.6119792e-05 -0.06685198 -0.15482728
0.33744732 -0.116216674 -0.27279335 0.395763 -0.1429347 -0.16338417 0.1142728 0.020468628
0.10925637 -0.013651531 -0.030291332 0.12651303 0.054746676 -0.064205796 -0.06864097 0.2239896
0.06447078 0.1034642 0.04732967 0.19792902 -0.01144978 0.28998166 -0.08034174 -0.05413239
0.2856032 -0.020181306 -0.20455256 -0.032028735 -0.24597315 0.11882971 -0.6101268 0.026571944
-0.087880835 0.21009041 -0.21676299 0.06290895 -0.06624198 0.116778396 -0.1991401 0.080422804
-0.1002014 -0.27375296 -0.037320144 -0.21673404 -0.0030004554 -0.041662246 0.37467894 -0.26174274
0.16523232 -0.08934711 -0.01570224 0.1882381 0.09740685 -0.077701636 0.23323749 0.0015825281
-0.06799243 -0.2150088 -0.0032342486 -0.22679232 0.13055691 -0.025627337 0.33141282 0.039111033
-0.04708959 -0.19644247 0.20792069 -0.23272763 0.053953394 -0.11726284 0.099438995 -0.05464618
0.3144786 -0.11960807 -0.02945939 -0.3059991 -0.012620613 -0.17731053 -0.43116683 0.00064294407
0.18112567 0.048690297 0.15487479 -0.012095276 -0.23682038 0.0004081741 -0.07595315 -0.16049376
-0.0746844 -0.3725201 -0.2376168 -0.2035679 0.18766584 -0.014073017 0.20974898 0.08878542
-0.17347834 -0.063549645 -0.017689724 -0.020658046 -0.09937672 0.0721062 0.005354123 0.23506074
0.16568923 -0.15237655 -0.2855771 -0.1624611 -0.13968287 -0.33551395 0.07814786 -0.3580362
0.12116055 -0.17617653 0.42197886 0.11485543 0.09257886 -0.2752548 -0.20460874 -0.015135235
0.017787669 0.121095076 0.46796098 -0.0054610125 -0.029724652 -0.021687897 -0.12677085 0.16716443
-0.16420758 0.06548801 -0.121402845 -0.3234426 -0.03900352 -0.0061857905 0.15132645 -0.07266436
0.21064739 0.08289106 -0.14827856 -0.10261412 -0.10541842 0.11032518 0.18075316 -0.17224875
-0.044744927 -0.32984227 -0.028522376 -0.0071851243 -0.06472068 0.23816709 2.5615322e-05 0.001155672
0.12057085 -0.15253437 -0.06617667 -0.14657444 -0.22630854 0.25988582 0.09687271 -0.24329795
0.022324685 0.38371566 -0.056938905 -0.3146787 -0.08524342 -0.16619395 0.0843346 0.29536495
-0.015346533 -0.039052088 -0.02018582 -0.035280023 -0.0115637425 0.09647927 -0.20400064 -0.06754319
-0.0801193 -0.081961446 0.10751843 0.45532206 0.33588254 -0.33523822 -0.01640758 0.09137738
-0.09423383 0.3203512 -0.06676235 0.043365564 -0.038147576 -0.2607636 0.09899187 0.06152103
0.3707872 0.059640933 -0.1980995 -0.23530768 0.039536547 -0.32504135 -0.075880624 0.11494175
0.2108039 0.1807933 -0.24281989 0.13338473 -0.15862891 0.14813496 0.106038846 0.10373949

fc_1.bias f4 [8]
00000000: 1678 963b 5105 343c 29ca 7cbc 466f eebb
00000010: 107c f8bb 18d8 67bb c80a dc3b f501 583c
0.004591952 0.010987596 -0.015429058 -0.0072764484 -0.007583149 -0.0035376605 0.0067151524 0.01318406
