checkpoints/source/epoch=9.checkpoint.pth.tar (torch, 319220 bytes, 10 tensors)

conv1.weight f4 [16, 3, 5, 5]
00000000: 9776 4f3e 6819 273e 30aa 923d 2e09 74be
00000010: 5fea 7d3d 9795 fdbd aeea 09bc 903d 5abe
00000020: e1e8 00be 3995 203e 8772 08bd 4b49 01be
00000030: 753f fbbd c4ee e5bd 1034 bfbd 7f51 d23d
00000040: b846 4f3e 6b07 dbbc 477d b4bd 61d6 863c
00000050: 4f1b 60bd ebe8 0f3e 6a35 b33d 4653 1d3e
00000060: c169 e63d e03d 0d3e 0947 9c3d 8a6f f23d
00000070: 04da 6dbd d774 e5ba e50c d4bc 5fde a63d
00000080: 4b6e 3ebe dfa5 0ebe 76a8 dabc a82c 373e
00000090: cbf5 393d 43dd aebd 4087 c3bc a081 babd
000000a0: 1758 0abe 095b 093e b4bd c4bd cdf2 c1bd
000000b0: f4cd 16be c674 723e 4f8c c3bd 8a7b 27bd
000000c0: 3cc3 cebd 80f7 94bd cacf 503c 5ae3 843d
000000d0: cdf4 7bbd 2ee3 af3d 5290 b8bd 9042 9cbd
000000e0: bbef 13be 16c0 2fbd 3e90 68bd 3bb2 673d
000000f0: 70e9 9dbb 662a 4a3e c035 1fbe 0808 b73d
00000100: ca32 033e 0486 db3d 977c 813e 7999 2c3d
00000110: d05f ae3b abe5 19bd 68a5 b4bd 18b3 1d3e
00000120: 0e60 63bc b342 323d 3af2 25bb c7f2 9d3c
00000130: 8c3a 223d d860 a7bd 00e3 75be 501e b5bd
00000140: c8b3 ecbc 8600 6bbd 7c95 22be 4aec abbd
00000150: 65c9 0a3d f0a2 d73c ccf7 a93d 71a7 09bd
00000160: 9e45 153d 32c9 8cbd 7547 05be bb0b da3c
00000170: cff2 56be e4ae f0bd e9bf de3d 25d4 743c
00000180: 09ed 8ebe a8f2 793c cdaf 403d 6b9a 9ebc
00000190: bfd4 9e3d 85dc 9d3d d737 fe3d 7749 08bd
000001a0: c856 6bbb ece9 aa3d 3f0a 613d cbee e83c
000001b0: ca23 163d 36c8 0d3e 2eef d63b 8428 c6bc
000001c0: a8eb 15be 6c39 1cbc f322 45bd b591 513d
000001d0: e889 963d d966 143b b812 25bd 23a2 7e3d
000001e0: 041c 2cbb 0960 d73c 03b4 8b3c 02da a43d
000001f0: 17b9 f13d 1231 853d a19c da3d 8f84 973d
00000200: 4794 5e3e e2d0 003e 5c25 f0bd 385b a4bd
00000210: 68fb 643c 5281 3f3e e847 b63d 457c a33d
00000220: f545 0b3e 6324 813c 7cd3 24be 0304 ed3d
00000230: bf2e a3bc 91fc ee3d b131 7ebd 76c7 933d
00000240: 37a9 9fbd 0d51 d23d 40b5 2e3e 8ecc 1c3e
00000250: 2729 0d3d e414 14bc 149a aebc c317 413d
00000260: 5c1f d73c 1c2a ab3d 4092 19bd 2aec 303e
00000270: 3c5a 83be 1647 7bbd bd1c 0bbe e739 a43d
00000280: a6cb 62be a5a0 70bb eddd 60bc 75ee 16bd
00000290: 03c4 3e3d b563 bebd 4fcd fd3a 6829 dcbd
000002a0: e82b 11be 1b27 3a3e bbe5 0b3e 6e25 9d3a
000002b0: 9d04 11be 7735 e73d a641 0a3e bc65 843e
000002c0: 1db0 323d 6350 073c 2ead bdbd 1d25 8ebc
000002d0: baf8 8fbd 2e18 23be 7fad 02be c3cc 86bd
000002e0: 889e 5cbd e2c9 30be 8ca9 5cbe c1db 593b
000002f0: 0d4c d03d 38a6 0cbd 2158 703d eedc 723d
00000300: 1b1f 343e 2d00 a4bd d030 0d3e f937 86bc
00000310: e1ac efbd 4b67 283d ed20 9c3d 5d11 3c3e
00000320: 84db cd3d 2f42 753e 0e98 5abd 22f0 cdbd
00000330: 8f66 d73c 3d90 fd3d 7802 fd3d ff7d f63c
00000340: 694c bfbd 60a0 cebd e1ff 88bd 8999 a2bd
00000350: a3ad e53b fcac 2f3d 78bb be3a 03d7 75be
00000360: 2dc4 54bd 14a3 cd3d 03e2 33be 1e2e 343e
00000370: 0ffc 473d 9e3b 61bd 38b4 c13d 9cb6 363e
00000380: df16 c53c 7887 3c3e 6676 123d 571c d5bd
00000390: f0a6 aabd 9390 16bd b8e7 6b3d 3b78 683e
000003a0: 1d56 ab3a bd34 fdbd 42b0 82be 0ea8 d2bd
000003b0: 6742 ba3c 7a6d 873c 2fab 8ebb 0088 84bc
000003c0: 1619 c3bd c6d3 263d c70d 18bd 4f01 243d
000003d0: 13a8 0abe 4a59 b6bb 7b00 98bc 30e9 203e
000003e0: ad10 ea3d 677c f5bd e292 ca3d bf1c 8d3d
000003f0: 3ccc 5b3d fc5f fd3c 4896 0c3c da3d 173d
0.20260082 0.16318285 0.07161367 -0.23831627 0.06199109 -0.123820476 -0.008417768 -0.21312547
-0.12588836 0.15681924 -0.033312347 -0.12625615 -0.12267963 -0.112271816 -0.09336102 0.102694504
0.20241821 -0.026736936 -0.08812957 0.016459646 -0.054713544 0.14053695 0.08750422 0.15363798
0.1125064 0.13793135 0.076307364 0.11837681 -0.058069244 -0.0017506134 -0.025885055 0.08147883
-0.18596761 -0.13930462 -0.026691657 0.17888129 0.045400422 -0.08538296 -0.023868203 -0.09106755
-0.13510166 0.13413633 -0.096064955 -0.09470139 -0.14727002 0.23677358 -0.09548246 -0.0408893
-0.10095832 -0.072737694 0.012744853 0.06488676 -0.061512757 0.08588253 -0.09011902 -0.07629883
-0.14446919 -0.042907797 -0.056778185 0.05656646 -0.0048190877 0.19742736 -0.15547848 0.08937079
0.12812343 0.10718921 0.25290367 0.04213855 0.0053214803 -0.037572544 -0.08820611 0.1540035
-0.013877882 0.04352064 -0.002532138 0.019280804 0.039606616 -0.08172768 -0.24012375 -0.08843672
-0.02889432 -0.057373546 -0.15877336 -0.08394678 0.03388347 0.026322812 0.08299217 -0.03360695
0.036443345 -0.068743125 -0.1301554 0.026616922 -0.20991062 -0.11752108 0.10876448 0.014943157
-0.27915218 0.015255608 0.047042657 -0.019360742 0.07755422 0.077080764 0.12412994 -0.033273187
-0.003590988 0.08345398 0.054941412 0.028434178 0.036655225 0.13845906 0.006559274 -0.024189241
-0.14640677 -0.009535175 -0.048129033 0.051164348 0.07350522 0.002264431 -0.040301055 0.062166344
-0.0026261816 0.02629091 0.01705361 0.08049394 0.11802881 0.065035 0.10674406 0.073983304
0.21736251 0.12579682 -0.11725876 -0.08025211 0.013975956 0.18701676 0.08900434 0.07982687
0.13600905 0.01576442 -0.160963 0.11573031 -0.019919751 0.11669267 -0.06205911 0.072157785
-0.07795947 0.102693655 0.17061329 0.15312406 0.034463074 -0.009038184 -0.021313705 0.0471418
0.02626007 0.08357641 -0.03749299 0.1727759 -0.2565478 -0.06134709 -0.13585182 0.080188565
-0.22147998 -0.0036716845 -0.013724786 -0.036848504 0.04657365 -0.09296361 0.0019363555 -0.10750085
-0.14176905 0.1817898 0.13661854 0.0011989304 -0.14161916 0.112894945 0.13501605 0.25858867
0.043624986 0.008258912 -0.09261547 -0.017351681 -0.07029863 -0.15927193 -0.12761496 -0.06582024
-0.053862125 -0.17264512 -0.21549052 0.0033242556 0.101707555 -0.034338206 0.058677796 0.059292726
0.17589991 -0.08007846 0.13788152 -0.016384112 -0.11702896 0.041114133 0.076234676 0.18365999
0.10051635 0.23951028 -0.053367667 -0.10055567 0.026294021 0.12381027 0.123539865 0.030089376
-0.09340746 -0.10089183 -0.0668943 -0.07939441 0.0070092245 0.04288958 0.001455172 -0.24007802
-0.0519449 0.1004087 -0.17566685 0.17595717 0.048824366 -0.054988496 0.09458202 0.17843097
0.024058757 0.18411052 0.035757445 -0.10405796 -0.08332622 -0.03675897 0.05759403 0.22702114
0.0013071928 -0.12363575 -0.255251 -0.1028596 0.022736741 0.016531695 -0.004353903 -0.016178131
-0.09526269 0.040729307 -0.037122514 0.04004031 -0.13540678 -0.0055648433 -0.018554917 0.15713954
0.11428962 -0.119866185 0.09891297 0.068902485 0.05366157 0.030929558 0.008580752 0.03692422

conv1.bias f4 [16]
00000000: 9a8b 87bd f107 1a3d 2e3c 57bd b4cb 1bbd
00000010: 7791 42bd bc88 84bd 119f 493c b616 a3bc
00000020: ed97 01bd 45c7 663d 6e60 a13c 0472 f63c
00000030: c1db 84bb 7493 abbb ca3d 4abd 7d07 433c
-0.06618424 0.03760523 -0.052547626 -0.038036063 -0.047502007 -0.064713925 0.012305991 -0.01990829
-0.03163903 0.056342382 0.019699302 0.030083664 -0.004054517 -0.0052360836 -0.049375333 0.011903641

conv2.weight f4 [64, 16, 5, 5]
00000000: 4fe3 983c 0ebe d43b a3d6 373c 3f4e c63d
00000010: ab3f 833d dedf 973b 3edb 96bb d4ac 933c
00000020: aabe c53b 8890 89bc 166b 2e3c dfe9 cc3d
00000030: 048c 63bd bd99 963c b231 9a3d 12f2 973b
00000040: 9462 0b3d 6969 943d 8d96 d13d 763d 713d
00000050: d400 aabb 0f4b 8e3d f873 0b3d c800 9b3c
00000060: e0c7 4abd 0239 b13c d8df febc c0e6 adbc
00000070: f9f8 cabc e28b e23c f7bc 24bd 84ec d3bc
00000080: 3e4b d73a 5d79 4fbd 28c1 66bd de67 b8bc
00000090: 7295 eebb 48d1 8fbd c46b 063d db6c bbbd
000000a0: 8a90 443d b105 2bbc 2e09 6cbd 9cfc ab3c
000000b0: fdd0 33bd 9fcf abbc 9338 633c 24bc 183d
000000c0: 05cb d6bc 046e 7db9 69dc a1bc 9c8b c33b
000000d0: 12f9 08bd 2a7e 8e3d ac0e 1c3d 7076 b43c
000000e0: 5e8a e8bb 5bcc d6bb 5334 a9bc 5d19 00bc
000000f0: 6ed3 50bc d75b 23bc 9aad f33c 16e6 cf3d
00000100: c13a 82bd 2867 6bbb 9de8 063d c9c8 8e3d
00000110: 2974 5a3d e65a 193d 7bd8 96bc 79a6 d2bc
00000120: b864 0a3e f7da 13bd dfab e53c 03bd 48bd
00000130: aa20 42bc 2c60 2abb 7835 15bc 97d8 2dbc
00000140: ffbe bfbb 7066 093c 231b fd3c ad09 d63c
00000150: f088 383d 545a 3ebc 0e2a bb3d ded1 273b
00000160: 051a 203c 98d9 adbb d251 223c b46a 6fb9
00000170: 1231 cb3c dd9b bb3d be91 13bd ebf7 e3bb
00000180: 8caf ee3c ed7e 9c3c 3049 633d 10ba 803d
00000190: c202 1ebd 81b3 c3bb 999f a6bc 3689 623d
000001a0: 7faa 033d 338d c6bc 8406 4abd 7a76 a43c
000001b0: 45bc 813c 184b 853c 4e84 29bd 5fcf 18bd
000001c0: 00ee f43c 4cba 23bd e665 b9bd ef8d 07bd
000001d0: f25c 393d 0d7d 733d 59d6 9a3c 8a38 853d
000001e0: 9bb4 693d 98ff e43b 22ba 293c 0607 d93c
000001f0: 489c 9f3c a388 c23b 19dd 1abd bd25 79bc
00000200: 0632 a43c be86 cfbc 5d81 e43c 7e6b 953c
00000210: 1c14 79bd b44d 4e3d 52d8 29bc 6687 63bc
00000220: d583 983b fe47 b53c 8fe6 283d dfca 563d
00000230: 08b5 ae3d 4139 f13d b4b2 fe3c a497 b3bb
00000240: 6a6d 383c 3211 d4bc d235 363d 517c 11bd
00000250: a97f 5f3d 0b98 8f3d 179d 24bd f61c 9bbc
00000260: ade2 86bc 93ad 463c 006f ca3b 51fb 9fbb
00000270: a2e4 713c aca0 abbc bc36 50bc da68 d53c
00000280: d649 a23c c8d3 3d3d ef68 a8bc be9c 4e3d
00000290: 4533 bfbc 3574 d13c 4a9e 783c e4e7 eabb
000002a0: 3705 a13a 7cc9 2c3c ea86 83bc f6ef 19bc
000002b0: e376 843d e189 a73c 7281 a5bb f94b 10bd
000002c0: c9a9 b73d 1e93 21bd c4ff 8e3d 3045 85bc
000002d0: e2a8 7cbd e806 74bb 0202 46bd 284f 0b3b
000002e0: a45d 40bc 3d12 2c3a be10 2a3d 852c 4ebd
000002f0: 131d 0d3d df89 2aba 981f c43d 3296 493c
00000300: a013 8dbc 9758 613d 35c1 6fbc 3f7c 06bc
00000310: 89ea b33d 89ef 4e3c c4a9 0d3d cb3a a53c
00000320: 0697 633d 700b 473c eaf5 4b3d c48c ab3c
00000330: c7e7 973d 2ebc 2b3d ab88 a03b aafa 0e3c
00000340: a9ee 743c 6ab2 b7bc 1e3b 37bd ef7e 58bc
00000350: 2448 43bd 8ee2 163c 91db 30bd 8263 1f3d
00000360: 2a92 353d 3a78 dbb9 80a9 9e3b fce9 0ebd
00000370: 50e5 a43c b6d0 173c 9bfa a53c 9d30 a33d
00000380: 8ec5 01bd 4e7d ca3b ca4b 163d 0820 6ebd
00000390: 7774 a43b 5940 ad3c c361 a43d 5940 3dbd
000003a0: 723b a3bd 9bc2 1ebc 10be e33b 64c1 6fbc
000003b0: b141 81bd c635 72bd c30f 633d d6d9 b5bd
000003c0: 0f7b b13c cd1b 2cbd 93fb 7dbd 09c2 ab3b
000003d0: 8b82 baba 1407 1d3d 28f3 80bd efe0 323d
000003e0: 7194 c73c fe1c 083d a08c de3b 3579 903c
000003f0: cdd6 fd3a 1c89 1bbc abc4 febc 365d 3e3d
0.018663077 0.006492383 0.011220607 0.09682893 0.06408628 0.0046348413 -0.0046037724 0.018026747
0.006034692 -0.01679255 0.010645648 0.10005545 -0.05555345 0.018383855 0.0752901 0.0046370113
0.03402956 0.07246668 0.102337934 0.058896504 -0.005188087 0.0694791 0.034046143 0.018921271
-0.049507022 0.021633629 -0.031112596 -0.021228194 -0.024776923 0.027654592 -0.040219273 -0.025869615
0.0016425622 -0.05065285 -0.056336552 -0.022510465 -0.007280999 -0.07022339 0.032817617 -0.09151622
0.047989406 -0.010438369 -0.057625942 0.020994477 -0.04390048 -0.020973025 0.013868469 0.0372888
-0.026219854 -0.00024168944 -0.01975842 0.0059675705 -0.033440657 0.06957658 0.03809993 0.022029132
-0.007096573 -0.006555123 -0.020654833 -0.007818547 -0.012745721 -0.009970627 0.029745866 0.10151307
-0.06358863 -0.003591964 0.03293668 0.069718905 0.053333435 0.037440203 -0.018413773 -0.025714146
0.13514984 -0.036097493 0.028036056 -0.04900838 -0.011848608 -0.0025997264 -0.009106986 -0.010610721
-0.005851626 0.008386239 0.030896729 0.02612766 0.04505247 -0.011618216 0.09138881 0.0025607268
0.009771829 -0.00530548 0.009907203 -0.00022832566 0.024803672 0.09160588 -0.036027662 -0.0069570444
0.029136442 0.019103492 0.05548972 0.062854886 -0.03857685 -0.0059723263 -0.020339774 0.055306636
0.03214502 -0.02423725 -0.04932262 0.020076025 0.015836844 0.016271159 -0.04138594 -0.03730714
0.029898643 -0.03997259 -0.09052639 -0.033094343 0.045254655 0.05944543 0.018901037 0.065049246
0.057057004 0.006988477 0.010359319 0.026492607 0.0194837 0.0059366985 -0.03780851 -0.015206751
0.020043384 -0.025332805 0.027893716 0.018239733 -0.060810193 0.050367072 -0.010366516 -0.013887262
0.0046543875 0.022129055 0.041235503 0.052439567 0.08530623 0.117784984 0.031091072 -0.0054807235
0.011256555 -0.025887106 0.04448492 -0.035518948 0.054565106 0.07011422 -0.040188875 -0.018934708
-0.01646551 0.012126344 0.006177783 -0.004882254 0.014763983 -0.020950638 -0.012708362 0.026050974
0.019810598 0.04634455 -0.020557849 0.05044245 -0.023339877 0.025568107 0.015174458 -0.007168757
0.0012284879 0.0105460845 -0.016055543 -0.00939559 0.06467988 0.020451488 -0.0050508315 -0.035228703
0.08967931 -0.039446943 0.06982377 -0.016268343 -0.061684497 -0.0037235562 -0.04834176 0.0021256898
-0.011741076 0.0006563997 0.041519873 -0.050335426 0.034451555 -0.000650553 0.095763385 0.012303876
-0.017221272 0.055016126 -0.0146334665 -0.0082083335 0.087849684 0.012630352 0.03458573 0.020169636
0.05556395 0.012148723 0.04979507 0.020941146 0.07417255 0.04192751 0.0048991046 0.008726755
0.014949479 -0.022423942 -0.044734113 -0.013213857 -0.04767622 0.009209288 -0.043178145 0.038913257
0.044328846 -0.0004186051 0.0048419833 -0.034891114 0.020128876 0.009266069 0.0202611 0.079682566
-0.031682543 0.0061794883 0.03669337 -0.058136016 0.0050187665 0.021148847 0.08026459 -0.046203945
-0.07970323 -0.009689952 0.0069501474 -0.01463351 -0.06311358 -0.059133314 0.055434953 -0.088794395
0.021665124 -0.0420187 -0.062007498 0.0052416367 -0.0014229579 0.03833683 -0.062963784 0.043671545
0.024362775 0.033230774 0.006791666 0.017635921 0.0019366384 -0.009493139 -0.031099638 0.04647561

conv2.bias f4 [64]
00000000: 041d 47bd 0aea 413b 766d 973c a54d f5bc
00000010: ec2a a6bc 9a3a 96bc 0698 643c 097b e5bc
00000020: dbe6 13bb 2d54 093d 807b 26bd e2c8 2abc
00000030: 42fc 34bd 3239 083d 3fc8 a1bc c9e5 d7ba
00000040: 7e18 aabc c5b9 a0bc 1d3b a8bc fe0c 70bc
00000050: 099b 38bd ad75 21bb 47a5 40bc 5b49 62bc
00000060: ac25 ebbb fe8c 59bc dd69 07bc 49c0 44bd
00000070: fb05 443d 7c3c 31ba 440e 2a3b 9cf2 91ba
00000080: f8d9 5c3d d4c0 48bb 0264 d3bb 5f58 1f3d
00000090: 92b4 f4bc 43fa bfbc 44a4 e33c 4cd6 ed3c
000000a0: 7b5e a8bb 5e41 483d 1a56 0bbc c7e3 f3bc
000000b0: 284c 953c 4491 00ba d5a2 5dbd 94df 54bc
000000c0: 8f75 d838 65b1 3dbd 61f0 04bc 51dc f33c
000000d0: ae97 5a3d 6f31 ddbc 2bfe 40bc 14e1 94bc
000000e0: dffb ffbc 8cf8 f83c 8b2e dabc 73d1 813c
000000f0: 4c51 d9bb 3180 933d ceb5 98bb 8b07 033d
-0.048611656 0.002958896 0.018484812 -0.02994425 -0.020284139 -0.01833849 0.013952261 -0.02801277
-0.002256802 0.033527542 -0.040645123 -0.010423871 -0.044185884 0.03325767 -0.019748805 -0.001647168
-0.020763632 -0.019619832 -0.020536 -0.014651535 -0.045069728 -0.002463679 -0.011758155 -0.013811435
-0.0071761217 -0.013278244 -0.008264986 -0.04803494 0.047857266 -0.0006761027 0.0025948444 -0.0011134925
0.05391881 -0.0030632513 -0.006451131 0.038902637 -0.029871259 -0.023434764 0.027788289 0.029032849
-0.005138216 0.048890464 -0.008504415 -0.029771699 0.01822479 -0.0004904459 -0.054110367 -0.012992758
0.000103215796 -0.046311755 -0.008113951 0.029768141 0.05336731 -0.02700111 -0.011779348 -0.018173732
-0.031248031 0.030391954 -0.026633522 0.015846943 -0.006632006 0.07202185 -0.0046603447 0.031989615

conv3.weight f4 [32, 64, 5, 5]
00000000: 80cc 0e3c ebfe ad3b ae14 a33a e6ac acbb
00000010: 648a 58bb cca1 a93b 98d6 8c3b 3458 9cba
00000020: 4211 59bb d06d a7bb e19a ce3c 985c 5bbc
00000030: 1265 eb3c 632b 363b 3797 c23c c721 9d3c
00000040: 37e3 333b 27c0 ca3c 6a4a d63c 844f 89bc
00000050: 60e6 53bc 5f3e 4f3c 4005 1c3c e224 793d
00000060: cf7f bd3b c5d8 c73b f629 2b3b 1224 69bc
00000070: 0d0e 43bc 9e43 01b9 33d3 9c3a 3699 e3bb
00000080: 698b e9bb 5cab 69bc 01ac 27ba 7107 923c
00000090: cd4a 133b 7583 e13b f941 d7bb 3379 4e3d
000000a0: 935e d0bc 616f 37bc 441d 023d acd1 0d3c
000000b0: 95f9 8c3c b140 6bbb 86b0 9ebc ed9e e0bb
000000c0: 0110 f73c 339d 9b3c dcc1 03bc 0567 efbb
000000d0: be89 eabb df1a 17bc 99df c43a 569b b63b
000000e0: c11a 983a d443 13bc eb68 42bc df8c d1b9
000000f0: 6909 e8bc 6b16 943c 8842 713c ea73 9a3c
00000100: 41da d13a e8b4 30bc 21ac 61bb d855 bfbc
00000110: 292d 173b 193a 1c3d 558d cabc dc71 2b3c
00000120: 098a a0bc e9d2 cdbc b92a 3b3d f479 15bc
00000130: a919 d3bb 2c78 43bc 0f0e abbb f5b3 39bb
00000140: 0ddf 04bc 42c0 923b 708b 4bbc f4ee 82bb
00000150: 49cf acba 236e 98bc 0448 97bc 4c6d 0ebc
00000160: 01e1 a83c 3e16 173d a42f 073a dfb0 3fbc
00000170: 1b41 bd3c 0c7d 483c b8df 8ebb d471 2cbc
00000180: bd05 92bc 323a 1bbd 9a93 303c e2a8 b8bc
00000190: 4eb9 cf3a 3bc0 9fbb 53f5 33bc a3b0 45bc
000001a0: 102c 67ba 1610 db3b 436a 2abc 8905 2d3b
000001b0: 7616 0cbb 2381 8fba c1e5 2d3c f1d0 37bc
000001c0: 064b 7b3c 9bd4 61bb 3134 233c bb60 f6bb
000001d0: e202 6ebd f7f3 353c aeda 1fbb f66b 21bc
000001e0: f6da 00bd cdb5 7bbc 56d0 593a 0732 033d
000001f0: e238 de3c 9e64 daba 9a17 aabb 7a54 36bb
00000200: 45a9 0bbb 48d2 eaba 8734 523b 2002 313c
00000210: 5c89 d7bb f10e 20bb 98b9 8fba fb00 783a
00000220: 29e8 e93c 470b d1bc 203a 2f3d f017 fd3b
00000230: 8674 02bd 11a2 4c3c 1c8c 03bd 7c26 04bc
00000240: d0b1 8d3c 6de3 09bc 68c9 8dbc f037 44bb
00000250: e925 bc3c 332e 083d 337b 33bc daa1 753a
00000260: c406 57bb da5f 503a 9449 13bc d271 4fb9
00000270: 32e0 033b a3bf 1dbc b015 b13b 789e afbb
00000280: 8bba 333d 316f 1cbc c8d9 1d3c aa8c e03c
00000290: e5d1 1a3d 9b4b 2abc 185a 173d b859 ac3c
000002a0: bb0a 3dbb 4e2d d9bc 20be 77bc 5453 383c
000002b0: 6465 14bd 646b 4cbc a6a7 20bd d5a6 73ba
000002c0: 77d9 d53a c7c5 10bc f8b4 4fbb e0be 26bb
000002d0: ff2a 413b 0bb8 313b 9f6c a63b 9e33 683b
000002e0: ebd8 82bb 1c02 0e3c 9f1f 84bc 841f 23bb
000002f0: 3d08 5f3b c293 c6bb 5cb2 ba3c 710c 4ebc
00000300: fbf3 293c 399c f13b b1fb 87bc 4046 c6bc
00000310: 99f5 133c b9df 913c 9982 843b 1a44 18bd
00000320: cd02 f53a 6c63 84ba 1d9e dfbb 2457 dcbb
00000330: 6a85 eab9 b726 bc3a ac41 263b 003d 9035
00000340: 7d41 47bc 8fc2 3bbb 0f18 2dbc 5d22 ca3c
00000350: c0c4 3ebb 00fc 5f3a c6c7 1d3d 50d0 3039
00000360: 4dee 013d 7214 0d3b 7158 843b 0404 c53b
00000370: b243 8e3b cc98 d0bc 4445 983c 2407 9cbc
00000380: 32c6 ba3c ab7d 6fbb 244a e5bb 78c2 ab39
00000390: 0b5f 49bc be49 8fba 718a a1bb db9a d7ba
000003a0: 5d84 2abc 6757 17bc 98b8 0bbb 87ce cd3c
000003b0: a48a b1bc 4ca0 e33c 0a12 fe3b f460 6a3c
000003c0: c6c0 99b9 ff88 9abc bd68 38bc c95a a33c
000003d0: fcff 09ba 8079 73bc de1e b4bc a81b 2f3b
000003e0: eef4 0dbd ea15 bb3c 619b 143c 41c9 4f3c
000003f0: 9a75 20bc fce2 bbba 641a 80bb 3dbd 0e3c
0.008715749 0.0053099296 0.0012442076 -0.0052696345 -0.0033041472 0.0051767584 0.0042980425 -0.0011928142
-0.0033121859 -0.005109526 0.025220336 -0.013388775 0.028734718 0.0027796857 0.023753745 0.019181145
0.0027448663 0.024749829 0.02615853 -0.016761549 -0.012933344 0.012649148 0.009522736 0.06082619
0.0057830582 0.006098839 0.002611754 -0.014229791 -0.011905205 -0.00012327588 0.0011964798 -0.0069457544
-0.0071272147 -0.014262047 -0.0006396175 0.017825814 0.0022475005 0.006882126 -0.006569144 0.050408553
-0.025435722 -0.011195988 0.03176619 0.008655947 0.017208854 -0.0035896713 -0.019371282 -0.006854883
0.030158998 0.018995857 -0.008041825 -0.007305982 -0.0071575334 -0.009222715 0.001502025 0.0055727167
0.0011604653 -0.008988339 -0.011865835 -0.00039968544 -0.0283248 0.018077096 0.014725335 0.0188541
0.0016010479 -0.010785319 -0.0034434872 -0.023356363 0.002306769 0.038141344 -0.024725595 0.010464158
-0.01959707 -0.025124984 0.04569504 -0.009123314 -0.006442268 -0.011930507 -0.005220182 -0.0028336023
-0.00810982 0.0044784853 -0.012423381 -0.0039957706 -0.0013184334 -0.018607205 -0.018466957 -0.008693051
0.020615103 0.036886446 0.00051569403 -0.011699884 0.023102334 0.012236845 -0.0043601654 -0.010525186
-0.017825002 -0.037897296 0.010777378 -0.022541467 0.0015848072 -0.0048752106 -0.010983783 -0.012066039
-0.00088185165 0.006685267 -0.010401311 0.0026401004 -0.0021375692 -0.001094852 0.01061386 -0.011219249
0.015337711 -0.0034458998 0.009961174 -0.0075188554 -0.058108218 0.011105529 -0.0024391818 -0.0098524
-0.031458817 -0.015363169 0.00083089375 0.03203013 0.027126733 -0.0016662066 -0.005190802 -0.0027821348
-0.002131061 -0.0017915452 0.0032074766 0.010803729 -0.006577654 -0.0024422968 -0.0010965345 0.00094605953
0.028553085 -0.025518073 0.04278004 0.007723801 -0.031849407 0.0124898115 -0.03211604 -0.008065816
0.017296702 -0.008416039 -0.017307952 -0.0029940568 0.022967296 0.033247184 -0.010954666 0.0009370126
-0.003281043 0.00079488533 -0.00898971 -0.0001978346 0.0020122644 -0.009628209 0.0054041967 -0.005359467
0.043879073 -0.0095479945 0.009634443 0.027410824 0.037797827 -0.010394002 0.036951154 0.021038875
-0.0028845507 -0.02651086 -0.015121013 0.011250336 -0.036229506 -0.012476776 -0.039222382 -0.0009294574
0.001631542 -0.008836216 -0.003169356 -0.002544336 0.002947509 0.0027117755 0.0050788666 0.0035431157
-0.003993144 0.008667495 -0.01612836 -0.002489061 0.003403201 -0.0060600946 0.022790127 -0.012576208
0.010373111 0.0073733595 -0.016599508 -0.02420342 0.009030723 0.017806875 0.0040438888 -0.03717432
0.0018692851 -0.0010100431 -0.0068242685 -0.006724255 -0.0004473136 0.00143548 0.0025368733 1.0746589e-06
-0.01216161 -0.0028649902 -0.010564818 0.024674589 -0.0029108971 0.0008544326 0.038520597 0.0001686227
0.031721402 0.002152708 0.0040388633 0.0060124416 0.004341566 -0.025463484 0.018587716 -0.019046374
0.022799585 -0.003654341 -0.0069973636 0.00032760552 -0.012290726 -0.0010932011 -0.0049298336 -0.0016449349
-0.010407534 -0.009237147 -0.0021319743 0.025122894 -0.021672554 0.027786396 0.0077536153 0.014305342
-0.00029326061 -0.018864153 -0.01125544 0.01994075 -0.000526428 -0.014860511 -0.021987375 0.0026719365
-0.03465741 0.022837598 0.009070248 0.01268226 -0.009793663 -0.0014334614 -0.003909396 0.00871211

conv3.bias f4 [32]
00000000: e030 c3bc 8ff4 4cba 6b4e c4bc 42ce ae3b
00000010: ff0d 203c 79e1 c2bb e44c 50bb b7c6 3abb
00000020: 9f8d fcbc a339 ed3c 811c b1bb e7ed 123d
00000030: 4091 f4ba 3dc4 9abc ee61 a63c 2def 13bd
00000040: a022 453d 3db5 793c 6b2b 7ebc 8531 5d3c
00000050: d4d9 faba 68ba c2bc 66de 6cbb e33c c53c
00000060: 7fae 9bbb a10f fa3c 7309 48bb 9168 633d
00000070: 1f22 a6bc 83a8 df3c 3a5b 9ebb c290 573d
-0.023827016 -0.00078184245 -0.023963174 0.0053346464 0.009768962 -0.0059472886 -0.0031784112 -0.002849979
-0.030829249 0.028958147 -0.0054050093 0.035871413 -0.001865901 -0.018892402 0.020310368 -0.036116768
0.048128724 0.0152409645 -0.015513281 0.013500576 -0.0019138404 -0.023770526 -0.0036143302 0.024076885
-0.004751026 0.03052503 -0.003052321 0.055519644 -0.020279942 0.027302032 -0.0048326524 0.052628286

fc1.weight f4 [8, 32]
00000000: dbff 5e3d 9cf5 873e afe0 81be 2d27 c23e
00000010: 4aa1 02be c138 1ebc 2335 d53c 292e 383e
00000020: c60c 823c 74e7 43bd 2ac6 adbd f9f5 f73d
00000030: ab17 6dbd e851 0ebe fcf0 5dbd 51a0 a1be
00000040: aca5 7a3c 9f55 763e 30cf 2fbd c647 e13d
00000050: 6056 933d 0ca8 213e 64aa 24bc 6ffd b73e
00000060: 61ec 95bc 5969 0ebe c15a 7a3d c2e5 983c
00000070: 09c0 c8be b580 983b d0a4 eb3e e44c 9bbd
00000080: 656a f33d 1047 833d 2955 c1bd 789a 39be
00000090: 9158 b3bd 955e 313e 58e8 d3b9 c4f8 ce37
000000a0: 7d2e 63be 7539 d13d c797 063d 1537 133d
000000b0: 5300 563d ed8d d1bb ab4b 9abd d9d5 2bbe
000000c0: 2c7a b33e c6cf e4bd 360e 90be 713e d53e
000000d0: 33a7 58bd 1491 23be 98d1 193d 6249 963c
000000e0: c0ea 753d 9fcf debb 12f2 21bb f974 133e
000000f0: d1e4 533d e2b5 79bd 8ba4 7fbd 1a1a 7a3e
00000100: 4815 773d 9207 e03d e833 463d f99e 4b3e
00000110: 4384 07bc 7cf5 983e e267 a8bc 1c27 cabb
00000120: 245a 9c3e 199c f9bc f3d9 35be b800 30bd
00000130: 3889 84be ebe9 ff3d 0264 23bf b849 0d3d
00000140: fac6 edbd acc5 463e 51e0 64be 5d9b 843d
00000150: 4583 39bc d9d0 f03d 087f e5bd c228 7c3d
00000160: 2997 9abd 921f 9cbe a021 13bb 95cb 82be
00000170: 16de 143c b200 47bd a473 993e fc53 8fbe
00000180: d304 303e 04a4 bdbd e4ce cabc 1043 4d3e
00000190: 6804 e13d bd49 8cbd f7d4 fc3d d075 8c34
000001a0: c535 87bd d90f 57be 9a42 3cbb 761b 55be
000001b0: 8f8b 0d3e 5864 6cbc dd66 af3e 7a2d 283d
000001c0: 984a 1fbd 5a19 43be 6f3a 663e 6d8c 65be
000001d0: b79f cd3b 3e8b ddbd 1f73 1b3d 4a20 94bd
000001e0: f904 643e 8e2e 0fbe e3b9 f3ba b2c2 a5be
000001f0: 588a a83a fcca 36be 9310 bfbe cf47 0b3d
00000200: 13cf 473e 1530 593d 6593 373e 7a8b 11bd
00000210: 07a7 78be 8634 373b 72ca a5bc c74f a2bd
00000220: 4a79 9fbd 6aa7 c6be 5b4f 54be 9a01 7abe
00000230: 1c21 623e 2f9d 4ebc 5d7c 693e 7757 e93d
00000240: 5702 4bbe f883 b4bd 8b0b 6bbb 1510 dfbc
00000250: 2688 00bd 6975 9a3d f4f4 093b 856b 803e
00000260: d46d ee3d a9cb 23be 2c40 31be 106e 44be
00000270: 4a6c 0ebe 05c7 c4be 9109 953d d95f ccbe
00000280: e095 e73d 18d5 2ebe 7bc9 d13e ff12 b93d
00000290: 69f9 ad3d 0265 91be 1e9b cfbd 1d85 25bb
000002a0: 9a3e 993b c29b 0a3e 51ad e63e d57e fb3c
000002b0: 40f3 f0bc 7bc7 bcbc d7e9 08be 1572 1a3e
000002c0: d4ac 1fbe c95b ba3d c557 00be 2fd6 a3be
000002d0: d2d3 fbbb 03dd 94ba a3ff e43d 796f 83bd
000002e0: f962 473e fde5 d33d 0f2f 96bd df84 84bd
000002f0: 8cb0 e0bd 57cd 083e ae17 303e 55ac 1bbe
00000300: 1205 4fbd 795b b2be 2035 c7bc f035 a2bc
00000310: 8772 8fbd e2b7 6d3e 5ebb 7832 ed1c 8936
00000320: c4c3 ef3d 37ee 1fbe 4ec8 69bd ca14 27be
00000330: bd9e 68be bbc8 883e dbe6 e13d d597 76be
00000340: 172f 8b3c 4b37 c03e e2f9 5abd 54ec adbe
00000350: db33 9bbc c721 30be 491c a03c b341 9a3e
00000360: e3d2 47bc 452e 00bd edda 11ba 9113 cebc
00000370: 9276 63bc 4407 c83d 76f6 28be 42fd 8abd
00000380: 1111 cfbd 7fa8 d5bd 91c8 f73d 9d4f e83e
00000390: 872a af3e 89ad aabe b03d cdb9 54fa cd3c
000003a0: fb9c c1bd 8596 a13e d9f1 77bd b51d 113c
000003b0: 094f 5ebd 0073 8ebe 52ae c43d a74a a03d
000003c0: 2969 c23e e08d 1c3d c6cb 54be fe1f 7fbe
000003d0: 7769 de3b 460a b2be 15ea 24bd 151b c43d
000003e0: 2176 263e a98a 463e 2c9b 05be dc17 0d3e
000003f0: abff 1cbe ba84 103e 08c9 903d a32b ad3d
0.05444322 0.26554573 -0.25366732 0.37920514 -0.1275684 -0.009657086 0.026026314 0.17986359
0.015875231 -0.047828153 -0.084850624 0.121074624 -0.0578839 -0.13898432 -0.0541849 -0.31567624
0.015298288 0.240561 -0.0429222 0.11000018 0.07194209 0.15786761 -0.01005039 0.35935542
-0.01830119 -0.13907374 0.061121706 0.018664245 -0.3920901 0.004654015 0.4602418 -0.07583025
0.118855275 0.064100385 -0.09440071 -0.18125331 -0.08757127 0.17321236 -0.00040418166 2.4672954e-05
-0.22185703 0.10216037 0.03285959 0.035941202 0.052246403 -0.0063950927 -0.07533964 -0.16780795
0.35054147 -0.11172442 -0.28135842 0.41649202 -0.05289383 -0.15973312 0.0375534 0.018345539
0.06003833 -0.0067996527 -0.0024710936 0.1440009 0.05173189 -0.060964473 -0.06241278 0.2442402
0.06032303 0.10938944 0.048389345 0.19884862 -0.00827128 0.2987479 -0.020557348 -0.006169213
0.30537522 -0.030469941 -0.17758922 -0.042969435 -0.2588594 0.12495788 -0.63824475 0.03449413
-0.116102174 0.19411343 -0.22351195 0.06474946 -0.011322801 0.117585845 -0.1120587 0.061562307
-0.07548363 -0.30492836 -0.0022450462 -0.25545946 0.009086153 -0.048584647 0.2997104 -0.27993762
0.1718934 -0.09259799 -0.024756856 0.20045114 0.109871686 -0.06850002 0.12345307 2.6162752e-07
-0.066020526 -0.21002139 -0.002872622 -0.20811257 0.13822769 -0.014428221 0.34258166 0.041058995
-0.038889498 -0.1905264 0.22483228 -0.2241685 0.006275143 -0.10817574 0.037951585 -0.07232721
0.22267522 -0.13982603 -0.0018594827 -0.32375103 0.0012858612 -0.1785087 -0.37317333 0.03400403
0.19512586 0.05302437 0.1792732 -0.035533406 -0.24282466 0.002795489 -0.020238135 -0.079253726
-0.07786806 -0.38799602 -0.20733397 -0.24414673 0.22082943 -0.012610718 0.22801347 0.11393636
-0.19825111 -0.088142335 -0.0035865034 -0.027229348 -0.03137984 0.075419255 0.0021050544 0.2508203
0.11642042 -0.15995659 -0.17309636 -0.1918261 -0.13908496 -0.3843309 0.07277215 -0.39916876
0.11307883 -0.17073476 0.4097403 0.09036826 0.08494837 -0.28397375 -0.10137008 -0.0025256344
0.004676652 0.1353598 0.45054105 0.030700127 -0.029412866 -0.023044338 -0.13370453 0.15082581
-0.15593272 0.09099538 -0.12533481 -0.31999347 -0.007685163 -0.001135737 0.11181571 -0.06417746
0.19471349 0.10346601 -0.073331945 -0.06470656 -0.10971174 0.13359581 0.17196533 -0.15202458
-0.050541945 -0.34835413 -0.024317324 -0.01980111 -0.07004266 0.23214677 1.4478102e-08 4.0862856e-06
0.11707261 -0.15618216 -0.05707579 -0.16316524 -0.22716804 0.26715645 0.1103036 -0.24081357
0.016990228 0.37542185 -0.053460963 -0.33969367 -0.018945625 -0.17200385 0.019544737 0.3012825
-0.012196275 -0.031294126 -0.00055639335 -0.025155814 -0.01388325 0.09767011 -0.16500267 -0.06786586
-0.10110677 -0.10432529 0.12098802 0.4537324 0.34212133 -0.33335522 -0.00039146608 0.02514378
-0.0945377 0.3156015 -0.06053338 0.00885718 -0.054274593 -0.27822113 0.096035615 0.07826739
0.37970856 0.03822124 -0.20780858 -0.24914548 0.0067874747 -0.34773463 -0.0402623 0.09575478
0.16256 0.19388832 -0.13047475 0.13778633 -0.15331905 0.14113131 0.07069594 0.08455589

fc1.bias f4 [8]
00000000: 9c41 c93c ded1 d43c 85e1 1bbd 15b4 60bc
00000010: 6560 92bc 72f4 1abc ebbb 803c 0ee1 983c
0.024567418 0.025978979 -0.03805687 -0.01371481 -0.01786823 -0.009457694 0.015714606 0.018662002

fc_1.weight f4 [8, 32]
00000000: dbff 5e3d 9cf5 873e afe0 81be 2d27 c23e
00000010: 4aa1 02be c138 1ebc 2335 d53c 292e 383e
00000020: c60c 823c 74e7 43bd 2ac6 adbd f9f5 f73d
00000030: ab17 6dbd e851 0ebe fcf0 5dbd 51a0 a1be
00000040: aca5 7a3c 9f55 763e 30cf 2fbd c647 e13d
00000050: 6056 933d 0ca8 213e 64aa 24bc 6ffd b73e
00000060: 61ec 95bc 5969 0ebe c15a 7a3d c2e5 983c
00000070: 09c0 c8be b580 983b d0a4 eb3e e44c 9bbd
00000080: 656a f33d 1047 833d 2955 c1bd 789a 39be
00000090: 9158 b3bd 955e 313e 58e8 d3b9 c4f8 ce37
000000a0: 7d2e 63be 7539 d13d c797 063d 1537 133d
000000b0: 5300 563d ed8d d1bb ab4b 9abd d9d5 2bbe
000000c0: 2c7a b33e c6cf e4bd 360e 90be 713e d53e
000000d0: 33a7 58bd 1491 23be 98d1 193d 6249 963c
000000e0: c0ea 753d 9fcf debb 12f2 21bb f974 133e
000000f0: d1e4 533d e2b5 79bd 8ba4 7fbd 1a1a 7a3e
00000100: 4815 773d 9207 e03d e833 463d f99e 4b3e
00000110: 4384 07bc 7cf5 983e e267 a8bc 1c27 cabb
00000120: 245a 9c3e 199c f9bc f3d9 35be b800 30bd
00000130: 3889 84be ebe9 ff3d 0264 23bf b849 0d3d
00000140: fac6 edbd acc5 463e 51e0 64be 5d9b 843d
00000150: 4583 39bc d9d0 f03d 087f e5bd c228 7c3d
00000160: 2997 9abd 921f 9cbe a021 13bb 95cb 82be
00000170: 16de 143c b200 47bd a473 993e fc53 8fbe
00000180: d304 303e 04a4 bdbd e4ce cabc 1043 4d3e
00000190: 6804 e13d bd49 8cbd f7d4 fc3d d075 8c34
000001a0: c535 87bd d90f 57be 9a42 3cbb 761b 55be
000001b0: 8f8b 0d3e 5864 6cbc dd66 af3e 7a2d 283d
000001c0: 984a 1fbd 5a19 43be 6f3a 663e 6d8c 65be
000001d0: b79f cd3b 3e8b ddbd 1f73 1b3d 4a20 94bd
000001e0: f904 643e 8e2e 0fbe e3b9 f3ba b2c2 a5be
000001f0: 588a a83a fcca 36be 9310 bfbe cf47 0b3d
00000200: 13cf 473e 1530 593d 6593 373e 7a8b 11bd
00000210: 07a7 78be 8634 373b 72ca a5bc c74f a2bd
00000220: 4a79 9fbd 6aa7 c6be 5b4f 54be 9a01 7abe
00000230: 1c21 623e 2f9d 4ebc 5d7c 693e 7757 e93d
00000240: 5702 4bbe f883 b4bd 8b0b 6bbb 1510 dfbc
00000250: 2688 00bd 6975 9a3d f4f4 093b 856b 803e
00000260: d46d ee3d a9cb 23be 2c40 31be 106e 44be
00000270: 4a6c 0ebe 05c7 c4be 9109 953d d95f ccbe
00000280: e095 e73d 18d5 2ebe 7bc9 d13e ff12 b93d
00000290: 69f9 ad3d 0265 91be 1e9b cfbd 1d85 25bb
000002a0: 9a3e 993b c29b 0a3e 51ad e63e d57e fb3c
000002b0: 40f3 f0bc 7bc7 bcbc d7e9 08be 1572 1a3e
000002c0: d4ac 1fbe c95b ba3d c557 00be 2fd6 a3be
000002d0: d2d3 fbbb 03dd 94ba a3ff e43d 796f 83bd
000002e0: f962 473e fde5 d33d 0f2f 96bd df84 84bd
000002f0: 8cb0 e0bd 57cd 083e ae17 303e 55ac 1bbe
00000300: 1205 4fbd 795b b2be 2035 c7bc f035 a2bc
00000310: 8772 8fbd e2b7 6d3e 5ebb 7832 ed1c 8936
00000320: c4c3 ef3d 37ee 1fbe 4ec8 69bd ca14 27be
00000330: bd9e 68be bbc8 883e dbe6 e13d d597 76be
00000340: 172f 8b3c 4b37 c03e e2f9 5abd 54ec adbe
00000350: db33 9bbc c721 30be 491c a03c b341 9a3e
00000360: e3d2 47bc 452e 00bd edda 11ba 9113 cebc
00000370: 9276 63bc 4407 c83d 76f6 28be 42fd 8abd
00000380: 1111 cfbd 7fa8 d5bd 91c8 f73d 9d4f e83e
00000390: 872a af3e 89ad aabe b03d cdb9 54fa cd3c
000003a0: fb9c c1bd 8596 a13e d9f1 77bd b51d 113c
000003b0: 094f 5ebd 0073 8ebe 52ae c43d a74a a03d
000003c0: 2969 c23e e08d 1c3d c6cb 54be fe1f 7fbe
000003d0: 7769 de3b 460a b2be 15ea 24bd 151b c43d
000003e0: 2176 263e a98a 463e 2c9b 05be dc17 0d3e
000003f0: abff 1cbe ba84 103e 08c9 903d a32b ad3d
0.05444322 0.26554573 -0.25366732 0.37920514 -0.1275684 -0.009657086 0.026026314 0.17986359
0.015875231 -0.047828153 -0.084850624 0.121074624 -0.0578839 -0.13898432 -0.0541849 -0.31567624
0.015298288 0.240561 -0.0429222 0.11000018 0.07194209 0.15786761 -0.01005039 0.35935542
-0.01830119 -0.13907374 0.061121706 0.018664245 -0.3920901 0.004654015 0.4602418 -0.07583025
0.118855275 0.064100385 -0.09440071 -0.18125331 -0.08757127 0.17321236 -0.00040418166 2.4672954e-05
-0.22185703 0.10216037 0.03285959 0.035941202 0.052246403 -0.0063950927 -0.07533964 -0.16780795
0.35054147 -0.11172442 -0.28135842 0.41649202 -0.05289383 -0.15973312 0.0375534 0.018345539
0.06003833 -0.0067996527 -0.0024710936 0.1440009 0.05173189 -0.060964473 -0.06241278 0.2442402
0.06032303 0.10938944 0.048389345 0.19884862 -0.00827128 0.2987479 -0.020557348 -0.006169213
0.30537522 -0.030469941 -0.17758922 -0.042969435 -0.2588594 0.12495788 -0.63824475 0.03449413
-0.116102174 0.19411343 -0.22351195 0.06474946 -0.011322801 0.117585845 -0.1120587 0.061562307
-0.07548363 -0.30492836 -0.0022450462 -0.25545946 0.009086153 -0.048584647 0.2997104 -0.27993762
0.1718934 -0.09259799 -0.024756856 0.20045114 0.109871686 -0.06850002 0.12345307 2.6162752e-07
-0.066020526 -0.21002139 -0.002872622 -0.20811257 0.13822769 -0.014428221 0.34258166 0.041058995
-0.038889498 -0.1905264 0.22483228 -0.2241685 0.006275143 -0.10817574 0.037951585 -0.07232721
0.22267522 -0.13982603 -0.0018594827 -0.32375103 0.0012858612 -0.1785087 -0.37317333 0.03400403
0.19512586 0.05302437 0.1792732 -0.035533406 -0.24282466 0.002795489 -0.020238135 -0.079253726
-0.07786806 -0.38799602 -0.20733397 -0.24414673 0.22082943 -0.012610718 0.22801347 0.11393636
-0.19825111 -0.088142335 -0.0035865034 -0.027229348 -0.03137984 0.075419255 0.0021050544 0.2508203
0.11642042 -0.15995659 -0.17309636 -0.1918261 -0.13908496 -0.3843309 0.07277215 -0.39916876
0.11307883 -0.17073476 0.4097403 0.09036826 0.08494837 -0.28397375 -0.10137008 -0.0025256344
0.004676652 0.1353598 0.45054105 0.030700127 -0.029412866 -0.023044338 -0.13370453 0.15082581
-0.15593272 0.09099538 -0.12533481 -0.31999347 -0.007685163 -0.001135737 0.11181571 -0.06417746
0.19471349 0.10346601 -0.073331945 -0.06470656 -0.10971174 0.13359581 0.17196533 -0.15202458
-0.050541945 -0.34835413 -0.024317324 -0.01980111 -0.07004266 0.23214677 1.4478102e-08 4.0862856e-06
0.11707261 -0.15618216 -0.05707579 -0.16316524 -0.22716804 0.26715645 0.1103036 -0.24081357
0.016990228 0.37542185 -0.053460963 -0.33969367 -0.018945625 -0.17200385 0.019544737 0.3012825
-0.012196275 -0.031294126 -0.00055639335 -0.025155814 -0.01388325 0.09767011 -0.16500267 -0.06786586
-0.10110677 -0.10432529 0.12098802 0.4537324 0.34212133 -0.33335522 -0.00039146608 0.02514378
-0.0945377 0.3156015 -0.06053338 0.00885718 -0.054274593 -0.27822113 0.096035615 0.07826739
0.37970856 0.03822124 -0.20780858 -0.24914548 0.0067874747 -0.34773463 -0.0402623 0.09575478
0.16256 0.19388832 -0.13047475 0.13778633 -0.15331905 0.14113131 0.07069594 0.08455589

fc_1.bias f4 [8]
00000000: 9c41 c93c ded1 d43c 85e1 1bbd 15b4 60bc
00000010: 6560 92bc 72f4 1abc ebbb 803c 0ee1 983c
0.024567418 0.025978979 -0.03805687 -0.01371481 -0.01786823 -0.009457694 0.015714606 0.018662002
