checkpoints/source/epoch=11.checkpoint.pth.tar (torch, 319680 bytes, 10 tensors)

conv1.weight f4 [16, 3, 5, 5]
0.2029551 0.16414316 0.063572645 -0.24139462 0.05942175 -0.11870881 -0.007713434 -0.22514844
-0.13957784 0.15012132 -0.027174987 -0.116919704 -0.13484417 -0.12898603 -0.09807958 0.10990002
0.2107905 -0.02695632 -0.098189175 0.009057078 -0.046291634 0.1489629 0.09122913 0.14797637
0.10701247 0.14114381 0.08144841 0.112685606 -0.06301963 -0.0008516899 -0.021443952 0.0822157
-0.19532257 -0.15033986 -0.027053656 0.18175793 0.052455835 -0.096026525 -0.040761694 -0.09493301
-0.12340972 0.1444621 -0.09414751 -0.103493966 -0.14983293 0.24087948 -0.08303244 -0.035055164
-0.10037188 -0.07312221 0.017527819 0.07011589 -0.06006031 0.080182165 -0.08644153 -0.0713274
-0.1376494 -0.051793363 -0.06667917 0.05545832 0.0019030462 0.20210114 -0.15963075 0.07362767
0.121844605 0.11483143 0.26089975 0.043244522 -0.0011620524 -0.038581796 -0.079253815 0.16170092
-0.0077147344 0.043806095 -0.0013379792 0.012275725 0.031051692 -0.08673004 -0.24074471 -0.08852233
-0.03620009 -0.06480033 -0.1635939 -0.0894917 0.028986275 0.017694972 0.06976944 -0.04324656
0.026080927 -0.073155865 -0.13314773 0.017217506 -0.21384203 -0.12322745 0.09951046 0.009395993
-0.27641165 0.011040474 0.040864054 -0.022874169 0.07675037 0.076701045 0.12427788 -0.029695066
0.0016153215 0.08275769 0.0552642 0.029926714 0.038230777 0.1385837 0.0075657736 -0.024072839
-0.1416954 -0.008429607 -0.045493342 0.05171962 0.07274746 0.002419025 -0.038456436 0.062136076
0.0005118665 0.029936638 0.022023976 0.08249515 0.118368395 0.068833 0.110962905 0.0811677
0.22061941 0.13233937 -0.108352065 -0.07078831 0.022387048 0.19110613 0.09522148 0.08442482
0.13889286 0.02338152 -0.14943749 0.11893508 -0.012131962 0.12090951 -0.053563353 0.076794095
-0.07041159 0.107847415 0.17534716 0.15924919 0.04143235 -0.0026440776 -0.011881234 0.051338278
0.020253263 0.07396538 -0.038781617 0.16692159 -0.2588579 -0.07120953 -0.14383744 0.07332395
-0.23035441 -0.016332636 -0.023492241 -0.041828293 0.04923281 -0.10136426 -0.0066083274 -0.10809658
-0.1326937 0.19343905 0.13268566 -0.00035932453 -0.13287617 0.12655008 0.15161388 0.26459113
0.04968234 0.0032465868 -0.09942574 -0.02132434 -0.06799953 -0.16217476 -0.13589232 -0.07643601
-0.05919057 -0.18108541 -0.22328284 -0.005999574 0.093272515 -0.029964728 0.048371814 0.05008511
0.169023 -0.072762825 0.14951426 -0.015203791 -0.11575889 0.044944 0.08868965 0.1975323
0.10908016 0.24040392 -0.055094942 -0.10485869 0.022730904 0.12262586 0.11511389 0.020403877
-0.10061813 -0.10325049 -0.07608923 -0.088147655 0.0007593273 0.038908273 0.0054431353 -0.24218032
-0.05692374 0.09809403 -0.16639546 0.18483502 0.050405063 -0.054429572 0.09755382 0.18705863
0.037691873 0.1864512 0.04169146 -0.10332563 -0.094650045 -0.057571534 0.062106255 0.23048927
0.0016550132 -0.13859582 -0.2769742 -0.098653406 0.028464451 0.01818141 -0.016170029 -0.0431389
-0.098189294 0.04072257 -0.031977113 0.035537444 -0.1515562 -0.013536422 -0.017448522 0.15621883
0.10850729 -0.13138884 0.10284081 0.07383153 0.05002817 0.016108345 -0.013596911 0.042087417
00000000: 76d3 4f3e 2515 283e 6032 823d 2730 77be
00000010: 3964 733d 9b1d f3bd f9c0 fcbb 508d 66be
00000020: 7eed 0ebe 67b9 193e 149e debc 9973 efbd
00000030: 9714 0abe ea14 04be f2dd c8bd 4313 e13d
00000040: 77d9 573e 80d3 dcbc 6817 c9bd 2364 143c
00000050: 4c9c 3dbd bb89 183e 57d6 ba3d 1e87 173e
00000060: 5b29 db3d 0188 103e 6dce a63d b6c7 e63d
00000070: 7010 81bd f143 5fba 3aab afbc b460 a83d
00000080: a402 48be b1f2 19be a19f ddbc c01e 3a3e
00000090: eedb 563d 8ea9 c4bd bcf5 26bd 3d6c c2bd
000000a0: 3cbe fcbd dfed 133e 69d0 c0bd a5f4 d3bd
000000b0: ce6d 19be 1ca9 763e e90c aabd 0196 0fbd
000000c0: c68f cdbd 19c1 95bd 8096 8f3c eb98 8f3d
000000d0: cd01 76bd 8c36 a43d 4208 b1bd 1a14 92bd
000000e0: f7f3 0cbe 4725 54bd 178f 88bd 4328 633d
000000f0: a26f f93a 9af3 4e3e 3e76 23be 1bca 963d
00000100: aa89 f93d be2c eb3d a794 853e 2b21 313d
00000110: 0250 98ba f207 1ebd d34f a2bd ed94 253e
00000120: e2cb fcbb 056e 333d 225f afba 1f20 493c
00000130: 1e60 fe3c 859f b1bd c885 76be 324b b5bd
00000140: 8c46 14bd 09b6 84bd 2985 27be 6d47 b7bd
00000150: a074 ed3c 0cf5 903c 48e3 8e3d 4e23 31bd
00000160: aba7 d53c bed2 95bd e157 08be ba0b 8d3c
00000170: 68f9 5abe ac5e fcbd 24cc cb3d a7f1 193c
00000180: d485 8dbe 1be3 343c 1161 273d 9c62 bbbc
00000190: 4c2f 9d3d 7015 9d3d 6785 fe3d 1143 f3bc
000001a0: 32b9 d33a dd7c a93d b75c 623d de28 f53c
000001b0: e097 1c3d e3e8 0d3e 4fea f73b 6734 c5bc
000001c0: 9918 11be 561c 0abc 3a57 3abd f4d7 533d
000001d0: 9ffc 943d 8188 1e3b 7f84 1dbd 6682 7e3d
000001e0: c82e 063a ae3d f53c a06b b43c 38f3 a83d
000001f0: 216b f23d 51f8 8c3d 8540 e33d 403b a63d
00000200: 0eea 613e f983 073e b0e7 ddbd 76f9 90bd
00000210: 0b65 b73c 53b1 433e 7b03 c33d ece6 ac3d
00000220: ee39 0e3e 9a8a bf3c 2406 19be 3c94 f33d
00000230: 23c5 46bc 689f f73d 3f65 5bbd 3946 9d3d
00000240: f433 90bd 1bdf dc3d 358e 333e 3812 233e
00000250: f8b4 293d 4348 2dbb 82a9 42bc 1648 523d
00000260: 2cea a53c 297b 973d 79d9 1ebd 7eed 2a3e
00000270: 0689 84be 4dd6 91bd 1f4a 13be de2a 963d
00000280: 07e2 6bbe 05cc 85bc cd72 c0bc 2554 2bbd
00000290: 58a8 493d 1198 cfbd ab8a d8bb bd61 ddbd
000002a0: dbe0 07be e314 463e c0de 073e b963 bcb9
000002b0: b110 08be 5896 013e ab40 1b3e 7d78 873e
000002c0: b67f 4b3d b0c4 543b b99f cbbd 62b0 aebc
000002d0: 5643 8bbd 2411 26be 5b27 0bbe 7c8a 9cbd
000002e0: d071 72bd 746e 39be 42a4 64be 1398 c4bb
000002f0: a905 bf3d 9778 f5bc 8621 463d 0b26 4d3d
00000300: 5e14 2d3e ad04 95bd 441a 193e 5219 79bc
00000310: ff12 edbd 3317 383d eba2 b53d e845 4a3e
00000320: 6b65 df3d 722c 763e 3cab 61bd 27c0 d6bd
00000330: 2936 ba3c 4423 fb3d d5c0 eb3d 0826 a73c
00000340: e110 cebd fe74 d3bd acd4 9bbd c286 b4bd
00000350: 980d 473a 485e 1f3d 545c b23b 1efe 77be
00000360: de28 69bd 86e5 c83d 9263 2abe 6445 3d3e
00000370: 8a75 4e3d 8bf1 5ebd 4cca c73d 4c8c 3f3e
00000380: cb62 1a3d 10ed 3e3e aac4 2a3d 639c d3bd
00000390: e2d7 c1bd 21d0 6bbd 2163 7e3d 6105 6c3e
000003a0: 07ed d83a 10ec 0dbe 90cf 8dbe cc0a cabd
000003b0: 482e e93c 2ef1 943c 0277 84bc 6ab2 30bd
000003c0: 7817 c9bd b6cc 263d 6ffa 02bd b68f 113d
000003d0: 8c31 1bbe dec7 5dbc 34f0 8ebc d4f7 1f3e
000003e0: 1239 de3d cc8a 06be 349e d23d fc34 973d
000003f0: 57ea 4c3d a6f5 833c 94c5 5ebc db63 2c3d

conv1.bias f4 [16]
-0.07239192 0.047511876 -0.057913866 -0.04066512 -0.054297753 -0.07247329 0.008090002 -0.021811191
-0.03440385 0.06767024 0.02208991 0.035779886 0.0005005364 0.002355229 -0.061204266 0.018291635
00000000: 3742 94bd d09b 423d 1737 6dbd 7890 26bd
00000010: 5267 5ebd e06c 94bd ee8b 043c 62ad b2bc
00000020: 0deb 0cbd b296 8a3d e6f5 b43c ee8d 123d
00000030: 6e36 033a 305a 1a3b 53b1 7abd 57d8 953c

conv2.weight f4 [64, 16, 5, 5]
0.028132448 0.0052884407 0.013320401 0.093841806 0.06767259 0.00742762 -0.0015510472 0.016670007
0.008044363 -0.013807336 0.013150156 0.09985525 -0.053918492 0.015612775 0.076097034 0.0021847293
0.037604284 0.07705908 0.10558839 0.063391685 -0.008372349 0.07104399 0.032207835 0.020766003
-0.03874988 0.02606287 -0.028182233 -0.019546868 -0.02564393 0.01745434 -0.031685643 -0.024236348
0.0032655662 -0.051254548 -0.058855776 -0.016455192 -0.006981813 -0.066486575 0.029792016 -0.08999837
0.04724422 -0.009807811 -0.057358757 0.01965879 -0.041498903 -0.022227839 0.013206886 0.036063172
-0.023195425 -0.002836414 -0.020573102 0.009394238 -0.041865997 0.06922196 0.032739997 0.013872631
-0.009918693 -0.0023609411 -0.024840385 -0.017154707 -0.013323314 -0.009893247 0.022476753 0.101913735
-0.06549077 -0.0026110597 0.032565467 0.07343543 0.053749613 0.042732976 -0.014001365 -0.030373272
0.13983952 -0.03332829 0.025827963 -0.04166527 -0.013865413 -0.0028191877 -0.011098678 -0.007676407
0.0042564613 0.015495851 0.031067941 0.02928461 0.048185814 -0.0015124715 0.09807949 0.003807707
0.008103421 0.0031371124 0.010440351 0.0027809548 0.024476284 0.08601466 -0.030493386 -0.014079218
0.02955972 0.014421642 0.05494027 0.06823545 -0.032690927 0.0071112937 -0.017848657 0.04962698
0.028886931 -0.023534592 -0.050651778 0.012767173 0.018314058 0.018549347 -0.041872136 -0.04197549
0.027672581 -0.03697891 -0.08701907 -0.03708326 0.044829242 0.06359237 0.025695706 0.0726897
0.05536904 0.0092556225 0.017012022 0.030555885 0.016686792 0.010257074 -0.04117614 -0.010541676
0.022263702 -0.024209207 0.030504165 0.023476016 -0.057151992 0.05171551 -0.012854527 -0.007551395
0.0070664976 0.02834294 0.043369893 0.051689588 0.08295935 0.114687026 0.03142923 -0.00483554
0.015556829 -0.03306864 0.039787147 -0.03801146 0.058953725 0.080074675 -0.05216183 -0.024680238
-0.021093488 0.009868247 0.006533244 -0.0113539575 0.01578016 -0.021314306 -0.0135218995 0.02137087
0.019681666 0.04367711 -0.020547431 0.051510777 -0.023957562 0.027327884 0.01857938 -0.005880804
-0.00042562926 0.011537608 -0.021824121 -0.012504173 0.06404503 0.02417095 -0.0036601506 -0.029217225
0.08235498 -0.037741195 0.06396563 -0.010444941 -0.0556977 -0.005029954 -0.04870494 0.000620259
-0.0076694996 0.0027569826 0.04142153 -0.047454998 0.02218501 0.0010530674 0.094014235 0.008957457
-0.01901416 0.050568085 -0.018022535 -0.008549645 0.09026087 0.008882588 0.036468938 0.026889695
0.05964359 0.0188605 0.04399529 0.02742161 0.07775257 0.04295457 0.008021386 0.010910333
0.018606432 -0.017751256 -0.045092165 -0.010496861 -0.050828535 0.008201575 -0.038464904 0.037150756
0.04637977 0.0048244307 0.00574634 -0.026666827 0.027771683 0.011635502 0.024416622 0.08923825
-0.030422708 0.008613828 0.038587634 -0.057687 0.006976559 0.0209937 0.08397683 -0.046019897
-0.08145134 -0.010910569 0.0035325156 -0.008973922 -0.06268657 -0.05857389 0.055053152 -0.0913682
0.020471957 -0.043598473 -0.060460508 0.006510581 0.003739858 0.039402872 -0.062280305 0.04491079
0.031173864 0.03472055 0.0053430693 0.014025577 0.0013645776 -0.0140162315 -0.034777477 0.043558024
00000000: 0576 e63c a84a ad3b d03d 5a3c 2230 c03d
00000010: ed97 8a3d 6463 f33b 824c cbba 8a8f 883c
00000020: 81cc 033c 2a38 62bc c073 573c e980 cc3d
00000030: a3d9 5cbd bacc 7f3c c3d8 9b3d ad2d 0f3b
00000040: f306 1a3d 27d1 9d3d ba3e d83d 80d3 813d
00000050: 2d2c 09bc 837f 913d 5dec 033d 771d aa3c
00000060: 32b8 1ebd cd81 d53c 6dde e6bc c120 a0bc
00000070: 3813 d2bc 67fc 8e3c cec8 01bd 4e8b c6bc
00000080: 1c03 563b 4af0 51bd c112 71bd 0acd 86bc
00000090: b1c7 e4bb 1d2a 88bd 630e f43c 1151 b8bd
000000a0: 2883 413d f1b0 20bc 04f1 6abd 790b a13c
000000b0: c1fa 29bd 2817 b6bc b261 583c fab6 133d
000000c0: 5504 bebc 21e3 39bb ec88 a8bc 4aea 193c
000000d0: ae7b 2bbd 3ec4 8d3d 601a 063d 084a 633c
000000e0: 0482 22bc 05ba 1abb 107e cbbc 0788 8cbc
000000f0: 074a 5abc 4917 22bc 2b21 b83c 26b8 d03d
00000100: 0620 86bd 501e 2bbb 5e63 053d 5165 963d
00000110: 8e28 5c3d c608 2f3d fb65 65bc 5ed1 f8bc
00000120: 1732 0f3e 3f83 08bd 2a95 d33c 34a9 2abd
00000130: c22b 63bc 1fc2 38bb 3bd7 35bc 5f8a fbbb
00000140: c979 8b3b 4fe2 7d3c 3282 fe3c 47e6 ef3c
00000150: 7d5e 453d 1f3e c6ba e6dd c83d b98a 793b
00000160: 36c4 043c 0398 4d3b 020e 2b3c ae40 363b
00000170: 7d82 c83c 7428 b03d 44cd f9bc 85ac 66bc
00000180: 3a27 f23c c048 6c3c 0c09 613d 07bf 8b3d
00000190: ece6 05bd db05 e93b 5937 92bc a945 4b3d
000001a0: 49a4 ec3c 9ecb c0bc 3d78 4fbd 682d 513c
000001b0: 5d07 963c cdf4 973c 1e82 2bbd 7eee 2bbd
000001c0: 9cb1 e23c 3377 17bd 0e37 b2bd 9ee4 17bd
000001d0: de9e 373d b73c 823d cd7f d23c 56de 943d
000001e0: a6ca 623d e5a4 173c cc5c 8b3c 5650 fa3c
000001f0: bdb2 883c 490d 283c 50a8 28bd feb6 2cbc
00000200: 5e62 b63c 6352 c6bc dfe3 f93c c650 c03c
00000210: 3518 6abd a5d3 533d cb9b 52bc b171 f7bb
00000220: 148e e73b 742f e83c a1a4 313d 76b8 533d
00000230: 97e6 a93d 08e1 ea3d f0bb 003d 7373 9ebb
00000240: 12e2 7e3c fb72 07bd d9f7 223d e8b1 1bbd
00000250: 7679 713d 31fe a33d a5a7 55bd 362e cabc
00000260: 40cc acbc 6eae 213c d314 d63b f305 3abc
00000270: 6545 813c 579b aebc f58a 5dbc f611 af3c
00000280: 723b a13c c5e6 323d 1653 a8bc f7fc 523d
00000290: a642 c4bc bade df3c c933 983c c2b3 c0bb
000002a0: fe26 dfb9 3c08 3d3c 80c8 b2bc 4ede 4cbc
000002b0: 0a2a 833d 2802 c63c 23df 6fbb f658 efbc
000002c0: baa9 a83d 8396 1abd 6a00 833d 4221 2bbc
000002d0: 4523 64bd 50d2 a4bb d57e 47bd e098 223a
000002e0: 6d50 fbbb 7eae 343b 9fa9 293d 2c60 42bd
000002f0: 57bd b53c 1407 8a3a 898a c03d 4cc2 123c
00000300: 95c3 9bbc 7b20 4f3d ffa3 93bc cf13 0cbc
00000310: b1da b83d 4688 113c 7460 153d c747 dc3c
00000320: d64c 743d 5681 9a3c 6834 343d 49a3 e03c
00000330: bd3c 9f3d 22f1 2f3d 226c 033c 41c1 323c
00000340: 846c 983c 156b 91bc 90b2 38bd 07fb 2bbc
00000350: 9531 50bd e65f 063c 608d 1dbd 642b 183d
00000360: b7f8 3d3d 4216 9e3b cb4b bc3b 6474 dabc
00000370: 7181 e33c d5a2 3e3c 5e05 c83c 8bc2 b63d
00000380: 0b39 f9bc 0321 0d3c 110e 1e3d 3449 6cbd
00000390: 9e9b e43b fbfa ab3c 0bfc ab3d 5c7f 3cbd
000003a0: f6cf a6bd 3ec2 32bc c781 673b 5b07 13bc
000003b0: d161 80bd 2deb 6fbd 6a7f 613d 401f bbbd
000003c0: ceb4 a73c 5094 32bd 70a5 77bd b656 d53b
000003d0: 6818 753b e864 213d a219 7fbd 60f4 373d
000003e0: 5560 ff3c 2337 0e3d ea14 af3b 89cb 653c
000003f0: a0db b23a 56a4 65bc d472 0ebd e669 323d

conv2.bias f4 [64]
-0.05503499 0.0029435225 0.020174192 -0.03576484 -0.031047596 -0.022072855 0.014883436 -0.0361727
-0.007881146 0.038576443 -0.04883821 -0.01158448 -0.048482083 0.03653836 -0.019948894 0.0009767752
-0.022487668 -0.023741173 -0.022449682 -0.022021258 -0.057838313 1.7922604e-05 -0.016277082 -0.0141216675
-0.009435693 -0.011482263 -0.008232961 -0.058504965 0.054670535 -0.00437535 0.0023502656 0.0021394123
0.05846149 -0.00069909386 -0.0050250133 0.047925156 -0.036637563 -0.0282806 0.03373455 0.036027033
-0.0058099725 0.05806343 -0.0093772635 -0.031542916 0.027168958 0.009482589 -0.06222006 -0.017137555
-0.00096305663 -0.053290993 -0.0042517334 0.036797106 0.06452071 -0.02847484 -0.010860674 -0.014905837
-0.032621764 0.03322963 -0.029659504 0.018980207 -0.0042102123 0.08406034 0.0045955023 0.038596474
00000000: 5f6c 61bd 1de8 403b 5944 a53c 277e 12bd
00000010: 8757 febc 22d2 b4bc a8d9 733c d329 14bd
00000020: ec1f 01bc 5502 1e3d 930a 48bd d5cc 3dbc
00000030: 2695 46bd 3fa9 153d dd6b a3bc 2307 803a
00000040: 0f38 b8bc d97c c2bc 65e8 b7bc ed65 b4bc
00000050: dee7 6cbd 8058 9637 8457 85bc 915e 67bc
00000060: 2a98 1abc 1a20 3cbc 8be3 06bc e7a2 6fbd
00000070: 36ee 5f3d 195f 8fbb ea06 1a3b 6235 0c3b
00000080: 5175 6f3d 6543 37ba dea8 a4bb 2b4d 443d
00000090: 4511 16bd b8ac e7bc 3d2d 0a3d 1591 133d
000000a0: 9561 bebb ebd3 6d3d 18a3 19bc 2533 01bd
000000b0: 6f91 de3c dc5c 1b3c 76da 7ebd 0f64 8cbc
000000c0: a375 7cba a847 5abd 2052 8bbb 90b8 163d
000000d0: 6f23 843d 1144 e9bc f8f0 31bc 9d37 74bc
000000e0: 669e 05bd cb1b 083d 7df8 f2bc 617c 9b3c
000000f0: d2f5 89bb d427 ac3d de95 963b 5617 1e3d

conv3.weight f4 [32, 64, 5, 5]
0.025274515 0.011825079 0.0038692723 -0.0065638865 -0.0006261809 0.017708162 0.010308739 -0.0063251955
-0.01626362 -0.0010487261 0.022990363 -0.01678574 0.026190244 -0.004592899 0.02701824 0.018670889
0.0032634002 0.020574912 0.020823715 -0.020054478 -0.0122751165 0.013658502 0.013074753 0.06455091
-0.0013502309 0.00848777 0.0026407146 -0.013661524 -0.01059469 -0.00023697047 0.0031165457 -0.00462317
-0.0020928723 -0.0076592457 -0.0005481982 0.011766973 -0.00091992563 0.004254457 -0.007341773 0.047750972
-0.027283177 -0.01741211 0.0264861 0.0043091406 0.015134953 0.0014147866 -0.02179198 -0.0028036854
0.034783404 0.019388186 -0.010016991 -0.0058180923 -0.0046688225 -0.011854172 0.00055692863 -0.004523918
-0.0044197952 -0.013539164 -0.012193917 -0.00010230678 -0.03363647 0.010919188 0.0107969185 0.01770892
-0.003261947 -0.020924216 -0.009761291 -0.025844477 0.0036427418 0.036294885 -0.02347808 0.010842093
-0.022297252 -0.01814362 0.045599196 -0.001722127 -0.007339129 -0.012261932 -0.00844352 -0.00080527656
-0.0006604274 0.009531434 -0.014911322 -0.011006991 -0.0012457926 -0.016546458 -0.014466058 -0.013646568
0.014429163 0.03809532 0.0006860546 -0.010791854 0.020731483 0.006422 -0.0027442514 -0.0055706007
-0.015994323 -0.03682742 0.009175102 -0.024565658 0.014452622 0.0034937544 -0.010424839 -0.024387952
-0.00085679564 0.0145907365 -0.003457955 -0.00628113 -0.010044882 -0.0008545983 0.011789527 -0.014030286
0.012753462 -0.011084137 0.011184409 -0.00711444 -0.06472864 0.006362226 -0.006283623 -0.012518562
-0.022841359 -0.0141877355 0.0031611444 0.03544574 0.019238574 -0.014212762 -0.011547705 -0.007614337
0.0062552574 -0.00038571103 0.009209907 0.011966198 -0.008012597 -0.012007147 -0.00040341014 0.0032229207
0.029665153 -0.0323789 0.036291376 0.0044720187 -0.0320633 0.009167419 -0.036503598 -0.008752074
0.01746473 0.002354629 -0.013864012 -0.002212275 0.022819512 0.030372266 -0.0034392795 0.0074131587
0.003238964 0.012099398 -0.0035632544 0.013151894 0.004658746 -0.012868474 -0.0039706933 -0.0015014579
0.04667647 -0.00036793094 0.009856921 0.023499448 0.030496152 -0.013515354 0.036551487 0.024239343
-8.333358e-06 -0.026849888 -0.013717368 0.011660045 -0.04062048 -0.019515414 -0.038048718 0.018494142
0.009569959 -0.011254657 -0.0045231525 -0.001051015 0.020703396 0.013868266 0.008355078 0.0075638206
-0.0025867748 0.016641555 -0.014116317 -0.0064815665 -0.0017879992 -0.00033986394 0.026988415 -0.017306866
0.010861778 0.0043756785 -0.024201019 -0.02568726 0.0070472118 0.020297047 0.0076869563 -0.04711978
-0.0027147743 0.00014473671 -0.0071398336 -0.0088483 7.5402154e-06 -0.009055916 -0.0008691205 -0.00054646935
-0.017963389 -0.0002750479 -0.0072031175 0.02201157 -0.013549737 -0.008298841 0.037409227 0.002603502
0.021900576 -0.0034486665 0.003432945 0.008535401 0.007004364 -0.028053485 0.021683704 -0.012658251
0.026303222 -0.0025864176 -0.0061063683 0.0063922964 -0.0058053434 2.4241584e-05 0.004866819 0.013307541
-0.008222971 -0.0009865023 -0.00020155741 0.02326781 -0.017142225 0.027957566 0.00890151 0.013533236
-0.0063534905 -0.015903404 -0.010907416 0.026337903 -0.011032181 -0.019705154 -0.021055521 0.0055275727
-0.050973173 0.016904835 -0.0016548904 0.010800885 -0.020736413 -0.010157524 -0.001963979 -0.0014181738
00000000: 800c cf3c fabd 413c 9e93 7d3b df15 d7bb
00000010: 4a26 24ba b510 913c fce5 283c 9643 cfbb
00000020: 493b 85bc 6975 89ba 4956 bc3c 4082 89bc
00000030: ec8c d63c 0780 96bb 5b55 dd3c b1f3 983c
00000040: c5de 553b b88c a83c 7f96 aa3c 4a49 a4bc
00000050: 921d 49bc e9c7 5f3c 7d37 563c 4433 843d
00000060: 3bfa b0ba 4a10 0b3c d70f 2d3b 96d4 5fbc
00000070: 5a95 2dbc 477b 78b9 f63e 4c3b f67d 97bb
00000080: 9228 09bb 69fa fabb f5b4 0fba 43ca 403c
00000090: 2a27 71ba f968 8b3b 4193 f0bb 8696 433d
000000a0: f880 dfbc d7a3 8ebc 61f9 d83c b133 8d3b
000000b0: 98f8 773c 5c70 b93a 1885 b2bc 09be 37bb
000000c0: 0b79 0e3d f9d3 9e3c 4e1e 24bc b2a5 bebb
000000d0: ecfc 98bb 0038 42bc d9fe 113a 603d 94bb
000000e0: eed3 90bb 5fd3 5dbc ffc8 47bc 898d d6b8
000000f0: 65c6 09bd 65e6 323c 8fe5 303c 4c12 913c
00000100: 64c6 55bb 4369 abbc d2ed 1fbc ccb7 d3bc
00000110: 11bb 6e3b f2a9 143d 1a55 c0bc 09a3 313c
00000120: baa8 b6bc eea1 94bc 39c6 3a3d feb8 e1ba
00000130: 147d f0bb 45e6 48bc b156 0abc 3219 53ba
00000140: 8820 2dba bb29 1c3c 9e4e 74bc ab56 34bc
00000150: dd49 a3ba 708c 87bc 0c03 6dbc db95 5fbc
00000160: 4c68 6c3c d709 1c3d 58d8 333a 51d0 30bc
00000170: 12d5 a93c a46f d23b e6d8 33bb 9689 b6bb
00000180: 8706 83bc 59d8 16bd 2b53 163c eb3d c9bc
00000190: b1ca 6c3c 79f7 643b f2cc 2abc 3ec9 c7bc
000001a0: 959a 60ba fc0d 6f3c dc9e 62bb f0d1 cdbb
000001b0: 4a93 24bc 1f07 60ba dc28 413c 49df 65bc
000001c0: e6f3 503c 3d9a 35bc d03e 373c 4020 e9bb
000001d0: 7390 84bd 387a d03b dae6 cdbb a81a 4dbc
000001e0: cd1d bbbc ad73 68bc 342b 4f3b 8d2f 113d
000001f0: 379a 9d3c a5dc 68bc 9632 3dbc b081 f9bb
00000200: e7f8 cc3b 4239 cab9 26e5 163c df0d 443c
00000210: 4547 03bc a0b9 44bc cb80 d3b9 a337 533b
00000220: 5604 f33c bd9f 04bd 44a6 143d 038a 923b
00000230: cf54 03bd f132 163c cc84 15bd dc64 0fbc
00000240: 3212 8f3c 1f50 1a3b e225 63bc d1fb 10bb
00000250: fcef ba3c 42cf f83c 8965 61bb 15ea f23b
00000260: cc44 543b 8e3c 463c 7d85 69bb 0b7b 573c
00000270: 65a8 983b 4bd6 52bc 971c 82bb 91cc c4ba
00000280: d42f 3f3d dbe6 c0b9 ec7e 213c ea81 c03c
00000290: 11d3 f93c 816f 5dbc 03b7 153d 9691 c63c
000002a0: 80cf 0bb7 4cf4 dbbc d0be 60bc c609 3f3c
000002b0: a961 26bd cade 9fbc f9d8 1bbd 0781 973c
000002c0: 51cb 1c3c 7465 38bc f436 94bb 36c2 89ba
000002d0: 2b9a a93c b937 633c bde3 083c edd9 f73b
000002e0: e186 29bb df53 883c 2048 67bc 5263 d4bb
000002f0: 4c5b eaba c42f b2b9 cf16 dd3c 21c7 8dbc
00000300: 99f5 313c da61 8f3b 3741 c6bc 176e d2bc
00000310: 4cec e63b fe45 a63c dde2 fb3b ac00 41bd
00000320: 5bea 31bb 77c4 1739 44f5 e9bb 76f8 10bc
00000330: f501 fd36 445f 14bc b0d5 63ba f040 0fba
00000340: f527 93bc 4e34 90b9 2108 ecbb 9c51 b43c
00000350: b7ff 5dbc ddf7 07bc 6b3a 193d 849f 2a3b
00000360: d668 b33c 0603 62bb 43fb 603b 11d8 0b3c
00000370: dd84 e53b 6cd0 e5bc 06a2 b13c 8e64 4fbc
00000380: db79 d73c e380 29bb ee17 c8bb 7876 d13b
00000390: c03a bebb 685a cb37 d679 9f3b df07 5a3c
000003a0: a4b9 06bc 864d 81ba 2859 53b9 229c be3c
000003b0: da6d 8cbc 4407 e53c a4d7 113c 82ba 5d3c
000003c0: f130 d0bb db47 82bc 05b5 32bc 96c2 d73c
000003d0: 52c0 34bc b46c a1bc a17c acbc a420 b53b
000003e0: 3fc9 50bd 027c 8a3c e8e8 d8ba 32f6 303c
000003f0: 69df a9bc be6b 26bc 1ab6 00bb 04e2 b9ba

conv3.bias f4 [32]
-0.028312234 0.00064546225 -0.0294272 0.00606465 0.008743525 -0.0064094514 -0.002375377 -0.0042624497
-0.035332303 0.030941114 -0.005186213 0.042443078 -0.0021864336 -0.021420434 0.025184924 -0.04413708
0.05613879 0.019748734 -0.016820658 0.016186295 -0.00097342033 -0.026830906 -0.0030859048 0.033138506
-0.004168368 0.035376027 -0.0023673582 0.06542394 -0.027179295 0.031471528 -0.0040220628 0.058376465
00000000: 0fef e7bc 3d34 293a 5011 f1bc f9b9 c63b
00000010: 0041 0f3c 6006 d2bb 37ac 1bbb 05ac 8bbb
00000020: 9bb8 10bd 3878 fd3c 1cf1 a9bb cbd8 2d3d
00000030: 454a 0fbb e879 afbc 9d50 ce3c 15c9 34bd
00000040: caf1 653d 19c8 a13c 7acb 89bc 1f99 843c
00000050: 222d 7fba 7dcc dbbc e43c 4abb 3ebc 073d
00000060: ce96 88bb 74e6 103d ae25 1bbb fdfc 853d
00000070: 1da7 debc 4ae8 003d 82cb 83bb 291c 6f3d

fc1.weight f4 [8, 32]
0.056325644 0.27720013 -0.2614405 0.3882047 -0.13707887 -0.007740821 0.014908395 0.14428258
0.020423269 -0.051047746 -0.07408314 0.12858301 -0.060712717 -0.14354864 -0.057127323 -0.32241336
0.003210153 0.24327293 -0.039964896 0.116757475 0.04904601 0.16414385 -0.0038708178 0.35890168
-0.010959456 -0.13712206 0.04088227 0.016930176 -0.39704692 0.009147916 0.4488256 -0.07842232
0.124472566 0.06551729 -0.09932439 -0.19197616 -0.09340456 0.17412293 -5.6694273e-05 0.0005377968
-0.23469462 0.10239744 0.028550355 0.03563818 0.057085104 -0.0067631924 -0.07334652 -0.17198284
0.35707936 -0.12560008 -0.28336293 0.42693022 -0.032333508 -0.16280536 0.021418398 0.012266611
0.044284184 -0.006570635 -0.000633081 0.15103836 0.052340016 -0.0668914 -0.06702427 0.25409853
0.056362096 0.11925476 0.04365485 0.20525281 -0.009051848 0.30396995 -0.010179156 -0.0012400539
0.31780326 -0.03286992 -0.16531757 -0.043900345 -0.27240115 0.12707447 -0.6561331 0.034697562
-0.12263034 0.19938937 -0.22706409 0.06954893 -0.004487234 0.12167851 -0.08465796 0.060174827
-0.06528574 -0.32683513 -0.0004800801 -0.2721489 0.011604969 -0.04920593 0.29450113 -0.29025093
0.17215148 -0.09281618 -0.03283857 0.20761307 0.1185395 -0.06857348 0.091353014 7.1074646e-05
-0.067334265 -0.20810114 -0.0025985113 -0.2011377 0.14041771 -0.014430633 0.34733716 0.03732649
-0.03455498 -0.19606312 0.23055151 -0.22166325 0.0019926724 -0.10647494 0.02324454 -0.08392689
0.1887778 -0.14954706 -0.00040807744 -0.3375983 0.0035213558 -0.18036027 -0.36935908 0.04922731
0.19681002 0.056466438 0.18654142 -0.04774719 -0.25018835 0.0028119716 -0.010192675 -0.05597458
-0.08307809 -0.39073157 -0.1934788 -0.25659388 0.23247336 -0.011934066 0.23299667 0.12083624
-0.19730501 -0.092516735 -0.003924497 -0.024832118 -0.0174421 0.07511543 0.0012932199 0.26160508
0.09742948 -0.16041255 -0.13700631 -0.18893515 -0.13994795 -0.40084332 0.06360111 -0.41243687
0.11330355 -0.18072945 0.41272837 0.07934677 0.0832177 -0.29216352 -0.07236862 -0.00088759244
0.00043531647 0.1376546 0.4419176 0.043982115 -0.029485876 -0.023481218 -0.13600585 0.14976144
-0.16669889 0.100124225 -0.124292485 -0.3314532 -0.003261896 0.0012275681 0.09588497 -0.07484578
0.18702458 0.112517096 -0.05165003 -0.05926736 -0.11110552 0.14350891 0.17376906 -0.1476329
-0.05106217 -0.3592221 -0.019603647 -0.025644017 -0.071278185 0.23450406 -2.4759045e-05 9.031879e-05
0.120925605 -0.15364234 -0.052995794 -0.16788691 -0.23378727 0.27393395 0.11294599 -0.23902345
0.014147432 0.37876478 -0.05189297 -0.34731627 -0.008721964 -0.17228349 0.009195657 0.306266
-0.010835442 -0.02557378 -7.0828646e-05 -0.016841793 -0.011188332 0.10432538 -0.15093988 -0.067711644
-0.11158212 -0.11120554 0.12479916 0.45733598 0.3500538 -0.33726546 -4.731719e-05 0.012398896
-0.097638346 0.31878406 -0.05759359 -0.0006835121 -0.05556641 -0.28696123 0.0996491 0.08356271
0.3887817 0.028130395 -0.21079819 -0.25571644 0.0026706483 -0.35952798 -0.029077463 0.09641277
0.14261702 0.20366788 -0.09738755 0.14464416 -0.15289189 0.13972639 0.062479418 0.080238566
00000000: b8b5 663d 2ded 8d3e 87db 85be c4c2 c63e
00000010: 675e 0cbe b7a6 fdbb 5742 743c d0be 133e
00000020: b34e a73c 7117 51bd e7b8 97bd 44ab 033e
00000030: e6ad 78bd 6afe 12be 57fe 69bd 5d13 a5be
00000040: 6e61 523b 8a1c 793e 3bb2 23bd 8b1e ef3d
00000050: 78e4 483d 5315 283e 8cad 7dbb f6c1 b73e
00000060: 4a8f 33bc ba69 0cbe 2b74 273d 27b1 8a3c
00000070: bc49 cbbe 24e1 153c 78cc e53e e29b a0bd
00000080: 79eb fe3d ee2d 863d 966a cbbd 6695 44be
00000090: e44a bfbd 484d 323e 03cb 6db8 effa 0c3a
000000a0: c953 70be c0b5 d13d 6fe2 e93c 57f9 113d
000000b0: 12d2 693d c59d ddbb b336 96bd 451c 30be
000000c0: 1bd3 b63e 4f9d 00be f214 91be 9996 da3e
000000d0: 2470 04bd 73b6 26be a375 af3c e5f9 483c
000000e0: 5563 353d 7b4e d7bb 59f5 25ba cda9 1a3e
000000f0: 7c62 563d 5cfe 88bd 0544 89bd 3419 823e
00000100: f1db 663d d73b f43d 6ecf 323d cb2d 523e
00000110: 344e 14bc f3a1 9b3e 7ac6 26bc 4e89 a2ba
00000120: 1cb7 a23e 9ca2 06bd 0249 29be d9d0 33bd
00000130: 2a78 8bbe cf1f 023e 57f8 27bf 081f 0e3d
00000140: 9e25 fbbd ba2c 4c3e 7d83 68be ab6f 8e3d
00000150: a609 93bb 9532 f93d 2761 adbd e179 763d
00000160: 88b4 85bd ef56 a7be 43b3 fbb9 1a57 8bbe
00000170: c522 3e3c 288c 49bd dac8 963e c59b 94be
00000180: 7a48 303e 6916 bebd bd81 06bd 8598 543e
00000190: d6c4 f23d 4170 8cbd 4a17 bb3d e90d 9538
000001a0: 8ce6 89bd 7718 55be c94b 2abb 0bf7 4dbe
000001b0: a9c9 0f3e 766e 6cbc 2dd6 b13e a9e3 183d
000001c0: 8689 0dbd c5c4 48be b215 6c3e b1fb 62be
000001d0: 7f97 023b 890f dabd 556b be3c dce1 abbd
000001e0: f84e 413e dd22 19be 3af3 d5b9 afd9 acbe
000001f0: 8cc6 663b 5db0 38be a21c bdbe 93a2 493d
00000200: 9188 493e 5a49 673d b704 3f3e 8f92 43bd
00000210: b018 80be 0e49 383b 2dff 26bc 9a45 65bd
00000220: d824 aabd f80d c8be 4e1f 46be 4660 83be
00000230: 7f0d 6e3e 1a87 43bc ae96 6e3e fe78 f73d
00000240: 530a 4abe 6a79 bdbd 1199 80bb ba6c cbbc
00000250: bce2 8ebc 1ed6 993d 4281 a93a 1af1 853e
00000260: 1b89 c73d 3043 24be 624b 0cbe 3778 41be
00000270: 844e 0fbe 563b cdbe 4c41 823d ed2a d3be
00000280: b10b e83d 2411 39be 2251 d33e 8f80 a23d
00000290: 0b6e aa3d 7596 95be 0036 94bd 52ad 68ba
000002a0: 303b e439 54f5 0c3e 0643 e23e 9726 343d
000002b0: 5d8c f1bc af5b c0bc 1e45 0bbe 105b 193e
000002c0: 1db3 2abe ee0d cd3d 0f8d febd 3cb4 a9be
000002d0: 89c5 55bb 5ae6 a03a 575f c43d bf48 99bd
000002e0: 5f83 3f3e 5d6f e63d fb8e 53bd 55c2 72bd
000002f0: 4a8b e3bd 00f4 123e 84f0 313e 142d 17be
00000300: 9126 51bd f6eb b7be d497 a0bc 6713 d2bc
00000310: 4cfa 91bd d521 703e a5b1 cfb7 8869 bd38
00000320: d8a7 f73d 6b54 1dbe 1e12 59bd 8cea 2bbe
00000330: ee65 6fbe 1241 8c3e 3a50 e73d 90c2 74be
00000340: a1ca 673c 75ed c13e b98d 54bd 70d3 b1be
00000350: 92e6 0ebc 156b 30be 62a9 163c e6ce 9c3e
00000360: 2387 31bc 1b80 d1bc d789 94b8 cdf7 89bc
00000370: 444f 37bc 8ba8 d53d fc8f 1abe 67ac 8abd
00000380: 2b85 e4bd bbbf e3bd b496 ff3d f127 ea3e
00000390: 403a b33e 0fae acbe 7276 46b8 bd24 4b3c
000003a0: 9df6 c7bd aa37 a33e 42e7 6bbd b82d 33ba
000003b0: 9b99 63bd 95ec 92be d414 cc3d ed22 ab3d
000003c0: 650e c73e b771 e63c 7bdb 57be 44ed 82be
000003d0: 0b06 2f3b 0d14 b8be dc33 eebc 0f74 c53d
000003e0: 320a 123e 508e 503e 2073 c7bd 991d 143e
000003f0: b18f 1cbe 6f14 0f3e 6bea 7f3d 1e54 a43d

fc1.bias f4 [8]
0.031964086 0.029604923 -0.04567789 -0.017746901 -0.019757168 -0.011537026 0.020031687 0.020206666
00000000: c6ec 023d 0686 f23c bd18 3bbd f361 91bc
00000010: c9d9 a1bc cb05 3dbc 7e19 a43c 7388 a53c

fc_1.weight f4 [8, 32]
0.056325644 0.27720013 -0.2614405 0.3882047 -0.13707887 -0.007740821 0.014908395 0.14428258
0.020423269 -0.051047746 -0.07408314 0.12858301 -0.060712717 -0.14354864 -0.057127323 -0.32241336
0.003210153 0.24327293 -0.039964896 0.116757475 0.04904601 0.16414385 -0.0038708178 0.35890168
-0.010959456 -0.13712206 0.04088227 0.016930176 -0.39704692 0.009147916 0.4488256 -0.07842232
0.124472566 0.06551729 -0.09932439 -0.19197616 -0.09340456 0.17412293 -5.6694273e-05 0.0005377968
-0.23469462 0.10239744 0.028550355 0.03563818 0.057085104 -0.0067631924 -0.07334652 -0.17198284
0.35707936 -0.12560008 -0.28336293 0.42693022 -0.032333508 -0.16280536 0.021418398 0.012266611
0.044284184 -0.006570635 -0.000633081 0.15103836 0.052340016 -0.0668914 -0.06702427 0.25409853
0.056362096 0.11925476 0.04365485 0.20525281 -0.009051848 0.30396995 -0.010179156 -0.0012400539
0.31780326 -0.03286992 -0.16531757 -0.043900345 -0.27240115 0.12707447 -0.6561331 0.034697562
-0.12263034 0.19938937 -0.22706409 0.06954893 -0.004487234 0.12167851 -0.08465796 0.060174827
-0.06528574 -0.32683513 -0.0004800801 -0.2721489 0.011604969 -0.04920593 0.29450113 -0.29025093
0.17215148 -0.09281618 -0.03283857 0.20761307 0.1185395 -0.06857348 0.091353014 7.1074646e-05
-0.067334265 -0.20810114 -0.0025985113 -0.2011377 0.14041771 -0.014430633 0.34733716 0.03732649
-0.03455498 -0.19606312 0.23055151 -0.22166325 0.0019926724 -0.10647494 0.02324454 -0.08392689
0.1887778 -0.14954706 -0.00040807744 -0.3375983 0.0035213558 -0.18036027 -0.36935908 0.04922731
0.19681002 0.056466438 0.18654142 -0.04774719 -0.25018835 0.0028119716 -0.010192675 -0.05597458
-0.08307809 -0.39073157 -0.1934788 -0.25659388 0.23247336 -0.011934066 0.23299667 0.12083624
-0.19730501 -0.092516735 -0.003924497 -0.024832118 -0.0174421 0.07511543 0.0012932199 0.26160508
0.09742948 -0.16041255 -0.13700631 -0.18893515 -0.13994795 -0.40084332 0.06360111 -0.41243687
0.11330355 -0.18072945 0.41272837 0.07934677 0.0832177 -0.29216352 -0.07236862 -0.00088759244
0.00043531647 0.1376546 0.4419176 0.043982115 -0.029485876 -0.023481218 -0.13600585 0.14976144
-0.16669889 0.100124225 -0.124292485 -0.3314532 -0.003261896 0.0012275681 0.09588497 -0.07484578
0.18702458 0.112517096 -0.05165003 -0.05926736 -0.11110552 0.14350891 0.17376906 -0.1476329
-0.05106217 -0.3592221 -0.019603647 -0.025644017 -0.071278185 0.23450406 -2.4759045e-05 9.031879e-05
0.120925605 -0.15364234 -0.052995794 -0.16788691 -0.23378727 0.27393395 0.11294599 -0.23902345
0.014147432 0.37876478 -0.05189297 -0.34731627 -0.008721964 -0.17228349 0.009195657 0.306266
-0.010835442 -0.02557378 -7.0828646e-05 -0.016841793 -0.011188332 0.10432538 -0.15093988 -0.067711644
-0.11158212 -0.11120554 0.12479916 0.45733598 0.3500538 -0.33726546 -4.731719e-05 0.012398896
-0.097638346 0.31878406 -0.05759359 -0.0006835121 -0.05556641 -0.28696123 0.0996491 0.08356271
0.3887817 0.028130395 -0.21079819 -0.25571644 0.0026706483 -0.35952798 -0.029077463 0.09641277
0.14261702 0.20366788 -0.09738755 0.14464416 -0.15289189 0.13972639 0.062479418 0.080238566
00000000: b8b5 663d 2ded 8d3e 87db 85be c4c2 c63e
00000010: 675e 0cbe b7a6 fdbb 5742 743c d0be 133e
00000020: b34e a73c 7117 51bd e7b8 97bd 44ab 033e
00000030: e6ad 78bd 6afe 12be 57fe 69bd 5d13 a5be
00000040: 6e61 523b 8a1c 793e 3bb2 23bd 8b1e ef3d
00000050: 78e4 483d 5315 283e 8cad 7dbb f6c1 b73e
00000060: 4a8f 33bc ba69 0cbe 2b74 273d 27b1 8a3c
00000070: bc49 cbbe 24e1 153c 78cc e53e e29b a0bd
00000080: 79eb fe3d ee2d 863d 966a cbbd 6695 44be
00000090: e44a bfbd 484d 323e 03cb 6db8 effa 0c3a
000000a0: c953 70be c0b5 d13d 6fe2 e93c 57f9 113d
000000b0: 12d2 693d c59d ddbb b336 96bd 451c 30be
000000c0: 1bd3 b63e 4f9d 00be f214 91be 9996 da3e
000000d0: 2470 04bd 73b6 26be a375 af3c e5f9 483c
000000e0: 5563 353d 7b4e d7bb 59f5 25ba cda9 1a3e
000000f0: 7c62 563d 5cfe 88bd 0544 89bd 3419 823e
00000100: f1db 663d d73b f43d 6ecf 323d cb2d 523e
00000110: 344e 14bc f3a1 9b3e 7ac6 26bc 4e89 a2ba
00000120: 1cb7 a23e 9ca2 06bd 0249 29be d9d0 33bd
00000130: 2a78 8bbe cf1f 023e 57f8 27bf 081f 0e3d
00000140: 9e25 fbbd ba2c 4c3e 7d83 68be ab6f 8e3d
00000150: a609 93bb 9532 f93d 2761 adbd e179 763d
00000160: 88b4 85bd ef56 a7be 43b3 fbb9 1a57 8bbe
00000170: c522 3e3c 288c 49bd dac8 963e c59b 94be
00000180: 7a48 303e 6916 bebd bd81 06bd 8598 543e
00000190: d6c4 f23d 4170 8cbd 4a17 bb3d e90d 9538
000001a0: 8ce6 89bd 7718 55be c94b 2abb 0bf7 4dbe
000001b0: a9c9 0f3e 766e 6cbc 2dd6 b13e a9e3 183d
000001c0: 8689 0dbd c5c4 48be b215 6c3e b1fb 62be
000001d0: 7f97 023b 890f dabd 556b be3c dce1 abbd
000001e0: f84e 413e dd22 19be 3af3 d5b9 afd9 acbe
000001f0: 8cc6 663b 5db0 38be a21c bdbe 93a2 493d
00000200: 9188 493e 5a49 673d b704 3f3e 8f92 43bd
00000210: b018 80be 0e49 383b 2dff 26bc 9a45 65bd
00000220: d824 aabd f80d c8be 4e1f 46be 4660 83be
00000230: 7f0d 6e3e 1a87 43bc ae96 6e3e fe78 f73d
00000240: 530a 4abe 6a79 bdbd 1199 80bb ba6c cbbc
00000250: bce2 8ebc 1ed6 993d 4281 a93a 1af1 853e
00000260: 1b89 c73d 3043 24be 624b 0cbe 3778 41be
00000270: 844e 0fbe 563b cdbe 4c41 823d ed2a d3be
00000280: b10b e83d 2411 39be 2251 d33e 8f80 a23d
00000290: 0b6e aa3d 7596 95be 0036 94bd 52ad 68ba
000002a0: 303b e439 54f5 0c3e 0643 e23e 9726 343d
000002b0: 5d8c f1bc af5b c0bc 1e45 0bbe 105b 193e
000002c0: 1db3 2abe ee0d cd3d 0f8d febd 3cb4 a9be
000002d0: 89c5 55bb 5ae6 a03a 575f c43d bf48 99bd
000002e0: 5f83 3f3e 5d6f e63d fb8e 53bd 55c2 72bd
000002f0: 4a8b e3bd 00f4 123e 84f0 313e 142d 17be
00000300: 9126 51bd f6eb b7be d497 a0bc 6713 d2bc
00000310: 4cfa 91bd d521 703e a5b1 cfb7 8869 bd38
00000320: d8a7 f73d 6b54 1dbe 1e12 59bd 8cea 2bbe
00000330: ee65 6fbe 1241 8c3e 3a50 e73d 90c2 74be
00000340: a1ca 673c 75ed c13e b98d 54bd 70d3 b1be
00000350: 92e6 0ebc 156b 30be 62a9 163c e6ce 9c3e
00000360: 2387 31bc 1b80 d1bc d789 94b8 cdf7 89bc
00000370: 444f 37bc 8ba8 d53d fc8f 1abe 67ac 8abd
00000380: 2b85 e4bd bbbf e3bd b496 ff3d f127 ea3e
00000390: 403a b33e 0fae acbe 7276 46b8 bd24 4b3c
000003a0: 9df6 c7bd aa37 a33e 42e7 6bbd b82d 33ba
000003b0: 9b99 63bd 95ec 92be d414 cc3d ed22 ab3d
000003c0: 650e c73e b771 e63c 7bdb 57be 44ed 82be
000003d0: 0b06 2f3b 0d14 b8be dc33 eebc 0f74 c53d
000003e0: 320a 123e 508e 503e 2073 c7bd 991d 143e
000003f0: b18f 1cbe 6f14 0f3e 6bea 7f3d 1e54 a43d

fc_1.bias f4 [8]
0.031964086 0.029604923 -0.04567789 -0.017746901 -0.019757168 -0.011537026 0.020031687 0.020206666
00000000: c6ec 023d 0686 f23c bd18 3bbd f361 91bc
00000010: c9d9 a1bc cb05 3dbc 7e19 a43c 7388 a53c
