checkpoints/source/epoch=10.checkpoint.pth.tar (torch, 319424 bytes, 10 tensors)

conv1.weight f4 [16, 3, 5, 5]
0	0x3e50d412	0.20393398
1	0x3e29abc9	0.16569437
2	0x3d8e3803	0.06944277
3	0xbe73e203	-0.23816685
4	0x3d7e22ec	0.062045023
5	0xbdf5bcf8	-0.119989336
6	0xbbc430a8	-0.0059872456
7	0xbe5e4fa1	-0.21710064
8	0xbe0615b0	-0.1309421
9	0x3e1f23d3	0.1554101
10	0xbcf26d02	-0.029592995
11	0xbdf5a39a	-0.11994095
12	0xbe026593	-0.1273406
13	0xbdf413b2	-0.11917819
14	0xbdc0859f	-0.09400486
15	0x3dda176e	0.10649
16	0x3e543a45	0.20725353
17	0xbcd74e55	-0.026282469
18	0xbdbd41c5	-0.0924106
19	0x3c640c0c	0.013918888
20	0xbd4dc521	-0.050236825
21	0x3e1474dc	0.14497703
22	0x3db62fbd	0.08895824
23	0x3e1a6133	0.15076141
24	0x3de15f33	0.11004486
25	0x3e0fef2a	0.14056078
26	0x3da5527c	0.08072373
27	0x3df08b3f	0.11745309
28	0xbd6fdf0f	-0.058562335
29	0x3a196863	0.00058520416
30	0xbcb8f974	-0.022579886
31	0x3dab8c63	0.08376386
32	0xbe40f3c3	-0.18842988
33	0xbe12188e	-0.1426718
34	0xbcc91895	-0.024547854
35	0x3e38fb49	0.18064608
36	0x3d4cc3bb	0.04999135
37	0xbdb73dc8	-0.08947331
38	0xbcfc1fb3	-0.030776834
39	0xbdba8f06	-0.09109311
40	0xbe0462a9	-0.12928261
41	0x3e0eefcb	0.13958661
42	0xbdc1f690	-0.09470856
43	0xbdc953aa	-0.09830411
44	0xbe16b871	-0.14718796
45	0x3e7484a1	0.23878719
46	0xbdb67374	-0.0890874
47	0xbd1c2916	-0.03812512
48	0xbdcd5f09	-0.10027892
49	0xbd93dacf	-0.07219469
50	0x3c80b3d5	0.01571075
51	0x3d8cd73f	0.068769924
52	0xbd7359ff	-0.059412
53	0x3dad31f6	0.08456795
54	0xbdb1abcb	-0.08675345
55	0xbd9600de	-0.07324384
56	0xbe0f27df	-0.13980053
57	0xbd3b7d20	-0.045773625
58	0xbd74f0be	-0.059799902
59	0x3d6ce4f3	0.05783553
60	0xbac9f2f2	-0.0015407486
61	0x3e4ce606	0.20009622
62	0xbe20bc9d	-0.1569695
63	0x3da95151	0.08267463
64	0x3e01518e	0.12628767
65	0x3de2750a	0.1105748
66	0x3e83760c	0.25676
67	0x3d2e6648	0.04257801
68	0x3b2114e1	0.0024579095
69	0xbd18acc3	-0.037274133
70	0xbdabd655	-0.0839049
71	0x3e217d75	0.15770514
72	0xbc39e069	-0.011345007
73	0x3d326fd2	0.04356367
74	0xbadff77c	-0.0017087306
75	0x3c4cdd72	0.012503969
76	0x3d02f53a	0.031972148
77	0xbdb43de4	-0.08800867
78	0xbe799f66	-0.24377212
79	0xbdbc9655	-0.09208361
80	0xbd0fdaf1	-0.03512091
81	0xbd830082	-0.06396581
82	0xbe28ac0d	-0.16471882
83	0xbdb7faeb	-0.08983406
84	0x3ce66a77	0.028126938
85	0x3ca1bcd4	0.01974336
86	0x3d96d917	0.07365625
87	0xbd2b48cd	-0.041817475
88	0x3ce54009	0.027984636
89	0xbd97d9fc	-0.07414624
90	0xbe093b21	-0.13401462
91	0x3c9c1e8d	0.019057536
92	0xbe5c79ef	-0.21530889
93	0xbdfcfb6e	-0.12352644
94	0x3dcea3cc	0.100898355
95	0x3c1e4058	0.009658895
96	0xbe8f79aa	-0.2802251
97	0x3c219126	0.009861266
98	0x3d279e92	0.04092271
99	0xbcc7729d	-0.024346644
100	0x3d99066f	0.0747193
101	0x3d983a0f	0.07432949
102	0x3df7e927	0.12105017
103	0xbd0cea21	-0.03440297
104	0xbb8c673d	-0.004284768
105	0x3da691e0	0.08133292
106	0x3d58a72f	0.052893814
107	0x3cd62a5a	0.026143242
108	0x3d0ed853	0.03487427
109	0x3e0adff0	0.13561988
110	0x3bb57635	0.005537773
111	0xbcd59f65	-0.026076982
112	0xbe165a7e	-0.14682958
113	0xbc3f80ca	-0.011688421
114	0xbd4bad69	-0.049725924
115	0x3d4bf2d6	0.049792133
116	0x3d915123	0.07095554
117	0xba165025	-0.00057339884
118	0xbd2cd67c	-0.042196736
119	0x3d714960	0.058907866
120	0xbb3b3bbb	-0.0028569538
121	0x3cd6e61b	0.02623277
122	0x3c8971d7	0.016777916
123	0x3da17a99	0.07884712
124	0x3deb83ea	0.1149977
125	0x3d834753	0.064100884
126	0x3dd8ae0e	0.10580073
127	0x3d977c4f	0.07396757
128	0x3e5cb38b	0.21552865
129	0x3e003adb	0.12522452
130	0xbdebabe5	-0.11507396
131	0xbda04819	-0.078262515
132	0x3c6e41e6	0.014542079
133	0x3e3e5d1a	0.18590203
134	0x3db5dcfa	0.088800386
135	0x3da3e47e	0.08002566
136	0x3e09f3a9	0.13471855
137	0x3c82aeef	0.015952555
138	0xbe224cf2	-0.15849665
139	0x3de94466	0.11389999
140	0xbc9623bd	-0.018327588
141	0x3ded51b9	0.11587853
142	0xbd7b91d9	-0.061418388
143	0x3d919e47	0.07110267
144	0xbd9f4db0	-0.077784896
145	0x3dd26497	0.10273092
146	0x3e2e6280	0.17029762
147	0x3e1c5cdd	0.152698
148	0x3d0e79f9	0.03478429
149	0xbc1a4783	-0.009416464
150	0xbc88594d	-0.016644144
151	0x3d45c25f	0.04828107
152	0x3cae5228	0.02127941
153	0x3d9df497	0.077126674
154	0xbd2403dd	-0.040042747
155	0x3e2e59eb	0.17026488
156	0xbe8436db	-0.258231
157	0xbd8ada3f	-0.067799084
158	0xbe10da74	-0.14145833
159	0x3d99146e	0.074746
160	0xbe6710b8	-0.22564971
161	0xbc3143aa	-0.010819355
162	0xbca53b6c	-0.020169936
163	0xbd2a4089	-0.04156545
164	0x3d3b1d5d	0.0456823
165	0xbdc6e76f	-0.09712111
166	0xbb595f2d	-0.0033168301
167	0xbde01a29	-0.1094249
168	0xbe0f1434	-0.1397255
169	0x3e3db4f5	0.18526061
170	0x3e0931d3	0.13397913
171	0xba9f429c	-0.0012150588
172	0xbe0f36da	-0.13985768
173	0x3defb550	0.117045045
174	0x3e1029bd	0.14078422
175	0x3e857105	0.2606279
176	0x3d38627e	0.045015804
177	0x3b4d3668	0.0031312946
178	0xbdc959b6	-0.09831564
179	0xbcb59719	-0.022166776
180	0xbd8e89de	-0.0695989
181	0xbe25e961	-0.16202308
182	0xbe0934e2	-0.1339908
183	0xbd96a750	-0.07356131
184	0xbd738efa	-0.059462525
185	0xbe3595f0	-0.17732978
186	0xbe6217ca	-0.22079387
187	0xbb78ef1c	-0.0037984317
188	0x3dc0ce4e	0.094143495
189	0xbd102cc0	-0.035198927
190	0x3d56a2df	0.05240142
191	0x3d570322	0.052493222
192	0x3e2d5ab3	0.1692913
193	0xbda42c48	-0.080162585
194	0x3e100e4b	0.14067952
195	0xbc92383d	-0.017849082
196	0xbdf50521	-0.11963869
197	0x3d1ee785	0.038795013
198	0x3da15c4e	0.07878934
199	0x3e3fff1e	0.18749663
200	0x3dd580ee	0.10424982
201	0x3e742c54	0.23845035
202	0xbd683566	-0.05669155
203	0xbdd6aea0	-0.10482526
204	0x3cb2189e	0.021740254
205	0x3dfbc009	0.12292487
206	0x3df16dc6	0.11788516
207	0x3cbbb599	0.022913741
208	0xbdcbeba1	-0.09957052
209	0xbdd716d4	-0.10502401
210	0xbd9320f4	-0.0718402
211	0xbdaedbb7	-0.08538001
212	0x3aafc7bf	0.0013410969
213	0x3d1a799c	0.037713632
214	0x3a4da68f	0.00078449486
215	0xbe77ffda	-0.24218693
216	0xbd68bdbe	-0.056821577
217	0x3dc4f3d6	0.096168205
218	0xbe327f23	-0.17431311
219	0x3e35f738	0.17770088
220	0x3d43eefb	0.04783533
221	0xbd6c9a71	-0.057764474
222	0x3dbcf5d8	0.092265785
223	0x3e37c930	0.1794784
224	0x3ce5d641	0.028056266
225	0x3e3c9fcc	0.18420333
226	0x3d1ab611	0.03777129
227	0xbdd53709	-0.10410888
228	0xbdb73206	-0.08945088
229	0xbd4112c7	-0.047137048
230	0x3d709136	0.058732234
231	0x3e692a25	0.22769983
232	0x3a7704a0	0.00094229914
233	0xbe06cc69	-0.13163914
234	0xbe882f46	-0.26598567
235	0xbdcef931	-0.10106123
236	0x3cce1547	0.02515663
237	0x3c8b1b33	0.016980743
238	0xbc2ed8c3	-0.010671797
239	0xbcf3cc5c	-0.029760532
240	0xbdc5166f	-0.096234195
241	0x3d26db06	0.04073622
242	0xbd0f92e9	-0.035052214
243	0x3d17d03b	0.03706382
244	0xbe12d12c	-0.14337605
245	0xbc19cfde	-0.009387938
246	0xbc952dec	-0.018210374
247	0x3e1f365a	0.15548077
248	0x3de0fd16	0.10985772
249	0xbe0120bf	-0.12610148
250	0x3dcb7e29	0.099361725
251	0x3d8f02da	0.06982966
252	0x3d51ab48	0.051188737
253	0x3cbcd6ba	0.023051608
254	0xbb094d65	-0.0020950672
255	0x3d1c2e25	0.038129944

conv1.bias f4 [16]
0	0xbd9160c7	-0.07098537
1	0x3d284703	0.041083347
2	0xbd69cff6	-0.057083093
3	0xbd30411f	-0.043030854
4	0xbd56885d	-0.05237614
5	0xbd8f7ca6	-0.07006197
6	0x3c0348b5	0.00801294
7	0xbcbb2e1d	-0.022849137
8	0xbd10c081	-0.035339836
9	0x3d7b9e10	0.061430037
10	0x3ca7aebc	0.020469062
11	0x3d05f481	0.03270388
12	0xbb405368	-0.002934659
13	0xbb00e144	-0.0019665519
14	0xbd6db65d	-0.058035243
15	0x3c62ae81	0.01383555

conv2.weight f4 [64, 16, 5, 5]
0	0x3ccd7aa9	0.025082903
1	0x3b852f65	0.0040644878
2	0x3c3a9d20	0.011390001
3	0x3dbe41dc	0.092899054
4	0x3d87e998	0.06636351
5	0x3bdcb5d7	0.006735544
6	0xbb4e3fac	-0.0031471057
7	0x3c6b6b2a	0.014368812
8	0x3bcdfff4	0.0062866155
9	0xbc8d43bd	-0.017244214
10	0x3c34a908	0.011026628
11	0x3dcdea40	0.10054445
12	0xbd65c61d	-0.05609714
13	0x3c7374d4	0.014859397
14	0x3d98968e	0.07450591
15	0x3b17c2bc	0.0023156842
16	0x3d145f57	0.036223736
17	0x3d993628	0.074810326
18	0x3dd210d2	0.102571145
19	0x3d6f2529	0.058385048
20	0xbbbbdd2f	-0.0057331542
21	0x3d92e622	0.071728006
22	0x3d0f4fde	0.034988277
23	0x3c9a9cf2	0.018873665
24	0xbd34fa8d	-0.044184256
25	0x3cbae351	0.022813471
26	0xbd038d93	-0.032117438
27	0xbcb5cf4e	-0.022193577
28	0xbcdfe86e	-0.02733251
29	0x3cb0ed23	0.02159745
30	0xbd13e9b2	-0.03611154
31	0xbcd99a13	-0.026562726
32	0x3a7b65db	0.0009590068
33	0xbd5407ac	-0.05176513
34	0xbd6b3a3e	-0.05742859
35	0xbca39782	-0.019969705
36	0xbc11cb4c	-0.008898567
37	0xbd90aa3d	-0.070637204
38	0x3cefcc20	0.02927214
39	0xbdbf924c	-0.09354076
40	0x3d3dec27	0.04636779
41	0xbc495c97	-0.012290142
42	0xbd78ed6a	-0.06077329
43	0x3c8df65d	0.01732939
44	0xbd3e58a5	-0.046471257
45	0xbcbf502a	-0.023353655
46	0x3c32b113	0.010906476
47	0x3d090c54	0.033459023
48	0xbce438a1	-0.027859034
49	0xbba7498c	-0.005105203
50	0xbcbc2300	-0.022965908
51	0x3ba5e380	0.0050625205
52	0xbd1b18d0	-0.03786546
53	0x3d8c9945	0.06865171
54	0x3d11152b	0.035420578
55	0x3c56f472	0.013119804
56	0xbbf8caae	-0.0075925207
57	0xbb64d5e5	-0.003491753
58	0xbcc2bec1	-0.0237726
59	0xbc64d91c	-0.0139677785
60	0xbc47bf0d	-0.012191546
61	0xbc1f4e37	-0.009723238
62	0x3cc07053	0.02349106
63	0x3dcb6025	0.099304475
64	0xbd85a506	-0.06525616
65	0xbb81a08d	-0.0039559067
66	0x3cfd76e8	0.030940488
67	0x3d9156c8	0.0709663
68	0x3d567dd2	0.052366085
69	0x3d20fe3b	0.039304953
70	0xbc854082	-0.016266111
71	0xbcf30617	-0.02966599
72	0x3e0d65ff	0.1380844
73	0xbd0cd6af	-0.034384426
74	0x3cec484f	0.028843073
75	0xbd364ffc	-0.044509873
76	0xbc7a0a2f	-0.015261217
77	0xbba1ab5f	-0.004933759
78	0xbc694a74	-0.014238942
79	0xbc168215	-0.009186287
80	0xb9bc9188	-0.00035966584
81	0x3c2a1e63	0.010383221
82	0x3ced4680	0.028964281
83	0x3cdd28c5	0.02699698
84	0x3d3f18d9	0.046654556
85	0xbbb75bf5	-0.005595679
86	0x3dc0ef37	0.094206266
87	0x3abb5e06	0.0014294989
88	0x3c11a707	0.00888992
89	0xbb1f2910	-0.002428595
90	0x3c1b8cb9	0.009494
91	0x3b3cdd4d	0.002881843
92	0x3cd0fa17	0.025509877
93	0x3db285b2	0.087169066
94	0xbd0c9a29	-0.034326706
95	0xbc2e400d	-0.010635388
96	0x3d046231	0.032320205
97	0x3c8d6b25	0.017263005
98	0x3d61ee52	0.05515892
99	0x3d84c738	0.064833105
100	0xbd1f33ca	-0.03886775
101	0xba0bfa4d	-0.0005339727
102	0xbca729cf	-0.020405678
103	0x3d58d77b	0.052939873
104	0x3cfb8a9c	0.030705743
105	0xbcd5d651	-0.02610317
106	0xbd561fad	-0.052276302
107	0x3c78b7be	0.015180526
108	0x3c95f42e	0.01830491
109	0x3c82c0b9	0.015961038
110	0xbd32b80d	-0.043632556
111	0xbd1f6ef7	-0.038924184
112	0x3ceab92f	0.028652756
113	0xbd2b1fc0	-0.041778326
114	0xbdb86ad4	-0.09004751
115	0xbd147f48	-0.036254197
116	0x3d2ff2d6	0.042956196
117	0x3d6ecdf7	0.058301892
118	0x3cac2128	0.021011904
119	0x3d880f15	0.06643502
120	0x3d64a55d	0.055821765
121	0x3bcea29b	0.006306005
122	0x3c3f8070	0.011688337
123	0x3ce74517	0.028231187
124	0x3c96af1f	0.018394051
125	0x3c03ac68	0.00803671
126	0xbd277d58	-0.04089102
127	0xbc725daa	-0.014792839
128	0x3c9c07f3	0.01904676
129	0xbcd5a558	-0.026079819
130	0x3cf07729	0.029353695
131	0x3cae4ec3	0.02127779
132	0xbd7a3ac6	-0.061091207
133	0x3d4da9a8	0.050210625
134	0xbc4e1cee	-0.01258014
135	0xbc477017	-0.01217272
136	0x3bd899a4	0.0066101123
137	0x3cc9db13	0.024640596
138	0x3d2001dd	0.039064277
139	0x3d5153a4	0.051105157
140	0x3daa5321	0.08316637
141	0x3df02f2e	0.11727749
142	0x3d0c0568	0.034184843
143	0xbc01c223	-0.007919821
144	0x3c55d883	0.013052109
145	0xbce7853c	-0.028261773
146	0x3d349128	0.044083744
147	0xbd08bdf1	-0.033384267
148	0x3d64f8c5	0.055901308
149	0x3d9a162c	0.0752376
150	0xbd4d1a26	-0.050073765
151	0xbcc82e9f	-0.024436293
152	0xbca67328	-0.020318583
153	0x3c0ecab9	0.008715325
154	0x3b77ecad	0.0037830279
155	0xbc2a7ee4	-0.01040623
156	0x3c6869e1	0.0141854
157	0xbcbc39e3	-0.022976821
158	0xbc7a5fde	-0.015281646
159	0x3cc1f025	0.02367408
160	0x3c958a62	0.018254463
161	0x3d2fec4e	0.042949967
162	0xbcae3463	-0.021265214
163	0x3d515075	0.05110212
164	0xbcc51e1d	-0.02406221
165	0x3cc3a061	0.023880186
166	0x3c805dde	0.01566976
167	0xbb8f68f8	-0.004376527
168	0x3acdb425	0.0015693946
169	0x3c396bf4	0.011317242
170	0xbcb029e0	-0.021504343
171	0xbc460b24	-0.012087617
172	0x3d818488	0.063241065
173	0x3cc53079	0.024070965
174	0xbb45abda	-0.0030162246
175	0xbcf8b331	-0.030358883
176	0x3dad8926	0.084734246
177	0xbd23e4e3	-0.040013205
178	0x3d8724b0	0.065987945
179	0xbc271986	-0.010198956
180	0xbd6d82cf	-0.057986077
181	0xbbce1974	-0.0062896553
182	0xbd4cd315	-0.05000599
183	0x3b0762ae	0.0020658183
184	0xbc0bd1a1	-0.008533866
185	0x3a12984f	0.0005592154
186	0x3d24aa27	0.040201332
187	0xbd5111bc	-0.051042303
188	0x3ce9b838	0.028530225
189	0xba113088	-0.0005538543
190	0x3dbdc1a6	0.09265451
191	0x3c31cf1a	0.0108525995
192	0xbc9228c2	-0.0178417
193	0x3d503b16	0.0508376
194	0xbc8f19ef	-0.01746842
195	0xbc13f94a	-0.009031603
196	0x3db9a881	0.09065343
197	0x3c43df34	0.011955071
198	0x3d0f4ec2	0.03498722
199	0x3cc224a9	0.023699122
200	0x3d66289f	0.056191083
201	0x3c669ce3	0.014075491
202	0x3d3dc7b0	0.046333015
203	0x3cc3cf50	0.023902565
204	0x3d9b35c9	0.07578618
205	0x3d27288d	0.040810157
206	0x3bad3680	0.005286038
207	0x3c32ec9c	0.01092067
208	0x3c8517a7	0.01624663
209	0xbca9bd80	-0.020720243
210	0xbd38dc35	-0.04513188
211	0xbc39b6a1	-0.011335046
212	0xbd4d6212	-0.050142355
213	0x3bec6c33	0.007215047
214	0xbd2c7b66	-0.04210987
215	0x3d1c8cd3	0.038220238
216	0x3d3a4f43	0.045485746
217	0x3ad9cb14	0.0016616308
218	0x3b9ddebe	0.0048178127
219	0xbd03bc7e	-0.032162182
220	0x3cc81ba6	0.024427246
221	0x3c210ee7	0.009830213
222	0x3cae290e	0.02125981
223	0x3dabdc05	0.08391575
224	0xbd041d61	-0.03225458
225	0x3bc3fd9b	0.00598116
226	0x3d1115e1	0.035421256
227	0xbd741326	-0.059588574
228	0x3baabb0e	0.005210287
229	0x3cada452	0.021196518
230	0x3da6fb73	0.08153429
231	0xbd4452c2	-0.047930487
232	0xbda59f8f	-0.08087074
233	0xbc33c435	-0.010972072
234	0x3bb93d1d	0.005653037
235	0xbc4511a7	-0.012028134
236	0xbd827e6b	-0.063717686
237	0xbd7420b4	-0.0596015
238	0x3d5ec343	0.054385435
239	0xbdbb5c00	-0.09148407
240	0x3ca9080e	0.020633724
241	0xbd331d34	-0.043729022
242	0xbd817aca	-0.06322248
243	0x3b85f8bb	0.004088489
244	0xbac982e2	-0.0015374089
245	0x3d1b2146	0.03787353
246	0xbd831956	-0.06401317
247	0x3d2d8674	0.042364553
248	0x3cd3b1ab	0.025841555
249	0x3cf7c326	0.030244421
250	0x3ba9cfba	0.0051822336
251	0x3c6c5e88	0.014426835
252	0x3a5b19ef	0.00083580514
253	0xbc5e0487	-0.013550884
254	0xbd1085a3	-0.035283696
255	0x3d311c3d	0.04323982

conv2.bias f4 [64]
0	0xbd5ae1cc	-0.053437993
1	0x3b69dc21	0.0035684186
2	0x3c9052a3	0.01761753
3	0xbd10c97f	-0.03534841
4	0xbcd2a020	-0.02571112
5	0xbcb24650	-0.021762043
6	0x3c58a84c	0.013223719
7	0xbd10ae74	-0.03532262
8	0xbbe724fd	-0.00705397
9	0x3d14d74c	0.036338136
10	0xbd3d3527	-0.04619327
11	0xbc25bd38	-0.010115914
12	0xbd42bbb4	-0.04754229
13	0x3d137b9a	0.036006548
14	0xbca2635c	-0.019822769
15	0x39ee76d4	0.0004548343
16	0xbcc1de9b	-0.023665717
17	0xbcb6ce3d	-0.022315139
18	0xbcb0db5f	-0.02158898
19	0xbc8305b1	-0.015993925
20	0xbd59e7a8	-0.05319944
21	0xba03cd93	-0.00050278864
22	0xbc72f70b	-0.014829407
23	0xbc4fd795	-0.012685676
24	0xbc367d03	-0.011138204
25	0xbc83ec3b	-0.016103854
26	0xbbdfa3bd	-0.006824939
27	0xbd60a9e9	-0.05484954
28	0x3d4a8e5b	0.049452167
29	0xbb4533cd	-0.003009069
30	0x3b115c47	0.0022180246
31	0x391d2a57	0.0001498846
32	0x3d669135	0.056290824
33	0xbb138550	-0.002250988
34	0xbba17a36	-0.0049278988
35	0x3d323e35	0.043516356
36	0xbd0a8e6f	-0.03382724
37	0xbce28ee9	-0.027656035
38	0x3cfc3473	0.030786728
39	0x3d0351e6	0.032060526
40	0xbb87226c	-0.0041239765
41	0x3d5eaaf3	0.05436225
42	0xbc36dc48	-0.011160918
43	0xbcf72033	-0.030166721
44	0x3cc9afe9	0.024620013
45	0x3b949e55	0.004535476
46	0xbd721e39	-0.059110854
47	0xbc8dbcb8	-0.017301902
48	0xbaf23c16	-0.0018481042
49	0xbd4d6772	-0.05014748
50	0xbbede58d	-0.0072600306
51	0x3d017c88	0.031612903
52	0x3d722d31	0.05912513
53	0xbcf1c704	-0.029513843
54	0xbc482429	-0.0122156525
55	0xbc873c93	-0.016508376
56	0xbd032b1e	-0.03202354
57	0x3cfd1bde	0.030897077
58	0xbce5d450	-0.02805534
59	0x3ca7eaa0	0.02049762
60	0xbc001948	-0.0078185275
61	0x3da17212	0.07883085
62	0x3ac6fc22	0.0015181343
63	0x3d0ce4ac	0.034397766

conv3.weight f4 [32, 64, 5, 5]
0	0x3c6fef69	0.014644482
1	0x3c0e1dca	0.008674094
2	0x3b256dbf	0.0025242416
3	0xbbbfc569	-0.0058523905
4	0xbb0a10ce	-0.0021067145
5	0x3c38fa28	0.011290111
6	0x3bbe79e7	0.0058128717
7	0xbb994380	-0.004677236
8	0xbbd16c33	-0.006391072
9	0xbb211886	-0.0024581267
10	0x3cbd50ff	0.023109911
11	0xbc586919	-0.013208651
12	0x3cd92e40	0.026511312
13	0xbb49796c	-0.003074254
14	0x3ca85f14	0.02055315
15	0x3ca6c5f4	0.020358063
16	0x3b8570f2	0.004072302
17	0x3cbc463f	0.022982715
18	0x3cb8e3e8	0.022569612
19	0xbcae09dc	-0.021244936
20	0xbc667f38	-0.014068417
21	0x3c762f84	0.015025977
22	0x3c17d6e4	0.0092675425
23	0x3d7c90b2	0.06166143
24	0x3a3af306	0.000713155
25	0x3c063c40	0.008193076
26	0x3b81bec2	0.0039595077
27	0xbc78a1bb	-0.015175278
28	0xbc211ccf	-0.009833529
29	0xb9a8e46e	-0.0003221365
30	0x3b69f1f0	0.0035697185
31	0xbb6184ee	-0.0034411508
32	0xbbc79c06	-0.0060915975
33	0xbc069c2d	-0.008215946
34	0xba54825c	-0.0008106583
35	0x3c670285	0.014099722
36	0x3ab51b14	0.0013817274
37	0x3bea457a	0.0071493955
38	0xbbda88f8	-0.00666916
39	0x3d459df1	0.048246328
40	0xbcbd9315	-0.023141423
41	0xbc45b42a	-0.01206688
42	0x3cf98c8c	0.030462526
43	0x3be87536	0.0070940508
44	0x3c6766b1	0.014123605
45	0x3a2ec446	0.000666682
46	0xbc97a92a	-0.01851328
47	0xbb9aec7c	-0.004727898
48	0x3d016862	0.031593688
49	0x3c919ecb	0.017775914
50	0xbbb603d1	-0.005554654
51	0x3b97b342	0.0046295235
52	0xbb1e0b05	-0.0024115455
53	0xbbbdb72f	-0.0057896595
54	0x3a73ad7f	0.0009295567
55	0x3af71677	0.00188513
56	0x3b40bb08	0.0029408354
57	0xbbb0ebb7	-0.005399193
58	0xbc228cd1	-0.009921269
59	0xb963f00b	-0.0002173783
60	0xbd028eb4	-0.031874374
61	0x3c81e297	0.015855117
62	0x3c6854e4	0.014180396
63	0x3ca081ea	0.019593198
64	0xbad4efae	-0.0016245747
65	0xbc73718b	-0.014858614
66	0xbb6632a4	-0.00351254
67	0xbcc5e441	-0.024156692
68	0x3b8765a3	0.004131989
69	0x3d1559ad	0.036462475
70	0xbca36c6b	-0.019949159
71	0x3c7aef51	0.015315847
72	0xbcab6f86	-0.020927202
73	0xbca4fe5a	-0.020140816
74	0x3d2d9480	0.04237795
75	0xbb27ab04	-0.002558411
76	0xbbd82441	-0.0065961187
77	0xbc35afc5	-0.01108927
78	0xbb967a9a	-0.004592252
79	0xbacf1236	-0.0015798274
80	0xba0c58a0	-0.00053537823
81	0x3bc51f7e	0.006015717
82	0xbc5c671d	-0.0134523185
83	0xbc023073	-0.0079461215
84	0xbadd762a	-0.0016896178
85	0xbc90f8a2	-0.017696682
86	0xbc7f2d6c	-0.015574794
87	0xbc2c0bb3	-0.010500836
88	0x3c823775	0.015895585
89	0x3d1ae12a	0.03781239
90	0x39c512de	0.00037588825
91	0xbc2a3865	-0.010389422
92	0x3cb84616	0.022494357
93	0x3bf4024c	0.007446563
94	0xbb6021a6	-0.0034199744
95	0xbc0b7625	-0.008512055
96	0xbc8cb451	-0.017175825
97	0xbd18abf0	-0.037273347
98	0x3c1b7585	0.009488468
99	0xbcc0815f	-0.023499189
100	0x3c37b7f2	0.01121329
101	0x3a92616f	0.0011167953
102	0xbbe933e6	-0.0071167825
103	0xbc57a1ee	-0.013161166
104	0xbad1dd3a	-0.0016011365
105	0x3c716aad	0.014734906
106	0xbb5fb864	-0.0034137005
107	0xba5732df	-0.00082091795
108	0xbb61e232	-0.0034467098
109	0xbaae57ec	-0.0013301349
110	0x3c2cae0e	0.010539545
111	0xbc2533df	-0.010083168
112	0x3c74c19a	0.014938736
113	0xbc106038	-0.008812003
114	0x3c1606dc	0.009156909
115	0xbc3be047	-0.011467046
116	0xbd816739	-0.06318516
117	0x3c14f906	0.009092575
118	0xbbe7ea23	-0.007077472
119	0xbc65208c	-0.013984811
120	0xbced8c86	-0.02899767
121	0xbc7c279c	-0.015390303
122	0x3b09d8e6	0.0021033823
123	0x3cfe017e	0.03100657
124	0x3cb29cf1	0.021803351
125	0xbc017fa2	-0.007903965
126	0xbc267d5e	-0.010161726
127	0x3b68ef19	0.0035542904
128	0x3b2618d1	0.0025344382
129	0xba6719e4	-0.00088158087
130	0x3b9eade7	0.004842508
131	0x3c5477c6	0.012968009
132	0xbb93c7f2	-0.0045099193
133	0xbb3e1e3f	-0.0029009727
134	0xba7f59fc	-0.0009740887
135	0x3b0f9662	0.0021909704
136	0x3d05981c	0.032615766
137	0xbceb7be7	-0.028745605
138	0x3d2abd6b	0.04168455
139	0x3aca1ed3	0.0015420563
140	0xbcebd45a	-0.02878778
141	0x3c794709	0.01521469
142	0xbd03f2fa	-0.032214142
143	0xbc1764ce	-0.009240342
144	0x3c42aa75	0.01188146
145	0x3a7f4408	0.00097376155
146	0xbc18d124	-0.009327207
147	0xbade8488	-0.0016976753
148	0x3cc6a4c3	0.024248486
149	0x3cf0e2d9	0.029405044
150	0xbc02197e	-0.007940648
151	0x3b64072d	0.0034794316
152	0xb9cb3cf0	-0.0003876458
153	0x3ba446c7	0.00501332
154	0xbbcc8b8f	-0.0062422226
155	0x3bde85e8	0.006790865
156	0xbab1f886	-0.0013578094
157	0xbc59a791	-0.01328458
158	0xb9bb83d4	-0.0003576564
159	0xbb74edda	-0.0037373216
160	0x3d43aa65	0.047769923
161	0xbb3361e4	-0.002737158
162	0x3c2d9aee	0.01059602
163	0x3cdba37b	0.026811352
164	0x3d077b00	0.033076286
165	0xbc4d2d15	-0.012522955
166	0x3d228d42	0.039685495
167	0x3cb59288	0.022164598
168	0xba9f926e	-0.0012174377
169	0xbcdd3fb6	-0.027007919
170	0xbc574232	-0.013138341
171	0x3c54181b	0.0129452
172	0xbd1dc139	-0.03851435
173	0xbc8f38c4	-0.017483123
174	0xbd2b125a	-0.04176555
175	0x3c41b3b0	0.011822626
176	0x3bcdc99e	0.006280138
177	0xbb932c4d	-0.004491365
178	0xbae595e7	-0.0017515988
179	0xbb028d4d	-0.0019920648
180	0x3c88b86b	0.0166895
181	0x3c216896	0.009851595
182	0x3b3bade2	0.0028637578
183	0x3bd0bc47	0.0063701007
184	0xbb83b6c3	-0.0040195896
185	0x3c24ef1a	0.010066772
186	0xbc631a19	-0.013861203
187	0xbb817038	-0.003950145
188	0xba13f164	-0.0005643575
189	0xbbf100e6	-0.0073548434
190	0x3cb42767	0.021991445
191	0xbc800448	-0.015627041
192	0x3c1e90f3	0.009678113
193	0x3b969f26	0.0045966087
194	0xbcc064a3	-0.023485487
195	0xbcd8dd2d	-0.026472652
196	0x3bb43141	0.0054990356
197	0x3c9c9351	0.019113215
198	0x3b98fd30	0.004668854
199	0xbd2d7f0f	-0.0423575
200	0x3b854799	0.004067373
201	0xbaed102f	-0.0018086488
202	0xbc049a2e	-0.0080934
203	0xbbb4801c	-0.005508436
204	0xb857fd89	-5.1496118e-05
205	0xbbc459b1	-0.0059921374
206	0xbb47ada3	-0.0030468486
207	0xb94aaaed	-0.00019327896
208	0xbc3eb535	-0.011639883
209	0xba842814	-0.0010082745
210	0xbc21a479	-0.0098658735
211	0x3cdcc10b	0.026947519
212	0xbc0b50f0	-0.008503184
213	0xbb4773eb	-0.0030434083
214	0x3d0d4ff0	0.034500062
215	0x3bc86257	0.0061152386
216	0x3cef0338	0.02917634
217	0xbb253dc4	-0.0025213817
218	0x3ae2272a	0.0017254103
219	0x3b0a87a5	0.002113798
220	0x3be37c88	0.0069423355
221	0xbccdf421	-0.025140824
222	0x3ca002e1	0.019532623
223	0xbc8bf11e	-0.017082747
224	0x3cb63a2a	0.022244532
225	0xbc3612b2	-0.011112856
226	0xbc1589ec	-0.009127121
227	0x3bb62976	0.0055591417
228	0xbbf3d82a	-0.0074415402
229	0x39305d94	0.00016819529
230	0xbb9d198d	-0.0047943057
231	0x3b5ab50c	0.0033372073
232	0xbc39c250	-0.011337832
233	0xbbd0f72d	-0.006377122
234	0xba68763f	-0.00088677177
235	0x3cc2bd9b	0.023772052
236	0xbca91f08	-0.02064468
237	0x3cde76f5	0.027156333
238	0x3c064787	0.008195764
239	0x3c4a59fb	0.012350555
240	0xbb24ca6a	-0.0025145062
241	0xbc8792c7	-0.016549481
242	0xbc24afdf	-0.010051697
243	0x3cc54573	0.024080968
244	0xbb8e0f0d	-0.0043352903
245	0xbc821ea9	-0.01588376
246	0xbcb136f3	-0.021632647
247	0x3ba37635	0.0049884566
248	0xbd371d16	-0.044705473
249	0x3c9dc955	0.019261042
250	0x3bd87a20	0.0066063553
251	0x3c665b98	0.014059924
252	0xbc55feb2	-0.013061212
253	0xbbeb7510	-0.007185586
254	0xbb686982	-0.0035463278
255	0x3b5acfdc	0.0033388054

conv3.bias f4 [32]
0	0xbcd65731	-0.026164623
1	0xba5e0b30	-0.0008470295
2	0xbcd97a5c	-0.026547603
3	0x3b8b8632	0.0042579407
4	0x3c129120	0.008945733
5	0xbbc17763	-0.0059041246
6	0xbb31bbc2	-0.002711997
7	0xbb9cf3c2	-0.0047898004
8	0xbd082bed	-0.033245016
9	0x3cf40071	0.029785367
10	0xbbae3f65	-0.005317616
11	0x3d218534	0.039433673
12	0xbb02e524	-0.0019973004
13	0xbca11448	-0.019662991
14	0x3cb8d39f	0.022561846
15	0xbd26eab1	-0.040751163
16	0x3d545f45	0.05184867
17	0x3c96293d	0.01833021
18	0xbc8d93c3	-0.017282372
19	0x3c7a9b97	0.015295885
20	0xbab2ad61	-0.0013631993
21	0xbccf84aa	-0.025331814
22	0xbb5b6337	-0.0033475885
23	0x3ced4d3e	0.028967496
24	0xbb921b90	-0.004458852
25	0x3d06e05e	0.032928817
26	0xbb30d97f	-0.0026985107
27	0x3d77c35f	0.060489055
28	0xbcc1249f	-0.023577033
29	0x3cf69827	0.030101849
30	0xbbbe77c9	-0.0058126193
31	0x3d6669e8	0.056253344

fc1.weight f4 [8, 32]
0	0x3d65f9e2	0.05614651
1	0x3e8b889f	0.2725267
2	0xbe839d48	-0.25705934
3	0x3ec52f8d	0.3851284
4	0xbe075b43	-0.13218407
5	0xbc1c9e6b	-0.009559254
6	0x3ca2c971	0.019871445
7	0x3e252311	0.16126658
8	0x3c8e8082	0.017395262
9	0xbd51058f	-0.05103069
10	0xbda2a793	-0.079421185
11	0x3dfd66a2	0.12373091
12	0xbd6c8c19	-0.057750795
13	0xbe11a417	-0.14222752
14	0xbd666870	-0.056251943
15	0xbea29d17	-0.31760475
16	0x3bc95a4a	0.0061447965
17	0x3e74f943	0.23923211
18	0xbd2a5e67	-0.041593935
19	0x3deaade8	0.11458951
20	0x3d74976a	0.059714712
21	0x3e255b6c	0.16148156
22	0xbbcfc9b8	-0.0063411854
23	0x3eb75d40	0.35813332
24	0xbc69ea07	-0.014276988
25	0xbe0dc955	-0.13846333
26	0x3d4dec45	0.050274152
27	0x3c88d780	0.01670432
28	0xbeca3bfa	-0.39498883
29	0x3b993ad9	0.0046762046
30	0x3ee727a4	0.4514743
31	0xbda019b0	-0.078173995
32	0x3dfcc8b9	0.12342972
33	0x3d863411	0.065529
34	0xbdc3c370	-0.09558761
35	0xbe3e6e35	-0.18596728
36	0xbdb9c60c	-0.090709776
37	0x3e319e30	0.173455
38	0xb9200eeb	-0.00015264346
39	0x3ac84233	0.0015278518
40	0xbe6b773d	-0.22994705
41	0x3dd0daae	0.1019796
42	0x3cfb5ce8	0.03068395
43	0x3d148bfc	0.036266312
44	0x3d6eccee	0.058300905
45	0xbbc1a212	-0.005909213
46	0xbd91e596	-0.07123868
47	0xbe2d47dd	-0.16921945
48	0x3eb42c0b	0.35189852
49	0xbdf0681e	-0.11738609
50	0xbe8f8d9d	-0.2803773
51	0x3ed86e4a	0.42271644
52	0xbd2a9883	-0.041649353
53	0xbe239e38	-0.15978324
54	0x3cea51fd	0.028603548
55	0x3c92951f	0.017893372
56	0x3d54227c	0.0517907
57	0xbbd28a82	-0.006425203
58	0xbaa8535b	-0.0012842225
59	0x3e191e95	0.14953072
60	0x3d556cd1	0.05210573
61	0xbd846175	-0.06463901
62	0xbd7dcbbc	-0.061961874
63	0x3e7f23fc	0.2491607
64	0x3d6d5def	0.05795091
65	0x3de47754	0.111555725
66	0x3d3e8747	0.04651573
67	0x3e4dd0fa	0.2009925
68	0xbc0af4fc	-0.00848126
69	0x3e9a59b0	0.3014655
70	0xbc6faa10	-0.014627948
71	0xbb1fd35e	-0.002438746
72	0x3e9f95e1	0.31169036
73	0xbd0201c5	-0.03173997
74	0xbe2fa0fd	-0.17151256
75	0xbd3726e1	-0.044714812
76	0xbe88ae7c	-0.2669562
77	0x3e01d61b	0.12679331
78	0xbf25a744	-0.6470835
79	0x3d0d06d6	0.034430347
80	0xbdf13d61	-0.11779285
81	0x3e4a71cf	0.19769977
82	0xbe66c1de	-0.22534892
83	0x3d84adda	0.06478472
84	0xbbed4bdc	-0.007241709
85	0x3df39828	0.11894256
86	0xbdc82f43	-0.097746395
87	0x3d769f31	0.06021041
88	0xbd9012c5	-0.0703483
89	0xbea295b2	-0.31754833
90	0xba8c7128	-0.0010714876
91	0xbe878348	-0.26467347
92	0x3c34e8c4	0.011041824
93	0xbd43fe67	-0.04785004
94	0x3e976521	0.29569343
95	0xbe9296cc	-0.28630674
96	0x3e2d9550	0.1695149
97	0xbdc0c266	-0.094120786
98	0xbd0348f6	-0.032052003
99	0x3e4f0d5f	0.20219944
100	0x3de55485	0.111977614
101	0xbd8a97d7	-0.067672424
102	0x3dda44ba	0.1065764
103	0x3abf3df2	0.0014590605
104	0xbd8848cc	-0.0665451
105	0xbe56faa0	-0.20994043
106	0xbb337d0c	-0.0027387766
107	0xbe50adfb	-0.20378868
108	0x3e09ef7c	0.13470262
109	0xbc691f8e	-0.014228715
110	0x3eaf970d	0.3429493
111	0x3d121ef6	0.035674058
112	0xbd16150b	-0.036641162
113	0xbe40b15d	-0.18817659
114	0x3e68a7b5	0.22720225
115	0xbe65ac85	-0.22429092
116	0x3b6cccfb	0.003613292
117	0xbddf98d2	-0.1091782
118	0x3cf51f47	0.02992214
119	0xbd9ee2c5	-0.077580966
120	0x3e52541b	0.20539896
121	0xbe14392a	-0.14474931
122	0xba6b7f82	-0.0008983539
123	0xbea809f8	-0.32820106
124	0x3a1f7b3a	0.0006083731
125	0xbe361468	-0.17781222
126	0xbebf30e2	-0.37341982
127	0x3d2cbc51	0.04217178
128	0x3e47a4d4	0.1949647
129	0x3d63f035	0.055649
130	0x3e3aef0c	0.18255252
131	0xbd2fc7ef	-0.04291528
132	0xbe7c182c	-0.24618596
133	0x3acfc311	0.0015850981
134	0xbc6e362d	-0.014539284
135	0xbd891ce0	-0.066949606
136	0xbda68508	-0.081308424
137	0xbec55941	-0.38544658
138	0xbe4d4b07	-0.20048152
139	0xbe7db32b	-0.24775378
140	0x3e67f9ad	0.22653838
141	0xbc5fd31b	-0.013661171
142	0x3e6b0712	0.22951916
143	0x3defccb7	0.11708968
144	0xbe48239a	-0.19544831
145	0xbdba5c73	-0.090996645
146	0xbbb3c482	-0.005486072
147	0xbccf4428	-0.025301054
148	0xbcc16bba	-0.023610938
149	0x3d9a4ef5	0.07534591
150	0x3ad9ef72	0.0016627146
151	0x3e831743	0.25603685
152	0x3ddaa6e6	0.106763646
153	0xbe207ed6	-0.15673384
154	0xbe1e1621	-0.15438129
155	0xbe41e077	-0.18933283
156	0xbe0f852f	-0.1401565
157	0xbec8787c	-0.39154422
158	0x3d96250e	0.07331286
159	0xbecefd7f	-0.40427777
160	0x3de72d17	0.11287897
161	0xbe32adec	-0.17449158
162	0x3ed27892	0.41107613
163	0x3db15c7c	0.08660218
164	0x3dac9a09	0.084278174
165	0xbe93117a	-0.2872427
166	0xbdb02715	-0.08601204
167	0xbac0d660	-0.0014712326
168	0x3b64ce7a	0.0034913109
169	0x3e0b22fe	0.13587567
170	0x3ee48571	0.44633058
171	0x3d1c8b09	0.03821853
172	0xbcf038ce	-0.029323962
173	0xbcb664eb	-0.022264918
174	0xbe08445c	-0.13307327
175	0x3e1a0ab0	0.1504314
176	0xbe20c766	-0.15701064
177	0x3dc6fa86	0.09715752
178	0xbdfef57b	-0.124491654
179	0xbea5d484	-0.323887
180	0xbba67496	-0.005079816
181	0x3a01a77e	0.0004945918
182	0x3dd48492	0.10376848
183	0xbd89800a	-0.06713875
184	0x3e438636	0.19094166
185	0x3ddf6633	0.10908165
186	0xbd7d4ed5	-0.06184276
187	0xbd74e9bb	-0.059793215
188	0xbde16d03	-0.110071205
189	0x3e0e66d5	0.13906415
190	0x3e33567f	0.17513464
191	0xbe16bdc9	-0.14720835
192	0xbd46bc81	-0.048519615
193	0xbeb49829	-0.3527234
194	0xbca56692	-0.02019051
195	0xbca8037d	-0.020509476
196	0xbd8a490e	-0.06752215
197	0x3e6fb77b	0.23409836
198	0xb13a0875	-2.707137e-09
199	0x39960fdb	0.00028622043
200	0x3df815d8	0.12113541
201	0xbe1d83bd	-0.15382285
202	0xbd618557	-0.055058803
203	0xbe29ec36	-0.16594014
204	0xbe6b3c52	-0.22972229
205	0x3e8a89f6	0.2705838
206	0x3de34614	0.11097351
207	0xbe731d1d	-0.23741575
208	0x3c70bd74	0.014693607
209	0x3ebfe767	0.37481233
210	0xbd520afc	-0.051280007
211	0xbeaf6d03	-0.34262857
212	0xbc554ec1	-0.013019265
213	0xbe2f544a	-0.17121997
214	0x3c5e5e7d	0.013572332
215	0x3e9a446a	0.3013032
216	0xbc3cad75	-0.011515965
217	0xbce37e77	-0.027770264
218	0xb95b0ee4	-0.00020891015
219	0xbcc3bbc9	-0.023893254
220	0xbc2732fb	-0.010205026
221	0x3dd12de1	0.10213829
222	0xbe1fb8c1	-0.15597822
223	0xbd8b486a	-0.06800921
224	0xbdd9d863	-0.106369756
225	0xbdde5e87	-0.108578734
226	0x3dfc9613	0.12333312
227	0x3ee87b47	0.45406553
228	0x3eb0f253	0.3455988
229	0xbeac116e	-0.33607048
230	0xb912fab6	-0.00014017042
231	0x3c8f6cd9	0.017507957
232	0xbdc736eb	-0.09727272
233	0x3ea21d17	0.3166282
234	0xbd7207e6	-0.059089564
235	0x3b2b75a1	0.0026162642
236	0xbd5e16d2	-0.054220982
237	0xbe90ea74	-0.28303874
238	0x3dca31e9	0.09872801
239	0x3da6e880	0.081498146
240	0x3ec3937d	0.38198462
241	0x3cf25603	0.02958203
242	0xbe57534e	-0.21027872
243	0xbe824d75	-0.2544972
244	0x3b8dc8d3	0.0043269186
245	0xbeb58981	-0.3545647
246	0xbd0cd4f7	-0.034382787
247	0x3dc51d5e	0.09624742
248	0x3e1c3144	0.15253168
249	0x3e48f3ed	0.196243
250	0xbde7a34c	-0.11310443
251	0x3e0e4133	0.13892059
252	0xbe1d6034	-0.1536873
253	0x3e0db56f	0.13838743
254	0x3d770ea2	0.06031669
255	0x3da4cf07	0.080473

fc1.bias f4 [8]
0	0x3ce8725e	0.028374847
1	0x3cecca27	0.028904987
2	0xbd2cfffe	-0.04223632
3	0xbc879b07	-0.016553415
4	0xbc9e1199	-0.0192955
5	0xbc1f315a	-0.009716356
6	0x3c95dfa5	0.018295119
7	0x3c99d3a1	0.01877767

fc_1.weight f4 [8, 32]
0	0x3d65f9e2	0.05614651
1	0x3e8b889f	0.2725267
2	0xbe839d48	-0.25705934
3	0x3ec52f8d	0.3851284
4	0xbe075b43	-0.13218407
5	0xbc1c9e6b	-0.009559254
6	0x3ca2c971	0.019871445
7	0x3e252311	0.16126658
8	0x3c8e8082	0.017395262
9	0xbd51058f	-0.05103069
10	0xbda2a793	-0.079421185
11	0x3dfd66a2	0.12373091
12	0xbd6c8c19	-0.057750795
13	0xbe11a417	-0.14222752
14	0xbd666870	-0.056251943
15	0xbea29d17	-0.31760475
16	0x3bc95a4a	0.0061447965
17	0x3e74f943	0.23923211
18	0xbd2a5e67	-0.041593935
19	0x3deaade8	0.11458951
20	0x3d74976a	0.059714712
21	0x3e255b6c	0.16148156
22	0xbbcfc9b8	-0.0063411854
23	0x3eb75d40	0.35813332
24	0xbc69ea07	-0.014276988
25	0xbe0dc955	-0.13846333
26	0x3d4dec45	0.050274152
27	0x3c88d780	0.01670432
28	0xbeca3bfa	-0.39498883
29	0x3b993ad9	0.0046762046
30	0x3ee727a4	0.4514743
31	0xbda019b0	-0.078173995
32	0x3dfcc8b9	0.12342972
33	0x3d863411	0.065529
34	0xbdc3c370	-0.09558761
35	0xbe3e6e35	-0.18596728
36	0xbdb9c60c	-0.090709776
37	0x3e319e30	0.173455
38	0xb9200eeb	-0.00015264346
39	0x3ac84233	0.0015278518
40	0xbe6b773d	-0.22994705
41	0x3dd0daae	0.1019796
42	0x3cfb5ce8	0.03068395
43	0x3d148bfc	0.036266312
44	0x3d6eccee	0.058300905
45	0xbbc1a212	-0.005909213
46	0xbd91e596	-0.07123868
47	0xbe2d47dd	-0.16921945
48	0x3eb42c0b	0.35189852
49	0xbdf0681e	-0.11738609
50	0xbe8f8d9d	-0.2803773
51	0x3ed86e4a	0.42271644
52	0xbd2a9883	-0.041649353
53	0xbe239e38	-0.15978324
54	0x3cea51fd	0.028603548
55	0x3c92951f	0.017893372
56	0x3d54227c	0.0517907
57	0xbbd28a82	-0.006425203
58	0xbaa8535b	-0.0012842225
59	0x3e191e95	0.14953072
60	0x3d556cd1	0.05210573
61	0xbd846175	-0.06463901
62	0xbd7dcbbc	-0.061961874
63	0x3e7f23fc	0.2491607
64	0x3d6d5def	0.05795091
65	0x3de47754	0.111555725
66	0x3d3e8747	0.04651573
67	0x3e4dd0fa	0.2009925
68	0xbc0af4fc	-0.00848126
69	0x3e9a59b0	0.3014655
70	0xbc6faa10	-0.014627948
71	0xbb1fd35e	-0.002438746
72	0x3e9f95e1	0.31169036
73	0xbd0201c5	-0.03173997
74	0xbe2fa0fd	-0.17151256
75	0xbd3726e1	-0.044714812
76	0xbe88ae7c	-0.2669562
77	0x3e01d61b	0.12679331
78	0xbf25a744	-0.6470835
79	0x3d0d06d6	0.034430347
80	0xbdf13d61	-0.11779285
81	0x3e4a71cf	0.19769977
82	0xbe66c1de	-0.22534892
83	0x3d84adda	0.06478472
84	0xbbed4bdc	-0.007241709
85	0x3df39828	0.11894256
86	0xbdc82f43	-0.097746395
87	0x3d769f31	0.06021041
88	0xbd9012c5	-0.0703483
89	0xbea295b2	-0.31754833
90	0xba8c7128	-0.0010714876
91	0xbe878348	-0.26467347
92	0x3c34e8c4	0.011041824
93	0xbd43fe67	-0.04785004
94	0x3e976521	0.29569343
95	0xbe9296cc	-0.28630674
96	0x3e2d9550	0.1695149
97	0xbdc0c266	-0.094120786
98	0xbd0348f6	-0.032052003
99	0x3e4f0d5f	0.20219944
100	0x3de55485	0.111977614
101	0xbd8a97d7	-0.067672424
102	0x3dda44ba	0.1065764
103	0x3abf3df2	0.0014590605
104	0xbd8848cc	-0.0665451
105	0xbe56faa0	-0.20994043
106	0xbb337d0c	-0.0027387766
107	0xbe50adfb	-0.20378868
108	0x3e09ef7c	0.13470262
109	0xbc691f8e	-0.014228715
110	0x3eaf970d	0.3429493
111	0x3d121ef6	0.035674058
112	0xbd16150b	-0.036641162
113	0xbe40b15d	-0.18817659
114	0x3e68a7b5	0.22720225
115	0xbe65ac85	-0.22429092
116	0x3b6cccfb	0.003613292
117	0xbddf98d2	-0.1091782
118	0x3cf51f47	0.02992214
119	0xbd9ee2c5	-0.077580966
120	0x3e52541b	0.20539896
121	0xbe14392a	-0.14474931
122	0xba6b7f82	-0.0008983539
123	0xbea809f8	-0.32820106
124	0x3a1f7b3a	0.0006083731
125	0xbe361468	-0.17781222
126	0xbebf30e2	-0.37341982
127	0x3d2cbc51	0.04217178
128	0x3e47a4d4	0.1949647
129	0x3d63f035	0.055649
130	0x3e3aef0c	0.18255252
131	0xbd2fc7ef	-0.04291528
132	0xbe7c182c	-0.24618596
133	0x3acfc311	0.0015850981
134	0xbc6e362d	-0.014539284
135	0xbd891ce0	-0.066949606
136	0xbda68508	-0.081308424
137	0xbec55941	-0.38544658
138	0xbe4d4b07	-0.20048152
139	0xbe7db32b	-0.24775378
140	0x3e67f9ad	0.22653838
141	0xbc5fd31b	-0.013661171
142	0x3e6b0712	0.22951916
143	0x3defccb7	0.11708968
144	0xbe48239a	-0.19544831
145	0xbdba5c73	-0.090996645
146	0xbbb3c482	-0.005486072
147	0xbccf4428	-0.025301054
148	0xbcc16bba	-0.023610938
149	0x3d9a4ef5	0.07534591
150	0x3ad9ef72	0.0016627146
151	0x3e831743	0.25603685
152	0x3ddaa6e6	0.106763646
153	0xbe207ed6	-0.15673384
154	0xbe1e1621	-0.15438129
155	0xbe41e077	-0.18933283
156	0xbe0f852f	-0.1401565
157	0xbec8787c	-0.39154422
158	0x3d96250e	0.07331286
159	0xbecefd7f	-0.40427777
160	0x3de72d17	0.11287897
161	0xbe32adec	-0.17449158
162	0x3ed27892	0.41107613
163	0x3db15c7c	0.08660218
164	0x3dac9a09	0.084278174
165	0xbe93117a	-0.2872427
166	0xbdb02715	-0.08601204
167	0xbac0d660	-0.0014712326
168	0x3b64ce7a	0.0034913109
169	0x3e0b22fe	0.13587567
170	0x3ee48571	0.44633058
171	0x3d1c8b09	0.03821853
172	0xbcf038ce	-0.029323962
173	0xbcb664eb	-0.022264918
174	0xbe08445c	-0.13307327
175	0x3e1a0ab0	0.1504314
176	0xbe20c766	-0.15701064
177	0x3dc6fa86	0.09715752
178	0xbdfef57b	-0.124491654
179	0xbea5d484	-0.323887
180	0xbba67496	-0.005079816
181	0x3a01a77e	0.0004945918
182	0x3dd48492	0.10376848
183	0xbd89800a	-0.06713875
184	0x3e438636	0.19094166
185	0x3ddf6633	0.10908165
186	0xbd7d4ed5	-0.06184276
187	0xbd74e9bb	-0.059793215
188	0xbde16d03	-0.110071205
189	0x3e0e66d5	0.13906415
190	0x3e33567f	0.17513464
191	0xbe16bdc9	-0.14720835
192	0xbd46bc81	-0.048519615
193	0xbeb49829	-0.3527234
194	0xbca56692	-0.02019051
195	0xbca8037d	-0.020509476
196	0xbd8a490e	-0.06752215
197	0x3e6fb77b	0.23409836
198	0xb13a0875	-2.707137e-09
199	0x39960fdb	0.00028622043
200	0x3df815d8	0.12113541
201	0xbe1d83bd	-0.15382285
202	0xbd618557	-0.055058803
203	0xbe29ec36	-0.16594014
204	0xbe6b3c52	-0.22972229
205	0x3e8a89f6	0.2705838
206	0x3de34614	0.11097351
207	0xbe731d1d	-0.23741575
208	0x3c70bd74	0.014693607
209	0x3ebfe767	0.37481233
210	0xbd520afc	-0.051280007
211	0xbeaf6d03	-0.34262857
212	0xbc554ec1	-0.013019265
213	0xbe2f544a	-0.17121997
214	0x3c5e5e7d	0.013572332
215	0x3e9a446a	0.3013032
216	0xbc3cad75	-0.011515965
217	0xbce37e77	-0.027770264
218	0xb95b0ee4	-0.00020891015
219	0xbcc3bbc9	-0.023893254
220	0xbc2732fb	-0.010205026
221	0x3dd12de1	0.10213829
222	0xbe1fb8c1	-0.15597822
223	0xbd8b486a	-0.06800921
224	0xbdd9d863	-0.106369756
225	0xbdde5e87	-0.108578734
226	0x3dfc9613	0.12333312
227	0x3ee87b47	0.45406553
228	0x3eb0f253	0.3455988
229	0xbeac116e	-0.33607048
230	0xb912fab6	-0.00014017042
231	0x3c8f6cd9	0.017507957
232	0xbdc736eb	-0.09727272
233	0x3ea21d17	0.3166282
234	0xbd7207e6	-0.059089564
235	0x3b2b75a1	0.0026162642
236	0xbd5e16d2	-0.054220982
237	0xbe90ea74	-0.28303874
238	0x3dca31e9	0.09872801
239	0x3da6e880	0.081498146
240	0x3ec3937d	0.38198462
241	0x3cf25603	0.02958203
242	0xbe57534e	-0.21027872
243	0xbe824d75	-0.2544972
244	0x3b8dc8d3	0.0043269186
245	0xbeb58981	-0.3545647
246	0xbd0cd4f7	-0.034382787
247	0x3dc51d5e	0.09624742
248	0x3e1c3144	0.15253168
249	0x3e48f3ed	0.196243
250	0xbde7a34c	-0.11310443
251	0x3e0e4133	0.13892059
252	0xbe1d6034	-0.1536873
253	0x3e0db56f	0.13838743
254	0x3d770ea2	0.06031669
255	0x3da4cf07	0.080473

fc_1.bias f4 [8]
0	0x3ce8725e	0.028374847
1	0x3cecca27	0.028904987
2	0xbd2cfffe	-0.04223632
3	0xbc879b07	-0.016553415
4	0xbc9e1199	-0.0192955
5	0xbc1f315a	-0.009716356
6	0x3c95dfa5	0.018295119
7	0x3c99d3a1	0.01877767
