checkpoints/vit/epoch=7.checkpoint.pth.tar (torch, 60986 bytes, 46 tensors)

cls_token f4 [1, 16]
0	0x3e87fbf9	0.26559427
1	0xbc9fde0f	-0.019515065
2	0x3f44b59b	0.7683961
3	0x3f197819	0.5994888
4	0x3e822af5	0.254234
5	0x3f73f154	0.9529011
6	0x3e941ac2	0.28926665
7	0x3f4cf685	0.8006366
8	0x3f3ee6cd	0.74570924
9	0x3dbb8698	0.09156531
10	0x3f52c789	0.82335716
11	0x3cd78c50	0.026312023
12	0x3e76340c	0.24043292
13	0x3ed40291	0.41408208
14	0x3e2001f9	0.15625753
15	0x3f6fde7b	0.93698853

pos_embed f4 [257, 16]
0	0x00000000	0.0
1	0x3f800000	1.0
2	0x00000000	0.0
3	0x3f800000	1.0
4	0x00000000	0.0
5	0x3f800000	1.0
6	0x00000000	0.0
7	0x3f800000	1.0
8	0x00000000	0.0
9	0x3f800000	1.0
10	0x00000000	0.0
11	0x3f800000	1.0
12	0x00000000	0.0
13	0x3f800000	1.0
14	0x00000000	0.0
15	0x3f800000	1.0
16	0x3f576aa4	0.84147096
17	0x3f0a5140	0.5403023
18	0x3e9f393e	0.3109836
19	0x3f734e6a	0.95041525
20	0x3dcc7576	0.099833414
21	0x3f7eb898	0.9950042
22	0x3d01815c	0.031617507
23	0x3f7fdf3c	0.99950004
24	0x3c23d657	0.009999833
25	0x3f7ffcb9	0.99995
26	0x3b4f3e20	0.0031622723
27	0x3f7fffac	0.999995
28	0x3a83126d	0.0009999998
29	0x3f7ffff8	0.9999995
30	0x39a5cb5f	0.00031622776
31	0x3f7fffff	0.99999994
32	0x3f68c7b7	0.9092974
33	0xbed51133	-0.41614684
34	0x3f17541b	0.5911271
35	0x3f4e7bec	0.8065784
36	0x3e4b6ff9	0.19866933
37	0x3f7ae5a5	0.9800666
38	0x3d8170c8	0.063203394
39	0x3f7f7cf9	0.9980007
40	0x3ca3d43e	0.019998666
41	0x3f7ff2e5	0.9998
42	0x3bcf3ddd	0.0063245133
43	0x3f7ffeb0	0.99998
44	0x3b031269	0.0019999987
45	0x3f7fffde	0.999998
46	0x3a25cb5f	0.0006324555
47	0x3f7ffffd	0.9999998
48	0x3e1081c3	0.14112
49	0xbf7d7026	-0.9899925
50	0x3f5009c2	0.8126489
51	0x3f152f57	0.5827536
52	0x3e974e6d	0.29552022
53	0x3f7490ef	0.9553365
54	0x3dc1ffc1	0.09472609
55	0x3f7ed94f	0.99550337
56	0x3cf5b920	0.029995501
57	0x3f7fe283	0.99955004
58	0x3c1b6e11	0.009486691
59	0x3f7ffd0d	0.999955
60	0x3b449b93	0.0029999956
61	0x3f7fffb5	0.9999955
62	0x3a78b10d	0.0009486832
63	0x3f7ffff8	0.9999995
64	0xbf41bdcf	-0.7568025
65	0xbf275530	-0.6536436
66	0x3f741dde	0.95358074
67	0x3e9a2eb1	0.30113748
68	0x3ec761d7	0.38941833
69	0x3f6bcaa7	0.921061
70	0x3e012e88	0.12615407
71	0x3f7df469	0.99201065
72	0x3d23cbdb	0.039989334
73	0x3f7fcb94	0.9992001
74	0x3c4f3ccd	0.012648773
75	0x3f7ffac2	0.99992
76	0x3b831258	0.0039999895
77	0x3f7fff7a	0.999992
78	0x3aa5cb5c	0.0012649107
79	0x3f7ffff3	0.9999992
80	0xbf757c10	-0.9589243
81	0x3e913c2c	0.2836622
82	0x3f7ffc7f	0.99994653
83	0xbc2972d4	-0.010342319
84	0x3ef57744	0.47942555
85	0x3f60a940	0.87758255
86	0x3e213c1e	0.15745589
87	0x3f7cce81	0.987526
88	0x3d4cb6f5	0.04997917
89	0x3f7fae19	0.99875027
90	0x3c818581	0.01581073
91	0x3f7ff7cf	0.999875
92	0x3ba3d6de	0.0049999794
93	0x3f7fff2e	0.9999875
94	0x3acf3e31	0.0015811381
95	0x3f7fffeb	0.99999875
96	0xbe8f0f8c	-0.2794155
97	0x3f75cdb8	0.96017027
98	0x3f72784d	0.94714814
99	0xbea43f6f	-0.32079646
100	0x3f108c69	0.5646425
101	0x3f534932	0.8253356
102	0x3e41206f	0.18860029
103	0x3f7b67e3	0.98205394
104	0x3d759cd1	0.059964005
105	0x3f7f8a12	0.99820054
106	0x3c9b6c46	0.018972527
107	0x3f7ff434	0.99982
108	0x3bc49b59	0.005999964
109	0x3f7ffed2	0.999982
110	0x3af8b105	0.0018973654
111	0x3f7fffe2	0.9999982
112	0x3f283046	0.6569866
113	0x3f40ffbd	0.75390226
114	0x3f4ce86f	0.80042166
115	0xbf1974bb	-0.5994374
116	0x3f24eb73	0.64421767
117	0x3f43ccb3	0.7648422
118	0x3e60d350	0.2195561
119	0x3f79c0ea	0.9755999
120	0x3d8f3e32	0.06994285
121	0x3f7f5f81	0.997551
122	0x3cb552a6	0.022134136
123	0x3f7feff2	0.999755
124	0x3be55fc7	0.006999943
125	0x3f7ffe65	0.9999755
126	0x3b1111ec	0.0022135926
127	0x3f7fffd7	0.99999756
128	0x3f7d4695	0.98935825
129	0xbe14fdf6	-0.14550003
130	0x3f13067d	0.57431775
131	0xbf5191e6	-0.8186325
132	0x3f37a4a6	0.7173561
133	0x3f325b5f	0.6967067
134	0x3e802652	0.25029236
135	0x3f77da02	0.9681703
136	0x3da3aa51	0.0799147
137	0x3f7f2e66	0.99680173
138	0x3ccf388e	0.025295522
139	0x3f7feb08	0.99968004
140	0x3c031213	0.007999915
141	0x3f7ffde7	0.999968
142	0x3b25cb54	0.0025298195
143	0x3f7fffca	0.9999968
144	0x3ed30132	0.4121185
145	0xbf693fd5	-0.91113025
146	0x3e951fea	0.2912591
147	0xbf74e6a2	-0.9566442
148	0x3f48881d	0.7833269
149	0x3f1f21d5	0.62161
150	0x3e8fc22e	0.28077835
151	0x3f75b3a9	0.95977265
152	0x3db8123f	0.08987855
153	0x3f7ef6c2	0.9959527
154	0x3ce91def	0.028456656
155	0x3f7fe576	0.99959505
156	0x3c13743a	0.008999879
157	0x3f7ffd59	0.9999595
158	0x3b3a84bb	0.0028460461
159	0x3f7fffbc	0.99999595
160	0xbf0b44f8	-0.5440211
161	0xbf56cd64	-0.8390715
162	0xbca97082	-0.02068353
163	0xbf7ff1fb	-0.9997861
164	0x3f576aa4	0.84147096
165	0x3f0a5140	0.5403023
166	0x3e9f393e	0.3109836
167	0x3f734e6a	0.95041525
168	0x3dcc7576	0.099833414
169	0x3f7eb898	0.9950042
170	0x3d01815c	0.031617507
171	0x3f7fdf3c	0.99950004
172	0x3c23d657	0.009999833
173	0x3f7ffcb9	0.99995
174	0x3b4f3e20	0.0031622723
175	0x3f7fffac	0.999995
176	0xbf7fff5c	-0.9999902
177	0x3b910572	0.004425698
178	0xbea94121	-0.33057502
179	0xbf719b8c	-0.9437797
180	0x3f64262a	0.89120734
181	0x3ee83dc0	0.45359612
182	0x3eae878b	0.34087786
183	0x3f70aae4	0.9401076
184	0x3de0d372	0.1097783
185	0x3f7e73e8	0.9939561
186	0x3d0e736b	0.03477804
187	0x3f7fd85b	0.9993951
188	0x3c34386a	0.010999778
189	0x3f7ffc09	0.9999395
190	0x3b63f785	0.0034784984
191	0x3f7fff9a	0.9999939
192	0xbf095cd8	-0.53657293
193	0x3f5806d0	0.84385395
194	0xbf1b9126	-0.60768354
195	0xbf4b4f55	-0.79417926
196	0x3f6e9a1d	0.9320391
197	0x3eb986f5	0.36235777
198	0x3ebda92c	0.3704313
199	0x3f6dc9c3	0.9288599
200	0x3df52bac	0.119712204
201	0x3f7e28b5	0.99280864
202	0x3d1b651d	0.037938226
203	0x3f7fd0d2	0.9992801
204	0x3c449a71	0.011999712
205	0x3f7ffb48	0.999928
206	0x3b78b0e8	0.0037947241
207	0x3f7fff87	0.9999928
208	0x3ed72022	0.42016703
209	0x3f684e6f	0.9074468
210	0xbf53144c	-0.82452846
211	0xbf10d99d	-0.5658205
212	0x3f76abc0	0.9635582
213	0x3e88f59b	0.26749882
214	0x3ecc9a40	0.39961433
215	0x3f6aabc3	0.9166834
216	0x3e04bed0	0.12963414
217	0x3f7dd700	0.9915619
218	0x3d285669	0.041098032
219	0x3f7fc8a1	0.9991551
220	0x3c54fc6b	0.012999634
221	0x3f7ffa76	0.9999155
222	0x3b86b525	0.0041109496
223	0x3f7fff72	0.99999154
224	0x3f7d9872	0.9906074
225	0x3e0c04d7	0.13673721
226	0xbf75a8b2	-0.95960534
227	0xbe900d0f	-0.28134963
228	0x3f7c466f	0.98544973
229	0x3e2e0bde	0.16996714
230	0x3edb56f5	0.4283978
231	0x3f6751b1	0.90359026
232	0x3e0ee464	0.13954312
233	0x3f7d7ecc	0.990216
234	0x3d354746	0.044257425
235	0x3f7fbfc9	0.99902016
236	0x3c655e56	0.013999542
237	0x3f7ff994	0.999902
238	0x3b9111d4	0.004427174
239	0x3f7fff5c	0.9999902
240	0x3f267944	0.65028787
241	0xbf427ae8	-0.7596879
242	0xbf7fe075	-0.9995187
243	0x3cfe22f7	0.031022532
244	0x3f7f5bd5	0.997495
245	0x3d90deaa	0.0707372
246	0x3ee9db83	0.45675287
247	0x3f63bc68	0.8895936
248	0x3e19064f	0.14943813
249	0x3f7d201a	0.9887711
250	0x3d4237ad	0.047416378
251	0x3f7fb649	0.9988752
252	0x3c75c033	0.014999437
253	0x3f7ff8a1	0.9998875
254	0x3b9b6e83	0.0047433986
255	0x3f7fff43	0.99998873

patch_to_token.weight f4 [16, 48]
0	0x3d9384dc	0.07203075
1	0x3da7f820	0.08201623
2	0xbd924d91	-0.07143701
3	0x3dc19209	0.09451682
4	0xbd8e73b2	-0.06955661
5	0xbc07051f	-0.008240967
6	0xbddd42d3	-0.10803761
7	0x3d3d6ad5	0.04624446
8	0x3db6178d	0.08891211
9	0xbe12e080	-0.14343452
10	0x3db31244	0.08743718
11	0xbc42bfbd	-0.011886534
12	0x3d899ab7	0.06718963
13	0xbc9d59d8	-0.01920788
14	0x3cf7c353	0.030244505
15	0xbd759f9a	-0.05996666
16	0x3e00f678	0.1259402
17	0x3d17962f	0.03700846
18	0xbd53b545	-0.051686544
19	0x3d48f024	0.04905714
20	0xbd4d7cef	-0.050167974
21	0xb952afa0	-0.00020092586
22	0xbd2f9bdf	-0.04287326
23	0x3ddcdf95	0.107848324
24	0xbdcee43b	-0.10102125
25	0xbd5199ed	-0.051172186
26	0xbcd6ba7b	-0.026211968
27	0xbd97d136	-0.07412951
28	0x3cc29bdb	0.023755958
29	0xbe04eb96	-0.12980494
30	0x3e114550	0.14186597
31	0xbde9b599	-0.1141159
32	0x3d9b6605	0.07587818
33	0xbc3b1819	-0.01141932
34	0xbda8fd83	-0.082514785
35	0x3d59474b	0.053046506
36	0xbc5813ab	-0.013188283
37	0x3da590bc	0.080842465
38	0xbcaa73df	-0.020807205
39	0xbda99985	-0.08281235
40	0x3b2cc6dc	0.0026363647
41	0xbd9a84f2	-0.075448886
42	0x3cc1db2e	0.023664083
43	0x3dba4cfe	0.09096716
44	0x3d3caafc	0.0460615
45	0xbdcdb92b	-0.100450836
46	0x3d3942a6	0.045229577
47	0xbc488306	-0.01223827
48	0x3d3f9c72	0.046780057
49	0xbde5bf1b	-0.11218091
50	0xbe2b3c94	-0.16722327
51	0xbda48c8b	-0.08034619
52	0xbe0d4e23	-0.13799338
53	0x3dbd5b4c	0.09245929
54	0x3c7d0914	0.015444059
55	0x3d0a1fd1	0.03372175
56	0x3c8c7ede	0.017150339
57	0xbcf5edc2	-0.030020598
58	0x3db05816	0.08610551
59	0xbe043c94	-0.12913734
60	0xbcb159b5	-0.021649221
61	0xbe02f144	-0.12787348
62	0x3c817711	0.015803846
63	0xbda0e1a4	-0.078555375
64	0x3db23613	0.0870172
65	0x3c518309	0.012787589
66	0x3e25a1cc	0.16175002
67	0xbd34c6f5	-0.044135053
68	0xbd300804	-0.042976394
69	0xbd33907f	-0.043838974
70	0x3e2f2bd6	0.17106566
71	0x3db64589	0.088999815
72	0x3e399dc3	0.18126588
73	0xbd9f64b5	-0.0778288
74	0xbdd1288e	-0.10212813
75	0xbd9390b1	-0.07205332
76	0xbd6588d1	-0.05603868
77	0x3dcaed66	0.099085614
78	0x3dbce5a2	0.092234865
79	0x3e23b034	0.15985185
80	0xbdb8d330	-0.09024656
81	0xbde7f82c	-0.11326632
82	0x3d7af17e	0.06126546
83	0xbd967bba	-0.07347818
84	0x3d90b4a7	0.07065707
85	0xbd536568	-0.05161038
86	0x3d846c42	0.06465961
87	0xbe04807c	-0.12939638
88	0xbdbbfdb4	-0.091792494
89	0x3cc63a71	0.024197789
90	0x3c3c1fb3	0.011482167
91	0xbd620668	-0.05518189
92	0x3d8569a2	0.065142885
93	0x3d9e694a	0.07734926
94	0xbdff96e3	-0.12479951
95	0xbdc6dd7f	-0.09710216
96	0x3e2f8fb5	0.17144664
97	0xbc1aee98	-0.009456299
98	0xbc24ebd1	-0.010065989
99	0xbdc67fc8	-0.09692341
100	0xbd2e9d9c	-0.042630777
101	0x3d9cadd8	0.076503456
102	0x3cba6f04	0.022758015
103	0xbd7c598c	-0.061608836
104	0x3d36d883	0.044640075
105	0xbd6a9bc8	-0.05727747
106	0xbda50d57	-0.08059185
107	0xbd140062	-0.036133178
108	0xbda9fad4	-0.08299795
109	0xbd4a5366	-0.04939594
110	0x3e3fd22c	0.18732518
111	0x3d9263ed	0.071479656
112	0x3cf662e1	0.030076446
113	0xbe17b82f	-0.14816354
114	0xbdd935ba	-0.10605951
115	0xbd6be71c	-0.05759345
116	0x3bffed43	0.007810266
117	0xbe0f3628	-0.13985503
118	0xbd950a0e	-0.072773084
119	0xbdc50c66	-0.096215054
120	0xbc6186db	-0.013765062
121	0xbd889013	-0.06668105
122	0xbcb5369a	-0.022120763
123	0xbddfeaef	-0.10933482
124	0xbde4544f	-0.11148893
125	0xbdc6fb87	-0.09715944
126	0xbd7e09e7	-0.062021162
127	0xbe00ab2d	-0.12565298
128	0x3e0f29dc	0.13980812
129	0xbc1dccb5	-0.0096313255
130	0x3e140c76	0.14457878
131	0x3d88f427	0.06687193
132	0xbdd3c40d	-0.10340128
133	0x3df4be43	0.11950352
134	0xbc9aaad3	-0.018880283
135	0xbd08538c	-0.0332828
136	0xbdcd6413	-0.10028853
137	0xbdfc6630	-0.12324178
138	0x3d7d4a17	0.061838236
139	0xbc1fc626	-0.009751832
140	0x3d9eab8c	0.07747564
141	0xbdc7e44b	-0.0976034
142	0x3e034b81	0.12821771
143	0xbdabb300	-0.08383751
144	0x3b1949a5	0.0023389843
145	0x3d669e8a	0.05630354
146	0x3dd0dbf4	0.10198203
147	0x3e14ae47	0.14519607
148	0x3e21e78c	0.15810984
149	0xbdb3a9f9	-0.08772654
150	0x3d83c6e6	0.06434421
151	0xbd079823	-0.033104073
152	0x3c3f7190	0.01168479
153	0xbda50e4d	-0.08059368
154	0x3e23fa63	0.16013484
155	0xbd9c02e5	-0.076177396
156	0x3ddb2f24	0.10702351
157	0x3da3c642	0.07996799
158	0x3d9de85f	0.07710337
159	0xbd40331e	-0.04692375
160	0x3dbe34b5	0.09287397
161	0xbbf942fe	-0.007606863
162	0xbca3d10f	-0.019997148
163	0xbe290b51	-0.16508223
164	0x3caae55e	0.020861324
165	0xbd7a5623	-0.061117303
166	0xbdd729e2	-0.105060354
167	0x3daea736	0.08527987
168	0xbbee33cd	-0.0072693587
169	0xbdf3c720	-0.119032145
170	0xbde4acc9	-0.11165769
171	0xbd39688c	-0.04526572
172	0x3d308654	0.043096855
173	0xbd990f45	-0.074736156
174	0xbdf499ed	-0.119434215
175	0xbdafbbe7	-0.085807614
176	0xbdbb4deb	-0.09145721
177	0x3d8764db	0.066110335
178	0x3e014519	0.12624015
179	0xbdf77e3d	-0.12084625
180	0x3d470aa1	0.04859412
181	0x3db7b17d	0.089694
182	0x3d2875c6	0.041127943
183	0xbd152459	-0.036411617
184	0x3dbb2039	0.09137005
185	0x3dbce94a	0.09224184
186	0x3d8f20c3	0.06988671
187	0xbc1540f3	-0.009109723
188	0xbca622cc	-0.020280264
189	0x3d0682e0	0.032839656
190	0xbc06fadd	-0.008238521
191	0xbccff6a2	-0.025386158
192	0x3ded2028	0.11578399
193	0x3e1508e1	0.14554168
194	0x3bd72184	0.0065652747
195	0xbc388e4a	-0.011264393
196	0x3cdf0adc	0.027226858
197	0x3c809db2	0.015700195
198	0x3d6f24c0	0.058384657
199	0x3d815965	0.06315879
200	0xbdd24be0	-0.10268378
201	0xbcd0cb6d	-0.025487626
202	0x3e18600d	0.1488039
203	0x3da8cbc2	0.08241989
204	0x3cc65e7a	0.024214972
205	0xbd65cb91	-0.05610234
206	0xbd6a5729	-0.05721203
207	0xbdca417a	-0.0987577
208	0xbdab8040	-0.08374071
209	0x3c0aad6b	0.008464198
210	0x3d587cdd	0.052853454
211	0x3ce320e7	0.02772565
212	0xbe2ad67d	-0.16683383
213	0xbe015b0a	-0.12632385
214	0xbd81543b	-0.06314894
215	0x3dcddbfa	0.10051723
216	0xbc6980f9	-0.014251941
217	0xbd98bd2a	-0.07457955
218	0x3cb17d64	0.021666236
219	0xbdbc5ed5	-0.09197775
220	0xbe00e134	-0.12585908
221	0x3d90cff6	0.070709154
222	0xbdcd2924	-0.100176126
223	0xbd7cd6f3	-0.06172843
224	0xbe051005	-0.12994392
225	0x3ddead91	0.10872949
226	0x3df72fcd	0.12069664
227	0x3d821da1	0.063533075
228	0xbdb176b1	-0.08665217
229	0xbe03374b	-0.12814061
230	0xbdd3d1ac	-0.10342726
231	0x3df51dd8	0.11968583
232	0x3dae5e16	0.08514039
233	0x3e0d7dac	0.13817471
234	0x3dbc2fd7	0.09188812
235	0x3d517e56	0.051145874
236	0x3c8b7e14	0.017027892
237	0xbdba8c28	-0.09108764
238	0xbdd60353	-0.10449853
239	0xbdef93df	-0.11698126
240	0x3d1140c5	0.03546216
241	0xbdbca8e8	-0.09211904
242	0xbd4cc65e	-0.049993865
243	0xbdd6fc96	-0.10497396
244	0xbd49e946	-0.049294733
245	0xbdfb4ef7	-0.12270921
246	0xbdeaf369	-0.11472208
247	0x3cdc3f84	0.026885755
248	0xbd86664f	-0.065624826
249	0x3d8a9a60	0.06767726
250	0xbd887f36	-0.066648886
251	0xbe010a77	-0.12601648
252	0xbd4cf629	-0.050039444
253	0xbdbe08ff	-0.092790596
254	0xbd87d2ae	-0.06631981
255	0xbe2310f9	-0.15924443

patch_to_token.bias f4 [16]
0	0xbda1e473	-0.07904901
1	0x3e1d225d	0.1534514
2	0x3da460b2	0.08026256
3	0x3da86dad	0.08224044
4	0xbda2ae14	-0.07943359
5	0xbd746053	-0.059662174
6	0xbca4982d	-0.020092094
7	0xbcffe91d	-0.031239087
8	0xbe153cd0	-0.1457398
9	0x3d2d1b29	0.04226223
10	0x3c3862a0	0.011253983
11	0xbda5ce54	-0.080959946
12	0x3d19ac07	0.037517574
13	0xbe01a0f5	-0.12659056
14	0x3d4363c4	0.047702566
15	0x3d1b1495	0.037861425

transformer_blocks.0.norm1.weight f4 [16]
0	0x3f7bd4aa	0.98371375
1	0x3f86d591	1.0533925
2	0x3f81cd5e	1.0140798
3	0x3f84a271	1.0362073
4	0x3f838f3d	1.0278088
5	0x3f86bac3	1.0525745
6	0x3f808324	1.0040021
7	0x3f844d57	1.0336102
8	0x3f7f0bb0	0.9962721
9	0x3f8685fc	1.0509639
10	0x3f86f007	1.0542
11	0x3f7935f2	0.9734794
12	0x3f891e05	1.0712286
13	0x3f745fc6	0.9545864
14	0x3f8606b6	1.0470798
15	0x3f7fe6c4	0.99961495

transformer_blocks.0.norm1.bias f4 [16]
0	0xbc7ddfb0	-0.015495226
1	0x3a2be45f	0.0006557162
2	0x3bbb1514	0.0057093
3	0x3bebd046	0.007196459
4	0xbcd1568d	-0.025553966
5	0xba0965bb	-0.0005241294
6	0x3c2e0aab	0.010622661
7	0xbc2f89d0	-0.010714009
8	0xbc819266	-0.015816879
9	0xbc23d8fb	-0.010000463
10	0xbc6735b0	-0.014111921
11	0xbd2d1d06	-0.042264007
12	0x3bbecfcb	0.0058231107
13	0xbd2bf4b8	-0.04198143
14	0x3c03e96c	0.008051258
15	0x3b02bbb5	0.0019948308

transformer_blocks.0.multi_head_attention.Q_mappers.0.weight f4 [8, 8]
0	0xbdb4026c	-0.087895244
1	0x3df23e87	0.118283324
2	0xbeabd272	-0.33558995
3	0x3e4e0020	0.20117235
4	0xbdebf05b	-0.115204535
5	0xbe834fe1	-0.2564688
6	0x3d3474c2	0.04405666
7	0x3e34fbb2	0.17674139
8	0x3e9429fb	0.2893828
9	0xbe3efd42	-0.18651298
10	0xbe3f897b	-0.18704788
11	0x3d8304fb	0.06397434
12	0x3db4316d	0.0879849
13	0x3e19cca6	0.15019473
14	0x3e4070ab	0.1879298
15	0xbd97780f	-0.07395946
16	0x3e3590e4	0.17731053
17	0x3e8f37aa	0.27972156
18	0xbde6d5f9	-0.11271281
19	0x3e80f931	0.25190118
20	0x3e27c2c3	0.1638289
21	0x3ea6c4cc	0.3257202
22	0xbe5843a4	-0.21119553
23	0xbe29f318	-0.16596639
24	0xbddd6fd5	-0.10812346
25	0x3d8469c9	0.064654894
26	0x3e5e241e	0.21693465
27	0xbe3e28a3	-0.18570189
28	0x3e28a36a	0.16468588
29	0xbdf48548	-0.11939484
30	0x3e539c62	0.20665124
31	0xbb98d07d	-0.0046635256
32	0xbe92a11d	-0.28638545
33	0xbe85c34e	-0.26125568
34	0xbe788620	-0.24269915
35	0x3e2c1e1a	0.16808358
36	0xbe679405	-0.22615059
37	0xbd8a1258	-0.0674178
38	0x3da79352	0.08182396
39	0xbe57e2ef	-0.21082662
40	0x3e0420e1	0.12903167
41	0xbebf1009	-0.3731692
42	0xbe780fd6	-0.24224791
43	0xbe9e52a5	-0.30922428
44	0xbdcce85a	-0.10005255
45	0xbe2b6a52	-0.16739777
46	0x3d35e035	0.044403274
47	0xbdaf8031	-0.085693724
48	0x3e0155e6	0.12630424
49	0x3ea867dd	0.3289174
50	0x3df6d02d	0.12051425
51	0xbe01c22f	-0.12671731
52	0xbeb49150	-0.35267115
53	0x3e2945f0	0.16530585
54	0xbe3b86aa	-0.18313089
55	0x3e50d8f7	0.20395266
56	0x3e77545e	0.24153277
57	0x3e4b6be6	0.19865379
58	0x3eaee58a	0.341595
59	0x3eb0d6dd	0.34538928
60	0x3d9ffe21	0.07812143
61	0xbe834a7d	-0.25642768
62	0x3ea30cb8	0.3184564
63	0xbe267e06	-0.16259012

transformer_blocks.0.multi_head_attention.Q_mappers.0.bias f4 [8]
0	0xbe1bf8d0	-0.15231633
1	0x3e9e8ffc	0.30969226
2	0x3e956075	0.29175153
3	0x3ddd0940	0.1079278
4	0x3c81364b	0.01577296
5	0xbe9dc634	-0.3081528
6	0xbca247ce	-0.01980963
7	0x3ea68f28	0.32531095

transformer_blocks.0.multi_head_attention.Q_mappers.1.weight f4 [8, 8]
0	0x3d9162fa	0.070989564
1	0x3c8b462a	0.01700123
2	0xbd748c6d	-0.059704233
3	0xbe3cb379	-0.18427838
4	0x3e6b771e	0.22994658
5	0xbc0a423f	-0.008438646
6	0x3e7d88ec	0.24759263
7	0xbdb473f4	-0.08811179
8	0x3e3b29a6	0.18277606
9	0x3dfd7093	0.123749875
10	0x3d69389c	0.056938753
11	0x3e4db407	0.20088206
12	0x3e8559e5	0.26045147
13	0x3e9bad75	0.30405775
14	0x3ea5a44d	0.32351914
15	0xbe0696be	-0.13143441
16	0xbea2c4b1	-0.3179069
17	0x3d93b0b7	0.0721144
18	0xbd2e9d08	-0.042630225
19	0xbc723197	-0.014782331
20	0xbe04ad92	-0.12956837
21	0x3dbc1173	0.09183016
22	0x3e43b420	0.19111681
23	0x3e3ba75c	0.18325561
24	0xbe1f2d0e	-0.15544531
25	0xbe17e4c6	-0.14833364
26	0xbd90ccb1	-0.07070292
27	0xbe23d788	-0.16000187
28	0x3ea31526	0.31852072
29	0x3e36d459	0.17854442
30	0x3ea2ad42	0.3177281
31	0xbb535483	-0.0032246418
32	0x3d9fa369	0.0779484
33	0x3de0596d	0.109545566
34	0xbec7637c	-0.38943088
35	0x3dbbce88	0.09170252
36	0xbd9dd2b0	-0.07706201
37	0xbe02fa96	-0.12790903
38	0xbe9f69b2	-0.31135327
39	0x3ebc669e	0.3679704
40	0x3e9b15fb	0.30290207
41	0x3e15fab2	0.14646414
42	0x3e954486	0.29153842
43	0xbdb1c097	-0.08679312
44	0xbdd3ccbe	-0.10341786
45	0x3e2fd55c	0.17171234
46	0xbdaeb380	-0.08530331
47	0xbd0a8c39	-0.033825133
48	0xbea34697	-0.31889793
49	0x3db91787	0.090376906
50	0xbe3478cc	-0.17624205
51	0xbc3878cd	-0.01125927
52	0x3eb55ba7	0.35421488
53	0xbdfbe2f1	-0.12299145
54	0xbddc76fb	-0.10764881
55	0x3e4ffd0f	0.20311378
56	0xbe13d7d3	-0.14437799
57	0x3b0666a5	0.0020507958
58	0x3ebf7aea	0.37398463
59	0xbe489ef4	-0.19591886
60	0xbe60e346	-0.21961698
61	0xbe782052	-0.24231079
62	0xbdab4e06	-0.08364491
63	0xbe47ee14	-0.19524413

transformer_blocks.0.multi_head_attention.Q_mappers.1.bias f4 [8]
0	0xbe5a436a	-0.21314779
1	0x3dda5723	0.10661151
2	0x3e0a507a	0.13507262
3	0xbdf31f74	-0.118712336
4	0xbe53766b	-0.20650642
5	0xbd9c5932	-0.076342
6	0xbe221b0d	-0.15830632
7	0xbe15503b	-0.14581387

transformer_blocks.0.multi_head_attention.K_mappers.0.weight f4 [8, 8]
0	0xbea1385a	-0.31488305
1	0x3d8ff469	0.070290394
2	0xbe9224b8	-0.2854364
3	0xbe7831bf	-0.24237727
4	0xbe8eb41c	-0.27871788
5	0x3dd7fe3f	0.105465405
6	0xbe3482e7	-0.1762806
7	0xbe0b44ee	-0.13600513
8	0x3e839b0c	0.2570423
9	0x3e552f7a	0.20818892
10	0x3e631c7c	0.22178835
11	0xbea9c8cf	-0.33161017
12	0xbe8501fd	-0.2597808
13	0xbe0655b0	-0.13118625
14	0x3e836f51	0.25670865
15	0x3d8bf9eb	0.068347774
16	0xbe8a0e44	-0.2696401
17	0x3c1698b6	0.009191683
18	0xbe90a615	-0.2825171
19	0xbda050c4	-0.07827905
20	0xbdc872b2	-0.097875014
21	0x3e9b8b60	0.30379772
22	0x3e0ea8df	0.13931607
23	0xbdbc479a	-0.091933444
24	0x3d86907f	0.06570529
25	0xbdd37bc1	-0.103263386
26	0x3e11d218	0.142403
27	0x3e0b1f50	0.13586164
28	0x3db9b372	0.090674296
29	0xbe02a223	-0.12757163
30	0x3e8c641e	0.27420133
31	0xbd0122c9	-0.031527314
32	0xbe2356da	-0.159511
33	0x3e68b3b6	0.22724804
34	0x3e970ffd	0.29504386
35	0x3eae51d0	0.34046793
36	0x3db56db5	0.088588156
37	0xbddbbeca	-0.107297495
38	0x3e4e9e5d	0.20177598
39	0x3e92c36f	0.2866473
40	0xbeaf1988	-0.34199166
41	0xbd33c554	-0.04388936
42	0xbe72872e	-0.2368438
43	0x3d8c996c	0.068652004
44	0x3e1b29e0	0.15152693
45	0xbd9f1153	-0.07766976
46	0xbd763550	-0.060109437
47	0x3e45dbaa	0.19322076
48	0xbd6d83e4	-0.05798711
49	0xbe98ab36	-0.29818124
50	0x3e8c0d67	0.27353975
51	0xbe39c72b	-0.18142383
52	0xbcf717ee	-0.030162778
53	0x3cedb0e0	0.029015005
54	0x3c266bd2	0.010157542
55	0xbebe08a9	-0.37115982
56	0x3e29af2a	0.16570726
57	0xbe303290	-0.17206788
58	0xbe3bc51e	-0.18336913
59	0x3dc63804	0.09678653
60	0xbe33e974	-0.17569524
61	0xbe3321b6	-0.17493328
62	0xbe143404	-0.14472967
63	0xbda35c5e	-0.07976602

transformer_blocks.0.multi_head_attention.K_mappers.0.bias f4 [8]
0	0xbe172cd0	-0.14763188
1	0xbdc34be9	-0.09535963
2	0x3dbc52ce	0.09195481
3	0xbe9272a3	-0.28603086
4	0xbe5b21e8	-0.21399653
5	0x3ba88708	0.00514305
6	0x3d494625	0.04913916
7	0x3e4800c7	0.19531547

transformer_blocks.0.multi_head_attention.K_mappers.1.weight f4 [8, 8]
0	0xbe8af8bd	-0.27142897
1	0x3e29491c	0.16531795
2	0x3e6d7846	0.23190412
3	0x3e026392	0.12733296
4	0xbe880b3e	-0.26571077
5	0xbda176f3	-0.07884016
6	0xbeb599e0	-0.3546896
7	0xbe8c5836	-0.2741105
8	0x3e59002a	0.21191469
9	0xbd0534af	-0.032520946
10	0x3e2e332d	0.1701171
11	0xbe88146c	-0.2657808
12	0x3ddf8528	0.109140694
13	0xbe427824	-0.18991143
14	0x3e196d5b	0.14983122
15	0xbe3d4864	-0.18484646
16	0xbda67c31	-0.081291564
17	0xbeb96189	-0.36207226
18	0xbd10c9b7	-0.03534862
19	0x3ed2b45b	0.41153225
20	0x3de1924f	0.11014234
21	0xbe6e8e8a	-0.23296562
22	0x3d57ab01	0.052653316
23	0x3c80716d	0.015679086
24	0xbe9c9b69	-0.3058732
25	0x3ea8302d	0.32849255
26	0x3d12ecb8	0.035870284
27	0x3be0352a	0.006842275
28	0xbda262e0	-0.07929015
29	0xbde2b73e	-0.11070107
30	0x3c0b3c7e	0.008498309
31	0x3da78fed	0.081817485
32	0x3dc3ef2c	0.09567103
33	0xbe6149cc	-0.22000808
34	0x3ea11aad	0.31465665
35	0x3c2f2d3e	0.010691939
36	0xbe90550d	-0.2818989
37	0xbe5a6293	-0.21326666
38	0x3eca2770	0.39483213
39	0x3d31c02a	0.043396153
40	0xbd77452f	-0.060368713
41	0xbdbd1c8d	-0.09233961
42	0xbdac1207	-0.08401876
43	0xbeaa94f0	-0.33316755
44	0xbe645503	-0.22298054
45	0x3e6ae3f7	0.22938524
46	0x3e84192c	0.25800455
47	0x3ea36030	0.31909323
48	0xbe843f08	-0.2582934
49	0x3e860818	0.2617805
50	0xbe44dd4e	-0.19225046
51	0x3e0d2cd3	0.1378663
52	0x3ea8208e	0.32837337
53	0x3ea4f917	0.3222129
54	0x3e3bd1ff	0.18341826
55	0x3e2a161b	0.16609995
56	0xbd134b56	-0.035960518
57	0x3e614d6d	0.22002192
58	0xbdcd5a2a	-0.10026963
59	0x3db23d70	0.087031245
60	0xbd327e53	-0.043577503
61	0x3d609443	0.054828893
62	0xbec1a290	-0.37819338
63	0xbe151c20	-0.1456151

transformer_blocks.0.multi_head_attention.K_mappers.1.bias f4 [8]
0	0xbe3e6266	-0.18592224
1	0xbdf453b7	-0.1193003
2	0xbe672722	-0.22573522
3	0xbea2cf5b	-0.31798825
4	0x3cbd0367	0.023072911
5	0x3e6af1ef	0.22943853
6	0x3ea4dc74	0.32199442
7	0x3e534ee8	0.20635569

transformer_blocks.0.multi_head_attention.V_mappers.0.weight f4 [8, 8]
0	0xbe4b99ca	-0.19882885
1	0xbec97e9d	-0.3935441
2	0x3dc41147	0.09573608
3	0x3e3a00a8	0.18164313
4	0xbeb2c32f	-0.34914538
5	0x3dae41b7	0.08508628
6	0x3e83d3b9	0.2574747
7	0xbcc4a24e	-0.024003174
8	0xbe3b2cb8	-0.18278778
9	0x3e75d936	0.2400864
10	0x3e1ee670	0.15517592
11	0x3e8e15ec	0.277511
12	0xbe6ac924	-0.22928292
13	0x3e176fae	0.14788696
14	0xbe9bbf5b	-0.3041943
15	0x3ec17361	0.3778334
16	0xbe010a3b	-0.12601559
17	0x3e225f1a	0.15856591
18	0x3d921cf2	0.07134427
19	0x3e035944	0.12827021
20	0xbd421eb0	-0.047392547
21	0x3da90cb7	0.08254378
22	0xbe554f4c	-0.2083103
23	0xbea0b23d	-0.31385985
24	0xbe1d644b	-0.1537029
25	0x3eab11b5	0.33411947
26	0xbde10520	-0.10987306
27	0x3daf9d9d	0.08574984
28	0xbe0232f0	-0.12714744
29	0x3ea60c2e	0.32431167
30	0x3e8fc47c	0.28079593
31	0x3df0b29a	0.117528155
32	0xbe21bf9a	-0.15795746
33	0xbeaac5fa	-0.3335417
34	0x3cd25daf	0.025679437
35	0xbe34d3cd	-0.1765892
36	0x3e983744	0.29729664
37	0xbec706e8	-0.38872457
38	0x3dca7e37	0.09887355
39	0x3ebce8e1	0.36896423
40	0x3e5e39c6	0.21701726
41	0x3dd5a707	0.104322486
42	0xbe9f34e8	-0.31095052
43	0x3ec0516b	0.37562117
44	0xbcb526f4	-0.0221133
45	0xbeb4b33f	-0.35293004
46	0x3e9f4f27	0.31115076
47	0xbddbe9fd	-0.10737989
48	0xbd87d9aa	-0.06633313
49	0x3ebde665	0.3708984
50	0xbe88e8d6	-0.2674014
51	0xbe97420f	-0.29542586
52	0x3d0d6a1a	0.034525014
53	0x3c053cad	0.008132142
54	0x3e159474	0.14607412
55	0xbea79548	-0.3273108
56	0x3c10866c	0.008821111
57	0xbdf5813f	-0.11987542
58	0xbe2eff89	-0.17089666
59	0xbea54143	-0.32276353
60	0x3e5d5581	0.21614648
61	0x3dda8b82	0.1067114
62	0xbe7de23c	-0.24793333
63	0x3ea0ca99	0.3140457

transformer_blocks.0.multi_head_attention.V_mappers.0.bias f4 [8]
0	0x3e1fc7b2	0.15603521
1	0x3d8e354d	0.0694376
2	0xbe4965cc	-0.19667739
3	0x3d07099a	0.03296814
4	0x3eb0ffb6	0.34570092
5	0x3e53d28b	0.20685785
6	0xbe878d03	-0.2647477
7	0x3e938ba5	0.28817478

transformer_blocks.0.multi_head_attention.V_mappers.1.weight f4 [8, 8]
0	0x3c8cf079	0.01720451
1	0x3e2ebafc	0.17063516
2	0x3e5c6bad	0.2152545
3	0x3e92af6e	0.28649467
4	0xbeaeb07b	-0.3411902
5	0x3e943e2d	0.28953686
6	0xbe46e836	-0.19424519
7	0x3be9fe43	0.007140906
8	0xbe74a28c	-0.23890132
9	0xbd9960bb	-0.07489153
10	0x3d03545a	0.032062866
11	0xbd0db213	-0.034593653
12	0xbb7f2910	-0.0038934387
13	0x3d0d14d6	0.0344437
14	0x3e9e7a2f	0.30952594
15	0x3e60573d	0.21908279
16	0x3e3b5b58	0.18296564
17	0x3e33f005	0.17572029
18	0x3ea8743f	0.3290119
19	0xbd1541cb	-0.0364397
20	0x3dcb01b3	0.099124335
21	0x3d7c9b4b	0.061671536
22	0xbeb40de2	-0.35166842
23	0xbe98ea3d	-0.2986621
24	0x3c8ef43f	0.01745045
25	0xbdce5e9d	-0.1007664
26	0x3cdb2821	0.026752533
27	0xbdede600	-0.11616135
28	0x3de335ef	0.110942714
29	0x3e47815f	0.19482945
30	0xbe050f85	-0.12994201
31	0x3e8072da	0.25087625
32	0x3ea2f7f0	0.31829786
33	0xbea34f8e	-0.31896633
34	0xbe9dcd2f	-0.30820605
35	0xbe7873b6	-0.2426289
36	0xbe840c2e	-0.25790542
37	0xbdbf12de	-0.093297705
38	0xbbf07d17	-0.0073391306
39	0xbd2e5bd6	-0.04256805
40	0xbe4ac36c	-0.1980111
41	0xbdc557a2	-0.09635855
42	0xbdcf5cb7	-0.10125106
43	0x3ea9a0c1	0.33130458
44	0xbdc638a7	-0.09678774
45	0xbe905a14	-0.28193724
46	0x3e1d8b63	0.15385203
47	0xbd1a1649	-0.03761891
48	0x3e813950	0.25239038
49	0x3e82f163	0.25574788
50	0x3ec1cefd	0.37853232
51	0xbe915f1a	-0.2839287
52	0x3e9721d1	0.29517987
53	0x3e8f6b2e	0.2801146
54	0xbe59a56e	-0.21254513
55	0x3e9c4caf	0.30527255
56	0x3e89ec85	0.26938263
57	0xbcc45506	-0.023966324
58	0x3deb4c82	0.11489202
59	0xbdef100c	-0.116729826
60	0xbec06363	-0.37575826
61	0x3db22d5e	0.08700059
62	0x3e18f6c2	0.1493788
63	0xbe6d5bb5	-0.23179515

transformer_blocks.0.multi_head_attention.V_mappers.1.bias f4 [8]
0	0x3e0e8c92	0.13920811
1	0xbe8d93ca	-0.27651817
2	0x3e9cddd3	0.30637988
3	0x3ea20412	0.3164373
4	0x3e070c90	0.13188386
5	0xbe71ea70	-0.23624587
6	0x3e2b1a76	0.16709313
7	0x3d3c0cc2	0.045910604

transformer_blocks.0.norm2.weight f4 [16]
0	0x3f82ef38	1.0229254
1	0x3f8166d4	1.0109506
2	0x3f828317	1.0196255
3	0x3f7fe4c9	0.99958473
4	0x3f83fe7e	1.031204
5	0x3f8204fa	1.0157769
6	0x3f841dbb	1.0321573
7	0x3f7bfa0e	0.9842843
8	0x3f8369fd	1.026672
9	0x3f75d10a	0.96022093
10	0x3f8a5d42	1.080971
11	0x3f8260a2	1.018574
12	0x3f842c40	1.0326004
13	0x3f86f544	1.0543599
14	0x3f84220b	1.0322889
15	0x3f82cd56	1.0218914

transformer_blocks.0.norm2.bias f4 [16]
0	0x3d2e76da	0.042593814
1	0xbb92d013	-0.004480371
2	0xbcb01e0d	-0.021498704
3	0xbd21434b	-0.039370816
4	0xbc44e90f	-0.012018456
5	0xbba5dc6c	-0.0050616767
6	0x3b8226f1	0.0039719273
7	0xbc7f8ee6	-0.0155980345
8	0x3c6df098	0.014522694
9	0x3d158925	0.036507744
10	0xbb808901	-0.003922582
11	0x3ced3bc1	0.028959157
12	0xbc949fdb	-0.018142631
13	0xba5d3571	-0.00084384443
14	0x3c81cbd7	0.015844269
15	0x3b162a43	0.0022913374

transformer_blocks.0.mlp.0.weight f4 [64, 16]
0	0x3d394033	0.04522724
1	0x3dde027a	0.10840316
2	0x3e65d673	0.22445087
3	0xbe25712f	-0.16156457
4	0xbd5db927	-0.054131653
5	0x3d985160	0.07437396
6	0x3a66c0ef	0.0008802553
7	0x3e5cf8ec	0.21579331
8	0xbdf02a4a	-0.11726816
9	0xbd0422e9	-0.032259855
10	0x3de5c9f4	0.1122016
11	0xbd44b849	-0.04802731
12	0x3e207103	0.1566811
13	0xbc9142ec	-0.017732106
14	0xbe347032	-0.17620924
15	0xbcc069c4	-0.023487933
16	0xbdef10c6	-0.11673121
17	0x3cf827d3	0.030292427
18	0xbd1185ba	-0.035527922
19	0xbe926757	-0.28594467
20	0xbcf495d8	-0.029856607
21	0xbbf0798e	-0.007338709
22	0xbdc73b7f	-0.09728145
23	0x3e73df24	0.2381559
24	0xbd88f1aa	-0.06686719
25	0x3e213914	0.1574443
26	0x3dfd27d1	0.1236111
27	0xbe5d9173	-0.21637516
28	0x3d3e8027	0.046508934
29	0x3e282c87	0.16423236
30	0xbdea8a74	-0.11452189
31	0xbe308047	-0.17236434
32	0x3e50f9f8	0.20407856
33	0x3e0c0c7d	0.13676639
34	0xbe4fecc0	-0.20305157
35	0x3e45fceb	0.19334762
36	0xbd9320cc	-0.0718399
37	0xbe4c985c	-0.19979995
38	0xbc2e1e98	-0.010627411
39	0x3de8df41	0.11370707
40	0xbc695b96	-0.014243027
41	0x3d48cfb0	0.04902619
42	0xbe918e06	-0.28428668
43	0x3e67ed8c	0.2264921
44	0x3e2bc80b	0.16775529
45	0x3e52dfa1	0.2059312
46	0xbcb74966	-0.022373866
47	0x3e0b42fe	0.13599774
48	0xbe5a636e	-0.21326992
49	0xbcb74186	-0.022370111
50	0xbd5f3c97	-0.054501142
51	0xbe1e2094	-0.15442115
52	0xbe4639c8	-0.1935798
53	0x3e47e3f8	0.19520557
54	0x3e163344	0.14667994
55	0xbe4f5129	-0.20245804
56	0x3da7cf8e	0.08193885
57	0x3d79a18d	0.060945082
58	0x3e8ac2a7	0.27101633
59	0x3e30e73d	0.1727571
60	0x3e44eee0	0.19231749
61	0xbdd334db	-0.10312816
62	0x3e5108f4	0.20413572
63	0x3e645c73	0.22300892
64	0xbe8ea00a	-0.27856475
65	0xbe7c67d5	-0.24648984
66	0xbc7e2c7f	-0.015513538
67	0x3e4c1f29	0.19933762
68	0xbe3b24ce	-0.18275759
69	0x3d9596db	0.07304164
70	0xbd7a73ac	-0.06114547
71	0x3df1b27f	0.118016236
72	0xbd8a713d	-0.0675988
73	0x3db55fdf	0.088561766
74	0x3df6f830	0.12059057
75	0xbddd3e3d	-0.10802887
76	0xbd4e469b	-0.050360303
77	0x396cc6a4	0.00022580713
78	0x3c48348d	0.01221956
79	0x3e9733df	0.29531762
80	0x3d1c6da3	0.038190495
81	0xbc00eb4f	-0.007868602
82	0x3e526c14	0.20549041
83	0xbde7fb3c	-0.11327216
84	0xbd81f589	-0.0634566
85	0x3d1b0a94	0.037851885
86	0xbe36875a	-0.1782507
87	0x3d02d68b	0.031942885
88	0xbe2646a3	-0.16237883
89	0xbc21a782	-0.009866597
90	0x3d16b397	0.036792364
91	0x3d6a86de	0.057257526
92	0xbe806cfc	-0.25083148
93	0xbe784429	-0.24244751
94	0x3e1b84c6	0.15187368
95	0x3e63585c	0.22201675
96	0xbe6ec561	-0.23317482
97	0x3deed370	0.11661422
98	0xbe34cb50	-0.17655683
99	0xbba35cd5	-0.0049854317
100	0x3e6f87eb	0.23391692
101	0x3e516e3f	0.20452212
102	0xbe4d75c6	-0.20064458
103	0x3e2c562c	0.16829747
104	0x3df4367f	0.11924457
105	0xbb6817d0	-0.0035414584
106	0x3e9ba048	0.30395722
107	0xbdcd70b9	-0.10031266
108	0xbd8e3fe9	-0.06945784
109	0xbe33575d	-0.17513795
110	0x3d8d01ff	0.06885146
111	0x3d80d9e3	0.062915586
112	0x3c691668	0.0142265335
113	0xbe08ce07	-0.13359843
114	0xbdd92202	-0.106021896
115	0x3dfb1f7c	0.122618645
116	0xbe75aa72	-0.23990801
117	0xbd1a117a	-0.037614323
118	0x3c99ee37	0.018790348
119	0xbde3c77c	-0.11122033
120	0x3dd0fe08	0.102047026
121	0x3c80bdfe	0.015715595
122	0x3de3e9ff	0.111286156
123	0xbca8638c	-0.02055528
124	0xbe2320e3	-0.15930514
125	0x3e68a08b	0.22717492
126	0xbc9bd37a	-0.019021738
127	0xbd67fcfb	-0.056637745
128	0xbe1bf1d0	-0.15228963
129	0x3d6e9bb9	0.058253977
130	0xbe7084b3	-0.2348812
131	0x3dd5e1a1	0.10443426
132	0x3de5c9ec	0.11220154
133	0xbe657c07	-0.22410594
134	0xbe054f68	-0.13018572
135	0xbe4c489a	-0.1994957
136	0x3e55487a	0.20828429
137	0x3e6727d1	0.22573783
138	0xbd656d4d	-0.05601244
139	0x3e64ed60	0.22356176
140	0xbd96001e	-0.07324241
141	0xbe3b3716	-0.18282732
142	0x3ceb1d13	0.028700387
143	0x3dba8450	0.09107268
144	0x3e4d77f0	0.20065284
145	0xbb87f9ee	-0.004149667
146	0x3e17a0ee	0.14807484
147	0x3e23457d	0.15944476
148	0x3e1043b3	0.14088325
149	0xbe50e550	-0.20399976
150	0x3e8479b0	0.2587409
151	0xbe5bf7f9	-0.21481313
152	0x3e7b9a8b	0.24570672
153	0xbcf130ba	-0.02944218
154	0xbe94ac79	-0.29037836
155	0x3dbc3862	0.09190442
156	0xbde298ea	-0.11064322
157	0xbe2642d5	-0.16236432
158	0xbde823af	-0.11334931
159	0x3d8e7562	0.06955983
160	0x3e426956	0.18985495
161	0xbdcf8973	-0.10133638
162	0x3e1772d9	0.14789905
163	0x3d9c9160	0.076449156
164	0xbccaa8b8	-0.024738654
165	0x3d687de8	0.0567607
166	0xbe27c29d	-0.16382833
167	0xbe48146e	-0.19539043
168	0xbd97fc66	-0.07421188
169	0xbe575987	-0.21030246
170	0xbe4006bf	-0.18752573
171	0x39c3363f	0.00037233715
172	0xbe23b198	-0.15985715
173	0xbd899cd4	-0.06719366
174	0xbdd8a046	-0.10577445
175	0xbc24e6d8	-0.010064803
176	0xbdd8d5e4	-0.105876714
177	0xbc262233	-0.01013999
178	0xbcfad05e	-0.030616935
179	0x3da44990	0.080218434
180	0x3cc23308	0.023705974
181	0xbdf927bb	-0.12165781
182	0xbd9b49e1	-0.07582451
183	0xbc9e2fac	-0.019309841
184	0xbe30f9d4	-0.17282802
185	0x3d4db0f4	0.050217584
186	0xbc7ff3ea	-0.0156221185
187	0x3d852e66	0.065029904
188	0x3dcca868	0.099930584
189	0x3e4b2236	0.19837269
190	0xbcb9b59f	-0.022669611
191	0xbe5baede	-0.21453425
192	0x3d960702	0.073255554
193	0xbe4e7903	-0.2016335
194	0xbda278ae	-0.07933174
195	0xbc75f5ee	-0.0150122475
196	0xbe16acdc	-0.14714378
197	0xbd6003e7	-0.05469122
198	0x3e4ee360	0.20203924
199	0x3e39b6e1	0.18136169
200	0x3df8b39f	0.12143635
201	0x3e47dbb6	0.19517407
202	0xbe9ccf19	-0.30626753
203	0x3db2c746	0.08729415
204	0x3df09a59	0.117481895
205	0x3e679dee	0.22618839
206	0xbe8b437e	-0.2719993
207	0x3e1302ba	0.14356509
208	0xbe3e1660	-0.18563223
209	0xbbe83195	-0.0070859888
210	0xbdb25891	-0.08708299
211	0xbe549761	-0.20760871
212	0xbe8db4ba	-0.27676946
213	0xbdf9a23e	-0.12189148
214	0x3df84d68	0.12124139
215	0x3e0978a8	0.13424933
216	0xbe47aa41	-0.1949854
217	0xbe07c5b8	-0.13259017
218	0xbd547958	-0.051873535
219	0xbe3afc98	-0.1826042
220	0x3db63d2b	0.088983856
221	0x3e869600	0.26286316
222	0x3d2e570b	0.04256348
223	0xbe07d2f6	-0.13264069
224	0x3d94e464	0.072701246
225	0x3d9175d7	0.07102554
226	0x3e4771c9	0.19477
227	0xbda3cc99	-0.07998008
228	0xbe5842d9	-0.2111925
229	0x3dd6d4c0	0.104897976
230	0x3d3a0618	0.045415968
231	0xbdcbcb90	-0.09950936
232	0xbdf98e08	-0.121852934
233	0xbdda70df	-0.1066606
234	0x3e15f1c0	0.14643002
235	0xbd86f319	-0.06589336
236	0x3e49b7c8	0.19699013
237	0x3e8bb79f	0.2728853
238	0xbcf05644	-0.02933801
239	0x3d25fa4e	0.040521912
240	0xbd7f122d	-0.062273193
241	0x3e208cf1	0.15678765
242	0xbe74e149	-0.23914064
243	0x3e04a706	0.1295434
244	0xbd9d838d	-0.07691107
245	0x3e1c67b1	0.1527393
246	0x3cb5dd03	0.022200113
247	0xbd9c6939	-0.07637257
248	0x3bda26b1	0.0066574444
249	0x3dd0e405	0.10199741
250	0xbe7da1d7	-0.24768768
251	0xbe083bb6	-0.13304028
252	0xbdaf646e	-0.08564077
253	0xbcb30372	-0.021852229
254	0x3d3ca655	0.046057064
255	0x3e4f94eb	0.20271651

transformer_blocks.0.mlp.0.bias f4 [64]
0	0xbccd23b4	-0.025041439
1	0xbdc87758	-0.09788388
2	0x3d5626e0	0.052283168
3	0xbe318ad7	-0.1733812
4	0xbdb3f2d7	-0.087865524
5	0x3c29516f	0.010334357
6	0x3e6737ba	0.22579852
7	0xbda2d42c	-0.07950625
8	0x3ddfb293	0.10922732
9	0xbda2af1a	-0.07943554
10	0xbd89d7f4	-0.06730643
11	0xbe86a558	-0.26298022
12	0x3e80a971	0.25129274
13	0x3e8b4cda	0.2720707
14	0xbcdf3d76	-0.027250987
15	0x3e39abd1	0.18131949
16	0x3e7168e8	0.23575175
17	0x3df424fa	0.11921115
18	0x3e1e492b	0.15457599
19	0xbe75d22e	-0.24005958
20	0xbe4c09e9	-0.19925655
21	0xbe579228	-0.21051848
22	0x3db26d39	0.08712239
23	0xbe4c0eaf	-0.19927476
24	0xbe709a96	-0.2349647
25	0xbd81326f	-0.063084476
26	0xbe530eb7	-0.20611082
27	0x3c1b61ca	0.009483764
28	0x3c595779	0.013265484
29	0xbdf7dee8	-0.12103063
30	0x3e320111	0.1738322
31	0xbde4980c	-0.11161813
32	0xbdb546f2	-0.08851422
33	0x3e4efd2f	0.2021377
34	0x3e7373d3	0.23774652
35	0xbc9c6ece	-0.019095805
36	0xbe304d86	-0.17217073
37	0xbda00d95	-0.078150906
38	0x3d055758	0.032554
39	0x3e0d1e99	0.13781203
40	0x3e161617	0.14656864
41	0xbdaae095	-0.08343617
42	0xbe653f6d	-0.22387476
43	0xbe3975d6	-0.18111357
44	0xbdae81bb	-0.08520838
45	0x3c4e3dc0	0.012587965
46	0xbdceef7f	-0.10104274
47	0xbe3c304e	-0.18377802
48	0x3c49f27d	0.01232588
49	0xbe425f8e	-0.18981764
50	0xbe2b6ca5	-0.16740663
51	0xbe1c8c84	-0.15287977
52	0xbbc8acc8	-0.0061241128
53	0x3e60f321	0.21967746
54	0x3e0472d6	0.12934431
55	0xbcd66adc	-0.026174001
56	0x3d8a18a3	0.0674298
57	0x3e03ba0f	0.12863944
58	0x3cfacff9	0.030616747
59	0xbe3b905e	-0.1831679
60	0xbe1a5eaa	-0.15075174
61	0xbe3f1651	-0.18660857
62	0xbceda538	-0.029009447
63	0xbe7bcdad	-0.24590178

transformer_blocks.0.mlp.2.weight f4 [16, 64]
0	0xbd35b9cd	-0.044366647
1	0xbceb3256	-0.028710525
2	0x3db48939	0.08815236
3	0x3dec9c47	0.11553245
4	0x3dbcbd34	0.09215775
5	0x3d030765	0.031989474
6	0xbc316104	-0.010826353
7	0x3cccb822	0.024990145
8	0xbd905b46	-0.07048659
9	0xbd59e73a	-0.05319903
10	0xbd70748b	-0.058704894
11	0xbd485345	-0.048907537
12	0xbe2502a2	-0.16114286
13	0x3d32b455	0.04362901
14	0x3dbc9165	0.09207419
15	0xbd807a76	-0.062733576
16	0x3ca8520b	0.020546934
17	0x3b352390	0.0027639605
18	0xbbd4d48a	-0.006495063
19	0x3d01104d	0.031509686
20	0x3db823e0	0.089912176
21	0xbce8d353	-0.02842108
22	0xbd84279d	-0.06452868
23	0x3ac0e2fe	0.0014716086
24	0x3d3d62ef	0.04623693
25	0x3d827ef9	0.06371874
26	0xbc855e05	-0.016280184
27	0x3beb7468	0.0071855076
28	0xbdd537c2	-0.104110256
29	0xbd3862e2	-0.045016177
30	0xbd87880f	-0.06617748
31	0xbc0d7df5	-0.0086359875
32	0x3bf20f9e	0.0073871156
33	0x3dff0dae	0.12453781
34	0x3cb647ab	0.02225097
35	0x3c9df706	0.019282829
36	0x3dca4ba7	0.09877711
37	0x3d865123	0.06558444
38	0x3d2762ce	0.040865712
39	0x3cbf4500	0.023348331
40	0xbc36b4b8	-0.011151485
41	0xbe0dec2d	-0.13859625
42	0xbc9756aa	-0.018473942
43	0xbc425248	-0.011860438
44	0x3dfd6d20	0.123743296
45	0x3dde8a3e	0.10866211
46	0x3d313bb1	0.043269817
47	0x3dc5d594	0.096598774
48	0xbd8c9fff	-0.06866454
49	0x3dba0e03	0.09084704
50	0x3dedfb5e	0.1162021
51	0xbcd632a0	-0.026147187
52	0xbdd8db83	-0.105887435
53	0x3b01bf92	0.0019798023
54	0xbd1008c4	-0.03516461
55	0x3d212b41	0.03934789
56	0xbddc5592	-0.10758509
57	0x3b1a7a14	0.00235713
58	0xbc2a6c93	-0.010401863
59	0xbd7ded81	-0.06199408
60	0xbd228c1f	-0.03968441
61	0xbcb9bb9b	-0.022672465
62	0xbdf67d38	-0.12035602
63	0xbda24db1	-0.07924975
64	0x3c191ccc	0.009345245
65	0x3d966a3d	0.07344482
66	0x3de21d09	0.11040694
67	0xbdafa331	-0.08576048
68	0x3cad7102	0.02117205
69	0xbd87c07f	-0.066285126
70	0xbda47a60	-0.08031154
71	0x3ac64a1e	0.001512829
72	0xbd305d81	-0.043057922
73	0xbdec6581	-0.11542798
74	0xbdafb63a	-0.08579679
75	0xbd81f6b6	-0.063458845
76	0x3d52d603	0.05147363
77	0x3d9ef6da	0.07761927
78	0xbd1c7bf0	-0.038204134
79	0xbdff8379	-0.12476248
80	0xbd335b4d	-0.043788243
81	0xbcd02504	-0.025408275
82	0x3c0a00ee	0.008423073
83	0x3d5ad1b9	0.053422663
84	0x3de81488	0.11332041
85	0xbd41da2e	-0.047327213
86	0x3d94c0ae	0.07263313
87	0xbdbb7ad4	-0.09154287
88	0xbdb97322	-0.09055163
89	0xbc8f3f0e	-0.017486122
90	0xbceba93a	-0.028767217
91	0x3dc247f0	0.09486377
92	0x3dbbe3b7	0.091742925
93	0xbdcef887	-0.101059966
94	0xbddf4a2d	-0.1090282
95	0x3d6f47e0	0.058418155
96	0xbde4d58c	-0.11173543
97	0x3dabd5be	0.083903775
98	0xbc178c18	-0.00924971
99	0x3d547a2e	0.051874332
100	0xbe1489f9	-0.14505757
101	0xbd453c84	-0.048153415
102	0xbc2f70b9	-0.0107080275
103	0x3dabe39d	0.08393023
104	0x3e1ed793	0.15511923
105	0x3e2faa04	0.171547
106	0x3d101382	0.035174854
107	0xbd9e861c	-0.07740423
108	0x3baa7e84	0.00520307
109	0xbd833643	-0.06406834
110	0x3d6ca1b1	0.05777139
111	0xbe2231d9	-0.15839328
112	0xbd748802	-0.05970002
113	0x3d9e26b7	0.07722228
114	0xbde6a133	-0.11261215
115	0x3df2d8fe	0.11857794
116	0x3db679fd	0.08909986
117	0x3cef7399	0.029229926
118	0x3e213610	0.1574328
119	0xbd0b6385	-0.034030456
120	0x3b76a212	0.0037633223
121	0x3d8c2540	0.068430424
122	0x3dcb7724	0.09934834
123	0xbe0eb1ef	-0.13935064
124	0xba956512	-0.0011397919
125	0xbdb52f03	-0.088468574
126	0x3c76fe51	0.015075282
127	0x3de80f4e	0.11331044
128	0xbc3dffa6	-0.011596596
129	0x3cd935e0	0.026514947
130	0xbd52e03b	-0.051483374
131	0x3dffdbcd	0.124930955
132	0x3d8c4a45	0.06850103
133	0x3d259104	0.0404215
134	0xbd48bf4c	-0.04901056
135	0xbdad4bd3	-0.08461728
136	0x3dd34b59	0.10317106
137	0x3db4a8a5	0.08821229
138	0x3d07fbaa	0.03319899
139	0xbdcf7d36	-0.10131304
140	0x3d07fc4e	0.0331996
141	0xbbd7e068	-0.0065880306
142	0x3dcd7896	0.100327656
143	0x3db7b817	0.08970659
144	0x3d13035f	0.035891887
145	0xbd3d5bea	-0.046230234
146	0x3e0346d4	0.12819988
147	0xbd378853	-0.044807743
148	0x3db28b96	0.0871803
149	0xbe13bd08	-0.14427578
150	0xbcff91dd	-0.031197483
151	0xbd83ffd2	-0.06445278
152	0xbd6771a4	-0.05650486
153	0x3d9931a6	0.07480173
154	0xbdb9c1c8	-0.09070164
155	0xbd945d82	-0.07244398
156	0x3d0f3c00	0.03496933
157	0x3d682c47	0.05668285
158	0xbc38ddca	-0.011283347
159	0xbe047440	-0.12934971
160	0xbd21a692	-0.039465494
161	0xbcd95a20	-0.026532233
162	0x3df7190f	0.120653264
163	0xbcc08c76	-0.023504477
164	0xbd0dd081	-0.034622673
165	0xbd3c1737	-0.045920577
166	0xbd3d0e9e	-0.04615652
167	0x3d4e17d8	0.050315708
168	0x3ddcb218	0.10776156
169	0x3c0074f7	0.007840387
170	0xbd1cb322	-0.03825677
171	0x3dbd4ab5	0.09242765
172	0x3d3db819	0.046318147
173	0xbd94fd80	-0.07274914
174	0xbc4b7010	-0.0124168545
175	0xbd4fa4df	-0.050694343
176	0x3d9f2f9e	0.07772754
177	0x3d42989f	0.047508832
178	0x3d98bd7f	0.074580185
179	0xbc29f577	-0.010373465
180	0x3e032c92	0.12809971
181	0xbcac65e9	-0.021044688
182	0xbce9b59e	-0.028528985
183	0x3c1a7945	0.009428327
184	0xbde54dba	-0.11196466
185	0xbda5742d	-0.080787994
186	0xbd92957b	-0.071574174
187	0xbd6610ee	-0.05616849
188	0xbb9892ad	-0.004656157
189	0xbd20108e	-0.039078288
190	0xbda68180	-0.08130169
191	0x3dd865f2	0.105663195
192	0xbd0d4c15	-0.034496386
193	0x3ceabf77	0.02865575
194	0x3de903d1	0.11377681
195	0xbdbc0b54	-0.09181848
196	0xbcde8a97	-0.027165694
197	0x3d382936	0.044961177
198	0x3dc1b096	0.09457509
199	0x3c41c1c6	0.011825984
200	0x3debfa75	0.1152238
201	0xbdea3fda	-0.1143796
202	0xbd6f8c9b	-0.0584837
203	0x3de4772d	0.111555435
204	0x3d1af8ef	0.037835058
205	0x3dfd6c74	0.123742014
206	0x3c60706d	0.013698679
207	0xbd55ffbf	-0.05224585
208	0x3e18cb66	0.1492134
209	0x3e17c26e	0.14820263
210	0x3cad9dbf	0.021193383
211	0xbdc71b3b	-0.09721991
212	0x3c825fbd	0.015914792
213	0xbcecc3e4	-0.028902002
214	0x3da57408	0.08078772
215	0xbd321164	-0.043473616
216	0x3d07b1ea	0.033128656
217	0x3cc8192c	0.024426065
218	0x3d808d80	0.06276989
219	0xbdc1139e	-0.0942757
220	0x3e317a08	0.17331707
221	0x3d75e122	0.060029157
222	0xbda1fc0e	-0.07909404
223	0x3e0feb2b	0.14054553
224	0x3d07ab26	0.033122204
225	0xbd45c5f1	-0.048284475
226	0xbdd9467d	-0.10609148
227	0xbd1b3d6c	-0.037900373
228	0xbe0a65d1	-0.13515402
229	0x3d42dc89	0.0475736
230	0x3d9f6c75	0.077843584
231	0xbbf77bd1	-0.007552602
232	0x3e173353	0.14765672
233	0xbc8c4ba9	-0.017125921
234	0x3d1c9c5c	0.038235053
235	0xbdb3b2f8	-0.0877437
236	0xbd84c289	-0.06482417
237	0x3d7aa29d	0.061190236
238	0x3d08e7d1	0.033424202
239	0x3c8059a4	0.015667744
240	0xbd5bae08	-0.053632766
241	0x3d99eec9	0.07516248
242	0x3daf9ca8	0.08574802
243	0x3d0eeb0c	0.034892127
244	0xbd62a306	-0.055331253
245	0xba67322a	-0.0008819426
246	0x3c9dcae6	0.019261789
247	0x3da71e5b	0.08160087
248	0x3bc86a7c	0.0061162096
249	0x3d2f6829	0.042823944
250	0xbce5e3da	-0.02806275
251	0x3dbb3aa4	0.09142044
252	0xbc20d3fe	-0.009816168
253	0x3de3a8a5	0.11116151
254	0x3d63fe4b	0.055662435
255	0xbd9d84e1	-0.0769136

transformer_blocks.0.mlp.2.bias f4 [16]
0	0xbd44187e	-0.04787492
1	0x3d674786	0.056464694
2	0xbd288bed	-0.04114907
3	0xbda21876	-0.07914822
4	0xbd6ba1b1	-0.057527248
5	0xbd659f6d	-0.056060243
6	0x3e047e93	0.12938909
7	0x3ace93ad	0.0015760564
8	0xbc82819d	-0.015930945
9	0x3cf0886e	0.02936193
10	0xbda1cfd1	-0.07900966
11	0x3d88223a	0.06647153
12	0x3b26f980	0.0025478303
13	0xbd2f44b6	-0.042790137
14	0x3db9a09e	0.090638384
15	0xbda3b800	-0.079940796

transformer_blocks.1.norm1.weight f4 [16]
0	0x3f80a2d2	1.0049689
1	0x3f7b19e8	0.98086405
2	0x3f84f6bb	1.0387796
3	0x3f81710b	1.0112623
4	0x3f85f117	1.04642
5	0x3f7cf3c9	0.98809487
6	0x3f836ead	1.026815
7	0x3f840f31	1.0317136
8	0x3f77861c	0.9668901
9	0x3f7b7b64	0.98235154
10	0x3f893dd7	1.0721997
11	0x3f7c0ddb	0.9845864
12	0x3f841b81	1.0320894
13	0x3f7b4131	0.9814635
14	0x3f895e41	1.0731889
15	0x3f8623bb	1.0479654

transformer_blocks.1.norm1.bias f4 [16]
0	0xbc8fb1cc	-0.017540835
1	0x3c60e28c	0.013725888
2	0xbd283478	-0.041065663
3	0x3b4c27ee	0.003115173
4	0xb8d15648	-9.981968e-05
5	0x3c9f14e4	0.019419141
6	0xb9b98c60	-0.00035390537
7	0xbc540920	-0.012941629
8	0xbd204a31	-0.039133254
9	0x3c84f660	0.016230762
10	0xbaaef15a	-0.0013347075
11	0xbc8f625c	-0.017502956
12	0xbc358370	-0.0110787
13	0xbd41a871	-0.04727978
14	0xbb6bca40	-0.0035978705
15	0x3a22e5da	0.000621406

transformer_blocks.1.multi_head_attention.Q_mappers.0.weight f4 [8, 8]
0	0x3d929a62	0.071583524
1	0xbea7658c	-0.32694662
2	0x3e28ef23	0.16497473
3	0x3e0a9974	0.135351
4	0xbe94088a	-0.28912765
5	0x3e60a35b	0.21937315
6	0x3d19dd23	0.037564408
7	0xbe3a0f7c	-0.1816997
8	0x3ea67f3c	0.32518947
9	0x3e07ff71	0.13281037
10	0x3e0550f3	0.13019161
11	0xbdf69bcb	-0.12041434
12	0xbe4cb81d	-0.19992109
13	0xbe3feb85	-0.18742187
14	0x3e248919	0.16067924
15	0x3da25ccc	0.07927856
16	0xbe4edc2f	-0.20201181
17	0x3e9da474	0.3078953
18	0x3e5d277b	0.21597092
19	0xbde33228	-0.11093551
20	0x3e1e1864	0.15438992
21	0xbe0eb1b0	-0.1393497
22	0x3e16f221	0.14740802
23	0x3e97411b	0.2954186
24	0xbeaa2b6a	-0.33236247
25	0xbe5248cb	-0.20535581
26	0xbcf48ed3	-0.02985326
27	0x3da546be	0.080701336
28	0xbeaa2dbe	-0.33238024
29	0xbe4d60d0	-0.20056462
30	0xbca9570d	-0.020671392
31	0xbcd65eb9	-0.026168214
32	0x3dd640f4	0.104616076
33	0x3ccb85e7	0.024844123
34	0x3db44ca4	0.088036805
35	0x3d1a265c	0.03763424
36	0x3cc27958	0.023739502
37	0xbc7855cb	-0.015157173
38	0x3e313a5f	0.17307423
39	0x3e6413e7	0.22273217
40	0xbe225a8f	-0.15854858
41	0xbe533293	-0.20624761
42	0x3e255fbc	0.16149801
43	0xbe656ee6	-0.22405586
44	0x3e4bb638	0.1989373
45	0x3e34cdb0	0.17656589
46	0x3db4f0e2	0.08835007
47	0xbe235a62	-0.15952447
48	0xbcbe11b6	-0.023201805
49	0xbe8d551f	-0.27604005
50	0xbeaa588e	-0.33270687
51	0x3eb76075	0.35815778
52	0xbeb41eb1	-0.35179666
53	0xbe8d81a2	-0.27637964
54	0xbe210438	-0.15724266
55	0x3d58f09e	0.052963845
56	0x3db28f83	0.08718779
57	0xbe12845d	-0.14308305
58	0xbcca5824	-0.024700232
59	0xbdd76b1e	-0.10518478
60	0x3eaa36b2	0.33244854
61	0x3e8f2d68	0.2796433
62	0x3dfe14b5	0.12406293
63	0xbc844609	-0.016146677

transformer_blocks.1.multi_head_attention.Q_mappers.0.bias f4 [8]
0	0x3e8965be	0.26835436
1	0xbe973871	-0.2953525
2	0x3e1ce09d	0.15320058
3	0xbe3ad59a	-0.18245545
4	0x3e878904	0.26471722
5	0xbe9ebb4c	-0.3100227
6	0x3e242342	0.16029075
7	0xbe9e2a79	-0.3089178

transformer_blocks.1.multi_head_attention.Q_mappers.1.weight f4 [8, 8]
0	0x3e80e801	0.25177005
1	0x3c4c8a48	0.012484141
2	0x3e802270	0.25026274
3	0xbe516f4e	-0.20452616
4	0x3e2d0427	0.16896115
5	0xbe9727cc	-0.2952255
6	0xbe75fac3	-0.24021439
7	0x3e4b1ef5	0.19836028
8	0xbd92516d	-0.07144437
9	0xbe8aaf64	-0.27086937
10	0xbe809fa9	-0.2512181
11	0xbde48fcf	-0.11160242
12	0x3ddc7ddb	0.107661925
13	0x3ebcd5b4	0.36881793
14	0x3e98f4f2	0.29874378
15	0xbce9a20f	-0.028519658
16	0xbe709e10	-0.23497796
17	0xbe9587a2	-0.29205042
18	0x3ebad933	0.36493835
19	0xbe6a550f	-0.2288401
20	0xbd1e0b9c	-0.03858529
21	0xbe680f88	-0.22662175
22	0xbe569614	-0.20955688
23	0x3cdea48c	0.027178071
24	0xbdfccccb	-0.12343749
25	0x3cc81d34	0.024427988
26	0x3d77f9e6	0.060541056
27	0x3c8a3219	0.016869592
28	0xbd86efa0	-0.065886736
29	0x3bfc715f	0.0077039446
30	0x3e564413	0.20924406
31	0x3e73fa6b	0.23825996
32	0x3eab5aa1	0.33467582
33	0xbe88d28c	-0.26723135
34	0xbebdbaaa	-0.37056476
35	0xbd2f4d55	-0.04279836
36	0xbd17b139	-0.037034247
37	0x3e1c0bb4	0.1523884
38	0x3e87b617	0.2650611
39	0x3dfd07d1	0.123550065
40	0xbe5a6ad2	-0.21329811
41	0xbcef063a	-0.029177774
42	0x3e20012f	0.15625452
43	0x3e1b53bf	0.15168665
44	0xbe8a1bbe	-0.2697429
45	0xbcf31850	-0.029674679
46	0xbed1c55d	-0.4097089
47	0xbdcf6253	-0.10126176
48	0x3e518a5d	0.20462938
49	0xbded06c4	-0.11573556
50	0x3e9146ac	0.2837423
51	0xbeabba60	-0.3354063
52	0x3eb4fbb1	0.35348275
53	0x3e6cec5a	0.23137036
54	0x3e936ff5	0.28796354
55	0x3d1b7484	0.037952915
56	0xbca86b0c	-0.020558856
57	0xbe391f3a	-0.18078318
58	0xbdf9d1bb	-0.12198206
59	0xbe88c4da	-0.26712686
60	0x3ea2bfe4	0.31787026
61	0xbda27b42	-0.07933666
62	0x3da0368c	0.07822904
63	0xbec05720	-0.3756647

transformer_blocks.1.multi_head_attention.Q_mappers.1.bias f4 [8]
0	0x3e1f9ecb	0.15587918
1	0xbe11f8df	-0.14255093
2	0xbea21356	-0.31655377
3	0x3d02b13a	0.031907298
4	0xbe9c41fe	-0.30519098
5	0xbba2991e	-0.0049621006
6	0xbeae4074	-0.3403355
7	0x3e416714	0.18886977

transformer_blocks.1.multi_head_attention.K_mappers.0.weight f4 [8, 8]
0	0xbe890d54	-0.2676798
1	0x3d13e4e6	0.036106966
2	0x3e3aba6e	0.1823518
3	0xbeaa4cea	-0.33261806
4	0x3e2f84ce	0.17140505
5	0x3ea7f1e4	0.32801735
6	0xbe388006	-0.18017587
7	0xbca45fb8	-0.020065174
8	0x3e00a591	0.12563159
9	0x3e865b83	0.26241693
10	0x3e97ead0	0.29671335
11	0xbe9a3b5c	-0.30123413
12	0xbe973f02	-0.2954026
13	0xbeaaa6fe	-0.3333053
14	0xbe14606f	-0.14489911
15	0xbd1c5881	-0.03817034
16	0xbdf32949	-0.11873109
17	0x3e790536	0.24318394
18	0xbe8df11b	-0.2772301
19	0xbe648b56	-0.22318777
20	0xbe5fb2b9	-0.21845521
21	0xbe7a5d99	-0.24449767
22	0x3e9f73c5	0.31143013
23	0x3da75a6d	0.08171544
24	0xbd0639df	-0.032770034
25	0xbdf9e27b	-0.12201401
26	0xbe9b27b6	-0.30303735
27	0xbe0a88a0	-0.13528681
28	0x3e24a071	0.16076829
29	0x3e7fe92e	0.24991295
30	0x3e8c6702	0.2742234
31	0x3c098909	0.008394488
32	0xbe397ce1	-0.18114044
33	0xbe570daf	-0.21001314
34	0x3ea1b2b3	0.3158165
35	0xbead9001	-0.3389893
36	0x3d584c76	0.052807294
37	0xbb4df53a	-0.0031426684
38	0x3eb27498	0.3485458
39	0x3e284229	0.16431488
40	0xbdb365ea	-0.08759673
41	0xbe9dddd4	-0.30833304
42	0x3d89a063	0.067200445
43	0xbe702c2a	-0.23454347
44	0xbcb02522	-0.021502081
45	0x3d926d6f	0.07149779
46	0x3e29b8d8	0.16574419
47	0xbd8bad09	-0.06820113
48	0xbe77a355	-0.241834
49	0xbe91babb	-0.28462777
50	0xbeb604ca	-0.3555053
51	0x3cfda595	0.030962745
52	0xbe6e1e86	-0.23253831
53	0x3d0b57ef	0.034019407
54	0xbe2318da	-0.15927449
55	0xbe8a8dde	-0.2706136
56	0x3e6e698f	0.23282455
57	0x3e42cb1e	0.19022796
58	0x3e8eab08	0.2786486
59	0x3eaf16da	0.34197122
60	0xbe7e5c53	-0.24839906
61	0xbe42dbc6	-0.1902915
62	0xbe883589	-0.26603344
63	0x3e7e744e	0.24849054

transformer_blocks.1.multi_head_attention.K_mappers.0.bias f4 [8]
0	0x3e555237	0.20832144
1	0x3e92c640	0.28666878
2	0xbe7d50bc	-0.24737829
3	0xbe422a4a	-0.18961444
4	0x3eb078a6	0.34467047
5	0xbe8fbc52	-0.28073364
6	0xbe713548	-0.23555481
7	0x3e054a65	0.1301666

transformer_blocks.1.multi_head_attention.K_mappers.1.weight f4 [8, 8]
0	0xbe94156e	-0.289226
1	0xbd7a4f99	-0.061111066
2	0x3dc2fe63	0.09521177
3	0x3e922b4a	0.28548652
4	0xbdad5471	-0.084633715
5	0xbe963c77	-0.29343006
6	0x3e1a5a31	0.15073468
7	0x3ed0fa93	0.40816173
8	0xbe6a7c3d	-0.22898956
9	0xbd29123f	-0.041277166
10	0xbe5b9a9a	-0.21445695
11	0xbe6672b8	-0.22504699
12	0x3e329cad	0.1744258
13	0x3e60f400	0.21968079
14	0x3e35993b	0.17734234
15	0xbec21493	-0.37906322
16	0xbd77d0e4	-0.060501948
17	0x3df7cf16	0.121000454
18	0x3c16c1b0	0.009201452
19	0xbe12d8bb	-0.14340489
20	0xbe0b5af7	-0.13608919
21	0x3ec11be3	0.37716588
22	0xbe7e1339	-0.2481202
23	0xbea4cfff	-0.32189938
24	0x3e5e235f	0.2169318
25	0xbe6ef49c	-0.23335499
26	0x3e68c98b	0.22733133
27	0xbe16a70b	-0.1471216
28	0xbda11338	-0.07864994
29	0xbe6e5b00	-0.23276901
30	0x3e9e18b0	0.3087821
31	0x3e79ee67	0.2440735
32	0x3aa227fe	0.0012371538
33	0x3cb41f38	0.021987543
34	0xbe0d2364	-0.13783032
35	0xbe263d8e	-0.16234419
36	0xbe195efd	-0.14977641
37	0x3de30cd1	0.11086429
38	0xbd8f149e	-0.06986354
39	0x3e7f4b63	0.24931102
40	0x3bfdd21f	0.0077459957
41	0x3c6f629e	0.0146109145
42	0xbe7373a9	-0.2377459
43	0x3e430270	0.19043899
44	0xbec0e535	-0.3767487
45	0x3c826390	0.015916616
46	0x3df624c1	0.12018729
47	0x3db6acad	0.08919654
48	0x3e918c51	0.28427365
49	0x3d854d4d	0.065088846
50	0xbd816d63	-0.06319692
51	0xbe98dfc4	-0.2985822
52	0xbe8c9e0d	-0.27464333
53	0x3e72da20	0.2371602
54	0x3e6103f2	0.21974161
55	0xbea0d6cf	-0.31413886
56	0x3e085928	0.1331526
57	0xbe0aa5f9	-0.13539876
58	0x3ea01520	0.31266117
59	0xbe2d7171	-0.16937806
60	0x3eacf803	0.33782968
61	0x3ea08937	0.31354687
62	0x3e4f467d	0.20241733
63	0x3e5efaa5	0.21775301
