checkpoints/vit/epoch=5.checkpoint.pth.tar (torch, 60410 bytes, 46 tensors)

cls_token f4 [1, 16]
0.2523165 -0.008864058 0.76892877 0.6101937 0.24527726 0.9668128 0.28280142 0.81722265
0.7500799 0.082611874 0.8214803 0.032513272 0.23457347 0.41368088 0.15507746 0.9549627
00000000: a12f 813e 8e3a 11bc 84d8 443f a835 1c3f
00000010: f629 7b3e 0b81 773f 59cb 903e 8135 513f
00000020: 3c05 403f 6a30 a93d 884c 523f a32c 053d
00000030: 0734 703e fbcd d33e a0cc 1e3e 6f78 743f

pos_embed f4 [257, 16]
0.0 1.0 0.0 1.0 0.0 1.0 0.0 1.0
0.0 1.0 0.0 1.0 0.0 1.0 0.0 1.0
0.84147096 0.5403023 0.3109836 0.95041525 0.099833414 0.9950042 0.031617507 0.99950004
0.009999833 0.99995 0.0031622723 0.999995 0.0009999998 0.9999995 0.00031622776 0.99999994
0.9092974 -0.41614684 0.5911271 0.8065784 0.19866933 0.9800666 0.063203394 0.9980007
0.019998666 0.9998 0.0063245133 0.99998 0.0019999987 0.999998 0.0006324555 0.9999998
0.14112 -0.9899925 0.8126489 0.5827536 0.29552022 0.9553365 0.09472609 0.99550337
0.029995501 0.99955004 0.009486691 0.999955 0.0029999956 0.9999955 0.0009486832 0.9999995
-0.7568025 -0.6536436 0.95358074 0.30113748 0.38941833 0.921061 0.12615407 0.99201065
0.039989334 0.9992001 0.012648773 0.99992 0.0039999895 0.999992 0.0012649107 0.9999992
-0.9589243 0.2836622 0.99994653 -0.010342319 0.47942555 0.87758255 0.15745589 0.987526
0.04997917 0.99875027 0.01581073 0.999875 0.0049999794 0.9999875 0.0015811381 0.99999875
-0.2794155 0.96017027 0.94714814 -0.32079646 0.5646425 0.8253356 0.18860029 0.98205394
0.059964005 0.99820054 0.018972527 0.99982 0.005999964 0.999982 0.0018973654 0.9999982
0.6569866 0.75390226 0.80042166 -0.5994374 0.64421767 0.7648422 0.2195561 0.9755999
0.06994285 0.997551 0.022134136 0.999755 0.006999943 0.9999755 0.0022135926 0.99999756
0.98935825 -0.14550003 0.57431775 -0.8186325 0.7173561 0.6967067 0.25029236 0.9681703
0.0799147 0.99680173 0.025295522 0.99968004 0.007999915 0.999968 0.0025298195 0.9999968
0.4121185 -0.91113025 0.2912591 -0.9566442 0.7833269 0.62161 0.28077835 0.95977265
0.08987855 0.9959527 0.028456656 0.99959505 0.008999879 0.9999595 0.0028460461 0.99999595
-0.5440211 -0.8390715 -0.02068353 -0.9997861 0.84147096 0.5403023 0.3109836 0.95041525
0.099833414 0.9950042 0.031617507 0.99950004 0.009999833 0.99995 0.0031622723 0.999995
-0.9999902 0.004425698 -0.33057502 -0.9437797 0.89120734 0.45359612 0.34087786 0.9401076
0.1097783 0.9939561 0.03477804 0.9993951 0.010999778 0.9999395 0.0034784984 0.9999939
-0.53657293 0.84385395 -0.60768354 -0.79417926 0.9320391 0.36235777 0.3704313 0.9288599
0.119712204 0.99280864 0.037938226 0.9992801 0.011999712 0.999928 0.0037947241 0.9999928
0.42016703 0.9074468 -0.82452846 -0.5658205 0.9635582 0.26749882 0.39961433 0.9166834
0.12963414 0.9915619 0.041098032 0.9991551 0.012999634 0.9999155 0.0041109496 0.99999154
0.9906074 0.13673721 -0.95960534 -0.28134963 0.98544973 0.16996714 0.4283978 0.90359026
0.13954312 0.990216 0.044257425 0.99902016 0.013999542 0.999902 0.004427174 0.9999902
0.65028787 -0.7596879 -0.9995187 0.031022532 0.997495 0.0707372 0.45675287 0.8895936
0.14943813 0.9887711 0.047416378 0.9988752 0.014999437 0.9998875 0.0047433986 0.99998873
00000000: 0000 0000 0000 803f 0000 0000 0000 803f
00000010: 0000 0000 0000 803f 0000 0000 0000 803f
00000020: 0000 0000 0000 803f 0000 0000 0000 803f
00000030: 0000 0000 0000 803f 0000 0000 0000 803f
00000040: a46a 573f 4051 0a3f 3e39 9f3e 6a4e 733f
00000050: 7675 cc3d 98b8 7e3f 5c81 013d 3cdf 7f3f
00000060: 57d6 233c b9fc 7f3f 203e 4f3b acff 7f3f
00000070: 6d12 833a f8ff 7f3f 5fcb a539 ffff 7f3f
00000080: b7c7 683f 3311 d5be 1b54 173f ec7b 4e3f
00000090: f96f 4b3e a5e5 7a3f c870 813d f97c 7f3f
000000a0: 3ed4 a33c e5f2 7f3f dd3d cf3b b0fe 7f3f
000000b0: 6912 033b deff 7f3f 5fcb 253a fdff 7f3f
000000c0: c381 103e 2670 7dbf c209 503f 572f 153f
000000d0: 6d4e 973e ef90 743f c1ff c13d 4fd9 7e3f
000000e0: 20b9 f53c 83e2 7f3f 116e 1b3c 0dfd 7f3f
000000f0: 939b 443b b5ff 7f3f 0db1 783a f8ff 7f3f
00000100: cfbd 41bf 3055 27bf de1d 743f b12e 9a3e
00000110: d761 c73e a7ca 6b3f 882e 013e 69f4 7d3f
00000120: dbcb 233d 94cb 7f3f cd3c 4f3c c2fa 7f3f
00000130: 5812 833b 7aff 7f3f 5ccb a53a f3ff 7f3f
00000140: 107c 75bf 2c3c 913e 7ffc 7f3f d472 29bc
00000150: 4477 f53e 40a9 603f 1e3c 213e 81ce 7c3f
00000160: f5b6 4c3d 19ae 7f3f 8185 813c cff7 7f3f
00000170: ded6 a33b 2eff 7f3f 313e cf3a ebff 7f3f
00000180: 8c0f 8fbe b8cd 753f 4d78 723f 6f3f a4be
00000190: 698c 103f 3249 533f 6f20 413e e367 7b3f
000001a0: d19c 753d 128a 7f3f 466c 9b3c 34f4 7f3f
000001b0: 599b c43b d2fe 7f3f 05b1 f83a e2ff 7f3f
000001c0: 4630 283f bdff 403f 6fe8 4c3f bb74 19bf
000001d0: 73eb 243f b3cc 433f 50d3 603e eac0 793f
000001e0: 323e 8f3d 815f 7f3f a652 b53c f2ef 7f3f
000001f0: c75f e53b 65fe 7f3f ec11 113b d7ff 7f3f
00000200: 9546 7d3f f6fd 14be 7d06 133f e691 51bf
00000210: a6a4 373f 5f5b 323f 5226 803e 02da 773f
00000220: 51aa a33d 662e 7f3f 8e38 cf3c 08eb 7f3f
00000230: 1312 033c e7fd 7f3f 54cb 253b caff 7f3f
00000240: 3201 d33e d53f 69bf ea1f 953e a2e6 74bf
00000250: 1d88 483f d521 1f3f 2ec2 8f3e a9b3 753f
00000260: 3f12 b83d c2f6 7e3f ef1d e93c 76e5 7f3f
00000270: 3a74 133c 59fd 7f3f bb84 3a3b bcff 7f3f
00000280: f844 0bbf 64cd 56bf 8270 a9bc fbf1 7fbf
00000290: a46a 573f 4051 0a3f 3e39 9f3e 6a4e 733f
000002a0: 7675 cc3d 98b8 7e3f 5c81 013d 3cdf 7f3f
000002b0: 57d6 233c b9fc 7f3f 203e 4f3b acff 7f3f
000002c0: 5cff 7fbf 7205 913b 2141 a9be 8c9b 71bf
000002d0: 2a26 643f c03d e83e 8b87 ae3e e4aa 703f
000002e0: 72d3 e03d e873 7e3f 6b73 0e3d 5bd8 7f3f
000002f0: 6a38 343c 09fc 7f3f 85f7 633b 9aff 7f3f
00000300: d85c 09bf d006 583f 2691 1bbf 554f 4bbf
00000310: 1d9a 6e3f f586 b93e 2ca9 bd3e c3c9 6d3f
00000320: ac2b f53d b528 7e3f 1d65 1b3d d2d0 7f3f
00000330: 719a 443c 48fb 7f3f e8b0 783b 87ff 7f3f
00000340: 2220 d73e 6f4e 683f 4c14 53bf 9dd9 10bf
00000350: c0ab 763f 9bf5 883e 409a cc3e c3ab 6a3f
00000360: d0be 043e 00d7 7d3f 6956 283d a1c8 7f3f
00000370: 6bfc 543c 76fa 7f3f 25b5 863b 72ff 7f3f
00000380: 7298 7d3f d704 0c3e b2a8 75bf 0f0d 90be
00000390: 6f46 7c3f de0b 2e3e f556 db3e b151 673f
000003a0: 64e4 0e3e cc7e 7d3f 4647 353d c9bf 7f3f
000003b0: 565e 653c 94f9 7f3f d411 913b 5cff 7f3f
000003c0: 4479 263f e87a 42bf 75e0 7fbf f722 fe3c
000003d0: d55b 7f3f aade 903d 83db e93e 68bc 633f
000003e0: 4f06 193e 1a20 7d3f ad37 423d 49b6 7f3f
000003f0: 33c0 753c a1f8 7f3f 836e 9b3b 43ff 7f3f

patch_to_token.weight f4 [16, 48]
0.07821126 0.087823965 -0.06570526 0.10035579 -0.06357341 -0.0026629504 -0.10222612 0.05234734
0.095110625 -0.13772312 0.09334917 -0.005617314 0.073953815 -0.012858015 0.036956392 -0.05326295
0.12624675 0.036919177 -0.051828917 0.049260218 -0.050451826 -0.0008429433 -0.042967565 0.10835446
-0.10070049 -0.051364392 -0.025998969 -0.07317745 0.02509465 -0.12895979 0.14328636 -0.112577945
0.08638507 -0.0009260984 -0.07212487 0.06349482 -0.0027241157 0.09125568 -0.010080321 -0.07184031
0.013319509 -0.064800106 0.03454727 0.10217341 0.057160683 -0.089392975 0.056590836 -0.0009671787
0.04253938 -0.117407754 -0.17229816 -0.08521151 -0.1419033 0.0879988 0.011213232 0.029640092
0.013630229 -0.0338635 0.08222072 -0.13296288 -0.023958901 -0.13068295 0.012860192 -0.08133492
0.07622848 0.0015212353 0.15069982 -0.055002805 -0.05378537 -0.05483191 0.16045216 0.07856123
0.17067583 -0.088433236 -0.112504564 -0.08233859 -0.06586748 0.089104 0.082362056 0.1501169
-0.08343626 -0.10705146 0.06735341 -0.06751679 0.07798794 -0.04457548 0.071691655 -0.12244843
-0.083786294 0.03210332 0.019184977 -0.047601268 0.07376169 0.085693814 -0.11660895 -0.08905245
0.16680834 -0.0140182115 -0.015407394 -0.10276639 -0.047698013 0.07145315 0.017049069 -0.06780765
0.03917369 -0.062776595 -0.086366825 -0.042400986 -0.08917711 -0.05532516 0.18114167 0.06503006
0.032006014 -0.14627801 -0.104923666 -0.056976788 0.009512642 -0.13845527 -0.07214884 -0.09602233
-0.012481773 -0.065807134 -0.021675222 -0.10926108 -0.11089974 -0.096548066 -0.06179234 -0.12562717
0.1318213 -0.01770487 0.13606927 0.0580342 -0.11162361 0.11108779 -0.027818462 -0.04265263
-0.10890458 -0.13222115 0.052565135 -0.019447116 0.06821611 -0.10692016 0.11858316 -0.09369177
0.007060006 0.06154285 0.10604604 0.14866681 0.1630988 -0.082865484 0.06817015 -0.029774217
0.016484877 -0.07592559 0.16386999 -0.072989285 0.11046611 0.08366339 0.0801044 -0.044413988
0.103140645 0.0029102515 -0.010554498 -0.15594165 0.031335104 -0.050842345 -0.095709346 0.09445675
0.00325827 -0.10884077 -0.102279216 -0.03599714 0.05280532 -0.06505654 -0.11035272 -0.07699306
-0.0933585 0.064925894 0.12477191 -0.12253536 0.047099132 0.08829945 0.039602265 -0.03809311
0.08950222 0.09027216 0.06797873 -0.011227325 -0.02303622 0.030212512 -0.010794382 -0.0281316
0.119389586 0.15030503 0.011559936 -0.0063492972 0.029810235 0.018907791 0.06191353 0.06718091
-0.10202899 -0.024287557 0.15025611 0.0844513 0.023323545 -0.05660636 -0.057884913 -0.099063024
-0.075168386 0.017785858 0.06252277 0.037509736 -0.15892038 -0.11807207 -0.05454281 0.10968317
-0.007955851 -0.06795514 0.028610649 -0.084345974 -0.12070409 0.0762002 -0.09476897 -0.05587029
-0.1342115 0.10521937 0.1175242 0.06068374 -0.09139687 -0.13268393 -0.1077073 0.1161458
0.07932459 0.13241592 0.08628779 0.046205446 0.010442126 -0.09747428 -0.11119307 -0.12311326
0.02886991 -0.10002658 -0.058124438 -0.11266112 -0.056017883 -0.1305804 -0.12296177 0.019020235
-0.072691776 0.059809163 -0.07493889 -0.13429083 -0.05609333 -0.099903874 -0.073636964 -0.1666452
00000000: 3a2d a03d 0ddd b33d 7b90 86bd 5687 cd3d
00000010: c732 82bd e584 2ebb ee5b d1bd 2a6a 563d
00000020: 5cc9 c23d 4a07 0dbe da2d bf3d 7211 b8bb
00000030: 1975 973d 6caa 52bc 965f 173d 402a 5abd
00000040: d446 013e 9038 173d 8f4a 54bd 15c5 493d
00000050: 93a6 4ebd f8f8 5cba c2fe 2fbd f1e8 dd3d
00000060: 0f3c cebd 7863 52bd cafb d4bc 0fde 95bd
00000070: 4c93 cd3c 090e 04be a9b9 123e 448f e6bd
00000080: a8ea b03d 69c5 72ba 34b6 93bd 9209 823d
00000090: 1487 32bb 42e4 ba3d ee27 25bc 0321 93bd
000000a0: 123a 5a3c ebb5 84bd 7081 0d3d 4b40 d13d
000000b0: 5221 6a3d aa13 b7bd cbcb 673d 448a 7dba
000000c0: c63d 2e3d 7a73 f0bd ee6e 30be 5f83 aebd
000000d0: 194f 11be b738 b43d b4b7 373c c7cf f23c
000000e0: 5351 5f3c 74b4 0abd 5663 a83d 6c27 08be
000000f0: 7545 c4bc c0d1 05be 8eb3 523c ec92 a6bd
00000100: ad1d 9c3d 3064 c73a 0e51 1a3e 9f4a 61bd
00000110: 0c4e 5cbd 6d97 60bd 924d 243e b6e4 a03d
00000120: a5c5 2e3e 7c1c b5bd cb68 e6bd 22a1 a8bd
00000130: 88e5 86bd 287c b63d 70ad a83d 3fb8 193e
00000140: a1e0 aabd cc3d dbbd 96f0 893d 3e46 8abd
00000150: 24b8 9f3d c794 36bd 13d3 923d 3ec6 fabd
00000160: 2698 abbd c57e 033d d029 9d3c 8cf9 42bd
00000170: 5e10 973d 3d80 af3d acd0 eebd 2261 b6bd
00000180: cecf 2a3e a4ac 65bc 4b6f 7cbc 2f77 d2bd
00000190: fe5e 43bd 0756 923d 7daa 8b3c bdde 8abd
000001a0: 9774 203d 0491 80bd 17e1 b0bd a8ac 2dbd
000001b0: 7da2 b6bd a39c 62bd 347d 393e 7b2e 853d
000001c0: bd18 033d e7c9 15be 38e2 d6bd 7e60 69bd
000001d0: eada 1b3c 38c7 0dbe c5c2 93bd 5ba7 c4bd
000001e0: 5a80 4cbc e4c5 86bd 3c90 b1bc 46c4 dfbd
000001f0: 671f e3bd feba c5bd f719 7dbd 69a4 00be
00000200: 2afc 063e ce09 91bc be55 0b3e 45b5 6d3d
00000210: eb9a e4bd ff81 e33d 8be3 e3bc 86b4 2ebd
00000220: 5d09 dfbd fb64 07be 8a4e 573d 8f4f 9fbc
00000230: e3b4 8b3d f5f8 dabd badb f23d 79e1 bfbd
00000240: 9f57 e73b 5b14 7c3d ab2e d93d 1d3c 183e
00000250: 5f03 273e 61b5 a9bd cb9c 8b3d 0fe9 f3bc
00000260: 4b0b 873c e07e 9bbd 89cd 273e 687b 95bd
00000270: 0e3c e23d b657 ab3d c70d a43d 71eb 35bd
00000280: 673b d33d ebb9 3e3b c6ec 2cbc 2baf 1fbe
00000290: 3d59 003d 1040 50bd 4303 c4bd 8a72 c13d
000002a0: b388 553b e9e7 debd c477 d1bd bd71 13bd
000002b0: 644a 583d 5d3c 85bd 9b00 e2bd 8aae 9dbd
000002c0: be32 bfbd def7 843d 6a88 ff3d d2f3 fabd
000002d0: 05eb 403d 58d6 b43d fc35 223d 8507 1cbd
000002e0: f14c b73d 9ce0 b83d 6f38 8b3d d0f2 37bc
000002f0: 74b6 bcbc 3b80 f73c ebda 30bc 3e74 e6bc
00000300: 8782 f43d 90e9 193e e365 3d3c c40d d0bb
00000310: 9834 f43c 83e4 9a3c 0b99 7d3d 2596 893d
00000320: 93f4 d0bd b3f6 c6bc bddc 193e cef4 ac3d
00000330: 0511 bf3c 12dc 67bd bb18 6dbd 8ee1 cabd
00000340: e2f1 99bd a6b3 913c f00b 803d cfa3 193d
00000350: 06bc 22be c5cf f1bd 4868 5fbd 92a1 e03d
00000360: 4259 02bc 102c 8bbd e160 ea3c 95bd acbd
00000370: b533 f7bd da0e 9c3d 3c16 c2bd 3fd8 64bd
00000380: bd6e 09be 417d d73d 87b0 f03d 838f 783d
00000390: 482e bbbd 4cde 07be a595 dcbd d9dd ed3d
000003a0: ee74 a23d 0a98 073e a7b7 b03d ec41 3d3d
000003b0: 7315 2b3c 98a0 c7bd 31b9 e3bd ce22 fcbd
000003c0: 9780 ec3c bcda ccbd e413 6ebd e0ba e6bd
000003d0: 0273 65bd deb6 05be 61d3 fbbd 53d0 9b3c
000003e0: 6ddf 94bd 74fa 743d 9079 99bd 8983 09be
000003f0: 1fc2 65bd 679a ccbd face 96bd 0aa5 2abe

patch_to_token.bias f4 [16]
-0.08446451 0.15135813 0.08006254 0.07529742 -0.08432731 -0.057429936 -0.024998818 -0.032572888
-0.12774877 0.034971476 0.011633098 -0.067305885 0.028743468 -0.108659856 0.04771213 0.043323554
00000000: bbfb acbd a0fd 1a3e d4f7 a33d 8935 9a3d
00000010: ccb3 acbd a73b 6bbd 52ca ccbc 266b 05bd
00000020: 93d0 02be 403e 0f3d c098 3e3c abd7 89bd
00000030: 6c77 eb3c 0f89 debd cb6d 433d 0a74 313d

transformer_blocks.0.norm1.weight f4 [16]
0.9841545 1.0400281 1.0065123 1.0263209 1.031934 1.042885 0.99036044 1.0188293
1.0051835 1.035813 1.0435956 0.9736529 1.0550998 0.9617734 1.0271536 0.98909616
00000000: 8df1 7b3f a41f 853f 65d5 803f 7c5e 833f
00000010: 6a16 843f 417d 853f 4388 7d3f 0069 823f
00000020: daa9 803f 8595 843f 8a94 853f 5141 793f
00000030: 830d 873f c836 763f c579 833f 6835 7d3f

transformer_blocks.0.norm1.bias f4 [16]
-0.009751223 0.00087003125 0.007154504 0.012687374 -0.026967648 0.002872246 0.0042554354 -0.007794145
-0.009271942 -0.008530004 -0.010421056 -0.034203336 0.0023485317 -0.03195072 0.007046642 -0.006412537
00000000: 98c3 1fbc cf12 643a 5470 ea3b b4de 4f3c
00000010: 42eb dcbc 4b3c 3c3b 2e71 8b3b 0766 ffbb
00000020: 58e9 17bc 6ec1 0bbc 14bd 2abc cc18 0cbd
00000030: d3e9 193b c2de 02bd 84e7 e63b 4220 d2bb

transformer_blocks.0.multi_head_attention.Q_mappers.0.weight f4 [8, 8]
-0.08264814 0.13224049 -0.32978863 0.20355165 -0.11359229 -0.25976586 0.048713196 0.17634268
0.29960823 -0.19871531 -0.17940085 0.060004525 0.09588726 0.14048421 0.19743724 -0.080873355
0.18629357 0.2726414 -0.10508407 0.251499 0.16928339 0.31952018 -0.20347251 -0.16952416
-0.104367554 0.041517876 0.21876352 -0.19535199 0.17163908 -0.12528217 0.20958415 -0.01256073
-0.29378802 -0.24435098 -0.24995096 0.17365143 -0.2314146 -0.05614223 0.074684165 -0.20452447
0.12424513 -0.3718356 -0.24607927 -0.30994806 -0.09916619 -0.16019242 0.039819755 -0.082293645
0.13761099 0.3388776 0.12680107 -0.13987361 -0.3423477 0.15111329 -0.16979195 0.19031495
0.23237677 0.17878817 0.3327604 0.34806547 0.06995925 -0.2502711 0.30925134 -0.15832789
00000000: 6e43 a9bd 0d6a 073e 0eda a8be d86f 503e
00000010: 13a3 e8bd 0800 85be 7d87 473d 2d93 343e
00000020: 4066 993e 077c 4bbe dbb4 37be 4ec7 753d
00000030: 8a60 c43d 18db 0f3e fd2c 4a3e eea0 a5bd
00000040: bec3 3e3e a797 8b3e 5136 d7bd 7ac4 803e
00000050: a058 2d3e 2698 a33e 195b 50be be97 2dbe
00000060: a8be d5bd a60e 2a3d 8b03 603e 5a0a 48be
00000070: 28c2 2f3e f849 00be 3a9d 563e 85cb 4dbc
00000080: 626b 96be 2537 7abe 25f3 7fbe aed1 313e
00000090: f3f7 6cbe 65f5 65bd 03f4 983d dd6e 51be
000000a0: 3b74 fe3d 3c61 bebe 34fc 7bbe 83b1 9ebe
000000b0: a517 cbbd 7b09 24be 0a1a 233d 9289 a8bd
000000c0: e5e9 0c3e 5d81 ad3e 24d8 013e 073b 0fbe
000000d0: 3348 afbe 71bd 1a3e f1dd 2dbe ece1 423e
000000e0: 2df4 6d3e 3f14 373e 925f aa3e a335 b23e
000000f0: cc46 8f3d 8923 80be 3156 9e3e b520 22be

transformer_blocks.0.multi_head_attention.Q_mappers.0.bias f4 [8]
-0.15883681 0.29970077 0.28187746 0.10768601 0.02071453 -0.30497333 -0.029067382 0.33828193
00000000: 1ea6 22be 6172 993e 3e52 903e 7c8a dc3d
00000010: 85b1 a93c 7725 9cbe b81e eebc 4a33 ad3e

transformer_blocks.0.multi_head_attention.Q_mappers.1.weight f4 [8, 8]
0.0651664 0.0316457 -0.07512165 -0.15732905 0.2088974 0.015296095 0.22649318 -0.06511455
0.17911641 0.12634943 0.04111653 0.21735674 0.24441603 0.31739765 0.31047887 -0.11599951
-0.30757183 0.06725211 -0.018775225 -0.040465496 -0.10469714 0.06684736 0.21504511 0.15815558
-0.15014002 -0.15104228 -0.070257105 -0.15684609 0.32114145 0.17897607 0.31883088 -0.0036239158
0.08545126 0.1031914 -0.36687067 0.06750502 -0.053358525 -0.15150598 -0.28855914 0.34319863
0.30134946 0.14560585 0.31098837 -0.10855422 -0.083876476 0.15413857 -0.06858766 -0.053353477
-0.3194835 0.094605215 -0.18040091 -0.006240201 0.35424083 -0.11955384 -0.10915809 0.20498659
-0.14658256 -0.0010173444 0.35299093 -0.17253336 -0.24129154 -0.22109306 -0.10322397 -0.17289454
00000000: f675 853d ec9e 013d 61d9 99bd de1a 21be
00000010: 33e9 553e 799c 7a3c d4ed 673e c75a 85bd
00000020: 4b6a 373e bf61 013e ce69 283d c492 5e3e
00000030: 3248 7a3e f281 a23e 16f7 9e3e 2791 edbd
00000040: 0e7a 9dbe 79bb 893d 80ce 99bc 26bf 25bd
00000050: 746b d6bd 45e7 883d c934 5c3e 89f3 213e
00000060: 4ebe 19be d4aa 1abe f5e2 8fbd 439c 20be
00000070: a76c a43e 8145 373e cd3d a33e 387f 6dbb
00000080: 1201 af3d 0356 d33d 79d6 bbbe 1240 8a3d
00000090: 788e 5abd 6224 1bbe 06be 93be bbb7 af3e
000000a0: 7a4a 9a3e b319 153e de39 9f3e ad51 debd
000000b0: 6ec7 abbd 80d6 1d3e b077 8cbd 2d89 5abd
000000c0: 5793 a3be 61c0 c13d 04bb 38be 9a7a ccbb
000000d0: 0e5f b53e a5d8 f4bd 478e dfbd 01e8 513e
000000e0: bd19 16be 6a58 85ba 3abb b43e 96ac 30be
000000f0: 2115 77be 3866 62be 1767 d3bd 440b 31be

transformer_blocks.0.multi_head_attention.Q_mappers.1.bias f4 [8]
-0.18912338 0.121256284 0.109976694 -0.11829336 -0.23116949 -0.09543254 -0.15553181 -0.123631924
00000000: 8fa9 41be 3755 f83d 763b e13d ca43 f2bd
00000010: b2b7 6cbe 2372 c3bd bb43 1fbe bc32 fdbd

transformer_blocks.0.multi_head_attention.K_mappers.0.weight f4 [8, 8]
-0.3181203 0.0797063 -0.28251097 -0.24509852 -0.29807705 0.11918357 -0.18560573 -0.13529994
0.2608395 0.2002965 0.21544965 -0.33572832 -0.2558835 -0.134708 0.2734882 0.06278094
-0.2647766 0.006686338 -0.27806723 -0.06724878 -0.106495075 0.30095065 0.12334099 -0.07990758
0.06058623 -0.10464842 0.1420521 0.12686831 0.10281377 -0.12769403 0.28802338 -0.040369216
-0.14761746 0.22514796 0.29615217 0.35140258 0.0850414 -0.11225646 0.18879245 0.29012838
-0.34716547 -0.04396033 -0.24068044 0.059134975 0.15833329 -0.075614944 -0.043654002 0.18418266
-0.05475762 -0.29720873 0.27907872 -0.17104931 -0.043859284 0.028399518 -0.0068694656 -0.3611989
0.15972498 -0.16792676 -0.18531618 0.08546375 -0.17132188 -0.17043418 -0.12877777 -0.09288497
00000000: aae0 a2be 0e3d a33d 47a5 90be 1bfb 7abe
00000010: 8e9d 98be 8416 f43d 6e0f 3ebe 118c 0abe
00000020: c18c 853e 871a 4d3e d59e 5c3e 95e4 abbe
00000030: 2a03 83be e5f0 09be a506 8c3e 4b93 803d
00000040: cc90 87be 1219 db3b d45e 8ebe bab9 89bd
00000050: 171a dabd 3416 9a3e 339a fc3d 96a6 a3bd
00000060: 4429 783d e951 d6bd 1b76 113e c4e9 013e
00000070: 0790 d23d 39c2 02be cd77 933e 315a 25bd
00000080: 0829 17be 308d 663e 42a1 973e 0aeb b33e
00000090: 2f2a ae3d b7e6 e5bd cf52 413e b58b 943e
000000a0: acbf b1be bf0f 34bd ef74 76be 8437 723d
000000b0: 1f22 223e 02dc 9abd 8ace 32bd 619a 3c3e
000000c0: 8749 60bd be2b 98be 68e3 8e3e 8d27 2fbe
000000d0: cba5 33bd 1ba6 e83c 4119 e1bb 10ef b8be
000000e0: f28e 233e fef4 2bbe 86c3 3dbe 9e07 af3d
000000f0: 016f 2fbe 4c86 2ebe 52de 03be 7a3a bebd

transformer_blocks.0.multi_head_attention.K_mappers.0.bias f4 [8]
-0.1476627 -0.09532927 0.091887355 -0.28604493 -0.21404348 0.0051557478 0.04907412 0.19534023
00000000: e434 17be fe3b c3bd 702f bc3d 7b74 92be
00000010: 372e 5bbe 8cf1 a83b f201 493d 4507 483e

transformer_blocks.0.multi_head_attention.K_mappers.1.weight f4 [8, 8]
-0.2679039 0.14801773 0.2168369 0.1537913 -0.28807008 -0.09981992 -0.32879385 -0.25001404
0.21328549 -0.046278972 0.15969507 -0.23815219 0.086915694 -0.21094424 0.1740865 -0.16293478
-0.083731614 -0.3443336 -0.019724678 0.38260204 0.13381831 -0.21187167 0.026027484 -0.009498544
-0.30252263 0.3117208 0.021415398 0.03263459 -0.10141675 -0.13161351 0.03434155 0.10519958
0.092538916 -0.20277584 0.32929975 -0.016903825 -0.2584078 -0.1923068 0.36820188 0.019309325
-0.0636367 -0.108421855 -0.085644625 -0.32525983 -0.23624468 0.23582582 0.27307078 0.32460395
-0.2694184 0.24151738 -0.21314818 0.16102202 0.3071635 0.30726907 0.20600665 0.19151734
-0.03252174 0.20060536 -0.119987085 0.114317745 -0.067789175 0.035418414 -0.3522279 -0.11945611
00000000: b32a 89be f691 173e 7e0a 5e3e 777b 1d3e
00000010: ec7d 93be 636e ccbd ab57 a8be d701 80be
00000020: 8367 5a3e 058f 3dbd 1b87 233e 2bde 73be
00000030: db00 b23d c401 58be bb43 323e 60d8 26be
00000040: 7b7b abbd 7e4c b0be a695 a1bc 6ae4 c33e
00000050: ab07 093e e3f4 58be 9737 d53c c89f 1bbc
00000060: 3fe4 9abe de99 9f3e 586f af3c d9ab 053d
00000070: 96b3 cfbd b1c5 06be baa9 0c3d e172 d73d
00000080: 0b85 bd3d 78a4 4fbe fa99 a83e e479 8abc
00000090: 074e 84be 13ec 44be f584 bc3e 972e 9e3c
000000a0: f553 82bd 470c debd 7366 afbd 7588 a6be
000000b0: 20ea 71be 537c 713e efcf 8b3e 7d32 a63e
000000c0: 35f1 89be 5550 773e 8443 5abe f5e2 243e
000000d0: 8944 9d3e 5f52 9d3e 68f3 523e 1f1d 443e
000000e0: 8435 05bd 7e6b 4d3e cabb f5bd 6c1f ea3d
000000f0: 0dd5 8abd e612 113d 3757 b4be 68a5 f4bd

transformer_blocks.0.multi_head_attention.K_mappers.1.bias f4 [8]
-0.1858988 -0.119241096 -0.22575967 -0.3180231 0.023024896 0.2294374 0.32198966 0.20631519
00000000: 415c 3ebe ad34 f4bd 8b2d 67be ecd3 a2be
00000010: b59e bc3c a3f1 6a3e d4db a43e 4a44 533e

transformer_blocks.0.multi_head_attention.V_mappers.0.weight f4 [8, 8]
-0.18524438 -0.3838065 0.09977141 0.19533366 -0.33247882 0.09221899 0.2685854 -0.00693016
-0.18818617 0.2556594 0.1518801 0.266652 -0.23272644 0.16179706 -0.29237524 0.3622053
-0.13409534 0.17288089 0.069258474 0.11606905 -0.053383123 0.095224276 -0.19889642 -0.3295438
-0.15875511 0.31916058 -0.09917203 0.0853836 -0.13442048 0.31403175 0.26545092 0.121918224
-0.1571476 -0.32205665 0.016783586 -0.17887081 0.29998904 -0.3807498 0.11125773 0.36194053
0.20776151 0.10237908 -0.3216867 0.36705554 -0.03400455 -0.35221434 0.31517395 -0.12115775
-0.057648513 0.359688 -0.25823092 -0.28477207 0.042167157 -0.00040495844 0.13477814 -0.311417
-0.00064108876 -0.12568791 -0.16590345 -0.33465153 0.20278268 0.10473666 -0.25653154 0.29762194
00000000: b4b0 3dbe 4982 c4be f454 cc3d 8c05 483e
00000010: aa3a aabe 4fdd bc3d 0784 893e 6516 e3bb
00000020: e0b3 40be cae5 823e 7586 1b3e 9c86 883e
00000030: d74f 6ebe 21ae 253e 35b2 95be f972 b93e
00000040: 4a50 09be b007 313e 63d7 8d3d 9cb5 ed3d
00000050: 43a8 5abd f204 c33d 81ab 4bbe f7b9 a8be
00000060: b390 22be 0469 a33e b51a cbbd 99dd ae3d
00000070: 86a5 09be c5c8 a03e 2fe9 873e 43b0 f93d
00000080: 4deb 20be 9ce4 a4be bb7d 893c e929 37be
00000090: 2a98 993e a3f1 c2be 18db e33d 4550 b93e
000000a0: 6fbf 543e 20ac d13d 1fb4 a4be b4ee bb3e
000000b0: 5b48 0bbd 7055 b4be 7b5e a13e 8e21 f8bd
000000c0: d920 6cbd 0729 b83e d836 84be a5cd 91be
000000d0: 78b7 2c3d 9a50 d4b9 4803 0a3e 0d72 9fbe
000000e0: bd0e 28ba 55b4 00be 98e2 29be 7257 abbe
000000f0: 43a6 4f3e 2d80 d63d 1a58 83be e761 983e

transformer_blocks.0.multi_head_attention.V_mappers.0.bias f4 [8]
0.13932946 0.06911924 -0.19361474 0.041718654 0.3412992 0.218269 -0.270604 0.30177104
00000000: 62ac 0e3e 638e 8d3d f142 46be 2ee1 2a3d
00000010: c5be ae3e e981 5f3e 9c8c 8abe bc81 9a3e

transformer_blocks.0.multi_head_attention.V_mappers.1.weight f4 [8, 8]
0.023891771 0.16638133 0.22983882 0.29328004 -0.3267038 0.30503568 -0.2118859 0.01533177
-0.24930763 -0.06583737 0.023227785 -0.04471592 -0.008379017 0.021083089 0.32307452 0.20641528
0.18546274 0.16657479 0.31768015 -0.030489422 0.083504416 0.058071453 -0.33599344 -0.2947687
0.025489349 -0.11133028 0.024994265 -0.10566726 0.10184694 0.20404245 -0.12890305 0.26201755
0.30616942 -0.30383548 -0.30722028 -0.25691912 -0.24517529 -0.10500339 -0.011198147 -0.057481255
-0.19624391 -0.09353365 -0.09772347 0.3310951 -0.09195972 -0.27451974 0.14252584 -0.03603291
0.25602284 0.24758562 0.36682978 -0.27781838 0.2805364 0.2772185 -0.19756076 0.30993468
0.2722395 -0.019323602 0.1272158 -0.11634363 -0.36190316 0.096647575 0.13279358 -0.22884679
00000000: adb8 c33c de5f 2a3e de5a 6b3e cd28 963e
00000010: b845 a7be a32d 9c3e 9ef8 58be 1b32 7b3c
00000020: 804a 7fbe bed5 86bd 3248 be3c 0a28 37bd
00000030: 2548 09bc 71b6 ac3c 066a a53e 875e 533e
00000040: f2e9 3d3e 9592 2a3e f9a6 a23e f4c4 f9bc
00000050: 5d04 ab3d 55dc 6d3d 5507 acbe eceb 96be
00000060: 0acf d03c 2101 e4bd c6c0 cc3c 1468 d8bd
00000070: 2195 d03d 81f0 503e 29ff 03be 2a27 863e
00000080: 3dc2 9c3e 5390 9bbe fa4b 9dbe e78a 83be
00000090: 3b0f 7bbe 040c d7bd 6f78 37bc 7771 6bbd
000000a0: 2af4 48be 928e bfbd 3e23 c8bd 4c85 a93e
000000b0: 6155 bcbd da8d 8cbe 4bf2 113e 3f97 13bd
000000c0: 6d15 833e 1687 7d3e 1dd1 bb3e 363e 8ebe
000000d0: 78a2 8f3e 95ef 8d3e 5e4d 4abe c2af 9e3e
000000e0: fa62 8b3e 884c 9ebc dc44 023e 9245 eebd
000000f0: 5f4b b9be 2aef c53d 0afb 073e d056 6abe

transformer_blocks.0.multi_head_attention.V_mappers.1.bias f4 [8]
0.15133323 -0.2905833 0.30493197 0.32672933 0.11841542 -0.23199722 0.16656624 0.05345411
00000000: 19f7 1a3e 56c7 94be 0b20 9c3e 1149 a73e
00000010: c983 f23d ae90 6dbe 5790 2a3e b2f2 5a3d

transformer_blocks.0.norm2.weight f4 [16]
1.0226904 0.9960021 1.0059012 0.99667835 1.0217932 1.0103177 1.01815 0.96860236
1.0172882 0.9673683 1.0592858 1.009941 1.0104443 1.0296153 1.0132421 1.0156225
00000000: 85e7 823f fef9 7e3f 5fc1 803f 5026 7f3f
00000010: 1fca 823f 1752 813f bd52 823f 53f6 773f
00000020: 8036 823f 73a5 773f ad96 873f bf45 813f
00000030: 3d56 813f 6fca 833f ebb1 813f ebff 813f

transformer_blocks.0.norm2.bias f4 [16]
0.024553394 -0.0029057825 -0.008229114 -0.033458576 -0.009244049 -0.0043910043 0.007002877 -0.030294674
0.006074972 0.026339276 -0.0038031563 0.019300872 -0.000941873 0.002677857 0.014554911 0.00088995637
00000000: 3324 c93c f16e 3ebb 68d3 06bc dc0b 09bd
00000010: 5a74 17bc 6ae2 8fbb 6478 e53b 892c f8bc
00000020: 8f10 c73b 77c5 d73c 603e 79bb dd1c 9e3c
00000030: 07e8 76ba fc7e 2f3b b977 6e3c f64b 693a

transformer_blocks.0.mlp.0.weight f4 [64, 16]
0.05223048 0.09556235 0.21463476 -0.14996935 -0.05272733 0.07337687 0.0129852155 0.20795935
-0.12489664 -0.022190567 0.09838442 -0.05648996 0.16427682 -0.0014289139 -0.18814963 -0.027860459
-0.118468925 0.02380848 -0.040084265 -0.28144446 -0.036123924 -0.0072302334 -0.094089255 0.24069615
-0.062101316 0.15525255 0.11300129 -0.21207419 0.046831574 0.17528148 -0.123506404 -0.16736327
0.21186021 0.15576048 -0.19023502 0.19344278 -0.0651385 -0.20714402 -0.009618379 0.112901635
-0.029848915 0.058623973 -0.26277763 0.21322513 0.1744677 0.18518566 -0.008391783 0.123191655
-0.21329051 -0.040650014 -0.052539654 -0.15388213 -0.19782558 0.19331768 0.15121742 -0.20636874
0.093346156 0.06321395 0.2546417 0.17688327 0.19685216 -0.08478793 0.19540706 0.2258246
-0.2606272 -0.23043522 0.0019014511 0.18096326 -0.1630436 0.05299439 -0.040743403 0.09811739
-0.08429138 0.1037708 0.13219634 -0.12600169 -0.030896256 0.00039593998 0.032621946 0.27654186
0.043107003 -0.027673129 0.21906263 -0.11109008 -0.06461839 0.032533485 -0.16907728 0.024765372
-0.16406542 0.003066373 0.012435735 0.05004055 -0.23964587 -0.21867737 0.13798681 0.21781808
-0.2255271 0.10552235 -0.17213884 -0.0098658595 0.2430027 0.19451307 -0.1866679 0.15482588
0.11645092 0.0035104335 0.2898804 -0.10728741 -0.05752582 -0.15768918 0.067902766 0.056081556
0.012601523 -0.13190053 -0.109819114 0.1195183 -0.23826927 -0.03745985 0.008671576 -0.104595445
0.10362603 0.012275824 0.12442569 -0.01700346 -0.16375202 0.21596687 -0.009279279 -0.057193544
-0.15862766 0.064995855 -0.23627783 0.10386918 0.110980615 -0.22064908 -0.14392531 -0.18797353
0.21160676 0.21972583 -0.039688427 0.22909625 -0.08138881 -0.19975638 0.038838957 0.09349077
0.21003394 -0.0026247231 0.15889075 0.15696421 0.15337984 -0.21654049 0.25005558 -0.21052732
0.23985954 -0.022921212 -0.2743593 0.086120695 -0.09876661 -0.17228276 -0.10832891 0.057117175
0.19580023 -0.084519655 0.1460712 0.06442961 -0.012518601 0.05140891 -0.16377941 -0.2002771
-0.07874967 -0.21599115 -0.16614431 -0.0014370313 -0.15930551 -0.08882106 -0.08817204 -0.017418124
-0.10851629 -0.00053731666 -0.0321189 0.07327246 0.022667771 -0.1366024 -0.0790131 -0.017289316
-0.17501849 0.043892678 -0.0065278336 0.07146804 0.093163855 0.1858797 -0.0055490853 -0.21094061
0.08512383 -0.18454134 -0.067389585 -0.029526802 -0.1324274 -0.06692896 0.20763096 0.17181385
0.107287206 0.20619953 -0.28531083 0.073911354 0.12788624 0.20515434 -0.25319177 0.12877801
-0.17778546 0.00053461746 -0.08002249 -0.20994946 -0.26831663 -0.13375083 0.11833277 0.1319201
-0.20081398 -0.12622347 -0.0368191 -0.18800288 0.09896111 0.25291637 0.04780921 -0.14534192
0.06804167 0.08196882 0.19559292 -0.09061971 -0.21569514 0.10246281 0.04100942 -0.09918815
-0.113419026 -0.11534308 0.15514314 -0.056445602 0.19085874 0.26347095 -0.015285244 0.046122294
-0.05161788 0.16875704 -0.23428304 0.109916456 -0.06076715 0.13939327 0.024177197 -0.0877779
-0.0015131403 0.109520204 -0.22628957 -0.14052072 -0.07699453 -0.039719302 0.06938778 0.1898847
00000000: a1ef 553d 31b6 c33d 37c9 5b3e 9191 19be
00000010: 9df8 57bd 9d46 963d f1bf 543c 4cf3 543e
00000020: cfc9 ffbd fec8 b5bc c57d c93d 0462 67bd
00000030: 2f38 283e 654a bbba 4caa 40be 9e3b e4bc
00000040: d69f f2bd 000a c33c 662f 24bd 7d19 90be
00000050: aef6 13bd 98eb ecbb deb1 c0bd 0d79 763e
00000060: f35d 7ebd 86fa 1e3e 386d e73d fa29 59be
00000070: 77d2 3f3d fd7c 333e edf0 fcbd 4761 2bbe
00000080: e2f1 583e ad7f 1f3e f8cc 42be dd15 463e
00000090: 5567 85bd 901d 54be 6896 1dbc f938 e73d
000000a0: b685 f4bc b11f 703d ca8a 86be b057 5a3e
000000b0: a9a7 323e 4fa1 3d3e b07d 09bc e84b fc3d
000000c0: d468 5abe a180 26bd d233 57bd 4793 1dbe
000000d0: ca92 4abe 12f5 453e bdd8 1a3e 5452 53be
000000e0: 452c bf3d 5176 813d 6660 823e e320 353e
000000f0: 9d93 493e 4ba5 adbd ca18 483e 903e 673e
00000100: ee70 85be 36f7 6bbe 1d3a f93a 6f4e 393e
00000110: e7f4 26be a510 593d 8ee2 26bd c5f1 c83d
00000120: f6a0 acbd c985 d43d 7a5e 073e 9606 01be
00000130: 251a fdbc 2a96 cf39 979e 053d e596 8d3e
00000140: f890 303d c2b2 e2bc f451 603e 3283 e3bd
00000150: a556 84bd d541 053d 9822 2dbe c0e0 ca3c
00000160: c400 28be 34f5 483b 41bf 4b3c 52f7 4c3d
00000170: ba65 75be f6ec 5fbe 6a4c 0d3e b40b 5f3e
00000180: 93f0 66be 1a1c d83d 2a45 30be 6aa4 21bc
00000190: b3d5 783e 6f2e 473e df25 3fbe ad8a 1e3e
000001a0: d27d ee3d 4d0f 663b 346b 943e 80b9 dbbd
000001b0: 32a0 6bbd 4679 21be 9b10 8b3d c6b5 653d
000001c0: 9e76 4e3c ef10 07be d8e8 e0bd 03c6 f43d
000001d0: dcfc 73be 806f 19bd 3a13 0e3c 2336 d6bd
000001e0: e239 d43d 8a20 493c e5d2 fe3d d74a 8bbc
000001f0: 9cae 27be 6b26 5d3e 1e08 18bc c743 6abd
00000200: 4a6f 22be 8c1c 853d d1f2 71be 5db9 d43d
00000210: ce49 e33d d5f1 61be 2861 13be 227c 40be
00000220: 71af 583e cfff 603e 5590 22bd 3598 6a3e
00000230: 2daf a6bd f08c 4cbe 9915 1f3d 1778 bf3d
00000240: 2313 573e 8c03 2cbb 42b4 223e 3abb 203e
00000250: 9b0f 1d3e cabc 5dbe 4907 803e 7994 57be
00000260: bd9d 753e 44c5 bbbc d278 8cbe 0c60 b03d
00000270: 2646 cabd e46a 30be 8cdb ddbd b3f3 693d
00000280: db7f 483e a418 adbd b093 153e acf3 833d
00000290: d11a 4dbc 2692 523d cab5 27be 7115 4dbe
000002a0: 8247 a1bd c92c 5dbe bc21 2abe c55a bcba
000002b0: fc20 23be d1e7 b5bd 8b93 b4bd 74b0 8ebc
000002c0: ca3d debd b6da 0cba 1c8f 03bd df0f 963d
000002d0: c3b1 b93c 80e1 0bbe 9fd1 a1bd 53a2 8dbc
000002e0: 0c38 33be cfc8 333d 70e7 d5bb d65d 923d
000002f0: b1cc be3d 4057 3e3e 1ad5 b5bb d100 58be
00000300: 6755 ae3d 68f8 3cbe 8d03 8abd 31e2 f1bc
00000310: 0c9b 07be 0d12 89bd 369d 543e f8ef 2f3e
00000320: 65b9 db3d f825 533e 4314 92be d65e 973d
00000330: 9cf4 023e fb13 523e 5aa2 81be 62de 033e
00000340: 640d 36be 9225 0c3a d5e2 a3bd fefc 56be
00000350: cc60 89be faf5 08be 7458 f23d 1016 073e
00000360: 2ea2 4dbe ba40 01be a0cf 16bd d483 40be
00000370: 1fac ca3d 417e 813e 97d3 433d 83d4 14be
00000380: 6e59 8b3d 45df a73d 8349 483e d496 b9bd
00000390: 30df 5cbe 06d8 d13d 7ef9 273d 2823 cbbd
000003a0: 3c48 e8bd fe38 ecbd d8dd 1e3e 8133 67bd
000003b0: 7970 433e aae5 863e f66e 7abc bbea 3c3d
000003c0: 456d 53bd a5ce 2c3e e5e7 6fbe e11b e13d
000003d0: fae6 78bd 1cbd 0e3e 420f c63c e6c4 b3bd
000003e0: 9054 c6ba 214c e03d 74b8 67be aae4 0fbe
000003f0: 4faf 9dbd b5b0 22bd 2e1b 8e3d 2371 423e

transformer_blocks.0.mlp.0.bias f4 [64]
-0.033962715 -0.09474496 0.039935287 -0.17023642 -0.10650711 0.0037214188 0.21772143 -0.075651035
0.115556836 -0.08417899 -0.07061528 -0.25921172 0.23837818 0.26776883 -0.019518416 0.17359692
0.22608227 0.11719384 0.13874315 -0.24218792 -0.2122222 -0.2112973 0.07581571 -0.20401165
-0.22558148 -0.07598068 -0.21084602 -0.0015680951 0.022918206 -0.1332834 0.17538232 -0.099770874
-0.088388726 0.19140707 0.22752315 -0.026698092 -0.17712526 -0.08381022 0.033048987 0.13796769
0.13843009 -0.09527718 -0.22688644 -0.19301923 -0.08068853 0.008893305 -0.11793398 -0.19762266
0.015313421 -0.19975924 -0.17424229 -0.17085914 -0.023961095 0.2180709 0.1155883 -0.029225685
0.045400858 0.11930842 0.022370385 -0.19068235 -0.15048432 -0.17454776 -0.023922734 -0.24101672
00000000: 7d1c 0bbd a509 c2bd 2f93 233d 7552 2ebe
00000010: 6620 dabd 0ce3 733b 5ef2 5e3e eeee 9abd
00000020: 10a9 ec3d 0966 acbd be9e 90bd 66b7 84be
00000030: 6919 743e ff18 893e 16e5 9fbc 64c3 313e
00000040: 1c82 673e 5303 f03d af12 0e3e 1c00 78be
00000050: c750 59be 525e 58be 4445 9b3d 6ee8 50be
00000060: d5fe 66be c29b 9bbd 05e8 57be 8a88 cdba
00000070: f6be bb3c 727b 08be 6c97 333e ac54 ccbd
00000080: 2605 b5bd 3700 443e d4fb 683e f5b5 dabc
00000090: 5360 35be b1a4 abbd 605e 073d 6747 0d3e
000000a0: 9ec0 0d3e af20 c3bd eb54 68be d5a6 45be
000000b0: 0740 a5bd 3ab5 113c 5f87 f1bd 985d 4abe
000000c0: 25e5 7a3c b08d 4cbe 926c 32be b3f5 2ebe
000000d0: 0f4a c4bc fa4d 5f3e 8fb9 ec3d b46a efbc
000000e0: 40f6 393d f957 f43d 1942 b73c 3c42 43be
000000f0: 9018 1abe a6bc 32be 9cf9 c3bc 16cd 76be

transformer_blocks.0.mlp.2.weight f4 [16, 64]
-0.044534635 -0.033588886 0.10249206 0.12381528 0.087025136 0.023820546 -0.019912312 0.03238178
-0.07219767 -0.045260537 -0.054744966 -0.04661625 -0.13963902 0.0522875 0.09789026 -0.06296495
0.024814304 -0.0011758552 -0.014191545 0.024890406 0.089837424 -0.024772324 -0.07133839 -0.009316884
0.047358915 0.07017174 -0.0067813033 -0.0033592307 -0.09657055 -0.030148264 -0.060951747 -0.0028140116
0.010429491 0.122474134 0.010140847 0.022476798 0.09785884 0.06660243 0.048852306 0.030977711
-0.0043981154 -0.13470313 -0.0109288925 -0.0071194414 0.11803091 0.11049662 0.0390081 0.09891232
-0.06917574 0.102134764 0.1312377 -0.022792622 -0.10958339 -0.0045873206 -0.030862398 0.030240286
-0.10910814 0.010128884 -0.025643284 -0.05666079 -0.039494768 -0.026155828 -0.1207335 -0.07577577
0.009622208 0.06621659 0.12197879 -0.09615234 0.039409783 -0.06408312 -0.08433976 0.008853999
-0.051773608 -0.12551734 -0.081385635 -0.06865041 0.074037895 0.06993754 -0.04642307 -0.10580368
-0.062412653 -0.03348761 -0.0030288743 0.061600614 0.090425625 -0.045943234 0.083346635 -0.09438817
-0.09464815 -0.010751284 -0.04721437 0.080880865 0.103155814 -0.09247756 -0.11449692 0.069517314
-0.11052842 0.09087279 -0.026105814 0.048519157 -0.1300115 -0.06950554 -0.003553803 0.07272112
0.13834608 0.15252346 0.015892515 -0.05923187 0.0015796678 -0.044591393 0.04215751 -0.13830397
-0.07426889 0.0656754 -0.10013009 0.10717202 0.06399848 0.020175872 0.13732035 -0.05483171
0.008613906 0.048974305 0.08004184 -0.11933229 0.012286206 -0.07206495 0.010841662 0.09572729
-0.015146897 0.016957667 -0.03516534 0.12973516 0.07706564 0.0375105 -0.055929605 -0.07661472
0.10399691 0.09526827 0.04492548 -0.10387999 0.055025168 -0.0037276119 0.09873697 0.099541545
0.025492592 -0.04251534 0.11923247 -0.049412504 0.08001195 -0.14486112 -0.033318527 -0.07429925
-0.060155485 0.07996341 -0.091640554 -0.08477816 0.042407878 0.07147862 -0.005194495 -0.11875527
-0.041567963 -0.024703931 0.10946765 -0.024542302 -0.0290213 -0.058478743 -0.037241664 0.054196794
0.093753286 0.00598066 -0.05015767 0.11252787 0.03869782 -0.06229615 -0.01955469 -0.040791422
0.071148455 0.04589021 0.09261528 -0.012541858 0.117411055 -0.025860347 -0.03786284 -0.0048887017
-0.110086925 -0.08384291 -0.08293354 -0.042230144 0.005003625 -0.0364728 -0.08413113 0.10756839
-0.046479978 0.027554616 0.10857703 -0.09667968 -0.019316427 0.05829348 0.10759653 0.011145628
0.11539084 -0.11620757 -0.052359294 0.10489083 0.023453055 0.11386341 0.0026746 -0.04533773
0.13882114 0.14151528 0.03269686 -0.088017255 0.008307988 -0.036290005 0.09068247 -0.027895326
0.027028078 0.03373037 0.05245266 -0.07906562 0.15507758 0.05412567 -0.08956467 0.13491812
0.03114654 -0.03915065 -0.09748531 -0.03886863 -0.12994552 0.04710383 0.07197344 -0.014320629
0.14160866 -0.025972527 0.03620127 -0.09702296 -0.051905964 0.06381812 0.038515694 0.015439558
-0.06159662 0.07310052 0.07434108 0.023380008 -0.06042388 0.003798739 0.010042881 0.086514175
0.018486368 0.028802589 -0.009917686 0.097838484 -0.00918278 0.11478176 0.05594357 -0.087427974
00000000: f369 36bd 8094 09bd 5be7 d13d de92 fd3d
00000010: 3c3a b23d 4e23 c33c 251f a3bc c2a2 043d
00000020: 5fdc 93bd 1d63 39bd 423c 60bd aef0 3ebd
00000030: 88fd 0ebe 6b2b 563d b07a c83d c5f3 80bd
00000040: 5e47 cb3c 271f 9aba a783 68bc f7e6 cb3c
00000050: affc b73d 54ef cabc dd19 92bd d8a5 18bc
00000060: 6cfb 413d 34b6 8f3d b235 debb 8a26 5cbb
00000070: c8c6 c5bd 7ef9 f6bc 8aa8 79bd 486b 38bb
00000080: 75e0 2a3c b8d3 fa3d cc25 263c 4321 b83c
00000090: 376a c83d db66 883d 5b19 483d f8c4 fd3c
000000a0: 111e 90bb 9eef 09be 190f 33bc 344a e9bb
000000b0: 31ba f13d 0d4c e23d f5c6 1f3d 8b92 ca3d
000000c0: 03ac 8dbd 082c d13d 2d63 063e 98b7 babc
000000d0: 426d e0bd 3c51 96bb 24d3 fcbc 7aba f73c
000000e0: 1774 dfbd 9ef3 253c dd11 d2bc 2515 68bd
000000f0: 44c5 21bd bf44 d6bc 2043 f7bd 5430 9bbd
00000100: 77a6 1d3c 909c 873d 04d0 f93d 85eb c4bd
00000110: 276c 213d 033e 83bd 53ba acbd 5d10 113c
00000120: 9010 54bd 9e87 00be 83ad a6bd 9698 8cbd
00000130: 2ea1 973d 6a3b 8f3d 1e26 3ebd 9aaf d8bd
00000140: 69a4 7fbd 4e2a 09bd 1480 46bb ed50 7c3d
00000150: 1231 b93d f92e 3cbd a4b1 aa3d 964e c1bd
00000160: e4d6 c1bd 2726 30bc db63 41bd dea4 a53d
00000170: 5b43 d33d e064 bdbd 5c7d eabd 185f 8e3d
00000180: b95c e2bd 831b ba3d dcdb d5bc 06bc 463d
00000190: bc21 05be ec58 8ebd ece6 68bb d0ee 943d
000001a0: 98aa 0d3e 1c2f 1c3e 0531 823c 1e9d 72bd
000001b0: db0c cf3a 77a5 36bd 5aad 2c3d 8e9f 0dbe
000001c0: 4a1a 98bd d380 863d 0111 cdbd 017d db3d
000001d0: a311 833d df47 a53c b59d 0c3e 3797 60bd
000001e0: 5721 0d3c 4899 483d faec a33d 7d64 f4bd
000001f0: 154c 493c ca96 93bd 3aa1 313c ab0c c43d
00000200: b12a 78bc ceea 8a3c 8809 10bd 4bd9 043e
00000210: 97d4 9d3d 9ca4 193d 7116 65bd 2ee8 9cbd
00000220: 55fc d43d 031c c33d c803 383d 08bf d4bd
00000230: 1262 613d f34a 74bb 9c36 ca3d 70dc cb3d
00000240: d7d5 d03c 9124 2ebd 2730 f43d c464 4abd
00000250: 4edd a33d 7956 14be 0279 08bd 352a 98bd
00000260: 9965 76bd dbc3 a33d 0bae bbbd 2ca0 adbd
00000270: e2b3 2d3d 6263 923d 9536 aabb f735 f3bd
00000280: 2b43 2abd e65f cabc 9330 e03d f00c c9bc
00000290: 14be edbc 6887 6fbd b78a 18bd 75fd 5d3d
000002a0: b901 c03d 6af9 c33b 2172 4dbd 0375 e63d
000002b0: 9b81 1e3d 3f2a 7fbd 2831 a0bc e814 27bd
000002c0: 48b6 913d 5ff7 3b3d 14ad bd3d 5d7c 4dbc
000002d0: 3575 f03d 14d9 d3bc 1116 1bbd 6731 a0bb
000002e0: 4175 e1bd d5b5 abbd 0fd9 a9bd 84f9 2cbd
000002f0: 73f5 a33b 8164 15bd f14c acbd d14c dc3d
00000300: ca61 3ebd 38ba e13c a25d de3d ffff c5bd
00000310: 7c3d 9ebc 25c5 6e3d 925b dc3d 279c 363c
00000320: 0852 ec3d 3cfe edbd b376 56bd 01d1 d63d
00000330: 9f20 c03c 3831 e93d 5848 2f3b 0eb4 39bd
00000340: 2127 0e3e 62e9 103e 25ed 053d 6442 b4bd
00000350: 3a1e 083c d4a4 14bd bbb7 b93d bd84 e4bc
00000360: fd69 dd3c db28 0a3d 9ad8 563d 28ed a1bd
00000370: a8cc 1e3e e1b2 5d3d af6d b7bd fa27 0a3e
00000380: 0727 ff3c 6f5c 20bd 61a6 c7bd b634 1fbd
00000390: 7010 05be f2ef 403d d066 933d 12a1 6abc
000003a0: dc01 113e 56c4 d4bc c847 143d f9b3 c6bd
000003b0: 599b 54bd 13b3 823d a2c2 1d3d 33f6 7c3c
000003c0: bd4c 7cbd bab5 953d 2340 983d 6e87 bf3c
000003d0: 087f 77bd 44f4 783b e58a 243c 582e b13d
000003e0: b970 973c 68f3 eb3c ca7d 22bc 8b5f c83d
000003f0: 5f73 16bc b312 eb3d 1625 653d 700d b3bd

transformer_blocks.0.mlp.2.bias f4 [16]
-0.049878158 0.055186797 -0.038919225 -0.07419196 -0.06151804 -0.058383424 0.12317104 0.011649923
0.0027375454 0.021494696 -0.08157297 0.074669845 -0.0073984982 -0.040571913 0.09259722 -0.07102514
00000000: 0a4d 4cbd 8d0b 623d c469 1fbd f4f1 97bd
00000010: 57fa 7bbd 7523 6fbd 1941 fc3d 52df 3e3c
00000020: 6468 333b a515 b03c bb0f a7bd 81ec 983d
00000030: 1a6f f2bb bc2e 26bd 9ca3 bd3d a175 91bd

transformer_blocks.1.norm1.weight f4 [16]
0.991794 0.983348 1.0307316 1.0092013 1.034083 0.9784855 1.013792 1.0173203
0.97693694 0.98345405 1.0547719 0.9806727 1.0258632 0.9837685 1.0497907 1.0321416
00000000: 36e6 7d3f b2bc 7b3f 03ef 833f 822d 813f
00000010: d55c 843f 077e 7a3f f0c3 813f 8d37 823f
00000020: 8a18 7a3f a5c3 7b3f c402 873f 5e0d 7b3f
00000030: 7c4f 833f 41d8 7b3f 8b5f 863f 371d 843f

transformer_blocks.1.norm1.bias f4 [16]
0.0010792797 0.0056621647 -0.023338437 0.0005287626 0.0018354625 0.007134323 -0.009622089 -0.011962569
-0.021943428 0.015544329 0.0002764422 -0.019585732 -0.0053161583 -0.03136211 -0.0018794405 0.0009023045
00000000: 9e76 8d3a ae89 b93b 4030 bfbc a89c 0a3a
00000010: e793 f03a 0ac7 e93b f7a5 1dbc a7fe 43bc
00000020: b4c2 b3bc a4ad 7e3c 72ef 9039 4272 a0bc
00000030: 2b33 aebb 8e75 00bd 8f57 f6ba a188 6c3a

transformer_blocks.1.multi_head_attention.Q_mappers.0.weight f4 [8, 8]
0.06607073 -0.31572405 0.17212388 0.145885 -0.30387983 0.21366413 0.039935127 -0.17502235
0.31286368 0.14024404 0.12281806 -0.10605006 -0.21130703 -0.18422563 0.14584579 0.09210741
-0.19371301 0.3216409 0.22070952 -0.13062185 0.17782575 -0.15423062 0.1392323 0.2824742
-0.3187065 -0.18951112 -0.019923704 0.05831133 -0.30688262 -0.21899144 -0.024327768 -0.043560766
0.10128872 0.0436083 0.09010017 0.031968635 0.03504296 -0.027705234 0.15976644 0.22273554
-0.15851894 -0.1883145 0.16487736 -0.2348957 0.21497142 0.16260971 0.07610509 -0.16369358
-0.012105501 -0.27341154 -0.3303031 0.33934593 -0.32847252 -0.28614086 -0.16000472 0.038917106
0.078928314 -0.16207226 -0.034420762 -0.08783219 0.31176183 0.29749963 0.12974812 -0.004069249
00000000: 1750 873d 95a6 a1be 3e41 303e e162 153e
00000010: 2396 9bbe c5ca 5a3e 0493 233d 0f39 33be
00000020: ab2f a03e 229c 0f3e 0988 fb3d c630 d9bd
00000030: df60 58be a5a5 3cbe 9958 153e cfa2 bc3d
00000040: b45c 46be 1eae a43e ad01 623e bcc1 05be
00000050: f417 363e a2ee 1dbe e992 0e3e 75a0 903e
00000060: 802d a3be 340f 42be 0937 a3bc dcd7 6e3d
00000070: b81f 9dbe 4b3f 60be 074b c7bc c66c 32bd
00000080: 7670 cf3d 9e9e 323d 7086 b83d 8bf1 023d
00000090: 3589 0f3d 16f6 e2bc d099 233e c914 643e
000000a0: ca52 22be 84d5 40be 9cd5 283e 8088 70be
000000b0: 7821 5c3e 2983 263e fcdc 9b3d 4a9f 27be
000000c0: 2756 46bc 99fc 8bbe 7d1d a9be c0be ad3e
000000d0: 8d2d a8be 0e81 92be 47d8 23be 8b67 1f3d
000000e0: 2ba5 a13d 45f6 25be c9fc 0cbd 5de1 b3bd
000000f0: 3f9f 9f3e df51 983e b1dc 043e 5657 85bb

transformer_blocks.1.multi_head_attention.Q_mappers.0.bias f4 [8]
0.2733903 -0.2814424 0.13883702 -0.20096174 0.26213616 -0.31686178 0.14622879 -0.29448345
00000000: d0f9 8b3e 3819 90be 4b2b 0e3e eac8 4dbe
00000010: b636 863e b53b a2be 00bd 153e 89c6 96be

transformer_blocks.1.multi_head_attention.Q_mappers.1.weight f4 [8, 8]
0.24032079 0.019118477 0.2785501 -0.22366063 0.1867794 -0.2730407 -0.21432836 0.17466344
-0.06546204 -0.27274585 -0.2729585 -0.09884993 0.09753168 0.35183236 0.27695054 -0.010222886
-0.22355166 -0.29607806 0.33716586 -0.21024653 -0.05556927 -0.24881674 -0.2361038 0.050595067
-0.113861576 0.033727672 0.039273437 0.010840338 -0.058973957 -0.0028182038 0.19621922 0.24196634
0.32555228 -0.27431798 -0.34930882 -0.04653551 -0.034697823 0.16783619 0.2841106 0.11046572
-0.22158884 -0.035387937 0.17725033 0.14599708 -0.2655596 -0.0141808605 -0.39039126 -0.11528744
0.21859868 -0.11827948 0.25552508 -0.32090953 0.34101784 0.20903271 0.26352793 0.059107006
-0.0106081255 -0.17484893 -0.1441285 -0.26187342 0.31390554 -0.094371125 0.05874037 -0.36193335
00000000: a716 763e 5a9e 9c3c 1e9e 8e3e 4b07 65be
00000010: 1943 3f3e fecb 8bbe e578 5bbe f9da 323e
00000020: f610 86bd 58a5 8bbe 37c1 8bbe d571 cabd
00000030: b0be c73d 5f23 b43e 76cc 8d3e e47d 27bc
00000040: baea 64be 8b97 97be 01a1 ac3e de4a 57be
00000050: 9a9c 63bd d1c9 7ebe 32c5 71be c63c 4f3d
00000060: 4230 e9bd 0726 0a3d 2fdd 203d ac9b 313c
00000070: ad8e 71bd 9db1 38bb b1ed 483e 06c6 773e
00000080: caae a63e 6873 8cbe 9bd8 b2be 059c 3ebd
00000090: 4e1f 0ebd 40dd 2b3e f276 913e da3b e23d
000000a0: 2fe8 62be f1f2 10bd 1c81 353e 4280 153e
000000b0: 6ef7 87be d756 68bc 5de1 c7be d21b ecbd
000000c0: 55d8 5f3e 833c f2bd 2fd4 823e 414e a4be
000000d0: e499 ae3e ac0c 563e 22ed 863e 301a 723d
000000e0: b4cd 2dbc 990b 33be 6c96 13be 4614 86be
000000f0: 3ab8 a03e a645 c1bd be99 703d 544f b9be

transformer_blocks.1.multi_head_attention.Q_mappers.1.bias f4 [8]
0.13457419 -0.12815444 -0.29570106 0.030702053 -0.3134598 -0.014473672 -0.32203257 0.19848254
00000000: d1cd 093e eb3a 03be 2166 97be df82 fb3c
00000010: ce7d a0be fb22 6dbc 74e1 a4be 023f 4b3e

transformer_blocks.1.multi_head_attention.K_mappers.0.weight f4 [8, 8]
-0.27911264 0.045392632 0.19507389 -0.31562623 0.195119 0.3038269 -0.20517917 0.0006258887
0.1170981 0.27466533 0.28957713 -0.30226323 -0.29576728 -0.320547 -0.13866831 -0.04775464
-0.1241427 0.24317533 -0.27211007 -0.23951322 -0.23449935 -0.22333966 0.32831365 0.06305169
-0.052602228 -0.11445897 -0.27747425 -0.13294773 0.17687485 0.23719308 0.25325894 0.015786069
-0.19188638 -0.20645526 0.337414 -0.33026585 0.072358325 -0.022313649 0.3248931 0.17963634
-0.08819065 -0.29910398 0.050163254 -0.23456003 -0.028884033 0.08330936 0.18046118 -0.07567225
-0.24082814 -0.29351425 -0.33921692 0.033598762 -0.22285208 0.01903752 -0.17558803 -0.26047787
0.23684998 0.19905043 0.256807 0.348747 -0.25231937 -0.1851752 -0.2541466 0.24814759
00000000: dae7 8ebe a0ed 393d 73c1 473e c399 a1be
00000010: 46cd 473e 338f 9b3e 7d1a 52be ae12 243a
00000020: 21d1 ef3d efa0 8c3e 7443 943e 3fc2 9abe
00000030: cf6e 97be bd1e a4be 11ff 0dbe 5f9a 43bd
00000040: 873e febd f402 793e 0352 8bbe f442 75be
00000050: 9920 70be 27b3 64be ba18 a83e 3f21 813d
00000060: 6f75 57bd 7769 eabd 1b11 8ebe 7323 08be
00000070: ae1e 353e bee2 723e 28ab 813e c951 813c
00000080: dd7d 44be 0269 53be 87c1 ac3e 9b18 a9be
00000090: 9a30 943d 1dcb b6bc 6358 a63e 97f2 373e
000000a0: 4d9d b4bd 2824 99be fc77 4d3d 8130 70be
000000b0: 359e ecbc 199e aa3d d1ca 383e 0dfa 9abd
000000c0: a79b 76be 8047 96be d7ad adbe db9e 093d
000000d0: 5633 64be 93f4 9b3c 59cd 33be 5b5d 85be
000000e0: cd88 723e e0d3 4b3e 357c 833e f78e b23e
000000f0: 0130 81be 919e 3dbe 811f 82be 671a 7e3e

transformer_blocks.1.multi_head_attention.K_mappers.0.bias f4 [8]
0.20832087 0.28658998 -0.24739115 -0.18961208 0.34467584 -0.28072074 -0.23551391 0.1301991
00000000: 1152 553e ecbb 923e 1b54 7dbe ab29 42be
00000010: 5a79 b03e a1ba 8fbe 8f2a 71be ea52 053e

transformer_blocks.1.multi_head_attention.K_mappers.1.weight f4 [8, 8]
-0.27341047 -0.07882922 0.118905 0.2649363 -0.06363313 -0.27456966 0.1718367 0.3829597
-0.24395145 -0.043393463 -0.22518949 -0.2082002 0.1581383 0.19412772 0.17081308 -0.36465216
-0.07295766 0.12709634 -0.0056475294 -0.12832119 -0.1493118 0.3533687 -0.2600727 -0.30479214
0.22740169 -0.22181214 0.2232684 -0.15873505 -0.0679499 -0.21315378 0.30226356 0.24342851
-0.0036976703 0.0075366045 -0.13370852 -0.15566097 -0.1565837 0.0913557 -0.06268847 0.2480029
0.02223492 0.022761442 -0.23364243 0.17406644 -0.3615818 0.041243706 0.120278545 0.08030568
0.26888934 0.06341919 -0.07367271 -0.28131774 -0.29050082 0.21207355 0.21277048 -0.2995805
0.11953962 -0.14134929 0.30749568 -0.15427996 0.32359406 0.2898243 0.20099115 0.2274263
00000000: 75fc 8bbe 3771 a1bd 7784 f33d bba5 873e
00000010: 1652 82bd 6594 8cbe f6f5 2f3e 4b13 c43e
00000020: 69ce 79be 58bd 31bd 1398 66be 6f32 55be
00000030: 02ef 213e 6bc9 463e a0e9 2e3e b0b3 babe
00000040: d36a 95bd 8b25 023e e90e b9bb a166 03be
00000050: 31e5 18be beec b43e 4028 85be b70d 9cbe
00000060: fddb 683e b922 63be 79a0 643e 718b 22be
00000070: 5129 8bbd fc44 5abe 4ac2 9a3e 5345 793e
00000080: 9d54 72bb 9ff5 f63b e3ea 08be 9765 1fbe
00000090: 7a57 20be b218 bb3d d062 80bd 79f4 7d3e
000000a0: 0226 b63c 3476 ba3c f63f 6fbe 793e 323e
000000b0: 4021 b9be 29ef 283d 9954 f63d 4e77 a43d
000000c0: ddab 893e ece1 813d b8e1 96bd e108 90be
000000d0: 86bc 94be cf29 593e 81e0 593e 9e62 99be
000000e0: 30d1 f43d debd 10be 1370 9d3e 91fb 1dbe
000000f0: 1fae a53e da63 943e a0d0 4d3e 71e2 683e

transformer_blocks.1.multi_head_attention.K_mappers.1.bias f4 [8]
0.11023011 0.11979955 -0.30064398 -0.08064194 -0.040029056 0.17161094 -0.13728909 0.16182788
00000000: 53c0 e13d 7759 f53d 02ee 99be 9a27 a5bd
00000010: 82f5 23bd c7ba 2f3e 8395 0cbe 35b6 253e

transformer_blocks.1.multi_head_attention.V_mappers.0.weight f4 [8, 8]
0.25421873 0.13370553 0.16545191 -0.041272525 0.1963678 -0.15969667 0.2617366 0.016900297
-0.036687467 -0.29087073 0.34452286 -0.054335512 0.254222 -0.21225151 -0.2698006 -0.07364576
-0.26626378 0.053279772 -0.007625594 -0.11939043 0.2554354 0.1857525 -0.3637744 -0.24960937
0.19036184 -0.2033807 0.07621798 -0.10288558 0.028039714 -0.15109637 0.054618523 -0.15776014
-0.14257446 -0.18493117 0.07072688 0.2382247 0.024160432 -0.0450406 0.24179088 0.31587002
-0.06499426 -0.27399573 0.09576676 0.09985703 -0.30804375 -0.27777395 0.084396854 0.32017428
-0.33538717 -0.16466199 -0.1165393 -0.32331288 -0.2554047 0.32368612 0.32656822 -0.29672864
-0.0035591798 -0.267519 0.16466193 -0.2434326 -0.21110795 -0.12120222 0.10163122 0.20920548
00000000: f528 823e 1aea 083e 3a6c 293e 610d 29bd
00000010: a414 493e 8687 23be 5702 863e 7e72 8a3c
00000020: 9945 16bd 02ed 94be 4d65 b03e ea8e 5ebd
00000030: 6329 823e 7658 59be 4e23 8abe 97d3 96bd
00000040: ba53 88be e43b 5a3d 1ee0 f9bb f882 f4bd
00000050: 6ec8 823e e735 3e3e a340 babe 9999 7fbe
00000060: 37ee 423e 0843 50be 2c18 9c3d adb5 d2bd
00000070: 8bb3 e53c 02b9 1abe acb7 5f3d e08b 21be
00000080: 0aff 11be 995e 3dbe 41d9 903d 2df1 733e
00000090: 19ec c53c 7e7c 38bd 0798 773e b7b9 a13e
000000a0: b61b 85bd 2b49 8cbe 5d21 c43d d881 cc3d
000000b0: e9b7 9dbe 6338 8ebe 42d8 ac3d e2ed a33e
000000c0: deb7 abbe 279d 28be 28ac eebd 4489 a5be
000000d0: 68c4 82be 30ba a53e f333 a73e d1ec 97be
000000e0: 2141 69bb 40f8 88be 239d 283e 6546 79be
000000f0: af2c 58be df38 f8bd 0724 d03d f639 563e

transformer_blocks.1.multi_head_attention.V_mappers.0.bias f4 [8]
-0.14119636 0.058473594 0.2838678 -0.022125382 0.035846643 0.021999365 -0.0025700438 0.20115119
00000000: c795 10be 0282 6f3d 1f57 913e 4a40 b5bc
00000010: eed3 123d 0338 b43c 2e6e 28bb 94fa 4d3e
