checkpoints/vit/epoch=3.checkpoint.pth.tar (torch, 59834 bytes, 46 tensors)

cls_token f4 [1, 16]
0.23621964 -0.0018477512 0.76324743 0.6172311 0.24144967 0.9848994 0.27727354 0.83281523
0.7548273 0.078391135 0.82050186 0.036003217 0.22958194 0.4139028 0.15771556 0.97707033
00000000: 90e3 713e 3e30 f2ba 2f64 433f db02 1e3f
00000010: 953e 773e 5e22 7c3f ccf6 8d3e 6133 553f
00000020: 5d3c 413f 888b a03d 690c 523f 1c78 133d
00000030: 8717 6b3e 11eb d33e 3080 213e 4821 7a3f

pos_embed f4 [257, 16]
0.0 1.0 0.0 1.0 0.0 1.0 0.0 1.0
0.0 1.0 0.0 1.0 0.0 1.0 0.0 1.0
0.84147096 0.5403023 0.3109836 0.95041525 0.099833414 0.9950042 0.031617507 0.99950004
0.009999833 0.99995 0.0031622723 0.999995 0.0009999998 0.9999995 0.00031622776 0.99999994
0.9092974 -0.41614684 0.5911271 0.8065784 0.19866933 0.9800666 0.063203394 0.9980007
0.019998666 0.9998 0.0063245133 0.99998 0.0019999987 0.999998 0.0006324555 0.9999998
0.14112 -0.9899925 0.8126489 0.5827536 0.29552022 0.9553365 0.09472609 0.99550337
0.029995501 0.99955004 0.009486691 0.999955 0.0029999956 0.9999955 0.0009486832 0.9999995
-0.7568025 -0.6536436 0.95358074 0.30113748 0.38941833 0.921061 0.12615407 0.99201065
0.039989334 0.9992001 0.012648773 0.99992 0.0039999895 0.999992 0.0012649107 0.9999992
-0.9589243 0.2836622 0.99994653 -0.010342319 0.47942555 0.87758255 0.15745589 0.987526
0.04997917 0.99875027 0.01581073 0.999875 0.0049999794 0.9999875 0.0015811381 0.99999875
-0.2794155 0.96017027 0.94714814 -0.32079646 0.5646425 0.8253356 0.18860029 0.98205394
0.059964005 0.99820054 0.018972527 0.99982 0.005999964 0.999982 0.0018973654 0.9999982
0.6569866 0.75390226 0.80042166 -0.5994374 0.64421767 0.7648422 0.2195561 0.9755999
0.06994285 0.997551 0.022134136 0.999755 0.006999943 0.9999755 0.0022135926 0.99999756
0.98935825 -0.14550003 0.57431775 -0.8186325 0.7173561 0.6967067 0.25029236 0.9681703
0.0799147 0.99680173 0.025295522 0.99968004 0.007999915 0.999968 0.0025298195 0.9999968
0.4121185 -0.91113025 0.2912591 -0.9566442 0.7833269 0.62161 0.28077835 0.95977265
0.08987855 0.9959527 0.028456656 0.99959505 0.008999879 0.9999595 0.0028460461 0.99999595
-0.5440211 -0.8390715 -0.02068353 -0.9997861 0.84147096 0.5403023 0.3109836 0.95041525
0.099833414 0.9950042 0.031617507 0.99950004 0.009999833 0.99995 0.0031622723 0.999995
-0.9999902 0.004425698 -0.33057502 -0.9437797 0.89120734 0.45359612 0.34087786 0.9401076
0.1097783 0.9939561 0.03477804 0.9993951 0.010999778 0.9999395 0.0034784984 0.9999939
-0.53657293 0.84385395 -0.60768354 -0.79417926 0.9320391 0.36235777 0.3704313 0.9288599
0.119712204 0.99280864 0.037938226 0.9992801 0.011999712 0.999928 0.0037947241 0.9999928
0.42016703 0.9074468 -0.82452846 -0.5658205 0.9635582 0.26749882 0.39961433 0.9166834
0.12963414 0.9915619 0.041098032 0.9991551 0.012999634 0.9999155 0.0041109496 0.99999154
0.9906074 0.13673721 -0.95960534 -0.28134963 0.98544973 0.16996714 0.4283978 0.90359026
0.13954312 0.990216 0.044257425 0.99902016 0.013999542 0.999902 0.004427174 0.9999902
0.65028787 -0.7596879 -0.9995187 0.031022532 0.997495 0.0707372 0.45675287 0.8895936
0.14943813 0.9887711 0.047416378 0.9988752 0.014999437 0.9998875 0.0047433986 0.99998873
00000000: 0000 0000 0000 803f 0000 0000 0000 803f
00000010: 0000 0000 0000 803f 0000 0000 0000 803f
00000020: 0000 0000 0000 803f 0000 0000 0000 803f
00000030: 0000 0000 0000 803f 0000 0000 0000 803f
00000040: a46a 573f 4051 0a3f 3e39 9f3e 6a4e 733f
00000050: 7675 cc3d 98b8 7e3f 5c81 013d 3cdf 7f3f
00000060: 57d6 233c b9fc 7f3f 203e 4f3b acff 7f3f
00000070: 6d12 833a f8ff 7f3f 5fcb a539 ffff 7f3f
00000080: b7c7 683f 3311 d5be 1b54 173f ec7b 4e3f
00000090: f96f 4b3e a5e5 7a3f c870 813d f97c 7f3f
000000a0: 3ed4 a33c e5f2 7f3f dd3d cf3b b0fe 7f3f
000000b0: 6912 033b deff 7f3f 5fcb 253a fdff 7f3f
000000c0: c381 103e 2670 7dbf c209 503f 572f 153f
000000d0: 6d4e 973e ef90 743f c1ff c13d 4fd9 7e3f
000000e0: 20b9 f53c 83e2 7f3f 116e 1b3c 0dfd 7f3f
000000f0: 939b 443b b5ff 7f3f 0db1 783a f8ff 7f3f
00000100: cfbd 41bf 3055 27bf de1d 743f b12e 9a3e
00000110: d761 c73e a7ca 6b3f 882e 013e 69f4 7d3f
00000120: dbcb 233d 94cb 7f3f cd3c 4f3c c2fa 7f3f
00000130: 5812 833b 7aff 7f3f 5ccb a53a f3ff 7f3f
00000140: 107c 75bf 2c3c 913e 7ffc 7f3f d472 29bc
00000150: 4477 f53e 40a9 603f 1e3c 213e 81ce 7c3f
00000160: f5b6 4c3d 19ae 7f3f 8185 813c cff7 7f3f
00000170: ded6 a33b 2eff 7f3f 313e cf3a ebff 7f3f
00000180: 8c0f 8fbe b8cd 753f 4d78 723f 6f3f a4be
00000190: 698c 103f 3249 533f 6f20 413e e367 7b3f
000001a0: d19c 753d 128a 7f3f 466c 9b3c 34f4 7f3f
000001b0: 599b c43b d2fe 7f3f 05b1 f83a e2ff 7f3f
000001c0: 4630 283f bdff 403f 6fe8 4c3f bb74 19bf
000001d0: 73eb 243f b3cc 433f 50d3 603e eac0 793f
000001e0: 323e 8f3d 815f 7f3f a652 b53c f2ef 7f3f
000001f0: c75f e53b 65fe 7f3f ec11 113b d7ff 7f3f
00000200: 9546 7d3f f6fd 14be 7d06 133f e691 51bf
00000210: a6a4 373f 5f5b 323f 5226 803e 02da 773f
00000220: 51aa a33d 662e 7f3f 8e38 cf3c 08eb 7f3f
00000230: 1312 033c e7fd 7f3f 54cb 253b caff 7f3f
00000240: 3201 d33e d53f 69bf ea1f 953e a2e6 74bf
00000250: 1d88 483f d521 1f3f 2ec2 8f3e a9b3 753f
00000260: 3f12 b83d c2f6 7e3f ef1d e93c 76e5 7f3f
00000270: 3a74 133c 59fd 7f3f bb84 3a3b bcff 7f3f
00000280: f844 0bbf 64cd 56bf 8270 a9bc fbf1 7fbf
00000290: a46a 573f 4051 0a3f 3e39 9f3e 6a4e 733f
000002a0: 7675 cc3d 98b8 7e3f 5c81 013d 3cdf 7f3f
000002b0: 57d6 233c b9fc 7f3f 203e 4f3b acff 7f3f
000002c0: 5cff 7fbf 7205 913b 2141 a9be 8c9b 71bf
000002d0: 2a26 643f c03d e83e 8b87 ae3e e4aa 703f
000002e0: 72d3 e03d e873 7e3f 6b73 0e3d 5bd8 7f3f
000002f0: 6a38 343c 09fc 7f3f 85f7 633b 9aff 7f3f
00000300: d85c 09bf d006 583f 2691 1bbf 554f 4bbf
00000310: 1d9a 6e3f f586 b93e 2ca9 bd3e c3c9 6d3f
00000320: ac2b f53d b528 7e3f 1d65 1b3d d2d0 7f3f
00000330: 719a 443c 48fb 7f3f e8b0 783b 87ff 7f3f
00000340: 2220 d73e 6f4e 683f 4c14 53bf 9dd9 10bf
00000350: c0ab 763f 9bf5 883e 409a cc3e c3ab 6a3f
00000360: d0be 043e 00d7 7d3f 6956 283d a1c8 7f3f
00000370: 6bfc 543c 76fa 7f3f 25b5 863b 72ff 7f3f
00000380: 7298 7d3f d704 0c3e b2a8 75bf 0f0d 90be
00000390: 6f46 7c3f de0b 2e3e f556 db3e b151 673f
000003a0: 64e4 0e3e cc7e 7d3f 4647 353d c9bf 7f3f
000003b0: 565e 653c 94f9 7f3f d411 913b 5cff 7f3f
000003c0: 4479 263f e87a 42bf 75e0 7fbf f722 fe3c
000003d0: d55b 7f3f aade 903d 83db e93e 68bc 633f
000003e0: 4f06 193e 1a20 7d3f ad37 423d 49b6 7f3f
000003f0: 33c0 753c a1f8 7f3f 836e 9b3b 43ff 7f3f

patch_to_token.weight f4 [16, 48]
0.08727996 0.09672443 -0.056818195 0.109449536 -0.054671694 0.006053724 -0.09334985 0.061541382
0.10407054 -0.12900573 0.10227807 0.0036714165 0.08322363 -0.0038199727 0.046215594 -0.043860704
0.11756443 0.02792576 -0.06081471 0.04067127 -0.059598964 -0.010219245 -0.052056614 0.09975579
-0.10975158 -0.0606298 -0.034954183 -0.08152918 0.016634094 -0.13770515 0.13500759 -0.12052721
0.09296121 0.005566001 -0.06549381 0.07042045 0.003842607 0.09783655 -0.0031840606 -0.06459771
0.02001707 -0.058092106 0.0415948 0.10963448 0.06427443 -0.08236492 0.06392984 0.006486306
0.049494892 -0.11139549 -0.16623652 -0.07924694 -0.1344911 0.09498715 0.018159803 0.036319945
0.02188378 -0.026002405 0.089643106 -0.12584108 -0.014846056 -0.12215657 0.021020802 -0.073237404
0.052847352 -0.021847373 0.12744874 -0.07825469 -0.0771068 -0.077893846 0.1374959 0.055513207
0.14755535 -0.11128247 -0.1353894 -0.10528918 -0.08875607 0.066346005 0.059584502 0.12739708
-0.08577553 -0.109516315 0.06504002 -0.07015063 0.07642739 -0.04557109 0.07082946 -0.12393994
-0.08412155 0.032378703 0.018943304 -0.048365258 0.07424654 0.08628447 -0.116408 -0.08903508
0.15430245 -0.02668945 -0.02903086 -0.117050156 -0.06047582 0.058241814 0.0031304664 -0.08216976
0.025667248 -0.07651641 -0.100481346 -0.057012852 -0.103621 -0.069651455 0.16643934 0.0498299
0.041705623 -0.13711046 -0.09661297 -0.04914374 0.018939685 -0.12993552 -0.06438061 -0.08834815
-0.003526779 -0.05757054 -0.013711132 -0.10136121 -0.10250869 -0.0882839 -0.053771798 -0.117841125
0.13150664 -0.018403307 0.13448578 0.05579595 -0.11201555 0.10996929 -0.029671954 -0.04487032
-0.10980153 -0.13375652 0.050699037 -0.021692486 0.06659722 -0.10871343 0.116461225 -0.09625643
4.3459004e-05 0.05494469 0.09913948 0.14124438 0.15631089 -0.08968301 0.061018355 -0.037338756
0.00917832 -0.08316782 0.1563116 -0.08101431 0.102357924 0.07581963 0.0719364 -0.052947536
0.122828625 0.02266641 0.009010157 -0.13657711 0.051357046 -0.031070529 -0.07612549 0.11388973
0.02320309 -0.08913017 -0.082800046 -0.016664648 0.07236851 -0.045539826 -0.09119999 -0.05804205
-0.09040305 0.06844751 0.12844864 -0.11915241 0.050665103 0.091628216 0.043053266 -0.03466012
0.0925505 0.093046345 0.070957966 -0.008454868 -0.020676509 0.032727968 -0.008376194 -0.025921661
0.11602892 0.14769156 0.009159915 -0.008833209 0.025945583 0.015250966 0.058495462 0.064197086
-0.10700406 -0.029199347 0.14558914 0.08025156 0.017154718 -0.06268584 -0.06404257 -0.10502794
-0.054192137 0.038982783 0.083841905 0.058901615 -0.1378169 -0.09698067 -0.033286188 0.13126722
0.012968697 -0.04719461 0.04956277 -0.063034795 -0.10031246 0.096502416 -0.07460952 -0.035586618
-0.12772754 0.11221548 0.1248964 0.06813976 -0.084880486 -0.12646085 -0.10119181 0.1234203
0.08514122 0.1376332 0.091836594 0.052512754 0.015013099 -0.09320337 -0.10708015 -0.11854611
0.033966262 -0.09580985 -0.05392126 -0.10814573 -0.0512903 -0.12644057 -0.119115345 0.022988182
-0.06789619 0.06422999 -0.0710514 -0.13063124 -0.050586242 -0.09498929 -0.06904327 -0.16226648
00000000: d6bf b23d 7517 c63d 32ba 68bd 1427 e03d
00000010: 6def 5fbd 515e c63b 352e bfbd d112 7c3d
00000020: ef22 d53d 141a 04be 2a77 d13d 269c 703b
00000030: 2771 aa3d 8258 7abb 904c 3d3d 48a7 33bd
00000040: 9fc5 f03d 90c4 e43c d818 79bd eb96 263d
00000050: 0b1e 74bd 9f6e 27bc 5139 55bd c34c cc3d
00000060: 70c5 e0bd f456 78bd 1e2c 0fbd c5f8 a6bd
00000070: 3944 883c 9402 0dbe 6e3f 0a3e f8d6 f6bd
00000080: 7262 be3d 0063 b63b 9e21 86bd 9938 903d
00000090: 3fd4 7b3b 875e c83d acab 50bb ce4b 84bd
000000a0: d7fa a33c fdf1 6dbd 4f5f 2a3d 0b88 e03d
000000b0: 50a2 833d f0ae a8bd a6ed 823d 148b d43b
000000c0: 28bb 4a3d 5223 e4bd e839 2abe 384c a2bd
000000d0: 09b8 09be 9f88 c23d dec3 943c 39c4 143d
000000e0: 9d45 b33c ff02 d5bc ce96 b73d 7cdc 00be
000000f0: df3c 73bc 392d fabd d133 ac3c 7efd 95bd
00000100: 7776 583d 43f9 b2bc ec81 023e ff43 a0bd
00000110: 2cea 9dbd cf86 9fbd bacb 0c3e d161 633d
00000120: c018 173e 10e8 e3bd 85a3 0abe dba1 d7bd
00000130: bec5 b5bd 6ae0 873d e10e 743d 6174 023e
00000140: 15ab afbd 174a e0bd b433 853d 22ab 8fbd
00000150: f785 9c3d c0a8 3abd 090f 913d 39d4 fdbd
00000160: eb47 acbd 889f 043d fd2e 9b3c a61a 46bd
00000170: 920e 983d eab5 b03d 5167 eebd 0658 b6bd
00000180: 7601 1e3e d5a3 dabc 20d2 edbc feb7 efbd
00000190: 7eb5 77bd f88e 6e3d 8328 4d3b 9e48 a8bd
000001a0: 1f44 d23c a3b4 9cbd 2ac9 cdbd 4f86 69bd
000001b0: 3f37 d4bd 6ca5 8ebd 136f 2a3e 701a 4c3d
000001c0: 84d3 2a3d af66 0cbe 05dd c5bd f24a 49bd
000001d0: 6627 9b3c d10d 05be fbd9 83bd e0ef b4bd
000001e0: 8821 67bb 16cf 6bbd a8a4 60bc 7796 cfbd
000001f0: 13f0 d1bd 30ce b4bd d13f 5cbd b056 f1bd
00000200: ada9 063e 88c2 96bc a4b6 093e 4b8a 643d
00000210: 6968 e5bd 9437 e13d 9912 f3bc f1c9 37bd
00000220: a0df e0bd 78f7 08be cba9 4f3d 71b4 b1bc
00000230: 2064 883d 26a5 debd 3983 ee3d 1722 c5bd
00000240: c047 3638 af0d 613d a409 cb3d 5ea2 103e
00000250: f60f 203e baab b7bd 62ee 793d 86f0 18bd
00000260: aa60 163c e453 aabd 2610 203e d5ea a5bd
00000270: 08a1 d13d 5247 9b3d 6453 933d 84df 58bd
00000280: 938d fb3d e8ae b93c 569f 133c dfda 0bbe
00000290: c45b 523d 9f87 febc aee7 9bbd 053f e93d
000002a0: 6814 be3c e189 b6bd 1293 a9bd 4d84 88bc
000002b0: f135 943d f887 3abd 0fc7 babd 80bd 6dbd
000002c0: 3c25 b9bd 352e 8c3d 0a88 033e 2e06 f4bd
000002d0: 3686 4f3d 93a7 bb3d 9f58 303d c5f7 0dbd
000002e0: 1e8b bd3d 158f be3d 6952 913d 4986 0abc
000002f0: c861 a9bc c30d 063d 4e3c 09bc aa59 d4bc
00000300: 92a0 ed3d 753c 173e 7813 163c 2ab9 10bc
00000310: d58b d43c 30df 793c f098 6f3d c379 833d
00000320: f224 dbbd 7833 efbc 5215 153e ee5a a43d
00000330: 0d88 8c3c 6f61 80bd c028 83bd e318 d7bd
00000340: 93f8 5dbd 69ac 1f3d 4eb5 ab3d d242 713d
00000350: e01f 0dbe cd9d c6bd 1957 08bd ea6a 063e
00000360: a87a 543c 234f 41bd 5502 4b3d 6318 81bd
00000370: 9e70 cdbd 0fa3 c53d e0cc 98bd 46c3 11bd
00000380: 02cb 02be 3bd1 e53d afc9 ff3d dc8c 8b3d
00000390: d2d5 adbd f47e 01be a73d cfbd c8c3 fc3d
000003a0: 855e ae3d b8ef 0c3e d314 bc3d 9d17 573d
000003b0: 80f9 753c 69e1 bebd d64c dbbd 4ec8 f2bd
000003c0: 3520 0b3d f437 c4bd 8adc 5cbd 827b ddbd
000003d0: c715 52bd a379 01be bff2 f3bd b651 bc3c
000003e0: 280d 8bbd 038b 833d 6583 91bd 32c4 05be
000003f0: 8533 4fbd bf89 c2bd 8f66 8dbd 2f29 26be

patch_to_token.bias f4 [16]
-0.087716155 0.14723223 0.066827595 0.06380938 -0.089328624 -0.05930193 -0.028819747 -0.0328507
-0.10437971 0.025925923 0.013059308 -0.044837154 0.019404383 -0.08313354 0.04305834 0.052312545
00000000: 87a4 b3bd 0cc4 163e e8dc 883d 7eae 823d
00000010: edf1 b6bd 95e6 72bd 6417 ecbc 758e 06bd
00000020: 08c5 d5bd 9a62 d43c b5f6 553c 2aa7 37bd
00000030: f1f5 9e3c eb41 aabd f15d 303d ae45 563d

transformer_blocks.0.norm1.weight f4 [16]
0.9832721 1.0209793 0.99100024 1.0150467 1.0189707 1.0251915 0.97761625 1.005594
1.0117087 1.0176281 1.0252148 0.9832353 1.030678 0.9791639 1.0040512 0.9912975
00000000: b8b7 7b3f 73af 823f 31b2 7d3f 0ded 813f
00000010: a26d 823f 7a39 833f 0f45 7a3f 4eb7 803f
00000020: ac7f 813f a341 823f 3d3a 833f 4fb5 7b3f
00000030: 42ed 833f 7caa 7a3f c084 803f acc5 7d3f

transformer_blocks.0.norm1.bias f4 [16]
0.0013066629 0.0016356024 0.0023593695 0.008875998 -0.016072089 0.003336548 -0.0018623199 -0.0051787263
0.00092698936 -0.004723234 -0.00460114 -0.018546935 -0.0011901333 -0.015299172 0.0038064737 -0.006157269
00000000: 5544 ab3a b661 d63a a79f 1a3b a26c 113c
00000010: 9da9 83bc fda9 5a3b 1619 f4ba 4eb2 a9bb
00000020: 3401 733a 5cc5 9abb 29c5 96bb beef 97bc
00000030: 3ffe 9bba 61a9 7abc 0876 793b eac2 c9bb

transformer_blocks.0.multi_head_attention.Q_mappers.0.weight f4 [8, 8]
-0.07792467 0.15039441 -0.31854227 0.20382972 -0.11157033 -0.26444054 0.051772047 0.17386867
0.30822232 -0.21514611 -0.16826528 0.05719332 0.10231293 0.13120368 0.20377702 -0.087337166
0.19296521 0.26952487 -0.09343998 0.25029808 0.17315662 0.3142511 -0.19829959 -0.17351907
-0.10070317 0.017261304 0.21483943 -0.20172934 0.17711507 -0.12823449 0.213418 -0.017486451
-0.29824898 -0.22183771 -0.25829268 0.1750442 -0.23349589 -0.04482229 0.07426121 -0.20039675
0.11760915 -0.36280644 -0.25657463 -0.30969617 -0.1017473 -0.14819911 0.03885975 -0.07564087
0.15369245 0.33593962 0.13907541 -0.14991306 -0.3280485 0.13282122 -0.16011347 0.17651495
0.22652145 0.1581273 0.3245095 0.34927166 0.064789854 -0.24568237 0.30373964 -0.15550506
00000000: f896 9fbd fe00 1a3e f917 a3be bdb8 503e
00000010: fc7e e4bd c064 87be ed0e 543d a10a 323e
00000020: 51cf 9d3e 434f 5cbe bc4d 2cbe 8b43 6a3d
00000030: 7189 d13d 425a 063e ecaa 503e d4dd b2bd
00000040: ac98 453e 2aff 893e 765d bfbd 1227 803e
00000050: f84f 313e 85e5 a03e 0c0f 4bbe fcae 31be
00000060: 773d cebd 9467 8d3c defe 5b3e 2392 4ebe
00000070: a75d 353e e74f 03be 408a 5a3e bf3f 8fbc
00000080: 17b4 98be 6d29 63be f03e 84be c93e 333e
00000090: 8c19 6fbe 9497 37bd 4316 983d ce34 4dbe
000000a0: 11dd f03d c4c1 b9be c05d 83be 7f90 9ebe
000000b0: e360 d0bd 82c1 17be 672b 1f3d 9ae9 9abd
000000c0: 8e61 1d3e 4700 ac3e c969 0e3e cf82 19be
000000d0: f9f5 a7be 4902 083e c9f4 23be 56c0 343e
000000e0: 3df5 673e 1fec 213e 1c26 a63e bcd3 b23e
000000f0: 8bb0 843d 2994 7bbe c383 9b3e b83c 1fbe

transformer_blocks.0.multi_head_attention.Q_mappers.0.bias f4 [8]
-0.16428396 0.2919218 0.2745845 0.106017694 0.02077439 -0.30169168 -0.041466147 0.34720787
00000000: 0e3a 28be c676 953e 5796 8c3e ce1f d93d
00000010: 0e2f aa3c 5577 9abe 68d8 29bd 3bc5 b13e

transformer_blocks.0.multi_head_attention.Q_mappers.1.weight f4 [8, 8]
0.07204229 0.042508703 -0.083675236 -0.13578592 0.198669 0.030259654 0.2159081 -0.052250475
0.17051259 0.12766694 0.03693216 0.22932145 0.22821456 0.33142364 0.29592374 -0.100208804
-0.30401042 0.071496695 -0.004973761 -0.06543034 -0.0819762 0.042648472 0.23567954 0.13474558
-0.13768476 -0.14280117 -0.07647737 -0.1507127 0.32322612 0.18092962 0.3199212 -0.0033883615
0.08270029 0.10863962 -0.35237625 0.04745301 -0.03508893 -0.17262131 -0.2763274 0.3237112
0.29538503 0.14884879 0.32826588 -0.12945174 -0.06522598 0.1375321 -0.055278853 -0.07054855
-0.30850825 0.106754005 -0.19170405 0.0006489736 0.35510573 -0.11679739 -0.107515104 0.20566806
-0.14029667 -0.013635877 0.3424783 -0.15502067 -0.25349444 -0.20722084 -0.10714982 -0.16113919
00000000: e88a 933d 9b1d 2e3d ec5d abbd 770b 0bbe
00000010: e36f 4b3e 18e3 f73c 0317 5d3e 9804 56bd
00000020: da9a 2e3e 1fbb 023e 2d46 173d 3ed3 6a3e
00000030: 14b1 693e 5cb0 a93e 5183 973e 463a cdbd
00000040: 41a7 9bbe dc6c 923d eefa a2bb 5800 86bd
00000050: 23e3 a7bd 2ab0 2e3d fa55 713e bffa 093e
00000060: 3cfd 0cbe 783a 12be 2ba0 9cbd 6e54 1abe
00000070: e57d a53e 9d45 393e b6cc a33e 460f 5ebb
00000080: c55e a93d 737e de3d a96a b4be 165e 423d
00000090: 69b9 0fbd a4c3 30be c97a 8dbe 79bd a53e
000000a0: b53c 973e d16b 183e 7712 a83e ff8e 04be
000000b0: 3395 85bd 37d5 0c3e 146c 62bd c27b 90bd
000000c0: cbf4 9dbe d8a1 da3d 114e 44be e21f 2a3a
000000d0: 6bd0 b53e 7833 efbd e130 dcbd a69a 523e
000000e0: eea9 0fbe 0369 5fbc 5159 af3e bdbd 1ebe
000000f0: 06ca 81be b331 54be 5d71 dbbd ac01 25be

transformer_blocks.0.multi_head_attention.Q_mappers.1.bias f4 [8]
-0.17464784 0.13650721 0.08585461 -0.11738546 -0.25223812 -0.11229448 -0.15428245 -0.11086391
00000000: e2d6 32be 8cc8 0b3e 8bd4 af3d ca67 f0bd
00000010: 5b25 81be a6fa e5bd 38fc 1dbe 9e0c e3bd

transformer_blocks.0.multi_head_attention.K_mappers.0.weight f4 [8, 8]
-0.31789297 0.08276154 -0.27665642 -0.25296754 -0.29921743 0.12767585 -0.20296408 -0.12861866
0.26253614 0.1901312 0.20853792 -0.33713263 -0.25039777 -0.13935451 0.29469135 0.057961177
-0.256735 0.0048796316 -0.282911 -0.059920803 -0.104780406 0.29855797 0.10989741 -0.06592373
0.052445833 -0.10437561 0.1473326 0.12136501 0.10213729 -0.12672713 0.3007272 -0.052460946
-0.1334303 0.22290957 0.28613165 0.35758758 0.09248875 -0.11647237 0.17799352 0.29686537
-0.35516396 -0.044885233 -0.23521474 0.053794615 0.15591945 -0.07418487 -0.029086992 0.1732679
-0.049981903 -0.29569688 0.27611986 -0.16443817 -0.04630862 0.028035812 -0.02214708 -0.34698585
0.15263596 -0.16349123 -0.17829059 0.076261364 -0.17677191 -0.16540352 -0.11639747 -0.111059345
00000000: dec2 a2be e27e a93d e9a5 8dbe f684 81be
00000010: 0733 99be 75bd 023e d1d5 4fbe 9cb4 03be
00000020: 236b 863e c1b1 423e f78a 553e a69c acbe
00000030: 2334 80be f3b2 0ebe c9e1 963e b368 6d3d
00000040: c572 83be 51e5 9f3b b6d9 90be 846f 75bd
00000050: 1c97 d6bd 97dc 983e e511 e13d 0503 87bd
00000060: 71d1 563d e1c2 d5bd 5bde 163e 388e f83d
00000070: 5b2d d13d c2c4 01be eaf8 993e 4ae1 56bd
00000080: f4a1 08be 6842 643e d97f 923e b815 b73e
00000090: be6a bd3d 1189 eebd ef43 363e bdfe 973e
000000a0: 0dd8 b5be 94d9 37bd 22dc 70be be57 5c3d
000000b0: 59a9 1f3e 3dee 97bd d847 eebc 246d 313e
000000c0: d3b9 4cbd 9565 97be 955f 8d3e 7b62 28be
000000d0: 1cae 3dbd 5cab e53c cb6d b5bc 21a8 b1be
000000e0: 9a4c 1c3e 3f6a 27be cf91 36be eb2e 9c3d
000000f0: b203 35be 8a5f 29be cc61 eebd 1573 e3bd

transformer_blocks.0.multi_head_attention.K_mappers.0.bias f4 [8]
-0.14767386 -0.095336206 0.09184736 -0.28599066 -0.21405724 0.0052071298 0.049110696 0.19536662
00000000: d137 17be a13f c3bd 781a bc3d 5e6d 92be
00000010: d231 5bbe 92a0 aa3b 4c28 493d 300e 483e

transformer_blocks.0.multi_head_attention.K_mappers.1.weight f4 [8, 8]
-0.25657293 0.12995934 0.20658676 0.17766386 -0.3083554 -0.11870479 -0.3070501 -0.22659525
0.21559355 -0.05317991 0.15496366 -0.21557246 0.06847475 -0.22098945 0.18300404 -0.14507031
-0.09288073 -0.32268927 -0.009175308 0.35626537 0.15567622 -0.19288038 0.0030123533 -0.032881107
-0.29139075 0.29422456 0.011467082 0.056100998 -0.121802144 -0.15008117 0.0555736 0.1282024
0.08054777 -0.18642169 0.33850908 -0.039954826 -0.2374943 -0.17523262 0.34904897 -0.0028881223
-0.05850963 -0.12600966 -0.09292671 -0.3055836 -0.25629425 0.22273812 0.29337567 0.3418426
-0.27566144 0.21715574 -0.22991535 0.18561493 0.28301516 0.2924028 0.23018698 0.21733052
-0.014487892 0.18114072 -0.13549216 0.13764364 -0.089275956 0.016377002 -0.3294395 -0.09446946
00000000: 875d 83be 1014 053e 7b8b 533e 84ed 353e
00000010: c2e0 9dbe 7f1b f3bd ac35 9dbe 9608 68be
00000020: 8ec4 5c3e 2dd3 59bd cbae 1e3e 07bf 5cbe
00000030: 7d3c 8c3d 0f4b 62be 6965 3b3e 508d 14be
00000040: 4138 bebd 8737 a5be 0854 16bc 6a68 b63e
00000050: 9669 1f3e 6f82 45be e76a 453b 57ae 06bd
00000060: 2b31 95be 9aa4 963e 6ee0 3b3c 29ca 653d
00000070: 6773 f9bd e1ae 19be 25a1 633d 7d47 033e
00000080: 3bf6 a43d 54e5 3ebe 1051 ad3e aca7 23bd
00000090: b531 73be 2e70 33be 8cb6 b23e a746 3dbb
000000a0: cba7 6fbd ad08 01be 5c50 bebd 7475 9cbe
000000b0: 0039 83be 7615 643e 5635 963e fe05 af3e
000000c0: 7f23 8dbe 135e 5e3e ee6e 6bbe d711 3e3e
000000d0: 5de7 903e d2b5 953e 23b6 6b3e e48b 5e3e
000000e0: a05e 6dbc f47c 393e 75be 0abe 74f2 0c3e
000000f0: 50d6 b6bd 1029 863c 4bac a8be 3479 c1bd

transformer_blocks.0.multi_head_attention.K_mappers.1.bias f4 [8]
-0.18592685 -0.1192787 -0.22576278 -0.3180428 0.023044901 0.22944137 0.32199508 0.2063149
00000000: 9c63 3ebe 6448 f4bd 5c2e 67be 82d6 a2be
00000010: a9c8 bc3c aef2 6a3e 8adc a43e 3744 533e

transformer_blocks.0.multi_head_attention.V_mappers.0.weight f4 [8, 8]
-0.16959384 -0.37313223 0.11406211 0.21218693 -0.3087245 0.10178154 0.27560166 0.016387975
-0.19399431 0.2770238 0.14273737 0.25326115 -0.23617402 0.18316504 -0.27088737 0.35157073
-0.13654472 0.19451326 0.06088435 0.105949804 -0.052984893 0.11817648 -0.17663139 -0.33633634
-0.15538251 0.3000372 -0.08190908 0.09339488 -0.13327004 0.29357415 0.24224518 0.12692499
-0.1609325 -0.305697 0.0040286398 -0.1872724 0.2974149 -0.36493346 0.13015579 0.35590437
0.18966244 0.113546215 -0.33633474 0.3476167 -0.052253425 -0.3381822 0.3329087 -0.14067401
-0.046245568 0.34092432 -0.23921321 -0.26997772 0.052395113 -0.020244503 0.11229174 -0.29820794
-0.006193086 -0.13837224 -0.16222936 -0.33984753 0.1889013 0.093406335 -0.27150083 0.28572923
00000000: 02aa 2dbe 300b bfbe 6599 e93d 8847 593e
00000010: 2311 9ebe d772 d03d a91b 8d3e 1340 863c
00000020: 72a6 46be 10d6 8d3e bf29 123e 72ab 813e
00000030: 9ad7 71be 9e8f 3b3e c0b1 8abe 1401 b43e
00000040: 61d2 0bbe 7c2e 473e de61 793d 36fc d83d
00000050: b006 59bd 8306 f23d dcde 34be 4734 acbe
00000060: 981c 1fbe 7a9e 993e f3bf a7bd d145 bf3d
00000070: f177 08be 5a4f 963e 1f0f 783e a0f8 013e
00000080: 7dcb 24be 5184 9cbe ae02 843b 56c4 3fbe
00000090: c446 983e 8fd8 babe 8f47 053e 1939 b63e
000000a0: df36 423e eb8a e83d 1134 acbe d1fa b13e
000000b0: b007 56bd 3826 adbe 0273 aa3e d90c 10be
000000c0: fe6b 3dbd a28d ae3e 4ff4 74be 853a 8abe
000000d0: 429c 563d cdd7 a5bc 36f9 e53d b6ae 98be
000000e0: 5fef cabb 74b1 0dbe 741f 26be 7f00 aebe
000000f0: 586f 413e d24b bf3d 2802 8bbe 1a4b 923e

transformer_blocks.0.multi_head_attention.V_mappers.0.bias f4 [8]
0.115818866 0.06326356 -0.20382363 0.04878606 0.33746317 0.23406115 -0.27428627 0.31819507
00000000: 7132 ed3d 5390 813d 24b7 50be e4d3 473d
00000010: f9c7 ac3e baad 6f3e 406f 8cbe 77ea a23e

transformer_blocks.0.multi_head_attention.V_mappers.1.weight f4 [8, 8]
0.032222155 0.15876679 0.24973619 0.3042015 -0.30569404 0.31748518 -0.23449238 0.02692773
-0.2546637 -0.06368573 0.008793814 -0.048588987 -0.025030209 0.015809286 0.34297395 0.20105428
0.18810782 0.15612397 0.29903457 -0.023591066 0.059084512 0.06124318 -0.31390432 -0.2896249
0.03322862 -0.12154898 0.015832754 -0.09372801 0.08369412 0.21438254 -0.11800615 0.27363986
0.29363036 -0.28937852 -0.29705283 -0.27239785 -0.2240586 -0.119706765 -0.025481444 -0.073461704
-0.18996264 -0.09669107 -0.104231335 0.33670983 -0.10274096 -0.2675051 0.1466292 -0.028792454
0.2612029 0.2369883 0.3491139 -0.26921207 0.25724646 0.2826602 -0.17737037 0.31738618
0.27432737 -0.011733086 0.1454413 -0.11728449 -0.3386277 0.09947501 0.11061822 -0.22751158
00000000: 61fb 033d c393 223e d8ba 7f3e 4dc0 9b3e
00000010: ee83 9cbe 6b8d a23e c51e 70be 8b97 dc3c
00000020: 4863 82be aa6d 82bd ee13 103c 3f05 47bd
00000030: 270c cdbc 7a82 813c 489a af3e 2ce1 4d3e
00000040: 569f 403e f6de 1f3e 0f1b 993e 0d42 c1bc
00000050: 9a02 723d 21da 7a3d 11b8 a0be b749 94be
00000060: bc1a 083d acee f8bd b1b3 813c 79f4 bfbd
00000070: d367 ab3d 1987 5b3e 35ad f1bd 861a 8c3e
00000080: b856 963e 6c29 94be 4f17 98be bb77 8bbe
00000090: 9e6f 65be d228 f5bd 76be d0bc 1773 96bd
000000a0: 9185 42be f805 c6bd 3d77 d5bd 3b65 ac3e
000000b0: da69 d2bd 6ef6 88be f725 163e 27de ebbc
000000c0: 63bc 853e 10ad 723e 0fbf b23e 2ad6 89be
000000d0: cfb5 833e d6b8 903e 94a0 35be 7180 a23e
000000e0: a374 8c3e 213c 40bc 90ee 143e da32 f0bd
000000f0: 9c60 adbe 8eb9 cb3d ce8b e23d ccf8 68be

transformer_blocks.0.multi_head_attention.V_mappers.1.bias f4 [8]
0.1676467 -0.3011623 0.30354375 0.33567178 0.10517684 -0.22677143 0.16806155 0.06042774
00000000: 94ab 2b3e f231 9abe 166a 9b3e 2cdd ab3e
00000010: f566 d73d c536 68be 5418 2c3e 1483 773d

transformer_blocks.0.norm2.weight f4 [16]
1.0205933 0.9871573 1.0008066 0.9850035 1.0091593 1.0077493 1.0021155 0.97237337
1.0093973 0.9827559 1.0318892 1.001278 0.99214876 1.0047313 0.99030215 1.0078851
00000000: cda2 823f 57b6 7c3f 6e1a 803f 3029 7c3f
00000010: 222c 813f eefd 803f 5245 803f 76ed 783f
00000020: ee33 813f e495 7b3f f214 843f e129 803f
00000030: 76fd 7d3f 099b 803f 7184 7d3f 6102 813f

transformer_blocks.0.norm2.bias f4 [16]
0.0056327954 -0.0037613125 0.0002684201 -0.022156103 -0.0057363296 -0.0017205615 0.0072583887 -0.028472051
0.0015234537 0.010416822 -0.0027006671 0.008280063 0.007862018 0.0036816525 0.014343539 -0.00025281153
00000000: 5093 b83b 5a80 76bb bcba 8c39 b780 b5bc
00000010: d2f7 bbbb 7784 e1ba c7d7 ed3b 383e e9bc
00000020: a0ae c73a 51ab 2a3c adfd 30bb 1aa9 073c
00000030: b2cf 003c e147 713b 2a01 6b3c ca8b 84b9

transformer_blocks.0.mlp.0.weight f4 [64, 16]
0.05982172 0.08165709 0.200028 -0.12982792 -0.053852744 0.074692555 0.026199017 0.20273952
-0.13557035 -0.008724662 0.07587376 -0.067036785 0.16992383 0.0171106 -0.20691322 -0.030908722
-0.11941753 0.012643462 -0.041591346 -0.2654382 -0.04695081 -0.008625957 -0.08790176 0.24041246
-0.055067632 0.15946434 0.09267234 -0.20974568 0.04985266 0.19205947 -0.14134347 -0.16070075
0.2255931 0.1814383 -0.16748923 0.17515583 -0.05038598 -0.22523622 -0.0017161962 0.101962596
-0.050588988 0.06932505 -0.23675828 0.19599526 0.1900964 0.15978137 0.01601434 0.10497376
-0.20727322 -0.064449415 -0.04701114 -0.1458986 -0.20112014 0.18901372 0.1584876 -0.2114765
0.10003995 0.073552966 0.2315816 0.17180516 0.20590197 -0.06911381 0.1786997 0.22577392
-0.23825745 -0.20782603 0.02558189 0.15965004 -0.14021474 0.03224333 -0.018144468 0.07604822
-0.10845355 0.12539484 0.14599164 -0.15056697 -0.009156516 -0.004468035 0.05547556 0.25320372
0.054185163 -0.04669317 0.23451234 -0.10295322 -0.0673586 0.024052255 -0.16543277 0.021278348
-0.17055431 0.018654427 0.0014135876 0.03517822 -0.22157359 -0.21357673 0.12070708 0.20878588
-0.2209695 0.090110816 -0.17613645 -0.0028343657 0.24111181 0.19038582 -0.17754109 0.14958212
0.11778404 0.008813411 0.26943552 -0.109607674 -0.052485183 -0.13892107 0.05691936 0.056476124
0.014515647 -0.1299733 -0.10950939 0.106707275 -0.22873166 -0.04111824 -0.001555772 -0.10157277
0.10076798 0.008815163 0.145012 -0.016147392 -0.1639061 0.19824675 0.008367521 -0.06296005
-0.1648989 0.07098012 -0.23485175 0.08869614 0.11661133 -0.2213014 -0.15889822 -0.18037267
0.21473756 0.2100854 -0.015934693 0.23605427 -0.08670099 -0.22176443 0.05923174 0.093439125
0.22233334 -0.0028972365 0.17823853 0.15001251 0.17327926 -0.2337037 0.23116629 -0.20924863
0.2348488 -0.020027637 -0.25117958 0.08067646 -0.07898614 -0.19431277 -0.10487189 0.04303681
0.1995247 -0.06758964 0.14619745 0.04688365 0.001715041 0.046210233 -0.16628478 -0.20606717
-0.08094534 -0.22631675 -0.13954598 0.003172063 -0.16092528 -0.10828804 -0.065468654 -0.024936218
-0.12052585 0.005837935 -0.03578601 0.06766529 0.015888149 -0.13252637 -0.091542035 -0.0074481335
-0.1707063 0.034060713 0.005151003 0.082805976 0.07821478 0.1705764 0.011382738 -0.20018941
0.10166233 -0.16361435 -0.047182005 -0.053285003 -0.111904 -0.08521584 0.21692604 0.15644638
0.08833774 0.21926266 -0.2584813 0.057022724 0.14405215 0.18132848 -0.22803262 0.109103575
-0.1686297 -0.0014767153 -0.06435298 -0.21064943 -0.25945497 -0.143795 0.107643634 0.1314261
-0.20545399 -0.11658511 -0.018403491 -0.1965578 0.11458168 0.2399412 0.041595247 -0.16060787
0.06163402 0.094985425 0.20261477 -0.109639145 -0.21850242 0.100127496 0.030700482 -0.09654445
-0.103962034 -0.12697786 0.17334238 -0.045549423 0.18421672 0.24881524 0.006035278 0.051177606
-0.038105547 0.18345468 -0.22135659 0.089034915 -0.040294044 0.12054615 0.021761853 -0.09994924
-0.015234316 0.11939426 -0.20038372 -0.15156744 -0.062359493 -0.06310065 0.094030246 0.17232426
00000000: 9f07 753d d53b a73d 24d4 4c3e 9cf1 04be
00000010: b294 5cbd 69f8 983d 529f d63c f39a 4f3e
00000020: f4d2 0abe e2f1 0ebc b463 9b3d 954a 89bd
00000030: 8300 2e3e 872b 8c3c 0fe1 53be 4a34 fdbc
00000040: 2e91 f4bd 8626 4f3c b05b 2abd 84e7 87be
00000050: 7e4f 40bd e353 0dbc d705 b4bd af2e 763e
00000060: 998e 61bd 9f4a 233e ffca bd3d 92c7 56be
00000070: 4e32 4c3d 3dab 443e 58bc 10be bd8e 24be
00000080: e101 673e f6ca 393e 4c82 2bbe 0d5c 333e
00000090: 8861 4ebd 53a4 66be fdf1 e0ba c4d1 d03d
000000a0: 6636 4fbd 4bfa 8d3d c370 72be fbb2 483e
000000b0: a1a8 423e ba9d 233e 8130 833c 7cfc d63d
000000c0: 6e3f 54be 0efe 83bd c18e 40bd 7166 15be
000000d0: 70f2 4dbe d08c 413e 934a 223e 4c8d 58be
000000e0: bfe1 cc3d f0a2 963d ba23 6d3e b1ed 2f3e
000000f0: f7d7 523e 8b8b 8dbd 0efd 363e 4731 673e
00000100: c3f9 73be 59d0 54be 1d91 d13c 4d7b 233e
00000110: 7494 0fbe 9511 043d b5a3 94bc 2bbf 9b3d
00000120: e51c debd 8167 003e d57e 153e 3a2e 1abe
00000130: 3605 16bc 9868 92bb 573a 633d eba3 813e
00000140: 43f1 5d3d 5641 3fbd 0124 703e 23d9 d2bd
00000150: 4ef3 89bd 3c09 c53c 3567 29be ee4f ae3c
00000160: caa5 2ebe 2bd1 983c 2148 b93a 0a17 103d
00000170: 30e4 62be dcb3 5abe 4635 f73d f7cb 553e
00000180: d445 62be 058c b83d 1d5d 34be c4c0 39bb
00000190: 04e6 763e 80f4 423e 55cd 35be 0e2c 193e
000001a0: c238 f13d 2066 103c 74f3 893e fd79 e0bd
000001b0: b4fa 56bd 5341 0ebe 4624 693d 8253 673d
000001c0: 09d3 6d3c b917 05be 7646 e0bd 5889 da3d
000001d0: a238 6abe 9a6b 28bd 0ceb cbba 6205 d0bd
000001e0: 715f ce3d 796d 103c 077e 143e 8947 84bc
000001f0: 00d7 27be 3201 4b3e ed17 093c 33f1 80bd
00000200: 42db 28be 065e 913d fa7c 70be 52a6 b53d
00000210: ecd1 ee3d d69c 62be 37b6 22be 9db3 38be
00000220: 2ae4 5b3e a120 573e 7989 82bc 36b8 713e
00000230: 4a90 b1bd 3716 63be fb9c 723d 035d bf3d
00000240: 5aab 633e 90df 3dbb 2984 363e e19c 193e
00000250: 1e70 313e 0650 6fbe dbb6 6c3e 4645 56be
00000260: 347c 703e 0011 a4bc 9c9a 80be b339 a53d
00000270: 7cc3 a1bd edf9 46be 13c7 d6bd 5e47 303d
00000280: 3450 4c3e 706c 8abd c9b4 153e 1209 403d
00000290: 3acb e03a f146 3d3d 8f46 2abe 4603 53be
000002a0: acc6 a5bd 94bf 67be 24e5 0ebe 63e2 4f3b
000002b0: 99c9 24be 1fc6 ddbd 6e14 86bd 0a47 ccbc
000002c0: 42d6 f6bd 264c bf3b 5a94 12bd 1994 8a3d
000002d0: dd27 823c feb4 07be 647a bbbd 790f f4bb
000002e0: a2cd 2ebe 3f83 0b3d bfc9 a83b 2e96 a93d
000002f0: 122f a03d 94ab 2e3e aa7e 3a3c 74fe 4cbe
00000300: 5734 d03d 858a 27be eb41 41bd 6041 5abd
00000310: ed2d e5bd a485 aebd dc21 5e3e 7b33 203e
00000320: 6bea b43d 6486 603e a957 84be a990 693d
00000330: 6882 133e 2cae 393e 6281 69be b271 df3d
00000340: 44ad 2cbe 588e c1ba 7fcb 83bd 7cb4 57be
00000350: 48d7 84be ff3e 13be 4474 dc3d 9094 063e
00000360: 8862 52be 2dc4 eebd ebc2 96bc 7346 49be
00000370: cda9 ea3d 25b3 753e c75f 2a3d 6476 24be
00000380: f473 7c3d b887 c23d 3f7a 4f3e 7d8a e0bd
00000390: 19bf 5fbe a50f cd3d 947f fb3c 19b9 c5bd
000003a0: 0cea d4bd 7c06 02be aa80 313e 0892 3abd
000003b0: 4fa3 3c3e 6cc9 7e3e 95c3 c53b 9c9f 513d
000003c0: 9014 1cbd 8bdb 3b3e 4dab 62be f057 b63d
000003d0: 5e0b 25bd e6e0 f63d ea45 b23c 30b2 ccbd
000003e0: 5a99 79bc fa84 f43d 6431 4dbe 7f34 1bbe
000003f0: ab6c 7fbd ea3a 81bd ee92 c03d c575 303e

transformer_blocks.0.mlp.0.bias f4 [64]
-0.044074096 -0.09322603 0.022193551 -0.17272303 -0.13096255 -0.0071234484 0.21522722 -0.074700356
0.12232907 -0.0881247 -0.07083531 -0.24953598 0.22111773 0.26248506 -0.010249053 0.16213268
0.21147949 0.12042769 0.12384202 -0.24114637 -0.23095307 -0.20695175 0.07057173 -0.20914178
-0.20994584 -0.098474436 -0.21622975 -0.006046296 0.023189347 -0.1455412 0.1761547 -0.0920331
-0.083085485 0.1885587 0.21572234 -0.041198157 -0.17984904 -0.09727647 0.03254628 0.14062408
0.12927036 -0.10719365 -0.22994383 -0.20768332 -0.07736065 0.005668174 -0.12356415 -0.20493318
0.023362452 -0.20579086 -0.18245532 -0.19272834 -0.047676433 0.2181214 0.10109654 -0.032813307
0.03603287 0.10568914 0.011457532 -0.19830586 -0.1516796 -0.16711538 -0.013658119 -0.24022724
00000000: 0a87 34bd 4aed bebd 40cf b53c 4ede 30be
00000010: 0c1b 06be d16b e9bb 8664 5c3e 80fc 98bd
00000020: aa87 fa3d b97a b4bd 1a12 91bd 5c86 7fbe
00000030: b06c 623e 7164 863e a5eb 27bc 1c06 263e
00000040: 148e 583e cba2 f63d e3a0 fd3d 13ef 76be
00000050: f67e 6cbe 29eb 53be e987 903d 4329 56be
00000060: 0bfc 56be f7ac c9bd 556b 5dbe 0220 c6bb
00000070: 96f7 bd3c c108 15be e661 343e da7b bcbd
00000080: b928 aabd 8815 413e 51e6 5c3e 66bf 28bd
00000090: 592a 38be e338 c7bd 404f 053d c2ff 0f3e
000000a0: 735f 043e 5888 dbbd 6576 6bbe f0aa 54be
000000b0: 436f 9ebd 17bc b93b 330f fdbd 01da 51be
000000c0: 9d62 bf3c d7ba 52be 91d5 3abe 945a 45be
000000d0: 5d48 43bd 375b 5f3e b40b cf3d 3f67 06bd
000000e0: 3497 133d 8c73 d83d 5fb8 3b3c b110 4bbe
000000f0: e651 1bbe 4b20 2bbe 4ec6 5fbc 21fe 75be

transformer_blocks.0.mlp.2.weight f4 [16, 64]
-0.028958948 -0.031662304 0.1113381 0.11741299 0.07951927 0.010989174 -0.033994865 0.026670849
-0.089038536 -0.04180892 -0.046734355 -0.034476448 -0.12143741 0.056182794 0.107606664 -0.07119229
0.029394275 -0.011374585 -0.02036385 0.014924516 0.10066937 -0.008370789 -0.08015271 -0.026515303
0.05755298 0.060215052 0.0017138179 -0.017193774 -0.07748632 -0.028695999 -0.0586632 0.001057446
0.024706181 0.11002274 -0.011913947 0.021665225 0.088790625 0.06343191 0.041387986 0.03441184
-0.004818965 -0.121002845 -0.009535581 -0.009916062 0.12323232 0.108082674 0.03284754 0.100167885
-0.06220806 0.11129308 0.1266657 -0.009926119 -0.10237892 -0.020291526 -0.030166876 0.020459102
-0.11556707 0.020858154 -0.044351522 -0.052781936 -0.04923456 -0.030465571 -0.112640664 -0.06701371
0.013202557 0.06731296 0.124562874 -0.100782886 0.051036425 -0.06742645 -0.09472946 0.0072162226
-0.06263499 -0.12378113 -0.08972872 -0.07246044 0.091731384 0.064436756 -0.051940802 -0.08485219
-0.08186583 -0.051988833 -0.02346505 0.06862562 0.06604311 -0.038699415 0.088295445 -0.09349111
-0.097577475 0.0039247875 -0.0641708 0.060631678 0.11487761 -0.077612445 -0.106613934 0.068181746
-0.10448972 0.09503204 -0.04720806 0.045700826 -0.116730824 -0.087685466 0.00018559868 0.058215793
0.11984199 0.13262299 0.005826851 -0.042510558 0.009621264 -0.027395494 0.019386478 -0.11871168
-0.09354501 0.070864856 -0.09021158 0.10508949 0.03869387 0.014499235 0.119696215 -0.07535386
0.0022212237 0.029328097 0.05596094 -0.1026315 0.022933993 -0.06551722 0.009224189 0.08313387
-0.0098176235 0.010881688 -0.021798754 0.12264667 0.07840211 0.025258899 -0.0697229 -0.0743451
0.09327196 0.10026588 0.05322123 -0.09859259 0.080520116 -0.002817022 0.10198192 0.10378484
0.013536054 -0.048994474 0.10495163 -0.058756717 0.08058402 -0.13455078 -0.040446006 -0.09219838
-0.05587579 0.07265328 -0.089907296 -0.10496818 0.062063646 0.0798529 0.002931008 -0.10753892
-0.034336183 -0.032134052 0.08745477 -0.029131824 -0.032410063 -0.07445162 -0.036013387 0.053667363
0.074847855 0.01259795 -0.061465032 0.13043143 0.03539114 -0.055258054 -0.033491038 -0.031203633
0.067569174 0.048300043 0.10445888 -0.0064922124 0.10932475 -0.038839556 -0.0523039 -0.024252024
-0.1170359 -0.082674645 -0.10288823 -0.029331597 0.006688682 -0.03771841 -0.0803629 0.11383237
-0.050228037 0.03775873 0.09972512 -0.09494194 -0.01984485 0.069677204 0.11793026 0.0041565844
0.11126725 -0.11123272 -0.05850335 0.10213615 -0.001528911 0.11324103 -0.0013452978 -0.044952042
0.12667425 0.123831145 0.032818172 -0.08076689 -0.0017733811 -0.04125639 0.09541343 -0.010253226
0.024340373 0.05216095 0.043658424 -0.06850308 0.13138859 0.060267158 -0.088648446 0.11944931
0.033561155 -0.031382345 -0.08700569 -0.034380134 -0.12629819 0.056744132 0.068167664 -0.022622755
0.13583301 -0.0372627 0.03875674 -0.10387418 -0.030412925 0.05843812 0.047468968 0.008457487
-0.06740975 0.0802168 0.06715504 0.01818918 -0.06231362 0.009483696 0.0021981196 0.09637949
0.02261303 0.011964326 0.0037583844 0.09008733 -0.010463869 0.11432531 0.057252333 -0.09574885
00000000: 513b edbc 55b0 01bd 3b05 e43d 3976 f03d
00000010: 00db a23d f00b 343c 333e 0bbd d37c da3c
00000020: d659 b6bd d53f 2bbd 866c 3fbd 2d37 0dbd
00000030: 2db4 f8bd ee1f 663d e260 dc3d 43cd 91bd
00000040: 43cc f03c 785c 3abc 17d2 a6bc f585 743c
00000050: be2b ce3d a225 09bc 1b27 a4bd 9f36 d9bc
00000060: acbc 6b3d 0fa4 763d 30a2 e03a f5d9 8cbc
00000070: 26b1 9ebd df13 ebbc d348 70bd 009a 8a3a
00000080: 9e64 ca3c 9a53 e13d b732 43bc 457b b13c
00000090: dcd7 b53d 97e8 813d 7386 293d 6ef3 0c3d
000000a0: 69e8 9dbb 57d0 f7bd 203b 1cbc fa76 22bc
000000b0: 3a61 fc3d 735a dd3d 248b 063d d224 cd3d
000000c0: e1cd 7ebd a0ed e33d a7b4 013e 29a1 22bc
000000d0: 0aac d1bd 6a3a a6bc 8620 f7bc d999 a73c
000000e0: 6eae ecbd b8de aa3c f1a9 35bd df31 58bd
000000f0: 2eaa 49bd ef92 f9bc 26b0 e6bd 7c3e 89bd
00000100: 8a4f 583c 61db 893d d21a ff3d 4267 cebd
00000110: 920b 513d e116 8abd 8501 c2bd 1076 ec3b
00000120: c646 80bd f680 fdbd b1c3 b7bd 2466 94bd
00000130: aadd bb3d 6bf7 833d e1bf 54bd fcc6 adbd
00000140: 46a9 a7bd 3ef2 54bd c739 c0bc 978b 8c3d
00000150: 9c41 873d 4783 1ebd 3ed4 b43d 4478 bfbd
00000160: b3d6 c7bd 819b 803b fb6b 83bd ec58 783d
00000170: f444 eb3d 46f3 9ebd 6858 dabd dfa2 8b3d
00000180: b5fe d5bd 28a0 c23d 3d5d 41bd ca30 3b3d
00000190: 9210 efbd 7094 b3bd 449d 4239 af73 6e3d
000001a0: b86f f53d 52ce 073e 2bef be3b 8d1f 2ebd
000001b0: 82a2 1d3c 846c e0bc 64d0 9e3c 1c1f f3bd
000001c0: 8794 bfbd 9821 913d d9c0 b8bd 2939 d73d
000001d0: 777d 1e3d 338e 6d3c 4a23 f53d 2053 9abd
000001e0: f391 113b 7a41 f03c 4c37 653d 7730 d2bd
000001f0: 12e0 bb3c e42d 86bd 0e21 173c 1742 aa3d
00000200: 19da 20bc 1c49 323c 4d93 b2bc 2d2e fb3d
00000210: 4991 a03d c0eb ce3c e1ca 8ebd 3e42 98bd
00000220: 5f05 bf3d 3358 cd3d 81fe 593d e9ea c9bd
00000230: bbe7 a43d c99d 38bb e6db d03d 258d d43d
00000240: 53c6 5d3c 6eae 48bd e1f0 d63d e2aa 70bd
00000250: 3c09 a53d aec7 09be b6aa 25bd 81d2 bcbd
00000260: 03de 64bd 3ecb 943d 5121 b8bd 8ff9 d6bd
00000270: 7336 7e3d eb89 a33d 2816 403b 5e3d dcbd
00000280: 19a4 0cbd ff9e 03bd 7d1b b33d dda5 eebc
00000290: 6ac0 04bd 177a 98bd c682 13bd 4fd2 5b3d
000002a0: d549 993d a267 4e3c c2c2 7bbd d18f 053e
000002b0: 4df6 103d 4556 62bd e62d 09bd c39e ffbc
000002c0: b561 8a3d 44d6 453d 8aee d53d a0bc d4bb
000002d0: a8e5 df3d 3a16 1fbd 9d3c 56bd 2eac c6bc
000002e0: 85b0 efbd 5351 a9bd 10b7 d2bd d148 f0bc
000002f0: bb2c db3b 9f7e 1abd 4e95 a4bd f220 e93d
00000300: eabb 4dbd e6a8 1a3d af3c cc3d eb70 c2bd
00000310: ab91 a2bc ecb2 8e3d 6c85 f13d f533 883b
00000320: 15e0 e33d fbcd e3bd 35a1 6fbd c22c d13d
00000330: bd65 c8ba eaea e73d b454 b0ba a21f 38bd
00000340: e5b6 013e 2f9b fd3d 596c 063d 1c69 a5bd
00000350: cc70 e8ba 76fc 28bd 1e68 c33d 26fd 27bc
00000360: 7665 c73c b8a6 553d 2dd3 323d 584b 8cbd
00000370: bb8a 063e b2da 763d 518d b5bd d7a1 f43d
00000380: 6c77 093d c68a 00bd 0a30 b2bd 2fd2 0cbd
00000390: 5054 01be 896c 683d 7d9b 8b3d 5b53 b9bc
000003a0: cf17 0b3e c6a0 18bd 63bf 1e3d fcbb d4bd
000003b0: 8724 f9bc cf5c 6f3d d26e 423d 4691 0a3c
000003c0: 1f0e 8abd b548 a43d 9588 893d 7a01 953c
000003d0: 913c 7fbd 8161 1b3c 540e 103b 9c62 c53d
000003e0: f63e b93c 0506 443c 3a4f 763b b57f b83d
000003f0: a670 2bbc 6323 ea3d 6c81 6a3d f917 c4bd

transformer_blocks.0.mlp.2.bias f4 [16]
-0.063983075 0.046170626 -0.045342155 -0.07751837 -0.06547988 -0.056556016 0.121045314 0.02389006
0.028556075 0.01653156 -0.08410112 0.082788706 -0.015149347 -0.037361734 0.09627664 -0.06327831
00000000: 8f09 83bd 691d 3d3d b2b8 39bd f3c1 9ebd
00000010: 511a 86bd 48a7 67bd 9be6 f73d 16b5 c33c
00000020: 6eee e93c 326d 873c 353d acbd 208d a93d
00000030: f734 78bc 9e08 19bd b02c c53d 0f98 81bd

transformer_blocks.1.norm1.weight f4 [16]
0.98552895 0.98910135 1.0180478 1.0086744 1.0106541 0.9776746 0.9909807 1.0021039
0.98840296 0.98738474 1.0306354 0.98557544 1.0155238 0.9840617 1.0261221 1.0143006
00000000: a04b 7c3f bf35 7d3f 644f 823f 3e1c 813f
00000010: 1d5d 813f e248 7a3f e9b0 7d3f f144 803f
00000020: fa07 7d3f 3fc5 7c3f dceb 833f ac4e 7c3f
00000030: affc 813f 78eb 7b3f f857 833f 9ad4 813f

transformer_blocks.1.norm1.bias f4 [16]
0.011233664 -0.00053069193 -0.009893722 -0.00082002964 -0.0006374418 -0.003061004 -0.0139408205 -0.0037472085
-0.008188947 0.008827098 0.00079986727 -0.013838585 -0.002887178 -0.015605811 -0.002172145 0.0018991084
00000000: 670d 383c 221e 0bba 4719 22bc 42f7 56ba
00000010: ff19 27ba 209b 48bb 0a68 64bc ba93 75bb
00000020: ef2a 06bc 889f 103c 2fae 513a 3bbb 62bc
00000030: cf36 3dbb 84af 7fbc 8c5a 0ebb 81eb f83a

transformer_blocks.1.multi_head_attention.Q_mappers.0.weight f4 [8, 8]
0.0748352 -0.29491407 0.18659154 0.13252218 -0.28919664 0.19499692 0.045841075 -0.18670891
0.30819148 0.1582262 0.124994665 -0.11381311 -0.20151342 -0.19444948 0.13514592 0.092846684
-0.19160317 0.33710632 0.22433737 -0.14654657 0.19658288 -0.16716966 0.13145511 0.27596828
-0.30789983 -0.17598526 -0.010456028 0.03987696 -0.28474057 -0.23603573 -0.02356709 -0.057214092
0.097549334 0.060809232 0.09170756 0.021049466 0.04860295 -0.038476266 0.1483956 0.22205213
-0.15966281 -0.17129265 0.16829315 -0.24843086 0.23110792 0.15026648 0.06660539 -0.16718136
-0.00815628 -0.2927563 -0.33506155 0.33964264 -0.3270807 -0.27697793 -0.15539344 0.037233815
0.0707133 -0.18025237 -0.044931762 -0.06956206 0.2910423 0.31477284 0.13045987 0.007812676
00000000: 3343 993d fafe 96be da11 3f3e e5b3 073e
00000010: 9511 94be 46ad 473e dac3 3b3d 9f30 3fbe
00000020: 46cb 9d3e 0d06 223e 34fd ff3d d916 e9bd
00000030: 8959 4ebe c41d 47be b163 0a3e 6726 be3d
00000040: 9f33 44be 3399 ac3e b2b8 653e 4e10 16be
00000050: 064d 493e 862e 2bbe 2b9c 063e b74b 8d3e
00000060: 0ca5 9dbe 7b35 34be c34f 2bbc 0656 233d
00000070: 84c9 91be 5ab3 71be c50f c1bc 5359 6abd
00000080: f2c7 c73d 1a13 793d 2cd1 bb3d ee6f ac3c
00000090: e313 473d 4a99 1dbd 04f5 173e a261 633e
000000a0: a67e 23be 5767 2fbe 0a55 2c3e a964 7ebe
000000b0: 8ea7 6c3e 75df 193e 6868 883d 9731 2bbe
000000c0: eba1 05bc 27e4 95be 308d abbe a4e5 ad3e
000000d0: 1f77 a7be 0dd0 8dbe 751f 1fbe 7c82 183d
000000e0: 22d2 903d 1494 38be 5e0a 38bd 8e76 8ebd
000000f0: 7f03 953e e829 a13e 4697 053e bd00 003c

transformer_blocks.1.multi_head_attention.Q_mappers.0.bias f4 [8]
0.25998035 -0.28333795 0.1302956 -0.21542224 0.25871265 -0.3229638 0.14647438 -0.28087768
00000000: 251c 853e ac11 91be 366c 053e a697 5cbe
00000010: fc75 843e 835b a5be 61fd 153e 33cf 8fbe

transformer_blocks.1.multi_head_attention.Q_mappers.1.weight f4 [8, 8]
0.2266641 0.03820478 0.28750607 -0.24280663 0.20508325 -0.25447324 -0.20462714 0.15500668
-0.052480564 -0.27865058 -0.29744765 -0.089080974 0.09025411 0.32836774 0.25623775 0.005772165
-0.20851459 -0.3098488 0.31440645 -0.19578305 -0.06847318 -0.27121848 -0.2562228 0.06867802
-0.10475853 0.045310535 0.019449096 0.0067687323 -0.05704962 -0.0076621473 0.17798258 0.24545756
0.31185424 -0.28638747 -0.3247013 -0.046617575 -0.033027653 0.18328692 0.30633014 0.09965571
-0.23634923 -0.0439625 0.20188048 0.14195484 -0.2607645 0.003604645 -0.3684139 -0.1285135
0.23287776 -0.132398 0.23469043 -0.3064042 0.3279375 0.18747696 0.24507874 0.077950396
0.0052605118 -0.16850106 -0.16842489 -0.25654623 0.30682772 -0.10904444 0.036225088 -0.34847292
00000000: a21a 683e 9e7c 1c3d ff33 933e 4da2 78be
00000010: 5801 523e 514a 82be c789 51be 12ba 1e3e
00000020: dcf5 56bd 4aab 8ebe 0f4b 98be 1670 b6bd
00000030: 26d7 b83d d11f a83e 9831 833e 6e24 bd3b
00000040: d984 55be 80a4 9ebe e2f9 a03e 5a7b 48be
00000050: ab3b 8cbd 26dd 8abe a32f 83be 10a7 8c3d
00000060: a48b d6bd 8a97 393d b653 9f3c 3ecc dd3b
00000070: ddac 69bd c012 fbbb 1141 363e 3a59 7b3e
00000080: 5cab 9f3e 61a1 92be 403f a6be 12f2 3ebd
00000090: 0148 07bd 91af 3b3e 4ed7 9c3e 4b18 cc3d
000000a0: 8805 72be 0612 34bd c2b9 4e3e 9c5c 113e
000000b0: ed82 85be e83b 6c3b bfa0 bcbe 0b99 03be
000000c0: 8277 6e3e 5793 07be b052 703e 03e1 9cbe
000000d0: 6de7 a73e f6f9 3f3e ecf5 7a3e 75a4 9f3d
000000e0: 5f60 ac3b 8b8b 2cbe 9377 2cbe 075a 83be
000000f0: 8618 9d3e b152 dfbd c260 143d 0b6b b2be

transformer_blocks.1.multi_head_attention.Q_mappers.1.bias f4 [8]
0.11570739 -0.1164023 -0.28003842 0.03143431 -0.3196271 -0.0235841 -0.3057076 0.208962
00000000: fff7 ec3d 5464 eebd 3261 8fbe 43c1 003d
00000010: 2aa6 a3be 7133 c1bc b585 9cbe 22fa 553e

transformer_blocks.1.multi_head_attention.K_mappers.0.weight f4 [8, 8]
-0.26844564 0.04460658 0.1765597 -0.2935951 0.21675733 0.28016204 -0.22787446 0.02523494
0.10374984 0.2900888 0.29278743 -0.3052365 -0.2925396 -0.3080639 -0.13638529 -0.06392065
-0.14034805 0.24937887 -0.25025958 -0.26111823 -0.25623268 -0.1999366 0.35082597 0.039654665
-0.05475788 -0.11175021 -0.26821667 -0.12826711 0.18186073 0.23228566 0.24097238 0.025165273
-0.18587531 -0.21201979 0.33305442 -0.31728014 0.08266828 -0.03928322 0.30955556 0.20077765
-0.09879319 -0.28824517 0.05202789 -0.24234907 -0.0323087 0.09724351 0.19054754 -0.09383118
-0.22955006 -0.30527997 -0.34280032 0.041956905 -0.21902055 0.0042479006 -0.18570139 -0.24197395
0.22980285 0.20754503 0.24798316 0.3486725 -0.2495539 -0.17979366 -0.24832861 0.23562978
00000000: b571 89be 64b5 363d 11cc 343e 1952 96be
00000010: a2f5 5d3e 6671 8f3e ec57 69be 81b9 ce3c
00000020: cc7a d43d 8586 943e 3ce8 953e f547 9cbe
00000030: c0c7 95be 8dba 9dbe 96a8 0bbe d4e8 82bd
00000040: 66b7 0fbe 2d5d 7f3e 0622 80be 4ab1 85be
00000050: ee30 83be 2ebc 4cbe 769f b33e ee6c 223d
00000060: cc49 60bd 4bdd e4bd b253 89be 7458 03be
00000070: b339 3a3e 4bdc 6d3e 77c1 763e 6727 ce3c
00000080: 1956 3ebe b71b 59be 1c86 aa3e 8b72 a2be
00000090: fd4d a93d 71e7 20bd 117e 9e3e a898 4d3e
000000a0: 1654 cabd df94 93be 321b 553d 5b2a 78be
000000b0: 2156 04bd 9b27 c73d e51e 433e 902a c0bd
000000c0: 2c0f 6bbe a84d 9cbe 8683 afbe 01db 2b3d
000000d0: ec46 60be f931 8b3b 8128 3ebe 05c8 77be
000000e0: 7051 6b3e af86 543e 4cef 7d3e 3485 b23e
000000f0: 0f8b 7fbe d41b 38be db49 7ebe ef48 713e

transformer_blocks.1.multi_head_attention.K_mappers.0.bias f4 [8]
0.20832463 0.2865929 -0.24739014 -0.18960801 0.34467536 -0.28073558 -0.23548438 0.13017076
00000000: 0d53 553e 4ebc 923e d753 7dbe 9a28 42be
00000010: 4a79 b03e 93bc 8fbe d122 71be 7c4b 053e

transformer_blocks.1.multi_head_attention.K_mappers.1.weight f4 [8, 8]
-0.2894392 -0.101622224 0.14509742 0.27144852 -0.03947101 -0.29179853 0.19705054 0.35657266
-0.24581814 -0.0355917 -0.23748231 -0.19644703 0.14134954 0.17691986 0.16108705 -0.35071462
-0.0719501 0.13864544 -0.02097689 -0.12044167 -0.16599616 0.34281594 -0.27275613 -0.28885794
0.2408486 -0.21317302 0.2137933 -0.17434072 -0.060499605 -0.18981904 0.29165027 0.24777324
0.0007683431 0.0058821184 -0.12915915 -0.16899046 -0.1446495 0.09891868 -0.059911177 0.23902577
0.031087913 0.022461938 -0.23233151 0.1617355 -0.34936416 0.06352286 0.118474066 0.07633197
0.2660409 0.068807244 -0.08461486 -0.26716623 -0.30704746 0.19330147 0.20427217 -0.2859086
0.11174274 -0.14121316 0.30475998 -0.14071493 0.31030288 0.2680518 0.20118791 0.23357482
00000000: 6031 94be 501f d0bd 6b94 143e 4dfb 8a3e
00000010: 5bac 21bd 9e66 95be 9ec7 493e b190 b63e
00000020: c0b7 7bbe 9ac8 11bd 902e 73be 6929 49be
00000030: efbd 103e 7b2a 353e 01f4 243e de90 b3be
00000040: 935a 93bd 12f9 0d3e bad7 abbc 1faa f6bd
00000050: e6fa 29be 9285 af3e b1a6 8bbe 30e5 93be
00000060: 04a1 763e 074a 5abe a1ec 5a3e 6086 32be
00000070: 6fce 77bd ec5f 42be 2f53 953e 45b8 7d3e
00000080: a26a 493a c9be c03b 4c42 04be d60b 2dbe
00000090: 001f 14be e095 ca3d 6c65 75bd 2cc3 743e
000000a0: 14ac fe3c 1902 b83c 50e8 6dbe fe9d 253e
000000b0: dcdf b2be 4618 823d 88a2 f23d f053 9c3d
000000c0: 8336 883e d0ea 8c3d 8e4a adbd 03ca 88be
000000d0: 5335 9dbe d2f0 453e b92c 513e 9d62 92be
000000e0: 61d9 e43d 2f9a 10be 8009 9c3e 9317 10be
000000f0: 05e0 9e3e 163e 893e 3404 4e3e 3d2e 6f3e

transformer_blocks.1.multi_head_attention.K_mappers.1.bias f4 [8]
0.11023861 0.119811706 -0.30061835 -0.08069083 -0.040056124 0.17156883 -0.13710445 0.1619264
00000000: c8c4 e13d d75f f53d a6ea 99be 3c41 a5bd
00000010: e411 24bd bdaf 2f3e 1c65 0cbe 09d0 253e

transformer_blocks.1.multi_head_attention.V_mappers.0.weight f4 [8, 8]
0.25570658 0.14110154 0.17181143 -0.039171085 0.17981344 -0.14243945 0.27792805 0.010623808
-0.039170086 -0.29913062 0.33846137 -0.060595497 0.25025177 -0.21034102 -0.2673504 -0.07862243
-0.2670218 0.05698347 -0.004780637 -0.12174676 0.23351322 0.20763275 -0.3418738 -0.26299247
0.19027612 -0.20505084 0.07610749 -0.10249175 0.050330315 -0.17396095 0.03157787 -0.1453044
-0.14268532 -0.18257898 0.071603395 0.23807645 0.0033624144 -0.023726782 0.26261398 0.30511367
-0.06668172 -0.28051952 0.09017021 0.097881906 -0.28935525 -0.2971076 0.06570156 0.3278044
-0.33180407 -0.16158535 -0.11237204 -0.31837893 -0.23143731 0.29973903 0.30182248 -0.28017387
-0.0075752162 -0.27578136 0.15776983 -0.24860261 -0.19168875 -0.142083 0.08145426 0.2159045
00000000: f9eb 823e ec7c 103e 56ef 2f3e dc71 20bd
00000010: 0421 383e a6db 11be 964c 8e3e 7b0f 2e3c
00000020: d070 20bd a627 99be cf4a ad3e fc32 78bd
00000030: 0021 803e a363 57be 27e2 88be cc04 a1bd
00000040: 15b7 88be 8067 693d e4a6 9cbb 5e56 f9bd
00000050: 171e 6f3e ae9d 543e 150a afbe f3a6 86be
00000060: bed7 423e d9f8 51be 3ede 9b3d 32e7 d1bd
00000070: 2927 4e3d d222 32be cc57 013d adca 14be
00000080: 1a1c 12be fcf5 3abe cda4 923d 50ca 733e
00000090: f45b 5c3b ab5e c2bc 5775 863e dc37 9c3e
000000a0: 6d90 88bd 41a0 8fbe 29ab b83d 4f76 c83d
000000b0: 5f26 94be 7d1e 98be 8a8e 863d fad5 a73e
000000c0: 39e2 a9be a176 25be 5023 e6bd 9002 a3be
000000d0: e7fd 6cbe 6577 993e 7a88 9a3e f372 8fbe
000000e0: 8539 f8bb 3733 8dbe 6a8e 213e af91 7ebe
000000f0: 0e4a 44be 357e 11be 7ed1 a63d 1216 5d3e

transformer_blocks.1.multi_head_attention.V_mappers.0.bias f4 [8]
-0.14915566 0.06691615 0.28045747 -0.019219406 0.032827068 0.029188002 -0.0051923213 0.21192989
00000000: 43bc 18be 560b 893d 1f98 8f3e 0472 9dbc
00000010: ad75 063d ad1b ef3c 5924 aabb 2604 593e
