checkpoints/vit/epoch=11.checkpoint.pth.tar (torch, 62188 bytes, 46 tensors)

cls_token f4 [1, 16]
0.2722867 -0.020829985 0.7673561 0.59232235 0.26000255 0.94758433 0.2915583 0.7928106
0.74422973 0.09748518 0.82487625 0.017254101 0.24376772 0.4133304 0.15987223 0.92741406
00000000: 2a69 8b3e a5a3 aabc 7371 443f 70a2 173f
00000010: 0e1f 853e e394 723f 2147 953e a3f5 4a3f
00000020: d785 3e3f 4fa6 c73d 172b 533f 7958 8d3c
00000030: 3f9e 793e 0ba0 d33e 8cb5 233e 026b 6d3f

pos_embed f4 [257, 16]
0.0 1.0 0.0 1.0 0.0 1.0 0.0 1.0
0.0 1.0 0.0 1.0 0.0 1.0 0.0 1.0
0.84147096 0.5403023 0.3109836 0.95041525 0.099833414 0.9950042 0.031617507 0.99950004
0.009999833 0.99995 0.0031622723 0.999995 0.0009999998 0.9999995 0.00031622776 0.99999994
0.9092974 -0.41614684 0.5911271 0.8065784 0.19866933 0.9800666 0.063203394 0.9980007
0.019998666 0.9998 0.0063245133 0.99998 0.0019999987 0.999998 0.0006324555 0.9999998
0.14112 -0.9899925 0.8126489 0.5827536 0.29552022 0.9553365 0.09472609 0.99550337
0.029995501 0.99955004 0.009486691 0.999955 0.0029999956 0.9999955 0.0009486832 0.9999995
-0.7568025 -0.6536436 0.95358074 0.30113748 0.38941833 0.921061 0.12615407 0.99201065
0.039989334 0.9992001 0.012648773 0.99992 0.0039999895 0.999992 0.0012649107 0.9999992
-0.9589243 0.2836622 0.99994653 -0.010342319 0.47942555 0.87758255 0.15745589 0.987526
0.04997917 0.99875027 0.01581073 0.999875 0.0049999794 0.9999875 0.0015811381 0.99999875
-0.2794155 0.96017027 0.94714814 -0.32079646 0.5646425 0.8253356 0.18860029 0.98205394
0.059964005 0.99820054 0.018972527 0.99982 0.005999964 0.999982 0.0018973654 0.9999982
0.6569866 0.75390226 0.80042166 -0.5994374 0.64421767 0.7648422 0.2195561 0.9755999
0.06994285 0.997551 0.022134136 0.999755 0.006999943 0.9999755 0.0022135926 0.99999756
0.98935825 -0.14550003 0.57431775 -0.8186325 0.7173561 0.6967067 0.25029236 0.9681703
0.0799147 0.99680173 0.025295522 0.99968004 0.007999915 0.999968 0.0025298195 0.9999968
0.4121185 -0.91113025 0.2912591 -0.9566442 0.7833269 0.62161 0.28077835 0.95977265
0.08987855 0.9959527 0.028456656 0.99959505 0.008999879 0.9999595 0.0028460461 0.99999595
-0.5440211 -0.8390715 -0.02068353 -0.9997861 0.84147096 0.5403023 0.3109836 0.95041525
0.099833414 0.9950042 0.031617507 0.99950004 0.009999833 0.99995 0.0031622723 0.999995
-0.9999902 0.004425698 -0.33057502 -0.9437797 0.89120734 0.45359612 0.34087786 0.9401076
0.1097783 0.9939561 0.03477804 0.9993951 0.010999778 0.9999395 0.0034784984 0.9999939
-0.53657293 0.84385395 -0.60768354 -0.79417926 0.9320391 0.36235777 0.3704313 0.9288599
0.119712204 0.99280864 0.037938226 0.9992801 0.011999712 0.999928 0.0037947241 0.9999928
0.42016703 0.9074468 -0.82452846 -0.5658205 0.9635582 0.26749882 0.39961433 0.9166834
0.12963414 0.9915619 0.041098032 0.9991551 0.012999634 0.9999155 0.0041109496 0.99999154
0.9906074 0.13673721 -0.95960534 -0.28134963 0.98544973 0.16996714 0.4283978 0.90359026
0.13954312 0.990216 0.044257425 0.99902016 0.013999542 0.999902 0.004427174 0.9999902
0.65028787 -0.7596879 -0.9995187 0.031022532 0.997495 0.0707372 0.45675287 0.8895936
0.14943813 0.9887711 0.047416378 0.9988752 0.014999437 0.9998875 0.0047433986 0.99998873
00000000: 0000 0000 0000 803f 0000 0000 0000 803f
00000010: 0000 0000 0000 803f 0000 0000 0000 803f
00000020: 0000 0000 0000 803f 0000 0000 0000 803f
00000030: 0000 0000 0000 803f 0000 0000 0000 803f
00000040: a46a 573f 4051 0a3f 3e39 9f3e 6a4e 733f
00000050: 7675 cc3d 98b8 7e3f 5c81 013d 3cdf 7f3f
00000060: 57d6 233c b9fc 7f3f 203e 4f3b acff 7f3f
00000070: 6d12 833a f8ff 7f3f 5fcb a539 ffff 7f3f
00000080: b7c7 683f 3311 d5be 1b54 173f ec7b 4e3f
00000090: f96f 4b3e a5e5 7a3f c870 813d f97c 7f3f
000000a0: 3ed4 a33c e5f2 7f3f dd3d cf3b b0fe 7f3f
000000b0: 6912 033b deff 7f3f 5fcb 253a fdff 7f3f
000000c0: c381 103e 2670 7dbf c209 503f 572f 153f
000000d0: 6d4e 973e ef90 743f c1ff c13d 4fd9 7e3f
000000e0: 20b9 f53c 83e2 7f3f 116e 1b3c 0dfd 7f3f
000000f0: 939b 443b b5ff 7f3f 0db1 783a f8ff 7f3f
00000100: cfbd 41bf 3055 27bf de1d 743f b12e 9a3e
00000110: d761 c73e a7ca 6b3f 882e 013e 69f4 7d3f
00000120: dbcb 233d 94cb 7f3f cd3c 4f3c c2fa 7f3f
00000130: 5812 833b 7aff 7f3f 5ccb a53a f3ff 7f3f
00000140: 107c 75bf 2c3c 913e 7ffc 7f3f d472 29bc
00000150: 4477 f53e 40a9 603f 1e3c 213e 81ce 7c3f
00000160: f5b6 4c3d 19ae 7f3f 8185 813c cff7 7f3f
00000170: ded6 a33b 2eff 7f3f 313e cf3a ebff 7f3f
00000180: 8c0f 8fbe b8cd 753f 4d78 723f 6f3f a4be
00000190: 698c 103f 3249 533f 6f20 413e e367 7b3f
000001a0: d19c 753d 128a 7f3f 466c 9b3c 34f4 7f3f
000001b0: 599b c43b d2fe 7f3f 05b1 f83a e2ff 7f3f
000001c0: 4630 283f bdff 403f 6fe8 4c3f bb74 19bf
000001d0: 73eb 243f b3cc 433f 50d3 603e eac0 793f
000001e0: 323e 8f3d 815f 7f3f a652 b53c f2ef 7f3f
000001f0: c75f e53b 65fe 7f3f ec11 113b d7ff 7f3f
00000200: 9546 7d3f f6fd 14be 7d06 133f e691 51bf
00000210: a6a4 373f 5f5b 323f 5226 803e 02da 773f
00000220: 51aa a33d 662e 7f3f 8e38 cf3c 08eb 7f3f
00000230: 1312 033c e7fd 7f3f 54cb 253b caff 7f3f
00000240: 3201 d33e d53f 69bf ea1f 953e a2e6 74bf
00000250: 1d88 483f d521 1f3f 2ec2 8f3e a9b3 753f
00000260: 3f12 b83d c2f6 7e3f ef1d e93c 76e5 7f3f
00000270: 3a74 133c 59fd 7f3f bb84 3a3b bcff 7f3f
00000280: f844 0bbf 64cd 56bf 8270 a9bc fbf1 7fbf
00000290: a46a 573f 4051 0a3f 3e39 9f3e 6a4e 733f
000002a0: 7675 cc3d 98b8 7e3f 5c81 013d 3cdf 7f3f
000002b0: 57d6 233c b9fc 7f3f 203e 4f3b acff 7f3f
000002c0: 5cff 7fbf 7205 913b 2141 a9be 8c9b 71bf
000002d0: 2a26 643f c03d e83e 8b87 ae3e e4aa 703f
000002e0: 72d3 e03d e873 7e3f 6b73 0e3d 5bd8 7f3f
000002f0: 6a38 343c 09fc 7f3f 85f7 633b 9aff 7f3f
00000300: d85c 09bf d006 583f 2691 1bbf 554f 4bbf
00000310: 1d9a 6e3f f586 b93e 2ca9 bd3e c3c9 6d3f
00000320: ac2b f53d b528 7e3f 1d65 1b3d d2d0 7f3f
00000330: 719a 443c 48fb 7f3f e8b0 783b 87ff 7f3f
00000340: 2220 d73e 6f4e 683f 4c14 53bf 9dd9 10bf
00000350: c0ab 763f 9bf5 883e 409a cc3e c3ab 6a3f
00000360: d0be 043e 00d7 7d3f 6956 283d a1c8 7f3f
00000370: 6bfc 543c 76fa 7f3f 25b5 863b 72ff 7f3f
00000380: 7298 7d3f d704 0c3e b2a8 75bf 0f0d 90be
00000390: 6f46 7c3f de0b 2e3e f556 db3e b151 673f
000003a0: 64e4 0e3e cc7e 7d3f 4647 353d c9bf 7f3f
000003b0: 565e 653c 94f9 7f3f d411 913b 5cff 7f3f
000003c0: 4479 263f e87a 42bf 75e0 7fbf f722 fe3c
000003d0: d55b 7f3f aade 903d 83db e93e 68bc 633f
000003e0: 4f06 193e 1a20 7d3f ad37 423d 49b6 7f3f
000003f0: 33c0 753c a1f8 7f3f 836e 9b3b 43ff 7f3f

patch_to_token.weight f4 [16, 48]
0.064140834 0.07608782 -0.07741971 0.088320866 -0.07708345 -0.014592988 -0.115000896 0.039206345
0.08075868 -0.1500912 0.08075876 -0.018253438 0.05856021 -0.026477223 0.022991331 -0.06678039
0.12170418 0.034516703 -0.05447684 0.046121266 -0.053827584 -0.0031334474 -0.046813115 0.10365464
-0.106279425 -0.05491244 -0.029975472 -0.07773909 0.017585397 -0.13430284 0.13742325 -0.11799692
0.06949425 -0.017462488 -0.08826374 0.04766637 -0.019991511 0.0739019 -0.028112218 -0.08965085
-0.0054712435 -0.08289181 0.016458657 0.0844723 0.037621733 -0.10787995 0.038192637 -0.018543899
0.04619523 -0.11034985 -0.16600268 -0.080447696 -0.13935402 0.0929694 0.015304759 0.032468095
0.015515135 -0.030393811 0.085575 -0.13005222 -0.023606228 -0.12869287 0.015003338 -0.079670765
0.090589516 0.017569501 0.16627486 -0.040241286 -0.040167905 -0.04027417 0.17425567 0.09153457
0.18363996 -0.075197786 -0.09941693 -0.06946097 -0.054012816 0.10134775 0.09463319 0.16243109
-0.09150616 -0.11404574 0.061009016 -0.07341848 0.067865 -0.054143455 0.06262222 -0.13117434
-0.09547762 0.020600509 0.008706811 -0.057504304 0.061784286 0.07400276 -0.12741436 -0.09912051
0.17567676 -0.0064196326 -0.006305412 -0.09215947 -0.037582386 0.08032434 0.027233863 -0.055858694
0.0498537 -0.052924667 -0.07616119 -0.031041957 -0.07778058 -0.044950575 0.19176243 0.07606954
0.028502364 -0.15031882 -0.10778573 -0.05901103 0.0069185416 -0.14124773 -0.07351384 -0.09614279
-0.014449618 -0.067530245 -0.022827651 -0.10966608 -0.112068474 -0.09802147 -0.06274389 -0.12667201
0.13933474 -0.010043005 0.14376798 0.06547691 -0.1031464 0.1198733 -0.01859184 -0.033057585
-0.099901386 -0.12275092 0.062100247 -0.009685592 0.077332005 -0.09771821 0.1280156 -0.08456431
-0.003043291 0.049857974 0.09724314 0.14153324 0.1525057 -0.09378759 0.05967689 -0.03707649
0.0055516106 -0.08656917 0.15487416 -0.08126799 0.10192415 0.07454937 0.07178037 -0.051739205
0.08857907 -0.012302907 -0.023547113 -0.16836068 0.016663214 -0.06537501 -0.10860468 0.081776716
-0.012044268 -0.12326401 -0.11578352 -0.049884412 0.038760096 -0.07882214 -0.12390369 -0.09028889
-0.09436251 0.06289642 0.122676335 -0.12533672 0.045944333 0.086997606 0.037552558 -0.040613808
0.088354945 0.08963855 0.06572262 -0.014165631 -0.023350378 0.030228795 -0.012731088 -0.030522138
0.109251186 0.1374477 -0.00058922323 -0.01788713 0.024122586 0.01099644 0.054760512 0.06013014
-0.10272628 -0.026998566 0.14844687 0.08209682 0.024351591 -0.05694684 -0.057107855 -0.098243244
-0.09207264 -0.0007995484 0.04358067 0.017745547 -0.1724919 -0.13292378 -0.06941239 0.09390977
-0.01710573 -0.07822472 0.01852982 -0.09545116 -0.12888518 0.0673045 -0.10294939 -0.064645045
-0.13442421 0.103980444 0.1154939 0.057238046 -0.08847901 -0.1300424 -0.10547316 0.11650055
0.08549319 0.13863476 0.09266165 0.051148187 0.01677196 -0.091215625 -0.10409828 -0.11703848
0.037006613 -0.08894195 -0.04748964 -0.10440679 -0.048154753 -0.12047204 -0.11346895 0.026593233
-0.06456887 0.06905625 -0.06599817 -0.12605445 -0.050668746 -0.092626125 -0.06701336 -0.16063957
00000000: 455c 833d eed3 9b3d 3a8e 9ebd 92e1 b43d
00000010: eedd 9dbd 6e17 6fbc 9785 ebbd d596 203d
00000020: cf64 a53d 82b1 19be d964 a53d 3c88 95bc
00000030: d5dc 6f3d c3e6 d8bc 5158 bc3c 28c4 88bd
00000040: 0b40 f93d 6361 0d3d 1b23 5fbd a7e9 3c3d
00000050: 507a 5cbd 865a 4dbb 1cbf 3fbd e248 d43d
00000060: 07a9 d9bd deeb 60bd 1f8f f5bc ac35 9fbd
00000070: 400f 903c af86 09be aeb8 0c3e 5fa8 f1bd
00000080: 0053 8e3d 7e0d 8fbc 9fc3 b4bd d03d 433d
00000090: 3dc5 a3bc e159 973d 984b e6bc dd9a b7bd
000000a0: 1e48 b3bb 2ec3 a9bd 4ed4 863c d0ff ac3d
000000b0: 3f19 1a3d 2af0 dcbd e26f 1c3d 60e9 97bc
000000c0: 3637 3d3d 1aff e1bd 9bfc 29be c3c1 a4bd
000000d0: d2b2 0ebe be66 be3d d0c0 7a3c 44fd 043d
000000e0: 3133 7e3c 71fc f8bc f241 af3d 692c 05be
000000f0: d961 c1bc 10c8 03be 90d0 753c 6d2a a3bd
00000100: ff86 b93d eaed 8f3c f543 2a3e 0cd4 24bd
00000110: 1a87 24bd 87f6 24bd 1470 323e 7a76 bb3d
00000120: 1d0c 3c3e 4c01 9abd 1a9b cbbd 8e41 8ebd
00000130: 8b3c 5dbd 698f cf3d 0ccf c13d 5654 263e
00000140: 9567 bbbd d090 e9bd 97e4 793d 6e5c 96bd
00000150: cefc 8a3d 87c5 5dbd 1440 803d 9152 06be
00000160: c589 c3bd 66c2 a83c 03a7 0e3c a289 6bbd
00000170: 8511 7d3d c28e 973d e978 02be b2ff cabd
00000180: 9ce4 333e c85b d2bb a19d cebb 1bbe bcbd
00000190: fdef 19bd 1681 a43d 8d19 df3c 16cc 64bd
000001a0: 6533 4c3d 89c7 58bd 66fa 9bbd b44b febc
000001b0: 6d4b 9fbd 181e 38bd 5f5d 443e 59ca 9b3d
000001c0: ca7d e93c 2ded 19be c4be dcbd 8db5 71bd
000001d0: efb4 e23b 3fa3 10be 6d8e 96bd 83e6 c4bd
000001e0: 17be 6cbc 4c4d 8abd 0e01 bbbc 9c98 e0bd
000001f0: 2884 e5bd 7bbf c8bd de7f 80bd 4fb6 01be
00000200: c4ad 0e3e 6b8b 24bc ea37 133e c218 863d
00000210: 6b3e d3bd 2280 f53d ea4d 98bc 6467 07bd
00000220: 1999 ccbd d664 fbbd d45c 7e3d 51b0 1ebc
00000230: 3e60 9e3d 7c20 c8bd 8516 033e 0e30 adbd
00000240: f371 47bb e037 4c3d 6927 c73d 17ee 103e
00000250: 742a 1c3e b513 c0bd c16f 743d 85dd 17bd
00000260: 49ea b53b 2d4b b1bd 5597 1e3e d56f a6bd
00000270: 9cbd d03d 57ad 983d 9601 933d 7dec 53bd
00000280: f268 b53d 2292 49bc e0e5 c0bc be66 2cbe
00000290: 4b81 883c 55e3 85bd 216c debd 8d7a a73d
000002a0: 5255 45bc d771 fcbd e91f edbd 9953 4cbd
000002b0: e8c2 1e3d 816d a1bd 38c1 fdbd 62e9 b8bd
000002c0: 2241 c1bd d7cf 803d bb3d fb3d 4558 00be
000002d0: 2030 3c3d cd2b b23d b6d0 193d aa5a 26bd
000002e0: 70f3 b43d 6b94 b73d 9599 863d f616 68bc
000002f0: 4b49 bfbc 61a2 f73c 0e96 50bc 9009 fabc
00000300: 16bf df3d 17bf 0c3e 1a76 1aba 0888 92bc
00000310: bb9c c53c 6a2a 343c 8f4c 603d 064b 763d
00000320: 2862 d2bd 192c ddbc 7502 183e 6122 a83d
00000330: fd7c c73c 1741 69bd ede9 69bd c133 c9bd
00000340: 9590 bcbd c998 51ba a581 323d 1c5f 913c
00000350: b7a1 30be 2c1d 08be 1528 8ebd c453 c03d
00000360: 5121 8cbc 4834 a0bd d9cb 973c e67b c3bd
00000370: 7afa 03be f1d6 893d 21d7 d2bd 9f64 84bd
00000380: 80a6 09be b3f3 d43d 1188 ec3d 7172 6a3d
00000390: 7c34 b5bd d629 05be 5002 d8bd d797 ee3d
000003a0: 0e17 af3d 45f6 0d3e 64c5 bd3d c380 513d
000003b0: 5965 893c 42cf babd 7b31 d5bd dfb1 efbd
000003c0: 3f94 173d 3227 b6bd 7f84 42bd 3ad3 d5bd
000003d0: eb3d 45bd 0bba f6bd 6962 e8bd 0dda d93c
000003e0: af3c 84bd 5d6d 8d3d 0c2a 87bd 6b14 01be
000003f0: 088a 4fbd c4b2 bdbd 4d3e 89bd b37e 24be

patch_to_token.bias f4 [16]
-0.07614734 0.15295339 0.080614366 0.08538762 -0.07789034 -0.0626231 -0.019476587 -0.029440392
-0.14921169 0.04529711 0.011688151 -0.08526421 0.04181588 -0.13230368 0.044173922 0.036323514
00000000: 23f3 9bbd d09f 1c3e 2519 a53d b4df ae3d
00000010: f884 9fbd 8a40 80bd 5d8d 9fbc fa2c f1bc
00000020: f3ca 18be 7689 393d a97f 3f3c 019f aebd
00000030: 2147 2b3d 9e7a 07be b7ef 343d f7c7 143d

transformer_blocks.0.norm1.weight f4 [16]
0.98253405 1.0573103 1.0146524 1.0415796 1.0191737 1.0620568 1.0127422 1.0401472
0.9941063 1.0549109 1.0623851 0.9735033 1.0837559 0.9529385 1.060194 1.0090137
00000000: 5a87 7b3f f255 873f 21e0 813f 7b52 853f
00000010: 4974 823f 7af1 873f 89a1 813f 8b23 853f
00000020: c07d 7e3f 5207 873f 3cfc 873f 8337 793f
00000030: 83b8 8a3f c7f3 733f 70b4 873f 5c27 813f

transformer_blocks.0.norm1.bias f4 [16]
-0.016980065 0.0011896992 0.0044216104 0.0024338528 -0.021510983 -0.00045120937 0.010232369 -0.011724241
-0.016557295 -0.009601422 -0.015271538 -0.043460235 0.006690492 -0.04446392 0.007340476 0.009713869
00000000: c719 8bbc aeef 9b3a 28e3 903b 4681 1f3b
00000010: cd37 b0bc 4c90 ecb9 aba5 273c 0817 40bc
00000020: 2aa3 87bc 484f 1dbc 7935 7abc 5c03 32bd
00000030: ea3b db3b cd1f 36bd 6088 f03b eb26 1f3c

transformer_blocks.0.multi_head_attention.Q_mappers.0.weight f4 [8, 8]
-0.09059984 0.114397705 -0.33610034 0.19948725 -0.11627501 -0.25455984 0.042055078 0.17658
0.2847419 -0.1825988 -0.18799803 0.0642999 0.0843571 0.15443902 0.18423681 -0.07151714
0.17269503 0.2837565 -0.11472208 0.25204837 0.16075005 0.3293307 -0.21475543 -0.16437866
-0.104605414 0.08834183 0.21982464 -0.18317202 0.1665091 -0.12014326 0.20959602 -0.003260131
-0.28040975 -0.26745698 -0.23784348 0.16271651 -0.22118498 -0.07472358 0.08798596 -0.21651308
0.13600823 -0.36823177 -0.23903455 -0.31171164 -0.09583187 -0.17413372 0.051313676 -0.09000353
0.10948236 0.31658724 0.10810553 -0.11224263 -0.36820942 0.17866844 -0.20005687 0.21649888
0.25273892 0.21483488 0.35313863 0.3412992 0.08876854 -0.26341987 0.32811737 -0.16727021
00000000: 698c b9bd 5849 ea3d 5815 acbe 6346 4c3e
00000010: 9821 eebd ab55 82be f241 2c3d 63d1 343e
00000020: b1c9 913e 2efb 3abe 8e82 40be aaaf 833d
00000030: 6ac3 ac3d 4325 1e3e 93a8 3c3e 9477 92bd
00000040: f7d6 303e 8848 913e 69f3 eabd 7c0c 813e
00000050: a99b 243e 099e a83e d9e8 5bbe e152 28be
00000060: 5d3b d6bd 90ec b43d b619 613e 7291 3bbe
00000070: 5d81 2a3e ab0d f6bd 57a0 563e eca7 55bb
00000080: de91 8fbe 1ff0 88be 3e8d 73be 289f 263e
00000090: 517e 62be ad08 99bd fc31 b43d 9bb5 5dbe
000000a0: be45 0b3e e088 bcbe 79c5 74be ab98 9fbe
000000b0: 8043 c4bd 1c50 32be 4a2e 523d c553 b8bd
000000c0: 4a38 e03d b917 a23e 6f66 dd3d 77df e5bd
000000d0: f285 bcbe dcf4 363e b5db 4cbe e2b1 5d3e
000000e0: ff66 813e adfd 5b3e 96ce b43e c5be ae3e
000000f0: 48cc b53d f8de 86be 00ff a73e e248 2bbe

transformer_blocks.0.multi_head_attention.Q_mappers.0.bias f4 [8]
-0.14904864 0.3145243 0.29688317 0.101410456 0.010763947 -0.31519777 -0.0018942531 0.30990723
00000000: 35a0 18be 5409 a13e 1201 983e 49b0 cf3d
00000010: 445b 303c 9a61 a1be 9648 f8ba 29ac 9e3e

transformer_blocks.0.multi_head_attention.Q_mappers.1.weight f4 [8, 8]
0.0752584 0.012282335 -0.045721922 -0.20431231 0.2455601 -0.024690686 0.2621381 -0.104418084
0.18826146 0.12091558 0.06812844 0.19135073 0.27036858 0.29643816 0.3309231 -0.14003375
-0.32286578 0.073874846 -0.056416817 0.0039636972 -0.14517978 0.10845296 0.1774086 0.19883814
-0.16539714 -0.14399524 -0.07147576 -0.16490409 0.3169914 0.17655544 0.31826046 -0.0045759818
0.07060724 0.11193084 -0.405242 0.113001145 -0.09584053 -0.10888936 -0.3288624 0.38737756
0.3030853 0.14552455 0.27987987 -0.0749344 -0.11299674 0.17962126 -0.09304739 -0.02432404
-0.31984264 0.08737476 -0.17169017 -0.020993354 0.35814422 -0.13036558 -0.10181683 0.19657
-0.14587869 0.007273 0.38431215 -0.21338905 -0.20615917 -0.25638655 -0.07217751 -0.20911984
00000000: 1321 9a3d d93b 493c e946 3bbd 3f37 51be
00000010: 1b74 7b3e 1f44 cabc f736 863e 26d9 d5bd
00000020: 9dc7 403e 96a2 f73d ec86 8b3d 72f1 433e
00000030: c06d 8a3e bec6 973e c16e a93e 0265 0fbe
00000040: aa4e a5be b24b 973d 5215 67bd e7e1 813b
00000050: 02aa 14be 961c de3d 9aaa 353e 3a9c 4b3e
00000060: de5d 29be 7d73 13be e261 92bd 9edc 28be
00000070: b24c a23e f3ca 343e 09f3 a23e 1ef2 95bb
00000080: 879a 903d ff3b e53d e17b cfbe 256d e73d
00000090: 0a48 c4bd 6301 dfbd a760 a8be 5a56 c63e
000000a0: ff2d 9b3e 6304 153e 6a4c 8f3e 3577 99bd
000000b0: d66a e7bd a3ee 373e a18f bebd 3643 c7bc
000000c0: 6ac2 a3be 8af1 b23d 8ccf 2fbe 41fa abbc
000000d0: ae5e b73e 8e7e 05be 5885 d0bd a549 493e
000000e0: 3961 15be 5952 ee3b 90c4 c43e a982 5abe
000000f0: 641b 53be 1945 83be cdd1 93bd 8323 56be

transformer_blocks.0.multi_head_attention.Q_mappers.1.bias f4 [8]
-0.23024665 0.098261 0.1511849 -0.12106395 -0.18676558 -0.06669943 -0.16564216 -0.16030401
00000000: c7c5 6bbe 103d c93d 37d0 1a3e 60f0 f7bd
00000010: 7a3f 3fbe b699 88bd 199e 29be bc26 24be

transformer_blocks.0.multi_head_attention.K_mappers.0.weight f4 [8, 8]
-0.30557677 0.06253567 -0.282853 -0.24179673 -0.25376818 0.098084114 -0.17900331 -0.13433805
0.25231978 0.21046075 0.22766146 -0.32961667 -0.2596284 -0.1239102 0.24715866 0.07408226
-0.26569447 0.010796211 -0.2792759 -0.085773535 -0.084882215 0.31124553 0.14252739 -0.097382285
0.061234385 -0.102727994 0.13865359 0.14217214 0.07358613 -0.13193867 0.27240267 -0.027705677
-0.16268407 0.22882554 0.29863554 0.33022273 0.09608969 -0.092909604 0.2036731 0.28480744
-0.3461773 -0.044969723 -0.23962992 0.07572014 0.14008717 -0.08469235 -0.06390104 0.19782066
-0.05158761 -0.2969382 0.27504727 -0.1888353 -0.013335254 0.034942504 0.014449298 -0.3759338
0.16070376 -0.17457251 -0.18593614 0.10438303 -0.18838367 -0.18218978 -0.1479384 -0.07395269
00000000: 8f74 9cbe b412 803d 1cd2 90be 9099 77be
00000010: e7ed 81be 53e0 c83d a54c 37be ea8f 09be
00000020: 0f30 813e 0683 573e 1620 693e 84c3 a8be
00000030: 03ee 84be a2c4 fdbd 2917 7d3e 71b8 973d
00000040: 1b09 88be 97e2 303c 40fd 8ebe 09aa afbd
00000050: bad6 adbd 935b 9f3e b3f2 113e 5d70 c7bd
00000060: e8d0 7a3d 0e63 d2bd 35fb 0d3e 9395 113e
00000070: 53b4 963d ee1a 07be 5d78 8b3e 04f7 e2bc
00000080: a796 26be 3e51 6a3e c2e6 983e f412 a93e
00000090: acca c43d 6447 bebd ae8f 503e 48d2 913e
000000a0: 273e b1be 2c32 38bd 8c61 75be 2913 9b3d
000000b0: 0373 0f3e 2f73 adbd 8cde 82bd 8091 4a3e
000000c0: 884d 53bd 4908 98be ffd2 8c3e 0a5e 41be
000000d0: 1c7c 5abc df1f 0f3d c0bc 6c3c 657a c0be
000000e0: 878f 243e 23c3 32be 0b66 3ebe c5c6 d53d
000000f0: a6e7 40be f58f 3abe 2a7d 17be 8274 97bd

transformer_blocks.0.multi_head_attention.K_mappers.0.bias f4 [8]
-0.1475596 -0.095361315 0.09160445 -0.28616327 -0.21389215 0.0050063883 0.049048472 0.1950219
00000000: dd19 17be cb4c c3bd 1d9b bb3d fe83 92be
00000010: 8b06 5bbe a10c a43b 0de7 483d d2b3 473e

transformer_blocks.0.multi_head_attention.K_mappers.1.weight f4 [8, 8]
-0.27278167 0.17445941 0.24405202 0.108357295 -0.2503494 -0.05373047 -0.37092856 -0.28529793
0.2106006 -0.028563662 0.18138646 -0.28599516 0.124635294 -0.16171797 0.13370259 -0.1951358
-0.079949595 -0.37014 -0.047777623 0.43191853 0.09444611 -0.25933507 0.06906759 0.0268467
-0.30682933 0.33706385 0.047986913 -0.011670367 -0.063934214 -0.08672157 -0.007658784 0.07062616
0.09687135 -0.22811837 0.30201676 0.029784346 -0.29815242 -0.23914501 0.41135475 0.054009754
-0.05527439 -0.09510043 -0.08481872 -0.3258095 -0.22192629 0.20579387 0.26080117 0.32352793
-0.24669543 0.28215587 -0.17928894 0.1182829 0.34199935 0.33878726 0.16647428 0.14369036
-0.03708164 0.23311876 -0.08647036 0.06886445 -0.02687439 0.078625716 -0.39490122 -0.15688679
00000000: 0aaa 8bbe 7da5 323e c6e8 793e 6eea dd3d
00000010: cc2d 80be 7b14 5cbd 59ea bdbe 9212 92be
00000020: afa7 573e 57fe e9bc 5fbd 393e f56d 92be
00000030: ca40 ff3d 6599 25be 55e9 083e aed1 47be
00000040: 9dbc a3bd fd82 bdbe 78b2 43bd 6d24 dd3e
00000050: f66c c13d 91c7 84be 4f73 8d3d 9ced db3c
00000060: bc18 9dbe a293 ac3e ed8d 443d 1135 3fbc
00000070: f1ef 82bd 149b b1bd 89f6 fabb 73a4 903d
00000080: 7d64 c63d dd97 69be f1a1 9a3e 4dfe f33c
00000090: 6fa7 98be 6ee2 74be 179d d23e 5539 5d3d
000000a0: 6667 62bd 04c4 c2bd 70b5 adbd 81d0 a6be
000000b0: a540 63be a1bb 523e bb87 853e 74a5 a53e
000000c0: ba9d 7cbe bc76 903e 8597 37be 4e3e f23d
000000d0: 8a1a af3e 8675 ad3e 3c78 2a3e 9123 133e
000000e0: ebe2 17bd afb6 6e3e 5f17 b1bd ce08 8d3d
000000f0: ae27 dcbc 8506 a13d 7e30 cabe eea6 20be

transformer_blocks.0.multi_head_attention.K_mappers.1.bias f4 [8]
-0.1857832 -0.119341716 -0.2259313 -0.31785256 0.022922136 0.22945 0.3219806 0.20639206
00000000: f43d 3ebe 6e69 f4bd 895a 67be 92bd a2be
00000010: 34c7 bb3c f1f4 6a3e a4da a43e 7158 533e

transformer_blocks.0.multi_head_attention.V_mappers.0.weight f4 [8, 8]
-0.20575605 -0.40357903 0.086553775 0.17920172 -0.35825452 0.07629911 0.25100282 -0.03080262
-0.18114023 0.23364308 0.15268087 0.28276718 -0.22930744 0.13851047 -0.30689472 0.38572007
-0.12421642 0.15123667 0.065558046 0.13492589 -0.047538664 0.07245554 -0.20988432 -0.30528837
-0.14859791 0.3433813 -0.11072284 0.08803655 -0.12031145 0.33250543 0.2851651 0.11476751
-0.15886801 -0.33712235 0.02800891 -0.17609297 0.29483294 -0.3927076 0.094937444 0.37167835
0.22496475 0.108960606 -0.30347663 0.37860847 -0.013922924 -0.3443218 0.32125646 -0.09428467
-0.0698282 0.37286487 -0.26892498 -0.30059597 0.032363508 0.012155116 0.14809528 -0.33460388
0.010952203 -0.116638415 -0.17054334 -0.3187894 0.21887015 0.10445168 -0.249023 0.31579095
00000000: b7b1 52be e9a1 cebe 1b43 b13d a880 373e
00000010: 236d b7be b542 9c3d 7183 803e c755 fcbc
00000020: d37c 39be 2240 6f3e 6058 1c3e dcc6 903e
00000030: 92cf 6abe b0d5 0d3e 4e21 9dbe 1a7d c53e
00000040: 2e65 febd c9dd 1a3e 4c43 863d 032a 0a3e
00000050: e7b7 42bd 9263 943d eaeb 56be c24e 9cbe
00000060: 0d2a 18be accf af3e a8c2 e2bd 824c b43d
00000070: d965 f6bd 273e aa3e 2901 923e 3a0b eb3d
00000080: 4cae 22be 4d9b acbe f172 e53c b751 34be
00000090: 58f4 963e f810 c9be 906e c23d a04c be3e
000000a0: 295d 663e bd26 df3d 4a61 9bbe f8d8 c13e
000000b0: fa1c 64bc f24a b0be ba7b a43e 5218 c1bd
000000c0: 1602 8fbd 25e8 be3e 89b0 89be b7e7 99be
000000d0: 998f 043d 4026 473c 4aa6 173e 3351 abbe
000000e0: de70 333c 1fe0 eebd eaa2 2ebe 5d38 a3be
000000f0: 7f1f 603e c3ea d53d e3ff 7ebe 5aaf a13e

transformer_blocks.0.multi_head_attention.V_mappers.0.bias f4 [8]
0.1643668 0.06897207 -0.19727165 0.027967758 0.34719288 0.19548705 -0.26191396 0.28580225
00000000: c54f 283e 3b41 8d3d 9401 4abe a41c e53c
00000010: 44c3 b13e c22d 483e 9619 86be ac54 923e

transformer_blocks.0.multi_head_attention.V_mappers.1.weight f4 [8, 8]
0.016858025 0.17367932 0.20459116 0.28495914 -0.35244668 0.2850061 -0.18638949 0.005405628
-0.23467578 -0.07889642 0.03308327 -0.031051897 -0.0024350951 0.037873793 0.3044739 0.22379766
0.18144196 0.17595819 0.33720452 -0.036992528 0.110884264 0.06294652 -0.35948592 -0.29866767
0.009932433 -0.091611914 0.024223842 -0.12456373 0.11473721 0.1854181 -0.12362399 0.24073152
0.32839847 -0.3280724 -0.30577406 -0.233199 -0.2677258 -0.083141655 -0.008922657 -0.032626864
-0.19702668 -0.095475584 -0.10957773 0.3309414 -0.10886617 -0.28364134 0.16161461 -0.03828672
0.25133273 0.25423723 0.3881541 -0.28379908 0.305979 0.28249526 -0.2205594 0.3058308
0.26769695 -0.020709535 0.10552201 -0.119600356 -0.38533002 0.08241785 0.15864547 -0.23527235
00000000: d719 8a3c fed8 313e 5880 513e 2ae6 913e
00000010: e473 b4be 52ec 913e e3dc 3ebe b221 b13b
00000020: d94e 70be 7294 a1bd 5382 073d 8c60 febc
00000030: 1e96 1fbb 8d21 1b3d 01e4 9b3e 372b 653e
00000040: eccb 393e 622e 343e 12a6 ac3e 7a85 17bd
00000050: 4a17 e33d 1bea 803d 8a0e b8be f8ea 98be
00000060: a5bb 223c 079f bbbd 1471 c63c 451b ffbd
00000070: 58fb ea3d 3ede 3d3e 932e fdbd 5382 763e
00000080: d823 a83e 1bf9 a7be 6b8e 9cbe b8cb 6ebe
00000090: 5b13 89be 2c46 aabd 5630 12bc bfa3 05bd
000000a0: 5dc1 49be b488 c3bd 4a6a e0bd 2771 a93e
000000b0: 3af5 debd 7039 91be 4d7e 253e 89d2 1cbd
000000c0: afae 803e 622b 823e 22bc c63e 1d4e 91be
000000d0: 48a9 9c3e 38a3 903e 53da 61be db95 9c3e
000000e0: 930f 893e 0ba7 a9bc ec1b d83d 08f1 f4bd
000000f0: fa49 c5be b1ca a83d f573 223e 3ceb 70be

transformer_blocks.0.multi_head_attention.V_mappers.1.bias f4 [8]
0.13687558 -0.27154085 0.30695397 0.30598927 0.14195499 -0.23713638 0.16817214 0.042027753
00000000: 1d29 0c3e 6707 8bbe 1229 9d3e a0aa 9c3e
00000010: a65c 113e e1d3 72be 5135 2c3e 4b25 2c3d

transformer_blocks.0.norm2.weight f4 [16]
1.0222622 1.0189532 1.0196487 0.9928027 1.0335655 1.0188862 1.0369786 1.0011935
1.0307703 0.9578102 1.0974958 1.0202053 1.0437449 1.0667096 1.0416986 1.0235578
00000000: 7dd9 823f 0f6d 823f d983 823f 5128 7e3f
00000010: e04b 843f dd6a 823f b7bb 843f 1c27 803f
00000020: 48f0 833f 0d33 753f be7a 8c3f 1696 823f
00000030: 6f99 853f f189 883f 6156 853f f103 833f

transformer_blocks.0.norm2.bias f4 [16]
0.053611357 -0.006952229 -0.02257288 -0.040315114 -0.012194586 -0.0068092016 0.0035241896 -0.0057476405
0.017441304 0.04154156 -0.00399766 0.030030284 -0.027642384 -0.0009684188 0.015835881 0.0021511917
00000000: 9597 5b3d 86cf e3bb c3ea b8bc 7621 25bd
00000010: cdcb 47bc b91f dfbb 17f6 663b b456 bcbb
00000020: 11e1 8e3c 7c27 2a3d cdfe 82bb 1202 f63c
00000030: 4872 e2bc 7cdd 7dba 40ba 813c 02fb 0c3b

transformer_blocks.0.mlp.0.weight f4 [64, 16]
0.04174462 0.10930232 0.220692 -0.16135956 -0.055050004 0.08257113 -0.0029802101 0.22181049
-0.117552355 -0.03479722 0.12157395 -0.04674965 0.15052399 -0.019677144 -0.17487636 -0.023229025
-0.12209232 0.023468345 -0.041215032 -0.28371283 -0.030846313 -0.005250558 -0.10536843 0.2415935
-0.064833686 0.15903912 0.12596461 -0.21115933 0.042184807 0.16919799 -0.11479072 -0.16681954
0.2030402 0.12962627 -0.20503072 0.18190026 -0.07039818 -0.20214304 -0.007758723 0.11177391
-0.009048551 0.043929935 -0.29898694 0.22962296 0.16884044 0.21525772 -0.025827546 0.139544
-0.21108536 -0.012353602 -0.053448554 -0.15186065 -0.18970034 0.19546357 0.1460858 -0.20161973
0.07341804 0.06352543 0.27938947 0.1674549 0.19145246 -0.11116069 0.2075551 0.21908028
-0.29156184 -0.25757214 -0.030674143 0.20845738 -0.19563578 0.088612355 -0.07471432 0.13068147
-0.055519212 0.085613556 0.11638803 -0.09386639 -0.065434314 -0.0077699777 0.00077007373 0.30984545
0.038938276 -0.00044405012 0.19912493 -0.109885275 -0.06017336 0.040395685 -0.18046045 0.033419516
-0.16497003 -0.009532914 0.057019632 0.05542528 -0.25370905 -0.25232977 0.15854993 0.21977223
-0.23368129 0.1202962 -0.1786752 -0.0018256989 0.23206297 0.20970854 -0.2052358 0.17207758
0.11907838 -0.0030136511 0.313178 -0.09909179 -0.07428834 -0.18643317 0.071712136 0.06354651
0.018840427 -0.13176209 -0.10196275 0.12053433 -0.23679617 -0.041580454 0.026043504 -0.11735971
0.09960905 0.014871923 0.106789604 -0.025429813 -0.1537243 0.2331376 -0.020951476 -0.05961644
-0.14762639 0.058889404 -0.23156811 0.09895357 0.11536545 -0.23077957 -0.121688075 -0.20685448
0.20584929 0.22528878 -0.06548611 0.21978222 -0.06684619 -0.17345595 0.026567604 0.08850464
0.19610947 -0.0028049322 0.1473129 0.15747748 0.13309404 -0.19604631 0.2566949 -0.21469869
0.24986531 -0.03533856 -0.30583003 0.09383685 -0.11617934 -0.16138923 -0.11530793 0.07556482
0.18816431 -0.10714651 0.1519373 0.07779252 -0.029579226 0.056727078 -0.16308258 -0.19551586
-0.0716213 -0.20917284 -0.20361273 0.0018940747 -0.15853287 -0.057765484 -0.114263445 -0.006914842
-0.10725374 -0.018463826 -0.032769475 0.08588843 0.019782107 -0.12298739 -0.07452923 -0.013047845
-0.17149593 0.053247727 -0.014743221 0.063039646 0.10189636 0.21322948 -0.030250033 -0.21601745
0.069551885 -0.2088403 -0.08225435 -0.010629747 -0.15333089 -0.05296267 0.20121133 0.18438496
0.1273753 0.18764362 -0.3186669 0.09140939 0.11577619 0.23690464 -0.28143218 0.14926283
-0.18789874 -0.0142378835 -0.0899432 -0.20521504 -0.2761921 -0.11842357 0.122565076 0.13662413
-0.1932686 -0.13510956 -0.057724454 -0.18316343 0.087577075 0.27641523 0.03886559 -0.12986751
0.07345925 0.06325379 0.19307014 -0.0777287 -0.21379757 0.108247444 0.042291235 -0.097364455
-0.11833305 -0.10834209 0.14712836 -0.064682 0.19665682 0.27063325 -0.034939315 0.042690214
-0.06506832 0.15328206 -0.23839487 0.13542323 -0.0827713 0.15454596 0.023029402 -0.074306436
0.008759584 0.09817546 -0.26097935 -0.13229187 -0.08571662 -0.010687009 0.034112535 0.20617676
00000000: 68fc 2a3d e5d9 df3d 15fd 613e 713b 25be
00000010: 1d7c 61bd 0d1b a93d a14f 43bb 4a22 633e
00000020: 4abf f0bd 8887 0ebd c3fb f83d 907c 3fbd
00000030: f622 1a3e f631 a1bc ca12 33be cc4a bebc
00000040: 8a0b fabd b040 c03c 18d1 28bd cf42 91be
00000050: 68b1 fcbc df0c acbb 67cb d7bd 4964 773e
00000060: 86c7 84bd 27db 223e defc 003e 273a 58be
00000070: fac9 2c3d 3d42 2d3e 6617 ebbd bed2 2abe
00000080: c5e9 4f3e c0bc 043e 93f3 51be 1044 3a3e
00000090: ec2c 90bd 96fe 4ebe e33c febb b8e9 e43d
000000a0: 6040 14bc e0ef 333d d114 99be 4822 6b3e
000000b0: 82e4 2c3e 856c 5c3e 4a94 d3bc 9fe4 0e3e
000000c0: c326 58be c366 4abc dfec 5abd 5c81 1bbe
000000d0: ce40 42be 9a27 483e 8497 153e 6775 4ebe
000000e0: 335c 963d 9f19 823d 230c 8f3e 4c79 2b3e
000000f0: 1d0c 443e 37a8 e3bd 5389 543e 9556 603e
00000100: 9847 95be 7fe0 83be 5748 fbbc da75 553e
00000110: bf54 48be 657a b53d d203 99bd 5dd1 053e
00000120: 1d68 63bd 2956 af3d d95c ee3d 063d c0bd
00000130: 6d02 86bd 4c9b febb c6de 493a 10a4 9e3e
00000140: be7d 1f3d 66cf e8b9 68e7 4b3e 880b e1bd
00000150: 5778 76bd f275 253d a0ca 38be e7e2 083d
00000160: e7ed 28be f02f 1cbc 6b8d 693d 9e05 633d
00000170: 27e6 81be 5e31 81be ea5a 223e f90b 613e
00000180: 264a 6fbe db5d f63d a2f6 36be 4a4c efba
00000190: eaa1 6d3e d6bd 563e 5529 52be 1b35 303e
000001a0: 5edf f33d ad80 45bb de58 a03e a3f0 cabd
000001b0: 7c24 98bd 56e8 3ebe d0dd 923d ac24 823d
000001c0: 3d57 9a3c a4ec 06be d9d1 d0bd b4da f63d
000001d0: b27a 72be 4450 2abd 3059 d53c 4a5a f0bd
000001e0: d4ff cb3d 5ea9 733c 82b4 da3d 2f52 d0bc
000001f0: e769 1dbe 9fbb 6e3e 6ea2 abbc 5e30 74bd
00000200: 5f2b 17be 0436 713d 3120 6dbe 2ba8 ca3d
00000210: b944 ec3d 7b51 6cbe 9937 f9bd a9d1 53be
00000220: 28ca 523e 1ab2 663e 951d 86bd 970e 613e
00000230: a8e6 88bd 709e 31be 4ea4 d93c ec41 b53d
00000240: ecd0 483e f4d2 37bb 31d9 163e c741 213e
00000250: ce49 083e 5dc0 48be 846d 833e f9d9 5bbe
00000260: b1dc 7f3e 2abf 10bd c195 9cbe 892d c03d
00000270: 6fef edbd 3843 25be 9026 ecbd bac1 9a3d
00000280: 25ae 403e a16f dbbd 7495 1b3e af51 9f3d
00000290: 2250 f2bc a75a 683d 1fff 26be 4f35 48be
000002a0: 30ae 92bd 6831 56be db7f 50be 9a42 f83a
000002b0: 7156 22be 809b 6cbd f402 eabd e695 e2bb
000002c0: d9a7 dbbd 7341 97bc 4939 06bd 46e6 af3d
000002d0: 160e a23c d0e0 fbbd c8a2 98bd a1c6 55bc
000002e0: a19c 2fbe 4a1a 5a3d 8d8d 71bc ee1a 813d
000002f0: 0aaf d03d d458 5a3e ebce f7bc ae33 5dbe
00000300: 3871 8e3d 3bda 55be f874 a8bd 6428 2ebc
00000310: c602 1dbe 62ef 58bd 580a 4e3e 69cf 3c3e
00000320: ac6e 023e a625 403e 4f28 a3be d934 bb3d
00000330: 111c ed3d 2197 723e e117 90be 5bd8 183e
00000340: 8768 40be 0346 69bc 2434 b8bd e423 52be
00000350: 0d69 8dbe 0f88 f2bd 6603 fb3d 32e7 0b3e
00000360: 34e8 45be 295a 0abe 7a70 6cbd 328f 3bbe
00000370: 9c5b b33d 4c86 8d3e 8631 1f3d fdfb 04be
00000380: ce71 963d 348b 813d 2eb4 453e 3a30 9fbd
00000390: c0ed 5abe d6b0 dd3d 9339 2d3d 0467 c7bd
000003a0: 9958 f2bd 75e2 ddbd d1a8 163e ff77 84bd
000003b0: 6860 493e 7190 8a3e 871c 0fbd efdb 2e3d
000003c0: 8a42 85bd f9f5 1c3e c91d 74be 63ac 0a3e
000003d0: 0084 a9bd 4c41 1e3e 28a8 bc3c f92d 98bd
000003e0: 5c84 0f3c 3710 c93d 169f 85be 8577 07be
000003f0: 328c afbd 9118 2fbc 96b9 0b3d 0020 533e

transformer_blocks.0.mlp.0.bias f4 [64]
-0.02340094 -0.092307 0.055328965 -0.17768398 -0.07378088 0.009091039 0.22711642 -0.08377282
0.10543248 -0.07638267 -0.06572978 -0.2626231 0.25567192 0.27288848 -0.024980726 0.18267117
0.2374661 0.12235065 0.16002579 -0.2377919 -0.19512227 -0.20866457 0.081907116 -0.19870494
-0.23427628 -0.06229113 -0.2054116 0.012459384 0.010289083 -0.11614485 0.17596707 -0.12185938
-0.085442655 0.21339478 0.24210277 -0.02804843 -0.169474 -0.079175435 0.03265391 0.14298658
0.14896737 -0.075741924 -0.22338757 -0.17641866 -0.08478092 0.013644175 -0.09281139 -0.18106146
0.012780282 -0.18516669 -0.16524087 -0.14820288 -0.0019251266 0.21992247 0.13228029 -0.026779644
0.07683383 0.13107522 0.033486076 -0.18188705 -0.15273291 -0.19639468 -0.029737217 -0.25051838
00000000: 54b3 bfbc 740b bdbd a0a0 623d caf2 35be
00000010: 6e1a 97bd 95f2 143c 3591 683e 1691 abbd
00000020: fcec d73d 846e 9cbd 569d 86bd 8976 86be
00000030: 6ee7 823e 0ab8 8b3e 61a4 ccbc 270e 3b3e
00000040: 502a 733e fa92 fa3d cddd 233e b87f 73be
00000050: 22ce 47be 2aac 55be ebbe a73d 4f79 4bbe
00000060: 1fe6 6fbe fc24 7fbd 6b57 52be 7222 4c3c
00000070: 8b93 283c 5add edbd b630 343e 6991 f9bd
00000080: 8ffc aebd 2984 5a3e cae9 773e d2c5 e5bc
00000090: 988a 2dbe bb26 a2bd 1bc0 053d 136b 123e
000000a0: e78a 183e 951e 9bbd b6bf 64be 18a7 34be
000000b0: 9ea1 adbd d18b 5f3c e613 bebd 2d68 39be
000000c0: 6364 513c 569c 3dbe e734 29be 7fc2 17be
000000d0: 8854 fcba 5b33 613e 7c74 073e fc60 dbbc
000000e0: 0e5b 9d3d 9538 063e b228 093d 9940 3abe
000000f0: 0466 1cbe b01b 49be 779b f3bc f243 80be

transformer_blocks.0.mlp.2.weight f4 [16, 64]
-0.047294054 -0.026283737 0.077473626 0.110010974 0.092324786 0.034686863 -0.0045518465 0.01828371
-0.06948649 -0.05974069 -0.055798307 -0.048446395 -0.17293619 0.026751911 0.088511914 -0.061501317
0.020028928 0.0027574222 -0.003228709 0.037389737 0.09235739 -0.02868081 -0.060268987 0.010146379
0.048244487 0.060233917 -0.022052562 0.0147467805 -0.10609586 -0.054950025 -0.071678095 -0.014368722
0.0073728105 0.12346252 0.029149039 0.00989499 0.097797334 0.063483804 0.026549928 0.013942195
-0.013165345 -0.13752773 -0.018598335 -0.013262954 0.12819757 0.106302366 0.037883926 0.09684582
-0.06803014 0.08104065 0.10124251 -0.024727056 -0.10078293 0.004941088 -0.033481713 0.04900845
-0.108694665 0.00093368435 0.002178037 -0.061001226 -0.04515475 -0.021662297 -0.11764703 -0.079206444
0.002653589 0.075635575 0.103128985 -0.07905376 0.016667549 -0.06545852 -0.07654453 -0.00041019713
-0.03746431 -0.11186327 -0.07662116 -0.06389293 0.04297424 0.07091355 -0.038280375 -0.12829736
-0.034395453 -0.019365096 0.011692983 0.05523245 0.11981408 -0.050147552 0.07129934 -0.08616385
-0.09084002 -0.016813636 -0.020007921 0.100130364 0.08792432 -0.10352465 -0.111195356 0.054245617
-0.11546501 0.08345812 0.0009993473 0.042969745 -0.14667638 -0.03454197 -0.017923318 0.08673403
0.16417912 0.17562628 0.04700939 -0.08079154 0.008190535 -0.070263736 0.058373902 -0.1613595
-0.05756196 0.08268581 -0.12120646 0.12129092 0.10337989 0.036806002 0.1721752 -0.019843183
0.0024630371 0.07911438 0.11183293 -0.14239416 -0.006338263 -0.0936461 0.015781462 0.11735398
-0.010858356 0.031672344 -0.060483374 0.12567466 0.057152763 0.035330858 -0.04906156 -0.088618055
0.104108825 0.08927524 0.024807082 -0.09813482 0.019693978 -0.011730642 0.10446904 0.08042192
0.04444484 -0.050716117 0.12939316 -0.047134433 0.09879374 -0.14157328 -0.035264324 -0.0636131
-0.052800618 0.068791404 -0.07953949 -0.06891755 0.03745632 0.052301407 -0.013979168 -0.13342631
-0.037054516 -0.03214873 0.12383251 -0.023508899 -0.04296264 -0.042068053 -0.05275178 0.04656049
0.11904338 0.020007715 -0.027284803 0.08009192 0.05220742 -0.08189024 -0.012193193 -0.06060098
0.08275075 0.055306144 0.06127469 -0.0043605003 0.12916282 -0.019098327 -0.023003617 0.016470173
-0.119298354 -0.06828465 -0.0677846 -0.063846566 -0.015007705 -0.043047134 -0.07885466 0.10793841
-0.013555134 0.03520661 0.11065128 -0.08629106 -0.03776879 0.035409953 0.080096155 -0.0028849905
0.11396594 -0.10625826 -0.07153482 0.12046026 0.03430639 0.12766875 0.026932139 -0.061965354
0.15521917 0.13919559 0.0057765264 -0.10659649 0.020489944 -0.012932865 0.070784755 -0.057083905
0.041922618 0.014225087 0.07002089 -0.10962271 0.19043532 0.06135538 -0.06437089 0.1381354
0.045002878 -0.06587099 -0.11730769 -0.028380476 -0.14280897 0.051640052 0.082835294 -0.00825242
0.15194926 -0.01090068 0.04055781 -0.09188399 -0.06686692 0.053571098 0.037236303 0.005547195
-0.044911865 0.08276266 0.08718352 0.042247366 -0.051471304 -0.008383966 0.02469032 0.08196371
-0.007876965 0.05016101 -0.041925043 0.07931929 -0.012514354 0.1073687 0.058354836 -0.069169015
00000000: 69b7 41bd fe50 d7bc 7eaa 9e3d 6f4d e13d
00000010: c714 bd3d d013 0e3d a827 95bb b8c7 953c
00000020: ef4e 8ebd a7b2 74bd c48c 64bd ba6f 46bd
00000030: 2f16 31be d326 db3c bc45 b53d cee8 7bbd
00000040: b513 a43c deb5 343b c098 53bb fb25 193d
00000050: df25 bd3d 05f4 eabc 9ddc 76bd ff3c 263c
00000060: 039c 453d d7b7 763d 93a7 b4bc 7b9c 713c
00000070: c948 d9bd 4713 61bd f7cb 92bd ca6a 6bbc
00000080: 9e97 f13b ebd9 fc3d f7c9 ee3c 991e 223c
00000090: f849 c83d cc03 823d 3c7f d93c ce6d 643c
000000a0: 76b3 57bc 12d4 0cbe 895b 98bc dc4c 59bc
000000b0: 3946 033e 0eb5 d93d 2d2c 1b3d 1a57 c63d
000000c0: 6353 8bbd a4f8 a53d 3c58 cf3d 6590 cabc
000000d0: 4867 cebd dae8 a13b 1f24 09bd 16bd 483d
000000e0: 4f9b debd 7fc2 743a 66bd 0e3b 6cdc 79bd
000000f0: 30f4 38bd 2175 b1bc edf0 f0bd fd36 a2bd
00000100: d6e7 2d3b d3e6 9a3d 4a35 d33d f0e6 a1bd
00000110: 628a 883c 1e0f 86bd 61c3 9cbd ba0f d7b9
00000120: 2d74 19bd 9218 e5bd 8eeb 9cbd 4cda 82bd
00000130: c205 303d 203b 913d e2cb 1cbd 6260 03be
00000140: 3fe2 0cbd 8da3 9ebc ed93 3f3c 6c3b 623d
00000150: 1661 f53d 8567 4dbd 6305 923d ac76 b0bd
00000160: 550a babd c0bc 89bc a7e7 a3bc 2611 cd3d
00000170: aa11 b43d bb04 d4bd 64ba e3bd a730 5e3d
00000180: eb78 ecbd 17ec aa3d 88fc 823a 0b01 303d
00000190: 5532 16be e17b 0dbd ecd3 92bc 9ca1 b13d
000001a0: 921e 283e 60d7 333e eb8c 403d 0976 a5bd
000001b0: 9831 063c 6fe6 8fbd 7919 6f3d 6d3b 25be
000001c0: 17c6 6bbd 2e57 a93d 183b f8bd 6067 f83d
000001d0: d6b8 d33d e4c1 163d b24e 303e 2c8e a2bc
000001e0: e86a 213b b806 a23d aa08 e53d c6cf 11be
000001f0: 34b1 cfbb 87c9 bfbd 2048 813c 4957 f03d
00000200: 3fe7 31bc dcba 013d 6abd 77bd dcb0 003e
00000210: 0419 6a3d 17b7 103d c6f4 48bd 627d b5bd
00000220: 0237 d53d f0d5 b63d 3938 cb3c e9fa c8bd
00000230: 4455 a13c e131 40bc ddf3 d53d 3fb4 a43d
00000240: cb0b 363d b4bb 4fbd a47f 043e 0910 41bd
00000250: 5f54 ca3d 96f8 10be 5371 10bd 9647 82bd
00000260: 7645 58bd 82e2 8c3d 9ae5 a2bd a524 8dbd
00000270: cc6b 193d 003a 563d e108 65bc e8a0 08be
00000280: 7ac6 17bd 63ae 03bd e69b fd3d bc95 c0bc
00000290: 98f9 2fbd 8d4f 2cbd 4012 58bd 36b6 3e3d
000002a0: 04cd f33d 38e7 a33c 6184 dfbc 3c07 a43d
000002b0: 73d7 553d 12b6 a7bd f5c5 47bc bc38 78bd
000002c0: 3a79 a93d b288 623d 2bfb 7a3d 87e2 8ebb
000002d0: 4243 043e 1874 9cbc 1572 bcbc 75ec 863c
000002e0: b252 f4bd d3d8 8bbd a7d2 8abd fdc1 82bd
000002f0: e1e2 75bc 3152 30bd 8d7e a1bd d00e dd3d
00000300: 5a16 5ebc ce34 103d 239d e23d 5eb9 b0bd
00000310: 72b3 1abd 070a 113d 7409 a43d 1c12 3dbb
00000320: fa66 e93d ee9d d9bd d980 92bd deb3 f63d
00000330: db84 0c3d 99bb 023e caa0 dc3c 62cf 7dbd
00000340: c6f1 1e3e 4a89 0e3e 0449 bd3b 434f dabd
00000350: 87da a73c 5ee4 53bc 99f7 903d d0d0 69bd
00000360: 0db7 2b3d 5710 693c 1d67 8f3d df81 e0bd
00000370: 7a01 433e c74f 7b3d e3d4 83bd 5e73 0d3e
00000380: f054 383d 5fe7 86bd 043f f0bd 2c7e e8bc
00000390: 843c 12be 8584 533d 8da5 a93d 2935 07bc
000003a0: 9698 1b3e c498 32bc f21f 263d ac2d bcbd
000003b0: 86f1 88bd 5e6d 5b3d 1885 183d 3fc5 b53b
000003c0: 81f5 37bd 787f a93d 468d b23d 930b 2d3d
000003d0: 93d3 52bd e75c 09bc 5b43 ca3c 97dc a73d
000003e0: 630e 01bc a275 4d3d 98b9 2bbd 2772 a23d
000003f0: 0109 4dbc 1fe4 db3d 7b05 6f3d 7ca8 8dbd

transformer_blocks.0.mlp.2.bias f4 [16]
-0.04936231 0.05807172 -0.04432789 -0.093414575 -0.05699944 -0.05629171 0.13316342 0.0022265331
-0.019657467 0.028777739 -0.078241535 0.059749257 0.0111622 -0.04420077 0.09216806 -0.084546104
00000000: 2230 4abd 9ddc 6d3d 2991 35bd 2450 bfbd
00000010: 3f78 69bd 2392 66bd fe5b 083e 07eb 113b
00000020: b208 a1bc 4bbf eb3c 193d a0bd a3bb 743d
00000030: a9e1 363c de0b 35bd 9cc2 bc3d 8226 adbd

transformer_blocks.1.norm1.weight f4 [16]
1.0107782 0.98087394 1.0403891 1.0149852 1.0495131 0.99442375 1.0322798 1.0301294
0.9648341 0.99090326 1.0831633 0.9943666 1.0347159 0.9955067 1.0912477 1.0587338
00000000: 2e61 813f 8e1a 7b3f 782b 853f 09eb 813f
00000010: 7256 863f 8e92 7e3f bf21 843f 48db 833f
00000020: 5eff 763f d6ab 7d3f 18a5 8a3f cf8e 7e3f
00000030: 9271 843f 87d9 7e3f 01ae 8b3f 9784 873f

transformer_blocks.1.norm1.bias f4 [16]
-0.026074272 0.01640548 -0.046638563 0.0044292836 -0.0029325143 0.022808822 0.0049687456 -0.010045783
-0.046549585 -0.0014576481 -0.0044697095 -0.007394488 -0.016192023 -0.05653637 -0.008007505 0.0027598967
00000000: b699 d5bc c964 863c 1408 3fbd 8623 913b
00000010: 6d2f 40bb 91d9 ba3c dcd0 a23b 1197 24bc
00000020: c7aa 3ebd 8e0e bfba a476 92bb 764d f2bb
00000030: 22a5 84bc ae92 67bd e931 03bc 62df 343b

transformer_blocks.1.multi_head_attention.Q_mappers.0.weight f4 [8, 8]
0.075890794 -0.32539207 0.16360739 0.1280416 -0.2738406 0.2185003 0.03254494 -0.18706645
0.3369614 0.14357862 0.14002612 -0.13768382 -0.18195856 -0.19922683 0.16328654 0.06760346
-0.20463404 0.30402967 0.2160785 -0.101730496 0.13514903 -0.13366905 0.15697129 0.30075908
-0.3384936 -0.21149994 -0.03258967 0.09328185 -0.3548843 -0.19139414 -0.011759524 -0.017720466
0.10734777 0.02327462 0.0906191 0.042387906 0.009481548 -0.011339216 0.1843062 0.22286662
-0.15815885 -0.20926121 0.16254601 -0.2175577 0.18393208 0.18225059 0.09866 -0.15739559
-0.026646014 -0.27861622 -0.33272767 0.36705178 -0.37486005 -0.27022827 -0.14756818 0.058721878
0.090134315 -0.13816495 -0.023297101 -0.11419908 0.35019448 0.2713991 0.114935726 -0.021283153
00000000: a26c 9b3d ca99 a6be b288 273e 561d 033e
00000010: d634 8cbe 8bbe 5f3e d84d 053d 598e 3fbe
00000020: 3486 ac3e 4606 133e 0263 0f3e fdfc 0cbe
00000030: 5853 3abe 1e02 4cbe 9634 273e af73 8a3d
00000040: 968b 51be c7a9 9b3e af43 5d3e 1458 d0bd
00000050: 8264 0a3e 8ae0 08be 15bd 203e 18fd 993e
00000060: 084f adbe 7193 58be bf7c 05bd 8e0a bf3d
00000070: 65b3 b5be d3fc 43be 05ab 40bc 832a 91bc
00000080: 26d9 db3d 6aaa be3c 8296 b93d f19e 2d3d
00000090: 7f58 1b3c 1ec8 39bc c4ba 3c3e 2637 643e
000000a0: 65f4 21be 9248 56be 7672 263e 72c7 5ebe
000000b0: b158 3c3e e69f 3a3e 410e ca3d 4f2c 21be
000000c0: be48 dabc c9a6 8ebe 485b aabe 36ee bb3e
000000d0: a8ed bfbe 5c5b 8abe 1d1c 17be 5a86 703d
000000e0: 5798 b83d 1d7b 0dbe 90d9 bebc 35e1 e9bd
000000f0: b14c b33e d3f4 8a3e 6c63 eb3d 025a aebc

transformer_blocks.1.multi_head_attention.Q_mappers.0.bias f4 [8]
0.2629493 -0.31146735 0.15926157 -0.17310564 0.26632634 -0.30641097 0.16604379 -0.3155026
00000000: 4aa1 863e a678 9fbe 7715 233e 9b42 31be
00000010: ed5b 883e e6e1 9cbe 6207 2a3e 8f89 a1be

transformer_blocks.1.multi_head_attention.Q_mappers.1.weight f4 [8, 8]
0.24327125 0.02294579 0.22476022 -0.19386625 0.16103445 -0.2982933 -0.25834435 0.21512581
-0.0652373 -0.27932632 -0.22715795 -0.11957733 0.111860245 0.3741402 0.3151278 -0.043256495
-0.22473569 -0.30560797 0.3907905 -0.24178647 -0.029056327 -0.22405924 -0.18875878 0.008124813
-0.12932792 0.026637813 0.07464313 0.02308856 -0.072419085 0.019550374 0.21073289 0.23768987
0.33399484 -0.26278597 -0.3874912 -0.040409938 -0.0370606 0.1433024 0.2542175 0.13294043
-0.21648431 -0.022336809 0.13823645 0.15676971 -0.27224624 -0.034216322 -0.42295042 -0.08979712
0.21117674 -0.1257234 0.3067408 -0.34370106 0.3588901 0.2384221 0.30428153 0.022859205
-0.016660199 -0.18863146 -0.10425221 -0.27249065 0.32084352 -0.07551412 0.09199596 -0.38738683
00000000: 191c 793e cff8 bb3c 8b27 663e e084 46be
00000010: 37e6 243e e6b9 98be b645 84be f149 5c3e
00000020: 229b 85bd dc03 8fbe 189c 68be f6e4 f4bd
00000030: fc16 e53d 4e8f bf3e 6e58 a13e b92d 31bd
00000040: 1d21 66be a678 9cbe b115 c83e df96 77be
00000050: 8907 eebc c96f 65be fb49 41be f01d 053c
00000060: 8a6e 04be 8b37 da3c 7fde 983d 3824 bd3c
00000070: 7550 94bd 1b28 a03c 5dca 573e f964 733e
00000080: 5f01 ab3e e28b 86be 3f65 c6be e484 25bd
00000090: dbcc 17bd ddbd 123e cc28 823e 8921 083e
000000a0: 10ae 5dbe affb b6bc db8d 0d3e 3d88 203e
000000b0: dc63 8bbe 6a26 0cbd f58c d8be 8de7 b7bd
000000c0: b73e 583e a3bd 00be 210d 9d3e 96f9 afbe
000000d0: 71c0 b73e ec24 743e caca 9b3e 3a43 bb3c
000000e0: f87a 88bc 9b28 41be 2f82 d5bd e583 8bbe
000000f0: 9a45 a43e 26a7 9abd 6168 bc3d 9157 c6be

transformer_blocks.1.multi_head_attention.Q_mappers.1.bias f4 [8]
0.17010748 -0.1538815 -0.33311787 0.03495055 -0.2993855 0.0030848624 -0.35273626 0.18023647
00000000: a830 2e3e 1d93 1dbe 6d8e aabe 4f28 0f3d
00000010: 0e49 99be 672b 4a3b d999 b4be e98f 383e

transformer_blocks.1.multi_head_attention.K_mappers.0.weight f4 [8, 8]
-0.2535782 0.023576941 0.1654412 -0.3400006 0.15693228 0.3465255 -0.16430369 -0.027145512
0.12512684 0.2586619 0.30217424 -0.30493486 -0.2962846 -0.3393601 -0.14610907 -0.039825972
-0.12139739 0.24107099 -0.2733234 -0.22121798 -0.2156983 -0.25310192 0.3073886 0.08485106
-0.015999233 -0.1378968 -0.3252136 -0.13922158 0.14496654 0.26594344 0.29155836 0.010948848
-0.16747808 -0.22454593 0.29553023 -0.34450296 0.0368305 0.015647732 0.36623454 0.16031878
-0.09129456 -0.3054052 0.07848982 -0.23497623 -0.01489099 0.061523225 0.15698038 -0.06885727
-0.23684013 -0.28613675 -0.3667543 0.03203594 -0.23788111 0.044464286 -0.15186132 -0.26881996
0.22670026 0.19737002 0.29336122 0.3410513 -0.2393569 -0.1991511 -0.27718145 0.2448551
00000000: 00d5 81be 6e24 c13c 6b69 293e 8f14 aebe
00000010: dbb2 203e ca6b b13e 3a3f 28be 4460 debc
00000020: 4021 003e 556f 843e 95b6 9a3e 6c20 9cbe
00000030: 9db2 97be 9bc0 adbe 9e9d 15be 8f20 23bd
00000040: 329f f8bd 50db 763e 0bf1 8bbe f786 62be
00000050: 04e0 5cbe 9396 81be 0a62 9d3e 64c6 ad3d
00000060: d310 83bc d234 0dbe 6682 a6be 1a90 0ebe
00000070: 1c72 143e bd29 883e 2347 953e cc62 333c
00000080: 607f 2bbe 5eef 65be bd4f 973e b162 b0be
00000090: 94db 163d ac2f 803c 1883 bb3e 9b2a 243e
000000a0: a4f8 babd 125e 9cbe 45bf a03d 9c9d 70be
000000b0: 57f9 73bc c7ff 7b3d 77bf 203e 0a05 8dbd
000000c0: 3886 72be 8480 92be 38c7 bbbe 1e38 033d
000000d0: 1b97 73be 2f20 363d 8981 1bbe c5a2 89be
000000e0: 1d24 683e 5e1b 4a3e 7133 963e 479e ae3e
000000f0: fa19 75be 44ee 4bbe baea 8dbe 4cbb 7a3e

transformer_blocks.1.multi_head_attention.K_mappers.0.bias f4 [8]
0.20842041 0.28662273 -0.24743237 -0.18962203 0.34464866 -0.2806616 -0.23549119 0.13020848
00000000: 296c 553e 37c0 923e e95e 7dbe 472c 42be
00000010: ca75 b03e e1b2 8fbe 9a24 71be 5f55 053e

transformer_blocks.1.multi_head_attention.K_mappers.1.weight f4 [8, 8]
-0.30831495 -0.06230384 0.078045614 0.30720162 -0.09566273 -0.3218323 0.13246103 0.4269092
-0.21684973 -0.028605513 -0.20744129 -0.23932533 0.18465441 0.24687424 0.18262026 -0.38731548
-0.05023449 0.13001296 0.018006269 -0.15968706 -0.12282933 0.40696862 -0.24363495 -0.3323433
0.208938 -0.24620707 0.22622918 -0.13816282 -0.08505663 -0.25126252 0.30861554 0.24659736
0.011532317 0.038524922 -0.13406117 -0.1746251 -0.14043449 0.13823132 -0.06777882 0.24437557
-0.003064391 0.00063575985 -0.24311876 0.20416817 -0.38836917 -0.011543535 0.117267944 0.095902264
0.29589328 0.07606382 -0.055608645 -0.3134606 -0.26295987 0.2641068 0.22508156 -0.32320085
0.14367658 -0.12291232 0.31805775 -0.1827143 0.34838894 0.33884206 0.20552363 0.2109323
00000000: 75db 9dbe 5032 7fbd 61d6 9f3d 8849 9d3e
00000010: d2ea c3bd 34c7 a4be dda3 073e d893 da3e
00000020: db0d 5ebe 1c56 eabc 7d6b 54be b311 75be
00000030: 0c16 3d3e 9acc 7c3e ce00 3b3e 374e c6be
00000040: aec2 4dbd 1e22 053e e281 933c 0185 23be
00000050: f28d fbbd 315e d03e 717b 79be e728 aabe
00000060: d8f3 553e b51d 7cbe 9fa8 673e 8e7a 0dbe
00000070: 2c32 aebd 7ba5 80be db02 9e3e 0584 7c3e
00000080: 0bf2 3c3c 4fcc 1d3d 5547 09be ecd0 32be
00000090: 0fce 0fbe 838c 0d3e 9fcf 8abd 973d 7a3e
000000a0: f3d3 48bb 1fa9 263a 20f4 78be 7611 513e
000000b0: 53d8 c6be 1821 3dbc 2d2a f03d 6868 c43d
000000c0: 537f 973e 59c7 9b3d e4c5 63bd e87d a0be
000000d0: ada2 86be 0239 873e c87b 663e 957a a5be
000000e0: f41f 133e 74b9 fbbd 77d8 a23e 7519 3bbe
000000f0: 0960 b23e b57c ad3e c974 523e a3fe 573e

transformer_blocks.1.multi_head_attention.K_mappers.1.bias f4 [8]
0.11022572 0.119966105 -0.30057603 -0.08072025 -0.040019557 0.1715849 -0.1368199 0.16219172
00000000: 06be e13d cab0 f53d 1ae5 99be a950 a5bd
00000010: 8ceb 23bd f4b3 2f3e 841a 0cbe 9615 263e

transformer_blocks.1.multi_head_attention.V_mappers.0.weight f4 [8, 8]
0.2453631 0.12204209 0.14932181 -0.057499386 0.21991578 -0.17796302 0.24662447 0.00090038625
-0.01583511 -0.27742088 0.34160525 -0.025203926 0.26271725 -0.2205545 -0.28558502 -0.047137756
-0.25758004 0.058672905 -0.011093161 -0.100908875 0.26704547 0.17185064 -0.38048995 -0.22450678
0.19890797 -0.20350076 0.08579951 -0.095202275 0.00262767 -0.12335313 0.08100079 -0.1575445
-0.14845195 -0.18449639 0.06572439 0.23055108 0.04567173 -0.06835941 0.21971232 0.31485927
-0.06972546 -0.26926425 0.10867105 0.087376446 -0.31959152 -0.26841566 0.0980492 0.3070067
-0.34547716 -0.17788771 -0.11820431 -0.3404589 -0.26987427 0.34335083 0.34923846 -0.31944752
0.009413416 -0.2600216 0.1753728 -0.22222665 -0.23382407 -0.098589115 0.12146277 0.2269456
00000000: 7740 7b3e 34f1 f93d d1e7 183e 7a84 6bbd
00000010: 9a31 613e f03b 36be 208b 7c3e e607 6c3a
00000020: a2b8 81bc 1c0a 8ebe e2e6 ae3e 7778 cebc
00000030: e082 863e 0ad9 61be 3338 92be 8513 41bd
00000040: 88e1 83be 0053 703d 17c0 35bc 50a9 cebd
00000050: 2fba 883e 9df9 2f3e 94cf c2be 1be5 65be
00000060: 88ae 4b3e 8162 50be a7b7 af3d 69f9 c2bd
00000070: fd34 2c3b 91a0 fcbd bee3 a53d 5853 21be
00000080: ca03 18be 9fec 3cbe 829a 863d 9515 6c3e
00000090: 4812 3b3d 0500 8cbd 44fc 603e 3c35 a13e
000000a0: 39cc 8ebd 01dd 89be ed8e de3d 6cf2 b23d
000000b0: 80a1 a3be c76d 89be 05ce c83d fb2f 9d3e
000000c0: 62e2 b0be 3228 36be 1a15 f2bd a150 aebe
000000d0: f62c 8abe aecb af3e 62cf b23e a08e a3be
000000e0: ba3a 1a3c 8d21 85be ed94 333e 628f 63be
000000f0: 946f 6fbe 17e9 c9bd 79c1 f83d 6d64 683e

transformer_blocks.1.multi_head_attention.V_mappers.0.bias f4 [8]
-0.12073814 0.038644716 0.27717018 -0.036945622 0.04701065 0.020443473 0.006173874 0.17952307
00000000: 8f45 f7bd ec49 1e3d 40e9 8d3e 4b54 17bd
00000010: 3d8e 403d 1279 a73c 354e ca3b e5d4 373e
