checkpoints/vit/epoch=10.checkpoint.pth.tar (torch, 61932 bytes, 46 tensors)

cls_token f4 [1, 16]
0	0x3e8a2733	0.26983032
1	0xbca0bc4c	-0.019621037
2	0x3f44db0a	0.7689673
3	0x3f1756b4	0.59116673
4	0x3e85cd9e	0.26133436
5	0x3f730b3e	0.9493903
6	0x3e9441da	0.2895649
7	0x3f4aff87	0.79296154
8	0x3f3e1f56	0.74266565
9	0x3dc6e36f	0.09711348
10	0x3f53a743	0.82677096
11	0x3c910777	0.017703755
12	0x3e783386	0.24238405
13	0x3ed2986d	0.41131917
14	0x3e257e55	0.16161473
15	0x3f6d046d	0.9258488

pos_embed f4 [257, 16]
0	0x00000000	0.0
1	0x3f800000	1.0
2	0x00000000	0.0
3	0x3f800000	1.0
4	0x00000000	0.0
5	0x3f800000	1.0
6	0x00000000	0.0
7	0x3f800000	1.0
8	0x00000000	0.0
9	0x3f800000	1.0
10	0x00000000	0.0
11	0x3f800000	1.0
12	0x00000000	0.0
13	0x3f800000	1.0
14	0x00000000	0.0
15	0x3f800000	1.0
16	0x3f576aa4	0.84147096
17	0x3f0a5140	0.5403023
18	0x3e9f393e	0.3109836
19	0x3f734e6a	0.95041525
20	0x3dcc7576	0.099833414
21	0x3f7eb898	0.9950042
22	0x3d01815c	0.031617507
23	0x3f7fdf3c	0.99950004
24	0x3c23d657	0.009999833
25	0x3f7ffcb9	0.99995
26	0x3b4f3e20	0.0031622723
27	0x3f7fffac	0.999995
28	0x3a83126d	0.0009999998
29	0x3f7ffff8	0.9999995
30	0x39a5cb5f	0.00031622776
31	0x3f7fffff	0.99999994
32	0x3f68c7b7	0.9092974
33	0xbed51133	-0.41614684
34	0x3f17541b	0.5911271
35	0x3f4e7bec	0.8065784
36	0x3e4b6ff9	0.19866933
37	0x3f7ae5a5	0.9800666
38	0x3d8170c8	0.063203394
39	0x3f7f7cf9	0.9980007
40	0x3ca3d43e	0.019998666
41	0x3f7ff2e5	0.9998
42	0x3bcf3ddd	0.0063245133
43	0x3f7ffeb0	0.99998
44	0x3b031269	0.0019999987
45	0x3f7fffde	0.999998
46	0x3a25cb5f	0.0006324555
47	0x3f7ffffd	0.9999998
48	0x3e1081c3	0.14112
49	0xbf7d7026	-0.9899925
50	0x3f5009c2	0.8126489
51	0x3f152f57	0.5827536
52	0x3e974e6d	0.29552022
53	0x3f7490ef	0.9553365
54	0x3dc1ffc1	0.09472609
55	0x3f7ed94f	0.99550337
56	0x3cf5b920	0.029995501
57	0x3f7fe283	0.99955004
58	0x3c1b6e11	0.009486691
59	0x3f7ffd0d	0.999955
60	0x3b449b93	0.0029999956
61	0x3f7fffb5	0.9999955
62	0x3a78b10d	0.0009486832
63	0x3f7ffff8	0.9999995
64	0xbf41bdcf	-0.7568025
65	0xbf275530	-0.6536436
66	0x3f741dde	0.95358074
67	0x3e9a2eb1	0.30113748
68	0x3ec761d7	0.38941833
69	0x3f6bcaa7	0.921061
70	0x3e012e88	0.12615407
71	0x3f7df469	0.99201065
72	0x3d23cbdb	0.039989334
73	0x3f7fcb94	0.9992001
74	0x3c4f3ccd	0.012648773
75	0x3f7ffac2	0.99992
76	0x3b831258	0.0039999895
77	0x3f7fff7a	0.999992
78	0x3aa5cb5c	0.0012649107
79	0x3f7ffff3	0.9999992
80	0xbf757c10	-0.9589243
81	0x3e913c2c	0.2836622
82	0x3f7ffc7f	0.99994653
83	0xbc2972d4	-0.010342319
84	0x3ef57744	0.47942555
85	0x3f60a940	0.87758255
86	0x3e213c1e	0.15745589
87	0x3f7cce81	0.987526
88	0x3d4cb6f5	0.04997917
89	0x3f7fae19	0.99875027
90	0x3c818581	0.01581073
91	0x3f7ff7cf	0.999875
92	0x3ba3d6de	0.0049999794
93	0x3f7fff2e	0.9999875
94	0x3acf3e31	0.0015811381
95	0x3f7fffeb	0.99999875
96	0xbe8f0f8c	-0.2794155
97	0x3f75cdb8	0.96017027
98	0x3f72784d	0.94714814
99	0xbea43f6f	-0.32079646
100	0x3f108c69	0.5646425
101	0x3f534932	0.8253356
102	0x3e41206f	0.18860029
103	0x3f7b67e3	0.98205394
104	0x3d759cd1	0.059964005
105	0x3f7f8a12	0.99820054
106	0x3c9b6c46	0.018972527
107	0x3f7ff434	0.99982
108	0x3bc49b59	0.005999964
109	0x3f7ffed2	0.999982
110	0x3af8b105	0.0018973654
111	0x3f7fffe2	0.9999982
112	0x3f283046	0.6569866
113	0x3f40ffbd	0.75390226
114	0x3f4ce86f	0.80042166
115	0xbf1974bb	-0.5994374
116	0x3f24eb73	0.64421767
117	0x3f43ccb3	0.7648422
118	0x3e60d350	0.2195561
119	0x3f79c0ea	0.9755999
120	0x3d8f3e32	0.06994285
121	0x3f7f5f81	0.997551
122	0x3cb552a6	0.022134136
123	0x3f7feff2	0.999755
124	0x3be55fc7	0.006999943
125	0x3f7ffe65	0.9999755
126	0x3b1111ec	0.0022135926
127	0x3f7fffd7	0.99999756
128	0x3f7d4695	0.98935825
129	0xbe14fdf6	-0.14550003
130	0x3f13067d	0.57431775
131	0xbf5191e6	-0.8186325
132	0x3f37a4a6	0.7173561
133	0x3f325b5f	0.6967067
134	0x3e802652	0.25029236
135	0x3f77da02	0.9681703
136	0x3da3aa51	0.0799147
137	0x3f7f2e66	0.99680173
138	0x3ccf388e	0.025295522
139	0x3f7feb08	0.99968004
140	0x3c031213	0.007999915
141	0x3f7ffde7	0.999968
142	0x3b25cb54	0.0025298195
143	0x3f7fffca	0.9999968
144	0x3ed30132	0.4121185
145	0xbf693fd5	-0.91113025
146	0x3e951fea	0.2912591
147	0xbf74e6a2	-0.9566442
148	0x3f48881d	0.7833269
149	0x3f1f21d5	0.62161
150	0x3e8fc22e	0.28077835
151	0x3f75b3a9	0.95977265
152	0x3db8123f	0.08987855
153	0x3f7ef6c2	0.9959527
154	0x3ce91def	0.028456656
155	0x3f7fe576	0.99959505
156	0x3c13743a	0.008999879
157	0x3f7ffd59	0.9999595
158	0x3b3a84bb	0.0028460461
159	0x3f7fffbc	0.99999595
160	0xbf0b44f8	-0.5440211
161	0xbf56cd64	-0.8390715
162	0xbca97082	-0.02068353
163	0xbf7ff1fb	-0.9997861
164	0x3f576aa4	0.84147096
165	0x3f0a5140	0.5403023
166	0x3e9f393e	0.3109836
167	0x3f734e6a	0.95041525
168	0x3dcc7576	0.099833414
169	0x3f7eb898	0.9950042
170	0x3d01815c	0.031617507
171	0x3f7fdf3c	0.99950004
172	0x3c23d657	0.009999833
173	0x3f7ffcb9	0.99995
174	0x3b4f3e20	0.0031622723
175	0x3f7fffac	0.999995
176	0xbf7fff5c	-0.9999902
177	0x3b910572	0.004425698
178	0xbea94121	-0.33057502
179	0xbf719b8c	-0.9437797
180	0x3f64262a	0.89120734
181	0x3ee83dc0	0.45359612
182	0x3eae878b	0.34087786
183	0x3f70aae4	0.9401076
184	0x3de0d372	0.1097783
185	0x3f7e73e8	0.9939561
186	0x3d0e736b	0.03477804
187	0x3f7fd85b	0.9993951
188	0x3c34386a	0.010999778
189	0x3f7ffc09	0.9999395
190	0x3b63f785	0.0034784984
191	0x3f7fff9a	0.9999939
192	0xbf095cd8	-0.53657293
193	0x3f5806d0	0.84385395
194	0xbf1b9126	-0.60768354
195	0xbf4b4f55	-0.79417926
196	0x3f6e9a1d	0.9320391
197	0x3eb986f5	0.36235777
198	0x3ebda92c	0.3704313
199	0x3f6dc9c3	0.9288599
200	0x3df52bac	0.119712204
201	0x3f7e28b5	0.99280864
202	0x3d1b651d	0.037938226
203	0x3f7fd0d2	0.9992801
204	0x3c449a71	0.011999712
205	0x3f7ffb48	0.999928
206	0x3b78b0e8	0.0037947241
207	0x3f7fff87	0.9999928
208	0x3ed72022	0.42016703
209	0x3f684e6f	0.9074468
210	0xbf53144c	-0.82452846
211	0xbf10d99d	-0.5658205
212	0x3f76abc0	0.9635582
213	0x3e88f59b	0.26749882
214	0x3ecc9a40	0.39961433
215	0x3f6aabc3	0.9166834
216	0x3e04bed0	0.12963414
217	0x3f7dd700	0.9915619
218	0x3d285669	0.041098032
219	0x3f7fc8a1	0.9991551
220	0x3c54fc6b	0.012999634
221	0x3f7ffa76	0.9999155
222	0x3b86b525	0.0041109496
223	0x3f7fff72	0.99999154
224	0x3f7d9872	0.9906074
225	0x3e0c04d7	0.13673721
226	0xbf75a8b2	-0.95960534
227	0xbe900d0f	-0.28134963
228	0x3f7c466f	0.98544973
229	0x3e2e0bde	0.16996714
230	0x3edb56f5	0.4283978
231	0x3f6751b1	0.90359026
232	0x3e0ee464	0.13954312
233	0x3f7d7ecc	0.990216
234	0x3d354746	0.044257425
235	0x3f7fbfc9	0.99902016
236	0x3c655e56	0.013999542
237	0x3f7ff994	0.999902
238	0x3b9111d4	0.004427174
239	0x3f7fff5c	0.9999902
240	0x3f267944	0.65028787
241	0xbf427ae8	-0.7596879
242	0xbf7fe075	-0.9995187
243	0x3cfe22f7	0.031022532
244	0x3f7f5bd5	0.997495
245	0x3d90deaa	0.0707372
246	0x3ee9db83	0.45675287
247	0x3f63bc68	0.8895936
248	0x3e19064f	0.14943813
249	0x3f7d201a	0.9887711
250	0x3d4237ad	0.047416378
251	0x3f7fb649	0.9988752
252	0x3c75c033	0.014999437
253	0x3f7ff8a1	0.9998875
254	0x3b9b6e83	0.0047433986
255	0x3f7fff43	0.99998873

patch_to_token.weight f4 [16, 48]
0	0x3d844ab5	0.06459562
1	0x3d9b5b63	0.0758579
2	0xbd9f59d5	-0.07780806
3	0x3db3eb4f	0.08785116
4	0xbd9d1e62	-0.07671811
5	0xbc6d5ce6	-0.014487481
6	0xbdeb47c2	-0.11488296
7	0x3d20bdee	0.03924363
8	0x3da6c391	0.0814277
9	0xbe1964c3	-0.14979844
10	0x3da5c25d	0.080937125
11	0xbc94da32	-0.01817045
12	0x3d739a02	0.059473045
13	0xbcd55b65	-0.026044557
14	0x3cbf58eb	0.02335783
15	0xbd87f377	-0.06638234
16	0x3df6cad1	0.12050403
17	0x3d053ff2	0.032531686
18	0xbd6748ae	-0.056465797
19	0x3d345cd0	0.044033825
20	0xbd617de0	-0.055051684
21	0xbb96979c	-0.00459571
22	0xbd452df2	-0.04813952
23	0x3dd19187	0.10232835
24	0xbddb2c86	-0.107018515
25	0xbd65ac70	-0.056072652
26	0xbcffa7c7	-0.031207932
27	0xbda1ca57	-0.078999214
28	0x3c8cc60c	0.01718428
29	0xbe0a933e	-0.13532731
30	0x3e0ba91c	0.13638729
31	0xbdf3805a	-0.118897155
32	0x3d8b90a8	0.068147
33	0xbc9d5fdb	-0.019210747
34	0xbdb8bf24	-0.09020832
35	0x3d3a6dac	0.045514748
36	0xbcacd8e8	-0.021099523
37	0x3d9504a1	0.072762735
38	0xbcef52d8	-0.029214308
39	0xbdba57ee	-0.090988025
40	0xbbc86b8b	-0.0061163357
41	0xbdab876e	-0.083754405
42	0x3c7dd678	0.015493028
43	0x3daaad77	0.08333867
44	0x3d17f16c	0.037095472
45	0xbddec1f7	-0.108768396
46	0x3d1875b5	0.03722163
47	0xbc9f5aa9	-0.01945241
48	0x3d3d221f	0.04617512
49	0xbde31c44	-0.110893756
50	0xbe2a5e05	-0.16637428
51	0xbda44d83	-0.08022597
52	0xbe0e731a	-0.13911095
53	0x3dbe1e6b	0.092831455
54	0x3c7ad8f2	0.015310513
55	0x3d06f0b5	0.0329444
56	0x3c819efa	0.015822876
57	0xbcf81d81	-0.030287506
58	0x3daf8499	0.08570213
59	0xbe04c721	-0.12966587
60	0xbcbf1ea6	-0.023330044
61	0xbe03b80d	-0.12863179
62	0x3c785fb8	0.01515954
63	0xbda23f55	-0.07922236
64	0x3db49025	0.08816556
65	0x3c740c32	0.014895486
66	0x3e27b8c8	0.16379082
67	0xbd2d5b94	-0.042323664
68	0xbd2d3139	-0.04228327
69	0xbd2e3e3d	-0.042539824
70	0x3e304ec8	0.17217553
71	0x3db7ff41	0.08984233
72	0x3e39f1c3	0.18158631
73	0xbd9e2ef9	-0.07723803
74	0xbdcfa55d	-0.101389624
75	0xbd91e17a	-0.07123084
76	0xbd65be37	-0.056089606
77	0x3dcb5098	0.099274814
78	0x3dbdd819	0.09269733
79	0x3e2482fb	0.1606559
80	0xbdc24e50	-0.09487593
81	0xbdf0a54c	-0.11750278
82	0x3d6c1837	0.05764028
83	0xbd9cf3c9	-0.07663686
84	0x3d851bc2	0.06499435
85	0xbd69d27d	-0.057085503
86	0x3d74e8e2	0.059792407
87	0xbe090d6f	-0.13384031
88	0xbdc8dd7a	-0.09807868
89	0x3c938350	0.01800695
90	0x3bc84d91	0.0061127623
91	0xbd75de42	-0.060026415
92	0x3d71ea13	0.05906112
93	0x3d921465	0.07132796
94	0xbe05329a	-0.13007584
95	0xbdd03d1d	-0.101679064
96	0x3e3510c6	0.1768218
97	0xbba7abf7	-0.0051169354
98	0xbbae841e	-0.005325808
99	0xbdbbbc4e	-0.09166776
100	0xbd16988d	-0.036766578
101	0x3da67f8c	0.081297964
102	0x3ce50852	0.027958069
103	0xbd63be78	-0.055601567
104	0x3d4ed130	0.050492465
105	0xbd557558	-0.05211386
106	0xbd9a57a4	-0.075362474
107	0xbcfa1ea4	-0.030532189
108	0xbd9df525	-0.07712773
109	0xbd3491d7	-0.044084396
110	0x3e454236	0.19263539
111	0x3d9d2190	0.07672417
112	0x3d01c8dd	0.0316857
113	0xbe1698ec	-0.14706773
114	0xbdd68fc7	-0.10476642
115	0xbd66a045	-0.05630519
116	0x3c2012fd	0.009770152
117	0xbe0da2bb	-0.13831608
118	0xbd911afc	-0.07085225
119	0xbdc0369c	-0.09385416
120	0xbc40720c	-0.011745941
121	0xbd849d70	-0.06475341
122	0xbca4d37b	-0.020120373
123	0xbddb73b9	-0.10715432
124	0xbddfd839	-0.10929913
125	0xbdc2d7b5	-0.09513799
126	0xbd7560f5	-0.05990692
127	0xbdfdc982	-0.1239195
128	0x3e1317f1	0.14364602
129	0xbbbc5c93	-0.0057483404
130	0x3e178e0c	0.1480028
131	0x3d8ea7ce	0.069656
132	0xbdcaf781	-0.09910489
133	0x3dfdcf1d	0.12393019
134	0xbc707f0c	-0.014678728
135	0xbcf00e02	-0.029303554
136	0xbdc48285	-0.09595207
137	0xbdf335ab	-0.11875471
138	0x3d8748e0	0.06605697
139	0xbbbda50b	-0.005787497
140	0x3da6b103	0.08139231
141	0xbdbfaa6d	-0.09358678
142	0x3e07485b	0.13211195
143	0xbda4ea93	-0.08052554
144	0xbb360424	-0.0027773464
145	0x3d4d6461	0.050144557
146	0x3dc68742	0.09693767
147	0x3e1042fe	0.14088055
148	0x3e1c7bad	0.15281554
149	0xbdbfde03	-0.09368517
150	0x3d72d8e8	0.05928889
151	0xbd1a282f	-0.03763598
152	0x3bc0da12	0.005885371
153	0xbdb1b53a	-0.08677144
154	0x3e1dff71	0.15429474
155	0xbda79668	-0.081829846
156	0x3dd12c3e	0.10213517
157	0x3d982527	0.07428961
158	0x3d91c9e9	0.071185894
159	0xbd56fabb	-0.05248521
160	0x3db848d6	0.08998267
161	0xbc354857	-0.01106461
162	0xbcbb4b7b	-0.02286314
163	0xbe2bdbbc	-0.16783041
164	0x3c938563	0.01800794
165	0xbd83be45	-0.064327754
166	0xbddd2f64	-0.10800055
167	0x3da89346	0.08231215
168	0xbc2e2969	-0.01062999
169	0xbdfac131	-0.122438796
170	0xbdec1d7b	-0.115290605
171	0xbd49d52b	-0.04927556
172	0x3d2446f3	0.040106725
173	0xbd9fd599	-0.078044124
174	0xbdfcca6d	-0.12343297
175	0xbdb811c6	-0.08987765
176	0xbdbb435a	-0.09143706
177	0x3d865ae1	0.065603025
178	0x3e00027a	0.12500945
179	0xbdfbb70d	-0.122907735
180	0x3d47621d	0.048677552
181	0x3db72996	0.08943479
182	0x3d22beb4	0.03973265
183	0xbd1d2164	-0.038361922
184	0x3dba4af2	0.09096326
185	0x3dbbdffa	0.091735795
186	0x3d8aa7f7	0.06770318
187	0xbc44e1c0	-0.012016714
188	0xbcaa9d73	-0.02082703
189	0x3d03d819	0.03218851
190	0xbc31db2c	-0.010855477
191	0xbcea95cc	-0.028635882
192	0x3de4742c	0.111549705
193	0x3e0f78d1	0.14010932
194	0x3aeceaa4	0.00180753
195	0xbc835e0c	-0.016036056
196	0x3cd3ffc8	0.025878802
197	0x3c57c2ea	0.01316903
198	0x3d67c8a9	0.05658785
199	0x3d7b0f68	0.06129399
200	0xbdd07cf2	-0.101800814
201	0xbcd0822e	-0.0254527
202	0x3e191ddd	0.14952798
203	0x3da95567	0.08268242
204	0x3cd08bea	0.025457341
205	0xbd6256c8	-0.055258542
206	0xbd644b1d	-0.055735696
207	0xbdc77ec6	-0.09740977
208	0xbdb5be14	-0.08874145
209	0x3b354d8a	0.0027664625
210	0x3d40ffb2	0.04711885
211	0x3caccdb0	0.021094173
212	0xbe2dad6c	-0.16960686
213	0xbe04de64	-0.1297546
214	0xbd880bf3	-0.06642904
215	0x3dc5ac75	0.09652034
216	0xbc747f75	-0.014922966
217	0xbd9b061f	-0.07569527
218	0x3caa7bc6	0.020810973
219	0xbdbf6c72	-0.09346856
220	0xbe016acc	-0.12638396
221	0x3d8f8364	0.07007483
222	0xbdcd9ef3	-0.10040083
223	0xbd7f7366	-0.062365912
224	0xbe05db3c	-0.13071913
225	0x3ddccb2e	0.10780941
226	0x3df45e62	0.119320646
227	0x3d79dfee	0.06100457
228	0xbdae58e9	-0.08513052
229	0xbe019d2b	-0.12657611
230	0xbdd13528	-0.10215217
231	0x3df5177b	0.11967369
232	0x3db50770	0.08839309
233	0x3e11122e	0.14167091
234	0x3dc368bd	0.095414616
235	0x3d5c08fd	0.05371951
236	0x3ca2d2c7	0.019875897
237	0xbdb43d3b	-0.08800741
238	0xbdcf0f68	-0.101103604
239	0xbde9f1eb	-0.11423095
240	0x3d1b4c1e	0.037914388
241	0xbdb50ea3	-0.08840682
242	0xbd3fb696	-0.046804987
243	0xbdd3021b	-0.10303136
244	0xbd41e532	-0.04733772
245	0xbdf58425	-0.11988095
246	0xbde6aaf9	-0.11263079
247	0x3ce5aef4	0.028037526
248	0xbd828847	-0.06373649
249	0x3d8f13e7	0.06986218
250	0xbd851e71	-0.06499947
251	0xbdff4b02	-0.124654785
252	0xbd4ae4b2	-0.049534507
253	0xbdbbc312	-0.09168066
254	0xbd86a603	-0.06574633
255	0xbe22b817	-0.15890537

patch_to_token.bias f4 [16]
0	0xbd9f6023	-0.077820085
1	0x3e1ac2d6	0.15113387
2	0x3da89e7b	0.08233353
3	0x3db1669c	0.08662149
4	0xbd9bbaf8	-0.07604021
5	0xbd836bc9	-0.06417043
6	0xbcaff9a2	-0.021481339
7	0xbce52828	-0.02797325
8	0xbe16819f	-0.14697884
9	0x3d3fa1a8	0.046785027
10	0x3c5fe0a0	0.013664395
11	0xbdb18d19	-0.0866949
12	0x3d315806	0.043296836
13	0xbe08221d	-0.13294263
14	0x3d2e6c60	0.042583823
15	0x3d0e90e1	0.034806136

transformer_blocks.0.norm1.weight f4 [16]
0	0x3f7c0afe	0.9845427
1	0x3f87aa49	1.0598842
2	0x3f819c7e	1.0125883
3	0x3f851090	1.039568
4	0x3f823bc5	1.017449
5	0x3f8781d2	1.0586493
6	0x3f815409	1.010377
7	0x3f84dd76	1.0380085
8	0x3f7f2cb6	0.996776
9	0x3f869390	1.0513783
10	0x3f882156	1.0635173
11	0x3f78ae7b	0.97141236
12	0x3f8a0971	1.0784131
13	0x3f74ca7a	0.95621455
14	0x3f879e9b	1.0595278
15	0x3f80c098	1.0058775

transformer_blocks.0.norm1.bias f4 [16]
0	0xbc97b9f0	-0.01852128
1	0xba8436dc	-0.001008715
2	0x3bcfcaa2	0.0063412944
3	0x3b989ae1	0.004657135
4	0xbca0949e	-0.019602116
5	0xbb350373	-0.0027620464
6	0x3c0c6614	0.008569259
7	0xbc2095d7	-0.00980135
8	0xbc6b3029	-0.014354744
9	0xbbfaac61	-0.0076499437
10	0xbc542696	-0.012948653
11	0xbd3aa8a3	-0.04557098
12	0x3c0ff025	0.008785282
13	0xbd2c4b24	-0.042063847
14	0x3bae6f4e	0.005323327
15	0x3bed7c59	0.0072474894

transformer_blocks.0.multi_head_attention.Q_mappers.0.weight f4 [8, 8]
0	0xbdb5f2e5	-0.08884219
1	0x3dec9f2a	0.11553796
2	0xbeab46a0	-0.3345232
3	0x3e4ab16f	0.19794248
4	0xbdea82f5	-0.11450759
5	0xbe833d1c	-0.2563256
6	0x3d33496d	0.043771196
7	0x3e332484	0.17494398
8	0x3e92ec85	0.28696075
9	0xbe38b679	-0.18038358
10	0xbe3e72ad	-0.18598433
11	0x3d7f6747	0.062354352
12	0x3db179cf	0.08665811
13	0x3e1c0e5c	0.15239853
14	0x3e3ee8f5	0.18643554
15	0xbd96da8a	-0.07365902
16	0x3e32d962	0.17465737
17	0x3e9121d2	0.28346115
18	0xbde7bd38	-0.113153875
19	0x3e8023b3	0.25027236
20	0x3e269c6a	0.16270605
21	0x3ea79747	0.32732603
22	0xbe59dbe3	-0.21275286
23	0xbe2a345a	-0.16621533
24	0xbddc67da	-0.107619956
25	0x3dab62bf	0.08368444
26	0x3e5d1a77	0.21592127
27	0xbe3943c4	-0.18092257
28	0x3e2762fb	0.16346352
29	0xbdf0da72	-0.11760415
30	0x3e5405dc	0.2070536
31	0xba80fc58	-0.0009840829
32	0xbe910575	-0.28324476
33	0xbe897428	-0.26846433
34	0xbe766d6c	-0.24065179
35	0x3e2996ca	0.16561428
36	0xbe656454	-0.22401553
37	0xbd93178d	-0.07182226
38	0x3dae366a	0.085064724
39	0xbe5abbef	-0.21360753
40	0x3e06d9be	0.13169
41	0xbebedc4c	-0.37277448
42	0xbe78f440	-0.24311924
43	0xbe9d9dcf	-0.3078446
44	0xbdcd372e	-0.1002029
45	0xbe2e15e4	-0.17000538
46	0x3d419479	0.047260735
47	0xbdb02673	-0.086010836
48	0x3decaaaf	0.11555993
49	0x3ea3b811	0.3197637
50	0x3de81b7c	0.11333367
51	0xbdf087e8	-0.11744672
52	0xbeb9722b	-0.36219916
53	0x3e31873d	0.17336746
54	0xbe472ed5	-0.19451459
55	0x3e589d9c	0.21153873
56	0x3e7eab6f	0.24870084
57	0x3e59edb5	0.21282084
58	0x3eb262f1	0.3484111
59	0x3eb059ce	0.34443516
60	0x3dad5092	0.08462633
61	0xbe852845	-0.26007286
62	0x3ea61f41	0.3244572
63	0xbe28195c	-0.16415924

transformer_blocks.0.multi_head_attention.Q_mappers.0.bias f4 [8]
0	0xbe1a7263	-0.15082698
1	0x3e9fda2a	0.31221133
2	0x3e96f9cf	0.29487464
3	0x3dd68dcd	0.10476265
4	0x3c5d54ce	0.013508989
5	0xbe9f244d	-0.31082383
6	0xbc077cdd	-0.008269516
7	0x3ea10ef9	0.31456736

transformer_blocks.0.multi_head_attention.Q_mappers.1.weight f4 [8, 8]
0	0x3d944ca7	0.07241183
1	0x3c78dc5a	0.015189255
2	0xbd4e5c8e	-0.050381236
3	0xbe4c6238	-0.19959342
4	0x3e76db67	0.24107133
5	0xbca516d1	-0.020152481
6	0x3e83f727	0.257745
7	0xbdcca1b1	-0.09991778
8	0x3e3f5aca	0.18686977
9	0x3dfa9aa8	0.122365296
10	0x3d85c56f	0.06531798
11	0x3e46262e	0.19350502
12	0x3e8902bd	0.26759902
13	0x3e9918ab	0.29901633
14	0x3ea83a49	0.32856968
15	0xbe0cefa9	-0.13763298
16	0xbea361e5	-0.31910625
17	0x3d8fbd1a	0.0701849
18	0xbd51a34e	-0.05118113
19	0xbac5f46d	-0.0015102752
20	0xbe0f3b2d	-0.13987418
21	0x3dd2a59a	0.10285492
22	0x3e3ae4b2	0.18251303
23	0x3e4636e1	0.19356872
24	0xbe2c5366	-0.16828689
25	0xbe111acd	-0.1417038
26	0xbd995e98	-0.074887455
27	0xbe25a9f7	-0.16178118
28	0x3ea0ecda	0.31430703
29	0x3e3794dd	0.1792788
30	0x3ea16388	0.3152125
31	0xbac54556	-0.0015050571
32	0x3d9ae7a5	0.07563714
33	0x3ddcf93a	0.10789724
34	0xbecc97aa	-0.3995946
35	0x3ddc4cb4	0.107568175
36	0xbdb8e3bc	-0.09027812
37	0xbde9ca74	-0.11415568
38	0xbea58315	-0.3232657
39	0x3ec3777d	0.381771
40	0x3e9b6e99	0.30357817
41	0x3e148cad	0.14506789
42	0x3e9087ba	0.2822855
43	0xbd9dd259	-0.07706136
44	0xbde2f977	-0.11082738
45	0x3e35f123	0.17767768
46	0xbdba8217	-0.09106844
47	0xbcd826ad	-0.02638563
48	0xbea5c9c8	-0.3238051
49	0x3db932a7	0.09042864
50	0xbe340c5d	-0.17582841
51	0xbc8d813a	-0.017273534
52	0x3eb597d8	0.3546741
53	0xbe020af6	-0.12699494
54	0xbdd82743	-0.105543636
55	0x3e4d2058	0.2003187
56	0xbe188ad2	-0.14896706
57	0x3c21a252	0.00986536
58	0x3ec26456	0.37967175
59	0xbe55758b	-0.2084562
60	0xbe580a09	-0.21097578
61	0xbe80d07e	-0.25159067
62	0xbd9d6c08	-0.07686621
63	0xbe513888	-0.20431721

transformer_blocks.0.multi_head_attention.Q_mappers.1.bias f4 [8]
0	0xbe67094b	-0.22562139
1	0x3dce34ab	0.10068639
2	0x3e1550cc	0.14581603
3	0xbdf1c231	-0.11804617
4	0xbe44f965	-0.19235761
5	0xbd8cedda	-0.06881304
6	0xbe25dce8	-0.1619755
7	0xbe1f285f	-0.15542744

transformer_blocks.0.multi_head_attention.K_mappers.0.weight f4 [8, 8]
0	0xbe9e9ad3	-0.30977497
1	0x3d797f50	0.06091243
2	0xbe912324	-0.28347123
3	0xbe753e27	-0.2394949
4	0xbe835551	-0.2565103
5	0x3dc446d4	0.09583822
6	0xbe375198	-0.1790222
7	0xbe072b7c	-0.13200182
8	0x3e80f82a	0.25189334
9	0x3e56903f	0.20953463
10	0x3e67d516	0.2263988
11	0xbea960ff	-0.33081815
12	0xbe846fa3	-0.25866422
13	0xbe0081e3	-0.12549548
14	0x3e7eb2ef	0.24872945
15	0x3d97ee9f	0.0741856
16	0xbe8996f8	-0.26872993
17	0x3c077bc2	0.008269252
18	0xbe8f8629	-0.28032044
19	0xbdaa4d63	-0.083155416
20	0xbdb13f07	-0.086546
21	0x3e9d7c96	0.30759114
22	0x3e10e385	0.14149292
23	0xbdc073b9	-0.09397072
24	0x3d842280	0.06451893
25	0xbdcd2b30	-0.10018003
26	0x3e0ee86a	0.13955846
27	0x3e0ef1c3	0.13959412
28	0x3d9aa70c	0.07551393
29	0xbe03a50e	-0.12855932
30	0x3e8bebe1	0.273284
31	0xbcfefb7f	-0.031125782
32	0xbe2a4999	-0.16629638
33	0x3e67944f	0.22615169
34	0x3e9888d4	0.29791892
35	0x3eaabf89	0.33349255
36	0x3dc49c01	0.09600068
37	0xbdc98566	-0.09839897
38	0x3e4fe552	0.20302323
39	0x3e9366ac	0.2878927
40	0xbeafa4e3	-0.34305486
41	0xbd2d81dd	-0.042360175
42	0xbe747bef	-0.23875402
43	0x3d95b146	0.07309203
44	0x3e10ef2f	0.14153741
45	0xbda5faf7	-0.08104508
46	0xbd8089e2	-0.06276299
47	0x3e47065c	0.1943602
48	0xbd61b95d	-0.055108417
49	0xbe998aeb	-0.29988798
50	0x3e8c827d	0.27443305
51	0xbe3e78f9	-0.18600835
52	0xbc7c53aa	-0.015400806
53	0x3cfffbeb	0.031248054
54	0x3c562428	0.013070144
55	0xbebe8944	-0.372141
56	0x3e28a879	0.16470517
57	0xbe2fe62c	-0.17177647
58	0xbe3d86e9	-0.18508495
59	0x3dd0290d	0.1016408
60	0xbe3f18e9	-0.18661846
61	0xbe36c6de	-0.178493
62	0xbe16879b	-0.14700167
63	0xbd9ecda4	-0.077540666

transformer_blocks.0.multi_head_attention.K_mappers.0.bias f4 [8]
0	0xbe171b60	-0.14756536
1	0xbdc3501a	-0.095367625
2	0x3dbbbe7c	0.091671914
3	0xbe926757	-0.28594467
4	0xbe5b254f	-0.21400951
5	0x3ba9dbaa	0.0051836567
6	0x3d48e48c	0.049046084
7	0x3e47e0e2	0.1951938

transformer_blocks.0.multi_head_attention.K_mappers.1.weight f4 [8, 8]
0	0xbe8bfe66	-0.27342528
1	0x3e2d502a	0.16925111
2	0x3e76f942	0.24118522
3	0x3de82ac4	0.11336282
4	0xbe81e4c8	-0.2536986
5	0xbd740508	-0.05957511
6	0xbebc3895	-0.3676192
7	0xbe907950	-0.28217554
8	0x3e57333e	0.21015641
9	0xbd084e81	-0.033277992
10	0x3e36ecab	0.17863719
11	0xbe8fc8a4	-0.28082764
12	0x3df805c7	0.12110477
13	0xbe2b4203	-0.167244
14	0x3e0c669b	0.13711016
15	0xbe44b3c1	-0.19209196
16	0xbda29408	-0.07938391
17	0xbebae16e	-0.36500114
18	0xbd3825fb	-0.044958096
19	0x3eda7e4e	0.42674488
20	0x3dc82b7d	0.0977392
21	0xbe81b817	-0.25335762
22	0x3d86c283	0.06580069
23	0x3cc256be	0.023723003
24	0xbe9d7523	-0.3075343
25	0x3eaa034f	0.3320565
26	0x3d38a6bc	0.045080885
27	0xbbde3486	-0.0067811636
28	0xbd89db4f	-0.06731283
29	0xbdbd3bd0	-0.09239924
30	0xbb8f2a29	-0.0043690396
31	0x3d96e8ae	0.07368599
32	0x3dc786b2	0.09742488
33	0xbe644b1e	-0.2229428
34	0x3e9c21bd	0.3049449
35	0x3cca86bb	0.024722448
36	0xbe96d734	-0.29461062
37	0xbe6ef089	-0.23333944
38	0x3ed0d954	0.40790808
39	0x3d50ae0b	0.05094723
40	0xbd5b4ac0	-0.053538084
41	0xbdb8182e	-0.08988987
42	0xbda888ab	-0.08229192
43	0xbea9537a	-0.330715
44	0xbe6119de	-0.21982524
45	0x3e58c545	0.21169002
46	0x3e8463d2	0.25857407
47	0x3ea3a1ad	0.31959286
48	0xbe80d6dc	-0.25163925
49	0x3e8d3819	0.27581862
50	0xbe3c7525	-0.18404062
51	0x3dfe2984	0.12410262
52	0x3ead3c48	0.33835053
53	0x3eaa33da	0.33242685
54	0x3e2e2b8f	0.17008804
55	0x3e1972fb	0.14985268
56	0xbd1a94d0	-0.037739575
57	0x3e68e270	0.22742629
58	0xbdb75982	-0.08952619
59	0x3d972a66	0.07381134
60	0xbcf87119	-0.030327367
61	0x3d9488c0	0.072526455
62	0xbec870e5	-0.39148632
63	0xbe1d7310	-0.15375924

transformer_blocks.0.multi_head_attention.K_mappers.1.bias f4 [8]
0	0xbe3dfee4	-0.18554264
1	0xbdf4411f	-0.11926483
2	0xbe674dee	-0.22588322
3	0xbea2bbe3	-0.3178397
4	0x3cbb8566	0.022890758
5	0x3e6af3c1	0.22944547
6	0x3ea4da7b	0.32197937
7	0x3e536f35	0.20647891

transformer_blocks.0.multi_head_attention.V_mappers.0.weight f4 [8, 8]
0	0xbe538ed4	-0.20659953
1	0xbecf4048	-0.4047873
2	0x3daf7e15	0.0856897
3	0x3e3710ef	0.17877553
4	0xbeb7b60b	-0.35881075
5	0x3d9aec69	0.07564623
6	0x3e807bba	0.25094396
7	0xbcf54136	-0.029938322
8	0xbe3ba314	-0.18323928
9	0x3e6d5e16	0.23180422
10	0x3e1afffa	0.1513671
11	0x3e8ff13c	0.28113735
12	0xbe6ce018	-0.2313236
13	0x3e0d533f	0.13801287
14	0xbe9d3585	-0.30704895
15	0x3ec48cd6	0.383887
16	0xbe00ec77	-0.12590204
17	0x3e197f0f	0.14989875
18	0x3d85c9e9	0.06532652
19	0x3e08990a	0.1333963
20	0xbd49cb11	-0.049265925
21	0x3d944947	0.07240539
22	0xbe5775c6	-0.21041021
23	0xbe9d2532	-0.3069244
24	0xbe165f66	-0.14684829
25	0x3eb09ea5	0.34496036
26	0xbddfe23e	-0.10931824
27	0x3db71dc1	0.08941222
28	0xbdf300f2	-0.11865415
29	0x3eaa966c	0.33317888
30	0x3e922b2a	0.28548557
31	0x3def978f	0.116988294
32	0xbe24c8e2	-0.16092256
33	0xbeadb1c3	-0.33924684
34	0x3cd3f57c	0.025873892
35	0xbe35a3e5	-0.17738302
36	0x3e95e741	0.29277995
37	0xbec9b277	-0.3939397
38	0x3dc24b8b	0.09487065
39	0x3ebda7e4	0.37042153
40	0x3e650081	0.22363473
41	0x3de0833c	0.10962531
42	0xbe9afee4	-0.3027259
43	0x3ec0ffab	0.3769506
44	0xbc794445	-0.015214031
45	0xbeafe8d0	-0.3435731
46	0x3ea37d27	0.3193142
47	0xbdc87842	-0.09788562
48	0xbd89bbe1	-0.06725288
49	0x3ec03ec6	0.37547892
50	0xbe889287	-0.26674291
51	0xbe99009a	-0.2988327
52	0x3d0ea3ad	0.034824062
53	0x3c5e6d51	0.013575868
54	0x3e17f599	0.14839782
55	0xbeaa7cfa	-0.33298475
56	0x3c18214a	0.0092852805
57	0xbdf4c834	-0.11952248
58	0xbe316010	-0.17321801
59	0xbea34d05	-0.318947
60	0x3e5dcc7c	0.21660036
61	0x3dd302e9	0.103032894
62	0xbe7e66bc	-0.24843878
63	0x3ea2c2cd	0.31789246

transformer_blocks.0.multi_head_attention.V_mappers.0.bias f4 [8]
0	0x3e28f614	0.16500121
1	0x3d90d71e	0.0707228
2	0xbe4869a1	-0.19571544
3	0x3cd7e78e	0.026355531
4	0x3eb2af58	0.34899402
5	0x3e4a0ea0	0.19732141
6	0xbe873591	-0.26408055
7	0x3e932824	0.28741562

transformer_blocks.0.multi_head_attention.V_mappers.1.weight f4 [8, 8]
0	0x3c6d7cb7	0.014495066
1	0x3e33b630	0.17549968
2	0x3e50f652	0.20406464
3	0x3e911734	0.28338015
4	0xbeb1ef23	-0.3475276
5	0x3e90b8ca	0.28265983
6	0xbe3e9518	-0.18611562
7	0x3b72e1b8	0.0037060808
8	0xbe70c0d7	-0.23511063
9	0xbda06fad	-0.078338005
10	0x3d07bdf1	0.033140127
11	0xbcffa72a	-0.03120764
12	0xbb20ad5b	-0.002451739
13	0x3d1aa0bd	0.03775095
14	0x3e9c18c0	0.30487633
15	0x3e64e1b3	0.22351722
16	0x3e3c8604	0.18410498
17	0x3e3220f3	0.17395382
18	0x3ead1fe0	0.3381338
19	0xbd0fff13	-0.035155367
20	0x3dd99341	0.106237896
21	0x3d86e054	0.06585756
22	0xbeb83a9e	-0.3598222
23	0xbe97e6e1	-0.29668334
24	0x3c30362a	0.010755101
25	0xbdbd28bf	-0.09236287
26	0x3cc870fe	0.024467941
27	0xbdfdb753	-0.12388482
28	0x3dea2cc1	0.114343174
29	0x3e3f0a13	0.18656187
30	0xbdff12e4	-0.12454775
31	0x3e777c5c	0.24168533
32	0x3ea693a9	0.3253453
33	0xbea69801	-0.32537845
34	0xbe9d83ec	-0.3076471
35	0xbe71398b	-0.23557107
36	0xbe87681e	-0.26446623
37	0xbdb17d17	-0.08666437
38	0xbc04dbc4	-0.008109037
39	0xbd102d52	-0.03519947
40	0xbe4cc02c	-0.19995183
41	0xbdbf156d	-0.093302585
42	0xbde2e677	-0.11079114
43	0x3ea86874	0.3289219
44	0xbdd35702	-0.1031933
45	0xbe92d4d4	-0.28678
46	0x3e261279	0.16217984
47	0xbd25c849	-0.04047421
48	0x3e820e62	0.25401598
49	0x3e812319	0.2522209
50	0x3ec733d4	0.3890673
51	0xbe9056c9	-0.28191212
52	0x3e9a3a97	0.30122826
53	0x3e92153f	0.28531834
54	0xbe623d90	-0.22093797
55	0x3e9d9d20	0.3078394
56	0x3e87ddce	0.2653641
57	0xbc9c3baf	-0.019071428
58	0x3dd6b87c	0.10484406
59	0xbdf81977	-0.12114232
60	0xbec31ab4	-0.3810631
61	0x3da3a93f	0.079912655
62	0x3e229ac9	0.15879358
63	0xbe72a41b	-0.23695414

transformer_blocks.0.multi_head_attention.V_mappers.1.bias f4 [8]
0	0x3e0a7712	0.13521984
1	0xbe8b2cdf	-0.2718267
2	0x3e9e2a5e	0.308917
3	0x3e9d31c8	0.30702043
4	0x3e0eb6cb	0.13936917
5	0xbe7511a7	-0.23932515
6	0x3e2e3ebc	0.17016119
7	0x3d25563d	0.040365446

transformer_blocks.0.norm2.weight f4 [16]
0	0x3f8315b9	1.0241004
1	0x3f8210da	1.0161393
2	0x3f82a820	1.0207558
3	0x3f7df9ca	0.9920927
4	0x3f8410af	1.0317591
5	0x3f82b0e3	1.0210232
6	0x3f8503b3	1.0391754
7	0x3f804e28	1.0023851
8	0x3f83b097	1.0288266
9	0x3f75a9f8	0.95962477
10	0x3f8c1100	1.0942688
11	0x3f82df14	1.0224328
12	0x3f85d1b0	1.0454617
13	0x3f890631	1.0705014
14	0x3f8512a7	1.0396317
15	0x3f82bbfc	1.0213618

transformer_blocks.0.norm2.bias f4 [16]
0	0x3d502f62	0.050826438
1	0xbba7ff1f	-0.0051268484
2	0xbcbbc6c2	-0.022921924
3	0xbd2d1ace	-0.04226189
4	0xbc2d2981	-0.010568977
5	0xbb8f5005	-0.0043735527
6	0x3aa0693c	0.0012238394
7	0xbb645d15	-0.003484552
8	0x3c849461	0.016184034
9	0x3d206df7	0.03916737
10	0xbafaa86f	-0.0019123683
11	0x3d054435	0.03253575
12	0xbcfa1ac1	-0.030530335
13	0xbb54efea	-0.0032491633
14	0x3c93df25	0.01805074
15	0x399faf18	0.00030457298

transformer_blocks.0.mlp.0.weight f4 [64, 16]
0	0x3d2d6176	0.042329274
1	0x3ddece3a	0.10879178
2	0x3e61f8dc	0.22067589
3	0xbe264899	-0.16238631
4	0xbd6559c0	-0.055993795
5	0x3da78eec	0.08181557
6	0xbb685237	-0.0035449394
7	0x3e630321	0.22169162
8	0xbded8356	-0.11597316
9	0xbd0fb718	-0.03508672
10	0x3df63363	0.1202152
11	0xbd3b8988	-0.045785457
12	0x3e19d23d	0.15021606
13	0xbcaaddb7	-0.020857675
14	0xbe320445	-0.17384441
15	0xbcb5ca17	-0.02219109
16	0xbdf4fefe	-0.119626984
17	0x3ce17927	0.02752359
18	0xbd153fb0	-0.03643769
19	0xbe90eceb	-0.28305754
20	0xbcf44528	-0.029818133
21	0xbbaa24d2	-0.0051923776
22	0xbdd2a33b	-0.1028504
23	0x3e74be60	0.23900747
24	0xbd89c9eb	-0.06727966
25	0x3e238d0f	0.15971778
26	0x3dfebc82	0.12438299
27	0xbe5b1e57	-0.21398292
28	0x3d34f4fb	0.044178944
29	0x3e28f323	0.16499
30	0xbdecacee	-0.11556421
31	0xbe2d888f	-0.16946624
32	0x3e512920	0.20425844
33	0x3e079068	0.1323868
34	0xbe4fef76	-0.20306191
35	0x3e395949	0.18100466
36	0xbd8d17c3	-0.06889298
37	0xbe508313	-0.20362501
38	0xbbc98233	-0.006149554
39	0x3de167f3	0.11006155
40	0xbc3ea879	-0.011636847
41	0x3d3f0ca6	0.046642922
42	0xbe9842fc	-0.29738605
43	0x3e69820f	0.2280352
44	0x3e2e48f1	0.17020012
45	0x3e5d668c	0.2162115
46	0xbcccc4b6	-0.024996143
47	0x3e0cd003	0.13751225
48	0xbe59f5a3	-0.21285109
49	0xbc7e1f60	-0.01551041
50	0xbd672f52	-0.056441613
51	0xbe1a2351	-0.15052535
52	0xbe44bd09	-0.19212736
53	0x3e4a23b4	0.19740182
54	0x3e136791	0.14394976
55	0xbe4c95ee	-0.19979069
56	0x3d9dff4f	0.07714712
57	0x3d7b0600	0.06128502
58	0x3e8e05f2	0.2773891
59	0x3e2e5328	0.17023909
60	0x3e422ae9	0.18961681
61	0xbde93646	-0.11387305
62	0x3e52e6ff	0.2059593
63	0x3e63399a	0.22189942
64	0xbe95f4f4	-0.29288447
65	0xbe850154	-0.25977576
66	0xbd047097	-0.032333937
67	0x3e55ebea	0.20890775
68	0xbe49af11	-0.19695689
69	0x3db77697	0.08958166
70	0xbd9ae9a6	-0.07564096
71	0x3e06facb	0.13181607
72	0xbd594897	-0.053047743
73	0x3da7800a	0.081787184
74	0x3de7ed0d	0.11324511
75	0xbdbcb2ab	-0.09213766
76	0xbd887ec2	-0.06664802
77	0xbbff6acb	-0.007794713
78	0x39ba45e2	0.0003552875
79	0x3e9f9e65	0.31175533
80	0x3d187d91	0.037229124
81	0xbb80c8e8	-0.0039302
82	0x3e49c811	0.19705226
83	0xbddd519d	-0.10806582
84	0xbd804950	-0.06263983
85	0x3d2e57c1	0.042564157
86	0xbe3b0014	-0.18261749
87	0x3d1109d2	0.035409756
88	0xbe25782c	-0.16159123
89	0xbc4d66c1	-0.0125367055
90	0x3d555be3	0.052089583
91	0x3d6cb6b3	0.057791423
92	0xbe82d641	-0.25554088
93	0xbe835363	-0.25649557
94	0x3e1fe474	0.15614492
95	0x3e63e67b	0.2225589
96	0xbe70fd56	-0.2353414
97	0x3df03ed7	0.11730736
98	0xbe3975e8	-0.18111384
99	0xb9b9247c	-0.00035313133
100	0x3e6b5711	0.22982432
101	0x3e58b3e4	0.21162373
102	0xbe53fa0e	-0.20700857
103	0x3e3213e5	0.17390402
104	0x3df96e5d	0.12179253
105	0xbbb392d8	-0.0054801516
106	0x3e9fab2b	0.31185278
107	0xbdc70832	-0.0971836
108	0xbd9b87f5	-0.07594291
109	0xbe409d93	-0.1881011
110	0x3d90bdef	0.07067477
111	0x3d8722e0	0.06598449
112	0x3c99f439	0.018793212
113	0xbe064cca	-0.1311523
114	0xbdcf3ca6	-0.1011899
115	0x3df69e54	0.120419174
116	0xbe719516	-0.23592028
117	0xbd2edaa8	-0.042688996
118	0x3cd82727	0.026385857
119	0xbdf180c3	-0.117921375
120	0x3dc9b6c0	0.0984931
121	0x3c88e77c	0.016711943
122	0x3ddbe1ab	0.10736402
123	0xbcd45169	-0.025917726
124	0xbe1cefcd	-0.15325852
125	0x3e7049e7	0.23465692
126	0xbca91c0d	-0.020643258
127	0xbd785cb3	-0.06063528
128	0xbe168f75	-0.14703162
129	0x3d781333	0.060565185
130	0xbe6bcbfa	-0.2302703
131	0x3dc9a6bb	0.098462544
132	0x3defab1d	0.11702559
133	0xbe6e0d70	-0.23247313
134	0xbdf72ca0	-0.120690584
135	0xbe54f728	-0.20797408
136	0x3e50e923	0.20401435
137	0x3e68f3e4	0.22749287
138	0xbd81875b	-0.06324645
139	0x3e5fdfc9	0.21862711
140	0xbd86e840	-0.06587267
141	0xbe2f5348	-0.17121613
142	0x3ce413fb	0.027841559
143	0x3db1b8bf	0.08677816
144	0x3e460f79	0.1934184
145	0xbaf5b24c	-0.0018745153
146	0x3e186f59	0.14886226
147	0x3e22ee55	0.15911229
148	0x3e0a2a79	0.13492765
149	0xbe497a9a	-0.19675675
150	0x3e852a82	0.26008993
151	0xbe5a6d4c	-0.21330756
152	0x3e7cf818	0.24704015
153	0xbd059436	-0.032612048
154	0xbe9a5953	-0.30146274
155	0x3dbc269a	0.0918705
156	0xbde75b5a	-0.11296721
157	0xbe227a24	-0.15866905
158	0xbdf04a87	-0.11732965
159	0x3d953986	0.07286362
160	0x3e41f2d9	0.18940295
161	0xbdd5f079	-0.10446257
162	0x3e1d1b0b	0.15342347
163	0x3d9c0610	0.07618344
164	0xbce1754c	-0.027521752
165	0x3d611778	0.054954022
166	0xbe2534ee	-0.16133472
167	0xbe49a4de	-0.19691798
168	0xbd984704	-0.0743542
169	0xbe542258	-0.20716226
170	0xbe4ca816	-0.19985995
171	0x388442c0	6.306684e-05
172	0xbe20e871	-0.1571367
173	0xbd5f4cab	-0.054516476
174	0xbde616e0	-0.11234832
175	0xbc1658c6	-0.009176439
176	0xbddad980	-0.10686016
177	0xbc7fd544	-0.015614811
178	0xbcf9d934	-0.030499078
179	0x3dafd506	0.08585553
180	0x3c9b44bd	0.018953675
181	0xbdeff5c7	-0.117168
182	0xbd9adad2	-0.07561268
183	0xbc5ae933	-0.013361263
184	0xbe310b1a	-0.17289391
185	0x3d546da6	0.05186238
186	0xbc8dcd24	-0.017309733
187	0x3d81db6f	0.06340682
188	0x3dcd5a64	0.10027006
189	0x3e54b32a	0.2077147
190	0xbd0955dd	-0.03352915
191	0xbe5b90cd	-0.21441956
192	0x3d9123f4	0.07086936
193	0xbe52f78f	-0.20602249
194	0xbda41d11	-0.080133565
195	0xbc53c707	-0.01292587
196	0xbe1adb82	-0.15122798
197	0xbd609b76	-0.05483576
198	0x3e4ff000	0.20306396
199	0x3e3adc76	0.18248162
200	0x3dff3830	0.12461889
201	0x3e43203f	0.1905527
202	0xbea1fbd6	-0.31637448
203	0x3db7b4d8	0.0897004
204	0x3df0484d	0.1173254
205	0x3e75a5f5	0.23989089
206	0xbe8f129b	-0.27943882
207	0x3e168d7d	0.14702411
208	0xbe3e7e8b	-0.1860296
209	0xbc357407	-0.011075026
210	0xbdb15655	-0.08659045
211	0xbe51fb54	-0.2050603
212	0xbe8c577f	-0.27410504
213	0xbdf286b9	-0.118421026
214	0x3dfdfda5	0.124018945
215	0x3e095ff5	0.13415511
216	0xbe48a366	-0.19593582
217	0xbe07b78e	-0.13253614
218	0xbd730cf2	-0.059338517
219	0xbe3d3760	-0.18478155
220	0x3db790ad	0.089631416
221	0x3e8b7925	0.27240863
222	0x3d16d44c	0.036823556
223	0xbe0773ab	-0.13227718
224	0x3d9607af	0.07325684
225	0x3d840449	0.0644613
226	0x3e4719be	0.19443414
227	0xbd9ed889	-0.077561446
228	0xbe5a1c46	-0.21299848
229	0x3ddb4bb2	0.10707797
230	0x3d2fe6f8	0.04294488
231	0xbdc8491c	-0.097795695
232	0xbdf5fc65	-0.12011031
233	0xbddb6374	-0.107123286
234	0x3e176d3d	0.14787765
235	0xbd869b1a	-0.06572552
236	0x3e49f656	0.19722876
237	0x3e8cbc7e	0.27487558
238	0xbd0cfdc9	-0.034421716
239	0x3d2959f4	0.04134555
240	0xbd82de2e	-0.06390034
241	0x3e1f6deb	0.15569274
242	0xbe725afb	-0.23667519
243	0x3e08b8d3	0.13351755
244	0xbda51b1d	-0.08061812
245	0x3e1c77ee	0.15280125
246	0x3cc9badd	0.024625236
247	0xbd9b43af	-0.07581269
248	0x3bccb20e	0.0062468117
249	0x3dce67b8	0.100783765
250	0xbe8466e3	-0.25859746
251	0xbe090796	-0.133818
252	0xbdacd871	-0.084397204
253	0xbc044928	-0.008074082
254	0x3d1230c8	0.035691053
255	0x3e510852	0.2041333

transformer_blocks.0.mlp.0.bias f4 [64]
0	0xbcb89d4f	-0.022535948
1	0xbdc34875	-0.095353045
2	0x3d5b03f3	0.053470563
3	0xbe3333af	-0.17500184
4	0xbd936449	-0.07196862
5	0x3c3c57d1	0.011495546
6	0x3e6ab827	0.22921811
7	0xbdacfb77	-0.084464006
8	0x3dd52594	0.10407558
9	0xbda10b1f	-0.07863449
10	0xbd8a7650	-0.067608476
11	0xbe869cc9	-0.26291493
12	0x3e81e8b7	0.2537286
13	0x3e8aab3b	0.27083763
14	0xbcd54d7b	-0.026037922
15	0x3e3945b5	0.18092997
16	0x3e751e26	0.23937282
17	0x3df77c33	0.12084236
18	0x3e260809	0.16214003
19	0xbe718617	-0.23586307
20	0xbe45e715	-0.19326432
21	0xbe554e81	-0.20830728
22	0x3dad4e10	0.08462155
23	0xbe49473e	-0.19656083
24	0xbe6f0a16	-0.23343691
25	0xbd7483a7	-0.059695866
26	0xbe503b15	-0.20335038
27	0x3c6b820b	0.014374266
28	0x3c1d6db1	0.009608672
29	0xbdf1e01d	-0.11810324
30	0x3e325d23	0.17418341
31	0xbdfbd1c3	-0.12295868
32	0xbdb44ea9	-0.08804066
33	0x3e595108	0.21222317
34	0x3e7a08d1	0.24417426
35	0xbcdec401	-0.027193071
36	0xbe2f7a00	-0.17136383
37	0xbd9dbfe7	-0.07702618
38	0x3d003ec8	0.031309873
39	0x3e110bc3	0.14164643
40	0x3e1ada17	0.15122257
41	0xbd966056	-0.07342593
42	0xbe6222ba	-0.2208356
43	0xbe36e7a3	-0.178618
44	0xbdb0f288	-0.08640009
45	0x3c3f910a	0.011692295
46	0xbdbba586	-0.091624305
47	0xbe3b4839	-0.1828927
48	0x3c3f98c0	0.011694133
49	0xbe3fda70	-0.18735671
50	0xbe2b4de3	-0.1672893
51	0xbe156946	-0.1459094
52	0x39cbbdd0	0.000388606
53	0x3e62b023	0.22137503
54	0x3e09b655	0.1344846
55	0xbccad3ad	-0.024759138
56	0x3d9e8a30	0.07741201
57	0x3e07ebbc	0.1327352
58	0x3d11a999	0.03556213
59	0xbe3c25e7	-0.18373834
60	0xbe1b1cd1	-0.15147711
61	0xbe492074	-0.19641286
62	0xbcf7b0be	-0.030235644
63	0xbe80eb44	-0.25179493

transformer_blocks.0.mlp.2.weight f4 [16, 64]
0	0xbd473740	-0.048636675
1	0xbce56ede	-0.028006967
2	0x3da398fe	0.07988165
3	0x3de4bb36	0.1116852
4	0x3dc029fb	0.09383007
5	0x3d13a89b	0.036049467
6	0xbb6a656c	-0.0035766019
7	0x3ca5aaca	0.02022304
8	0xbd8bbe6a	-0.06823428
9	0xbd735f6c	-0.059417173
10	0xbd5b62a8	-0.053560883
11	0xbd4c73d2	-0.049915142
12	0xbe2e7ece	-0.1704056
13	0x3cebbab1	0.028775545
14	0x3db1e1db	0.08685657
15	0xbd76bd27	-0.060238983
16	0x3cad1f94	0.021133222
17	0x3b965a08	0.0045883693
18	0xbafe7ddd	-0.0019416172
19	0x3d1d3510	0.038380682
20	0x3dbb1742	0.091352955
21	0xbcf7e26f	-0.03025934
22	0xbd7339c9	-0.05938128
23	0x3c316606	0.010827547
24	0x3d3e1849	0.04640988
25	0x3d7e6b86	0.06211426
26	0xbcadec07	-0.02123071
27	0x3c7fb8bb	0.015608008
28	0xbddc9005	-0.10769657
29	0xbd58b1e9	-0.052904043
30	0xbd952873	-0.07283106
31	0xbc505034	-0.012714434
32	0x3bbf5c8e	0.005839891
33	0x3e003efc	0.12524027
34	0x3cf85eea	0.030318696
35	0x3c1956ef	0.0093591055
36	0x3dcb4e3f	0.09927034
37	0x3d85c9a5	0.06532601
38	0x3cefbab6	0.029263835
39	0x3c8b964e	0.017039444
40	0xbc3938a3	-0.011305007
41	0xbe0d79cb	-0.13815992
42	0xbc7f90df	-0.015598505
43	0xbc3c90e4	-0.011509154
44	0x3e01b665	0.12667234
45	0x3ddcf746	0.10789351
46	0x3d20f52e	0.03929632
47	0x3dc97e7a	0.098385766
48	0xbd8edd94	-0.069758564
49	0x3da70927	0.081560425
50	0x3dd59b4f	0.104300134
51	0xbcd14b24	-0.025548525
52	0xbdcb225f	-0.09918665
53	0x3bca4f03	0.0061739697
54	0xbd02ddde	-0.03194987
55	0x3d453765	0.04814853
56	0xbdda86e4	-0.106702596
57	0x3a897cac	0.0010489426
58	0x3b4c3b79	0.0031163378
59	0xbd750f2f	-0.059828933
60	0xbd2fee6f	-0.042951997
61	0xbcae785e	-0.02129763
62	0xbdf44d26	-0.119287774
63	0xbda44512	-0.080209866
64	0x3ad07fcd	0.0015907228
65	0x3d95829a	0.07300301
66	0x3dd7495c	0.10512039
67	0xbd9f569e	-0.07780193
68	0x3c9cb739	0.019130336
69	0xbd81d04e	-0.06338559
70	0xbd990bc4	-0.07472947
71	0x3a0f3821	0.0005463381
72	0xbd15755a	-0.03648887
73	0xbde8c6cb	-0.11366042
74	0xbd9a5a05	-0.07536701
75	0xbd869505	-0.06571392
76	0x3d390a3d	0.04517578
77	0x3d8e4de0	0.06948447
78	0xbd252b4a	-0.040324487
79	0xbe0126e5	-0.12612493
80	0xbd0edfed	-0.03488152
81	0xbc949e04	-0.018141754
82	0x3c5f148c	0.013615739
83	0x3d6a75cc	0.057241246
84	0x3df2b8bd	0.11851642
85	0xbd544e67	-0.051832583
86	0x3d960d8e	0.07326804
87	0xbdad3305	-0.08456997
88	0xbdbda360	-0.09259677
89	0xbc710301	-0.014710189
90	0xbcb300ab	-0.021850904
91	0x3dd0be25	0.10192517
92	0x3dafda3b	0.08586546
93	0xbdd11470	-0.10208976
94	0xbde6f0fd	-0.112764336
95	0x3d5f9335	0.054583747
96	0xbdef2b1a	-0.11678143
97	0x3daf12c0	0.08548498
98	0x3b14c2e9	0.0022699183
99	0x3d2f0d07	0.042737033
100	0xbe145a98	-0.14487684
101	0xbd0a1825	-0.033714432
102	0xbc848ef8	-0.016181454
103	0x3db1d1df	0.08682608
104	0x3e2933e1	0.16523696
105	0x3e3359a2	0.17514661
106	0x3d4af8f6	0.049553834
107	0xbda2d760	-0.07951236
108	0x3bbd635f	0.005779668
109	0xbd8b2bb7	-0.06795447
110	0x3d706f15	0.058699686
111	0xbe23291b	-0.15933649
112	0xbd745493	-0.05965097
113	0x3da46391	0.08026803
114	0xbdf3a2c9	-0.11896283
115	0x3df54842	0.11976673
116	0x3dd5ba87	0.10435968
117	0x3d1afbd0	0.037837803
118	0x3e30a125	0.17248972
119	0xbcabfa1c	-0.020993285
120	0x3bb11bb2	0.005404913
121	0x3d9de4c7	0.077096514
122	0x3de81f31	0.11334074
123	0xbe0f9f3a	-0.14025584
124	0xbb8d0d38	-0.0043045543
125	0xbdbda4c2	-0.09259941
126	0x3c675de2	0.0141215045
127	0x3ded0b4e	0.11574422
128	0xbc4f12aa	-0.012638727
129	0x3cf4fc38	0.029905424
130	0xbd6b96c2	-0.05751682
131	0x3e01449d	0.1262383
132	0x3d7a27db	0.061073165
133	0x3d1b61dc	0.037935123
134	0xbd4038a8	-0.04692903
135	0xbdb21dc5	-0.08697084
136	0x3dd8ed49	0.105921336
137	0x3db6ee72	0.089321986
138	0x3ce220ea	0.027603585
139	0xbdcd1356	-0.10013454
140	0x3cb8e58d	0.022570396
141	0xbc380c13	-0.0112333475
142	0x3dcf36de	0.10117887
143	0x3daacfcb	0.083404146
144	0x3d3941a4	0.045228615
145	0xbd4326d6	-0.04764446
146	0x3e078cf4	0.13237363
147	0xbd388f70	-0.045058668
148	0x3dc9ca09	0.09852988
149	0xbe134184	-0.14380461
150	0xbd07af79	-0.03312633
151	0xbd7c01cd	-0.061525155
152	0xbd61ca93	-0.05512483
153	0x3d92d45b	0.0716941
154	0xbda39d7e	-0.079890236
155	0xbd885a65	-0.066578664
156	0x3d0ed1e9	0.034868155
157	0x3d59a221	0.053133134
158	0xbc7de08b	-0.01549543
159	0xbe07a2f1	-0.13245751
160	0xbd1ff2ed	-0.03905003
161	0xbcecd60d	-0.028910661
162	0x3e013824	0.12619072
163	0xbcc90c9f	-0.024542151
164	0xbd25201c	-0.040313825
165	0xbd297a98	-0.04137668
166	0xbd536be6	-0.05161657
167	0x3d4a7a03	0.049432766
168	0x3df4de21	0.1195643
169	0x3c960800	0.018314362
170	0xbccb1b67	-0.02479334
171	0x3da93cb2	0.0826353
172	0x3d4cbb17	0.04998311
173	0xbda2d76c	-0.07951245
174	0xbc326748	-0.010888882
175	0xbd6a0873	-0.057136964
176	0x3da4e6ee	0.08051859
177	0x3d5b1538	0.053487033
178	0x3d8347c3	0.06410172
179	0xbb901ada	-0.004397732
180	0x3e07255a	0.13197842
181	0xbc9073a6	-0.01763327
182	0xbcaf4106	-0.02139331
183	0x3c8bc5a8	0.017062023
184	0xbdecb479	-0.1155786
185	0xbd8ce34a	-0.068792894
186	0xbd84bd11	-0.06481374
187	0xbd7b1369	-0.061297808
188	0xbc4cca7d	-0.012499449
189	0xbd2f2137	-0.042756286
190	0xbda4f4ea	-0.08054526
191	0x3ddaf282	0.10690786
192	0xbc9c1e70	-0.019057482
193	0x3d1ebde6	0.03875532
194	0x3de735ec	0.11289582
195	0xbdb13e7f	-0.08654498
196	0xbd1ebb9f	-0.03875315
197	0x3d0b3421	0.03398526
198	0x3da3efe9	0.080047436
199	0x3b158c85	0.0022819352
200	0x3ded4970	0.11586273
201	0xbdd84216	-0.1055948
202	0xbd9253af	-0.07144868
203	0x3df861a5	0.12127999
204	0x3d097dec	0.033567354
205	0x3e0688c6	0.13138112
206	0x3cd7cb09	0.026341932
207	0xbd80fb39	-0.06297917
208	0x3e1fe6cd	0.15615387
209	0x3e118228	0.14209807
210	0x3bfb9755	0.0076779523
211	0xbddc8ac5	-0.10768656
212	0x3cb13401	0.021631243
213	0xbc6974cb	-0.014249037
214	0x3d8f2deb	0.0699118
215	0xbd6ad9f9	-0.05733678
216	0x3d267fa4	0.04064907
217	0x3c6362b4	0.013878513
218	0x3d91c8be	0.07118367
219	0xbdde5189	-0.10855395
220	0x3e430cb0	0.19047809
221	0x3d7f557b	0.06233738
222	0xbd858219	-0.06518955
223	0x3e0f53f6	0.13996872
224	0x3d3109e1	0.043222312
225	0xbd8472c5	-0.06467203
226	0xbdeb6508	-0.114938796
227	0xbce945c6	-0.028475653
228	0xbe13362c	-0.14376134
229	0x3d543ce6	0.05181589
230	0x3daafa02	0.083484665
231	0xbbb772a3	-0.0055983826
232	0x3e1c8980	0.15286827
233	0xbc2c0b48	-0.010500737
234	0x3d2e6c84	0.042583957
235	0xbdbd2fd1	-0.09237636
236	0xbd880677	-0.06641858
237	0x3d56f594	0.052480295
238	0x3d1aca16	0.03779038
239	0x3badaa18	0.005299818
240	0xbd3603ab	-0.04443709
241	0x3dac4fd7	0.08413666
242	0x3db37e3b	0.08764311
243	0x3d34d507	0.04414847
244	0xbd551ddb	-0.052030426
245	0xbbc79d5d	-0.006091757
246	0x3cd1a63a	0.025591958
247	0x3da9f7cd	0.082992174
248	0xbc1c1f45	-0.00952894
249	0x3d4f847e	0.050663464
250	0xbd20c7c0	-0.039252996
251	0x3da0826f	0.07837378
252	0xbc5e3a25	-0.013563667
253	0x3dd9ce90	0.10635102
254	0x3d6bbac9	0.05755118
255	0xbd8c2429	-0.068428345

transformer_blocks.0.mlp.2.bias f4 [16]
0	0xbd43548b	-0.04768805
1	0x3d74c099	0.059753988
2	0xbd2cba07	-0.042169597
3	0xbdbc8716	-0.09205453
4	0xbd619e8d	-0.055082846
5	0xbd6d68f0	-0.057961404
6	0x3e062902	0.1310158
7	0x3b3a8a4e	0.0028463784
8	0xbcb01abf	-0.021497129
9	0x3cfa261e	0.030535754
10	0xbd9c8518	-0.07642573
11	0x3d6d8625	0.05798926
12	0x3c2335b6	0.009961536
13	0xbd35f88d	-0.04442649
14	0x3dbeb2fd	0.09311483
15	0xbdb03806	-0.086044356

transformer_blocks.1.norm1.weight f4 [16]
0	0x3f81725d	1.0113026
1	0x3f7ae8c1	0.98011404
2	0x3f84f942	1.0388567
3	0x3f81cde5	1.0140959
4	0x3f867e8c	1.0507369
5	0x3f7ef8fa	0.9959866
6	0x3f845d89	1.0341045
7	0x3f83e100	1.030304
8	0x3f76f836	0.9647249
9	0x3f7c9fc8	0.98681307
10	0x3f8a92b2	1.0826018
11	0x3f7de654	0.9917958
12	0x3f846edd	1.0346333
13	0x3f7dc101	0.99122626
14	0x3f8b418e	1.0879381
15	0x3f87349c	1.056293

transformer_blocks.1.norm1.bias f4 [16]
0	0xbcc3ed8e	-0.023916986
1	0x3c8eb217	0.017418904
2	0xbd372787	-0.04471543
3	0x3bc26e14	0.0059335325
4	0xba785562	-0.0009473172
5	0x3ca9a1e2	0.020707075
6	0x3b3089be	0.002693757
7	0xbc0c0712	-0.008546608
8	0xbd43f1ac	-0.047837898
9	0x3b3d4971	0.0028882886
10	0xbb1a5b8e	-0.0023553106
11	0xbc2d02fa	-0.010559792
12	0xbc729e3f	-0.014808237
13	0xbd6bc3b6	-0.05755969
14	0xbbc3af9a	-0.005971861
15	0x3a7d33d9	0.000965891

transformer_blocks.1.multi_head_attention.Q_mappers.0.weight f4 [8, 8]
0	0x3d9c8910	0.0764333
1	0xbea6f07e	-0.32605356
2	0x3e275a7d	0.16343112
3	0x3e030d4a	0.12798038
4	0xbe8ccd57	-0.27500412
5	0x3e601d3a	0.21886149
6	0x3d0983a3	0.033572804
7	0xbe3f1112	-0.18658856
8	0x3eac7c14	0.33688414
9	0x3e10a3f2	0.1412504
10	0x3e0d4f1b	0.13799708
11	0xbe0b9327	-0.13630353
12	0xbe3b5aba	-0.18296328
13	0xbe49138d	-0.19636364
14	0x3e274cb0	0.16337848
15	0x3d8cd581	0.0687666
16	0xbe532b53	-0.20621996
17	0x3e9c6ea7	0.3055317
18	0x3e5ea476	0.21742424
19	0xbdd163b0	-0.10224092
20	0x3e0a6aad	0.13517256
21	0xbe0ae428	-0.13563597
22	0x3e2085db	0.15676062
23	0x3e9a1da9	0.30100754
24	0xbeae1935	-0.34003606
25	0xbe5698ab	-0.20956676
26	0xbcfb4038	-0.03067027
27	0x3dbcbe4e	0.09215985
28	0xbeb5c606	-0.35502642
29	0xbe46d94a	-0.19418827
30	0xbc3d5b87	-0.011557466
31	0xbc9138f6	-0.017727356
32	0x3dd78a89	0.1052447
33	0x3cca90fc	0.024727337
34	0x3dbcec42	0.0922475
35	0x3d2ab280	0.041674137
36	0x3c1037fe	0.008802412
37	0xbc5f7b8e	-0.013640298
38	0x3e3d115b	0.18463652
39	0x3e64f774	0.22360021
40	0xbe23b21d	-0.15985914
41	0xbe54d18a	-0.20783058
42	0x3e282677	0.16420923
43	0xbe5f98bc	-0.21835607
44	0x3e3bd2b1	0.18342091
45	0x3e38520a	0.18000045
46	0x3dcaa92e	0.0989555
47	0xbe20afa0	-0.15691996
48	0xbce81806	-0.028331768
49	0xbe8e1319	-0.27748945
50	0xbea9c036	-0.33154458
51	0x3ebbb158	0.3665874
52	0xbebfd7de	-0.3746938
53	0xbe8b5d5c	-0.27219665
54	0xbe175e3f	-0.14782046
55	0x3d71aaf3	0.05900092
56	0x3dbc2457	0.09186619
57	0xbe0f3bc4	-0.13987643
58	0xbcce154d	-0.025156641
59	0xbde7f6e3	-0.11326387
60	0x3eb39335	0.35073248
61	0x3e8c4feb	0.27404723
62	0x3dea7987	0.11448961
63	0xbcb0d292	-0.021584783

transformer_blocks.1.multi_head_attention.Q_mappers.0.bias f4 [8]
0	0x3e870445	0.26370445
1	0xbe9e144d	-0.30874863
2	0x3e218b87	0.15775882
3	0xbe337ea4	-0.17528778
4	0x3e878d6f	0.26475093
5	0xbe9db7e8	-0.30804372
6	0x3e289343	0.16462426
7	0xbea08974	-0.31354868

transformer_blocks.1.multi_head_attention.Q_mappers.1.weight f4 [8, 8]
0	0x3e7c7b2a	0.24656358
1	0x3c9c24a4	0.01906044
2	0x3e66256b	0.22475211
3	0xbe482818	-0.19546545
4	0x3e260ee6	0.16216621
5	0xbe99549e	-0.2994737
6	0xbe8294c1	-0.25504115
7	0x3e58f8a2	0.21188596
8	0xbd8c4db7	-0.068507604
9	0xbe8d289c	-0.27570045
10	0xbe699ae2	-0.2281299
11	0xbdf23022	-0.11825587
12	0x3de3b0ab	0.11117681
13	0x3ec0866a	0.3760255
14	0x3e9fbb6a	0.31197673
15	0xbd249b80	-0.04018736
16	0xbe6a3629	-0.22872223
17	0xbe9a2b7d	-0.30111304
18	0x3ec809b2	0.39069897
19	0xbe756dcd	-0.23967667
20	0xbcfa2678	-0.030535921
21	0xbe6398f6	-0.22226319
22	0xbe455493	-0.19270544
23	0x3c43bd65	0.011947011
24	0xbe0537b4	-0.1300953
25	0x3ce61115	0.028084317
26	0x3d9a569b	0.0753605
27	0x3cb99cb9	0.022657739
28	0xbd939b10	-0.0720731
29	0x3c927f27	0.017882897
30	0x3e570959	0.2099966
31	0x3e744dcb	0.238578
32	0x3eabe754	0.33574927
33	0xbe87c239	-0.26515368
34	0xbec632f2	-0.38710743
35	0xbd27063c	-0.04077743
36	0xbd1770a6	-0.036972664
37	0x3e131ab4	0.14365655
38	0x3e831bd2	0.25607163
39	0x3e063634	0.13106614
40	0xbe5bda40	-0.21469975
41	0xbcc99710	-0.024608165
42	0x3e0e54fa	0.13899603
43	0x3e201b88	0.15635502
44	0xbe8b5742	-0.2721501
45	0xbd0cfb4a	-0.034419335
46	0xbed79437	-0.42105266
47	0xbdbbb39e	-0.09165119
48	0x3e545ccf	0.20738529
49	0xbdf82de0	-0.12118125
50	0x3e9d8c74	0.3077122
51	0xbeaef59e	-0.34171766
52	0x3eb6faf2	0.3573833
53	0x3e751be5	0.23936422
54	0x3e99de22	0.30052286
55	0x3cd9bb59	0.026578592
56	0xbc9e1f02	-0.019301895
57	0xbe3dfada	-0.18552724
58	0xbdd58fe4	-0.104278356
59	0xbe8b08c2	-0.2715512
60	0x3ea3fc8b	0.32028612
61	0xbd995161	-0.07486225
62	0x3db72b03	0.08943751
63	0xbec51a25	-0.3849651

transformer_blocks.1.multi_head_attention.Q_mappers.1.bias f4 [8]
0	0x3e2b444d	0.16725273
1	0xbe1aeff6	-0.151306
2	0xbea8cc25	-0.3296825
3	0x3d112850	0.035438836
4	0xbe9a0450	-0.30081415
5	0x3adca570	0.0016833972
6	0xbeb2e0c5	-0.3493711
7	0x3e3aa01a	0.18225136

transformer_blocks.1.multi_head_attention.K_mappers.0.weight f4 [8, 8]
0	0xbe82f6cc	-0.25578916
1	0x3cd45406	0.025918972
2	0x3e2c36c0	0.1681776
3	0xbead6bbe	-0.33871263
4	0x3e233dce	0.15941545
5	0x3eafb03a	0.34314138
6	0xbe2b0969	-0.16702808
7	0xbcd41613	-0.025889432
8	0x3e014c10	0.12626672
9	0x3e83faf9	0.25777414
10	0x3e9a3c86	0.301243
11	0xbe9c9760	-0.3058424
12	0xbe98368d	-0.2972912
13	0xbeaca0de	-0.33716482
14	0xbe1446cd	-0.14480133
15	0xbd2867f7	-0.041114774
16	0xbdf4e682	-0.119580284
17	0x3e74bfe1	0.23901321
18	0xbe8cd21c	-0.2750405
19	0xbe64d513	-0.22346906
20	0xbe5f80ad	-0.2182643
21	0xbe7f9302	-0.24958423
22	0x3e9ed51c	0.31021965
23	0x3da880bd	0.0822768
24	0xbc863b81	-0.016385796
25	0xbe100a4c	-0.14066428
26	0xbea6e922	-0.3259974
27	0xbe121d4e	-0.14268991
28	0x3e1198ed	0.14218493
29	0x3e89c64e	0.26909107
30	0x3e96d9c6	0.29463023
31	0x3bca7ae8	0.0061792023
32	0xbe2d3179	-0.16913404
33	0xbe64fbd5	-0.22361691
34	0x3e987c15	0.29782167
35	0xbeb0d633	-0.3453842
36	0x3d19dbc2	0.037563093
37	0x3c6b77b9	0.014371806
38	0x3ebb0f37	0.36535046
39	0x3e22a315	0.15882523
40	0xbdb903b3	-0.09033909
41	0xbe9cdd3a	-0.30637532
42	0x3d9ee9f8	0.0775947
43	0xbe70ceed	-0.23516436
44	0xbc819f10	-0.015822917
45	0x3d8170bb	0.0632033
46	0x3e21e912	0.15811566
47	0xbd8e40e6	-0.06945972
48	0xbe73db90	-0.23814225
49	0xbe922074	-0.28540385
50	0xbebb3e6a	-0.36571056
51	0x3d04223a	0.032259203
52	0xbe72b610	-0.23702264
53	0x3d2e921e	0.042619817
54	0xbe1c9d40	-0.15294361
55	0xbe896df4	-0.268417
56	0x3e689a64	0.22715145
57	0x3e4b56e1	0.1985736
58	0x3e9661f4	0.29371607
59	0x3eaf6731	0.34258416
60	0xbe73ac8f	-0.23796295
61	0xbe4d57a8	-0.2005297
62	0xbe8ec053	-0.27881107
63	0x3e7d2441	0.24720861

transformer_blocks.1.multi_head_attention.K_mappers.0.bias f4 [8]
0	0x3e556f6b	0.20843284
1	0x3e92be46	0.28660792
2	0xbe7d627b	-0.24744599
3	0xbe422fe3	-0.1896358
4	0x3eb0766d	0.34465352
5	0xbe8fb493	-0.28067455
6	0xbe7123f5	-0.23548873
7	0x3e055692	0.13021305

transformer_blocks.1.multi_head_attention.K_mappers.1.weight f4 [8, 8]
0	0xbe9b301d	-0.30310145
1	0xbd7678bf	-0.060173746
2	0x3da73877	0.08165067
3	0x3e9ad16f	0.3023791
4	0xbdc7c5c4	-0.09754518
5	0xbea0fef5	-0.31444517
6	0x3e0d1907	0.13779078
7	0x3ed8a32a	0.42311984
8	0xbe6187fc	-0.2202453
9	0xbd0046bc	-0.031317458
10	0xbe56764b	-0.20943563
11	0xbe71d5c6	-0.23616704
12	0x3e3e9dca	0.18614879
13	0x3e75febe	0.24022958
14	0x3e3753b4	0.17903024
15	0xbec5361b	-0.38517842
16	0xbd5066d0	-0.0508793
17	0x3e02230d	0.12708683
18	0x3c903478	0.017603144
19	0xbe21b7be	-0.15792748
20	0xbdfca370	-0.12335861
21	0x3ecddfc6	0.40209788
22	0xbe7a9095	-0.24469216
23	0xbea9c540	-0.33158302
24	0x3e58ee04	0.21184546
25	0xbe79f551	-0.24409987
26	0x3e698c7e	0.228075
27	0xbe1058de	-0.140964
28	0xbdb163d9	-0.086616226
29	0xbe7b9ff1	-0.24572732
30	0x3e9fd2dc	0.3121556
31	0x3e7a6294	0.24451667
32	0x3c00d478	0.0078631565
33	0x3d11fdd5	0.035642464
34	0xbe0b9519	-0.13631095
35	0xbe2f3a85	-0.17112167
36	0xbe0dd672	-0.13851336
37	0x3e05c06f	0.13061689
38	0xbd92f9e6	-0.071765706
39	0x3e7caee6	0.24676093
40	0xb9c4ebc6	-0.00037559698
41	0x3b664046	0.0035133525
42	0xbe775813	-0.24154691
43	0x3e4e3435	0.20137103
44	0xbec77079	-0.38952997
45	0xbb9f3d43	-0.004859598
46	0x3df66914	0.12031761
47	0x3dc0e051	0.09417785
48	0x3e96425e	0.2934751
49	0x3d967339	0.07346196
50	0xbd6a256f	-0.057164606
51	0xbe9f1c47	-0.3107626
52	0xbe864824	-0.26226914
53	0x3e841ee1	0.2580481
54	0x3e63811d	0.22217222
55	0xbea49693	-0.3214613
56	0x3e10815e	0.1411185
57	0xbe008f2f	-0.1255462
58	0x3ea21128	0.31653714
59	0xbe385ec0	-0.18004894
60	0x3eb2e0d8	0.34937167
61	0x3eaa6cc8	0.33286119
62	0x3e4f6ed4	0.20257121
63	0x3e59bc1b	0.21263163
