checkpoints/vit/epoch=6.checkpoint.pth.tar (torch, 60730 bytes, 46 tensors)

cls_token f4 [1, 16]
0	0x3e85596f	0.26044795
1	0xbc803118	-0.01564841
2	0x3f44f766	0.7694
3	0x3f1ab3ab	0.604304
4	0x3e7faf6a	0.24969259
5	0x3f756779	0.9586101
6	0x3e92cebe	0.28673357
7	0x3f4ec3f9	0.8076778
8	0x3f3f46ba	0.74717295
9	0x3db36cc2	0.08760978
10	0x3f52832c	0.822314
11	0x3cf095e8	0.029368356
12	0x3e738d6f	0.23784421
13	0x3ed41403	0.41421518
14	0x3e1eb1a0	0.15497446
15	0x3f71dd93	0.9447872

pos_embed f4 [257, 16]
0	0x00000000	0.0
1	0x3f800000	1.0
2	0x00000000	0.0
3	0x3f800000	1.0
4	0x00000000	0.0
5	0x3f800000	1.0
6	0x00000000	0.0
7	0x3f800000	1.0
8	0x00000000	0.0
9	0x3f800000	1.0
10	0x00000000	0.0
11	0x3f800000	1.0
12	0x00000000	0.0
13	0x3f800000	1.0
14	0x00000000	0.0
15	0x3f800000	1.0
16	0x3f576aa4	0.84147096
17	0x3f0a5140	0.5403023
18	0x3e9f393e	0.3109836
19	0x3f734e6a	0.95041525
20	0x3dcc7576	0.099833414
21	0x3f7eb898	0.9950042
22	0x3d01815c	0.031617507
23	0x3f7fdf3c	0.99950004
24	0x3c23d657	0.009999833
25	0x3f7ffcb9	0.99995
26	0x3b4f3e20	0.0031622723
27	0x3f7fffac	0.999995
28	0x3a83126d	0.0009999998
29	0x3f7ffff8	0.9999995
30	0x39a5cb5f	0.00031622776
31	0x3f7fffff	0.99999994
32	0x3f68c7b7	0.9092974
33	0xbed51133	-0.41614684
34	0x3f17541b	0.5911271
35	0x3f4e7bec	0.8065784
36	0x3e4b6ff9	0.19866933
37	0x3f7ae5a5	0.9800666
38	0x3d8170c8	0.063203394
39	0x3f7f7cf9	0.9980007
40	0x3ca3d43e	0.019998666
41	0x3f7ff2e5	0.9998
42	0x3bcf3ddd	0.0063245133
43	0x3f7ffeb0	0.99998
44	0x3b031269	0.0019999987
45	0x3f7fffde	0.999998
46	0x3a25cb5f	0.0006324555
47	0x3f7ffffd	0.9999998
48	0x3e1081c3	0.14112
49	0xbf7d7026	-0.9899925
50	0x3f5009c2	0.8126489
51	0x3f152f57	0.5827536
52	0x3e974e6d	0.29552022
53	0x3f7490ef	0.9553365
54	0x3dc1ffc1	0.09472609
55	0x3f7ed94f	0.99550337
56	0x3cf5b920	0.029995501
57	0x3f7fe283	0.99955004
58	0x3c1b6e11	0.009486691
59	0x3f7ffd0d	0.999955
60	0x3b449b93	0.0029999956
61	0x3f7fffb5	0.9999955
62	0x3a78b10d	0.0009486832
63	0x3f7ffff8	0.9999995
64	0xbf41bdcf	-0.7568025
65	0xbf275530	-0.6536436
66	0x3f741dde	0.95358074
67	0x3e9a2eb1	0.30113748
68	0x3ec761d7	0.38941833
69	0x3f6bcaa7	0.921061
70	0x3e012e88	0.12615407
71	0x3f7df469	0.99201065
72	0x3d23cbdb	0.039989334
73	0x3f7fcb94	0.9992001
74	0x3c4f3ccd	0.012648773
75	0x3f7ffac2	0.99992
76	0x3b831258	0.0039999895
77	0x3f7fff7a	0.999992
78	0x3aa5cb5c	0.0012649107
79	0x3f7ffff3	0.9999992
80	0xbf757c10	-0.9589243
81	0x3e913c2c	0.2836622
82	0x3f7ffc7f	0.99994653
83	0xbc2972d4	-0.010342319
84	0x3ef57744	0.47942555
85	0x3f60a940	0.87758255
86	0x3e213c1e	0.15745589
87	0x3f7cce81	0.987526
88	0x3d4cb6f5	0.04997917
89	0x3f7fae19	0.99875027
90	0x3c818581	0.01581073
91	0x3f7ff7cf	0.999875
92	0x3ba3d6de	0.0049999794
93	0x3f7fff2e	0.9999875
94	0x3acf3e31	0.0015811381
95	0x3f7fffeb	0.99999875
96	0xbe8f0f8c	-0.2794155
97	0x3f75cdb8	0.96017027
98	0x3f72784d	0.94714814
99	0xbea43f6f	-0.32079646
100	0x3f108c69	0.5646425
101	0x3f534932	0.8253356
102	0x3e41206f	0.18860029
103	0x3f7b67e3	0.98205394
104	0x3d759cd1	0.059964005
105	0x3f7f8a12	0.99820054
106	0x3c9b6c46	0.018972527
107	0x3f7ff434	0.99982
108	0x3bc49b59	0.005999964
109	0x3f7ffed2	0.999982
110	0x3af8b105	0.0018973654
111	0x3f7fffe2	0.9999982
112	0x3f283046	0.6569866
113	0x3f40ffbd	0.75390226
114	0x3f4ce86f	0.80042166
115	0xbf1974bb	-0.5994374
116	0x3f24eb73	0.64421767
117	0x3f43ccb3	0.7648422
118	0x3e60d350	0.2195561
119	0x3f79c0ea	0.9755999
120	0x3d8f3e32	0.06994285
121	0x3f7f5f81	0.997551
122	0x3cb552a6	0.022134136
123	0x3f7feff2	0.999755
124	0x3be55fc7	0.006999943
125	0x3f7ffe65	0.9999755
126	0x3b1111ec	0.0022135926
127	0x3f7fffd7	0.99999756
128	0x3f7d4695	0.98935825
129	0xbe14fdf6	-0.14550003
130	0x3f13067d	0.57431775
131	0xbf5191e6	-0.8186325
132	0x3f37a4a6	0.7173561
133	0x3f325b5f	0.6967067
134	0x3e802652	0.25029236
135	0x3f77da02	0.9681703
136	0x3da3aa51	0.0799147
137	0x3f7f2e66	0.99680173
138	0x3ccf388e	0.025295522
139	0x3f7feb08	0.99968004
140	0x3c031213	0.007999915
141	0x3f7ffde7	0.999968
142	0x3b25cb54	0.0025298195
143	0x3f7fffca	0.9999968
144	0x3ed30132	0.4121185
145	0xbf693fd5	-0.91113025
146	0x3e951fea	0.2912591
147	0xbf74e6a2	-0.9566442
148	0x3f48881d	0.7833269
149	0x3f1f21d5	0.62161
150	0x3e8fc22e	0.28077835
151	0x3f75b3a9	0.95977265
152	0x3db8123f	0.08987855
153	0x3f7ef6c2	0.9959527
154	0x3ce91def	0.028456656
155	0x3f7fe576	0.99959505
156	0x3c13743a	0.008999879
157	0x3f7ffd59	0.9999595
158	0x3b3a84bb	0.0028460461
159	0x3f7fffbc	0.99999595
160	0xbf0b44f8	-0.5440211
161	0xbf56cd64	-0.8390715
162	0xbca97082	-0.02068353
163	0xbf7ff1fb	-0.9997861
164	0x3f576aa4	0.84147096
165	0x3f0a5140	0.5403023
166	0x3e9f393e	0.3109836
167	0x3f734e6a	0.95041525
168	0x3dcc7576	0.099833414
169	0x3f7eb898	0.9950042
170	0x3d01815c	0.031617507
171	0x3f7fdf3c	0.99950004
172	0x3c23d657	0.009999833
173	0x3f7ffcb9	0.99995
174	0x3b4f3e20	0.0031622723
175	0x3f7fffac	0.999995
176	0xbf7fff5c	-0.9999902
177	0x3b910572	0.004425698
178	0xbea94121	-0.33057502
179	0xbf719b8c	-0.9437797
180	0x3f64262a	0.89120734
181	0x3ee83dc0	0.45359612
182	0x3eae878b	0.34087786
183	0x3f70aae4	0.9401076
184	0x3de0d372	0.1097783
185	0x3f7e73e8	0.9939561
186	0x3d0e736b	0.03477804
187	0x3f7fd85b	0.9993951
188	0x3c34386a	0.010999778
189	0x3f7ffc09	0.9999395
190	0x3b63f785	0.0034784984
191	0x3f7fff9a	0.9999939
192	0xbf095cd8	-0.53657293
193	0x3f5806d0	0.84385395
194	0xbf1b9126	-0.60768354
195	0xbf4b4f55	-0.79417926
196	0x3f6e9a1d	0.9320391
197	0x3eb986f5	0.36235777
198	0x3ebda92c	0.3704313
199	0x3f6dc9c3	0.9288599
200	0x3df52bac	0.119712204
201	0x3f7e28b5	0.99280864
202	0x3d1b651d	0.037938226
203	0x3f7fd0d2	0.9992801
204	0x3c449a71	0.011999712
205	0x3f7ffb48	0.999928
206	0x3b78b0e8	0.0037947241
207	0x3f7fff87	0.9999928
208	0x3ed72022	0.42016703
209	0x3f684e6f	0.9074468
210	0xbf53144c	-0.82452846
211	0xbf10d99d	-0.5658205
212	0x3f76abc0	0.9635582
213	0x3e88f59b	0.26749882
214	0x3ecc9a40	0.39961433
215	0x3f6aabc3	0.9166834
216	0x3e04bed0	0.12963414
217	0x3f7dd700	0.9915619
218	0x3d285669	0.041098032
219	0x3f7fc8a1	0.9991551
220	0x3c54fc6b	0.012999634
221	0x3f7ffa76	0.9999155
222	0x3b86b525	0.0041109496
223	0x3f7fff72	0.99999154
224	0x3f7d9872	0.9906074
225	0x3e0c04d7	0.13673721
226	0xbf75a8b2	-0.95960534
227	0xbe900d0f	-0.28134963
228	0x3f7c466f	0.98544973
229	0x3e2e0bde	0.16996714
230	0x3edb56f5	0.4283978
231	0x3f6751b1	0.90359026
232	0x3e0ee464	0.13954312
233	0x3f7d7ecc	0.990216
234	0x3d354746	0.044257425
235	0x3f7fbfc9	0.99902016
236	0x3c655e56	0.013999542
237	0x3f7ff994	0.999902
238	0x3b9111d4	0.004427174
239	0x3f7fff5c	0.9999902
240	0x3f267944	0.65028787
241	0xbf427ae8	-0.7596879
242	0xbf7fe075	-0.9995187
243	0x3cfe22f7	0.031022532
244	0x3f7f5bd5	0.997495
245	0x3d90deaa	0.0707372
246	0x3ee9db83	0.45675287
247	0x3f63bc68	0.8895936
248	0x3e19064f	0.14943813
249	0x3f7d201a	0.9887711
250	0x3d4237ad	0.047416378
251	0x3f7fb649	0.9988752
252	0x3c75c033	0.014999437
253	0x3f7ff8a1	0.9998875
254	0x3b9b6e83	0.0047433986
255	0x3f7fff43	0.99998873

patch_to_token.weight f4 [16, 48]
0	0x3d9709d4	0.073749214
1	0x3daad7cc	0.08341941
2	0xbd8f70a1	-0.07003904
3	0x3dc46790	0.095900655
4	0xbd8b2853	-0.067948006
5	0xbbe3df05	-0.0069540762
6	0xbdda5101	-0.106599815
7	0x3d43c272	0.04779286
8	0x3db9a90b	0.090654455
9	0xbe1172e5	-0.14203985
10	0x3db62158	0.088930786
11	0xbc27d5ec	-0.010243874
12	0x3d8dd504	0.06925395
13	0xbc8eb4e5	-0.017420242
14	0x3d04268f	0.032263335
15	0xbd6d93e6	-0.058002375
16	0x3e00e8e0	0.12588835
17	0x3d15fffa	0.03662107
18	0xbd553052	-0.052048035
19	0x3d47a715	0.048743326
20	0xbd4eef45	-0.050521154
21	0xba61322b	-0.00085905445
22	0xbd310553	-0.04321797
23	0x3ddca5ca	0.10773809
24	0xbdcedc6d	-0.10100637
25	0xbd5310d9	-0.05152974
26	0xbcd838c6	-0.02639426
27	0xbd97988a	-0.074021414
28	0x3cc717d5	0.024303356
29	0xbe04b072	-0.12957934
30	0x3e11d2c4	0.14240557
31	0xbde8b062	-0.11361767
32	0x3da5e0b8	0.08099502
33	0xbbd14554	-0.0063864384
34	0xbd9ed323	-0.07755115
35	0x3d6d51d9	0.057939384
36	0xbc0469e9	-0.008081892
37	0x3dafc521	0.08582521
38	0xbc805aef	-0.01566836
39	0xbd9eeecb	-0.0776039
40	0x3c00f636	0.007871201
41	0xbd900d08	-0.070337355
42	0x3cec64b9	0.028856622
43	0x3dc5202f	0.09625279
44	0x3d52e048	0.051483423
45	0xbdc2d070	-0.095124125
46	0x3d4fc91a	0.050728895
47	0xbbe12670	-0.006871037
48	0x3d2b8fb1	0.04188508
49	0xbdf0df44	-0.117613345
50	0xbe3099bb	-0.17246144
51	0xbdaef207	-0.08542257
52	0xbe124c14	-0.14286834
53	0x3db28f27	0.087187104
54	0x3c2b2924	0.01044682
55	0x3cec9c99	0.028883265
56	0x3c48d750	0.012258366
57	0xbd0ff86e	-0.03514903
58	0x3da628ae	0.08113228
59	0xbe09391b	-0.1340069
60	0xbcd5df70	-0.02610752
61	0xbe07c61f	-0.13259171
62	0x3c372975	0.011179318
63	0xbdaa2afa	-0.083089784
64	0x3da7cf08	0.08193785
65	0x3bf09d9c	0.0073430073
66	0x3e20368c	0.15645808
67	0xbd4a0c3c	-0.049328074
68	0xbd451c7e	-0.048122875
69	0xbd49b894	-0.049248293
70	0x3e29eb07	0.16593562
71	0x3dac0944	0.08400205
72	0x3e345d10	0.17613626
73	0xbdaa29be	-0.08308743
74	0xbddb82df	-0.10718321
75	0xbd9db892	-0.077012196
76	0xbd790ea7	-0.06080499
77	0x3dc0dc74	0.09417048
78	0x3db31e4a	0.087460116
79	0x3e1eda72	0.15513018
80	0xbdb14253	-0.086552285
81	0xbde172f2	-0.11008252
82	0x3d83eb81	0.06441403
83	0xbd901985	-0.070361175
84	0x3d98b461	0.074562795
85	0xbd452629	-0.048132095
86	0x3d8bb31f	0.06821274
87	0xbe00d287	-0.1258031
88	0xbdb38510	-0.08765614
89	0x3ce5bcd2	0.028044138
90	0x3c7ae94c	0.015314411
91	0xbd523768	-0.05132237
92	0x3d8e54b6	0.06949751
93	0x3da6a855	0.081375755
94	0xbdf74bd5	-0.12075011
95	0xbdbeae57	-0.093105964
96	0x3e30d497	0.17268597
97	0xbc0358b5	-0.008016755
98	0xbc13d77a	-0.009023542
99	0xbdc4e63e	-0.09614228
100	0xbd2a20a4	-0.041535035
101	0x3d9f5f52	0.07781853
102	0x3cc22b4a	0.023702282
103	0xbd79ca4c	-0.06098394
104	0x3d3b3947	0.04570892
105	0xbd65c2b6	-0.056093894
106	0xbda305d3	-0.07960095
107	0xbd113072	-0.03544659
108	0xbda85a0b	-0.08220299
109	0xbd4629b3	-0.04837961
110	0x3e40b07f	0.18817328
111	0x3d93e387	0.07221132
112	0x3d04c1df	0.032411452
113	0xbe1535ba	-0.14571276
114	0xbdd4e84a	-0.10395868
115	0xbd642bdb	-0.055705886
116	0x3c254dac	0.010089319
117	0xbe0ccc0f	-0.13749717
118	0xbd910ac3	-0.07082131
119	0xbdc19b1d	-0.09453414
120	0xbc3d8f0a	-0.011569748
121	0xbd84248a	-0.06452282
122	0xbca5bebf	-0.020232556
123	0xbddc8e05	-0.107692756
124	0xbde07bc9	-0.1096111
125	0xbdc2e6c3	-0.095166706
126	0xbd76d15d	-0.060258258
127	0xbdfddf0b	-0.12396058
128	0x3e0be729	0.136624
129	0xbc5076f6	-0.012723675
130	0x3e10b19a	0.1413025
131	0x3d81fabc	0.06346652
132	0xbdda71d6	-0.10666244
133	0x3dee4415	0.11634079
134	0xbcb6b89d	-0.022304827
135	0xbd176b04	-0.036967292
136	0xbdd43e8e	-0.10363494
137	0xbe01ab47	-0.12662993
138	0x3d6ebaba	0.058283545
139	0xbc5e3512	-0.013562458
140	0x3d9737c5	0.07383684
141	0xbdcf239c	-0.10114214
142	0x3dfee9e1	0.124469526
143	0xbdb386de	-0.08765958
144	0x3bf591aa	0.007494171
145	0x3d7d0b6a	0.061778463
146	0x3dda92fa	0.10672565
147	0x3e194b3e	0.14970109
148	0x3e27559e	0.16341254
149	0xbda8bb28	-0.08238822
150	0x3d8d7216	0.06906526
151	0xbce99246	-0.028512131
152	0x3c8b8a58	0.01703374
153	0xbd9a2a55	-0.075276054
154	0x3e28e318	0.1649288
155	0xbd927c18	-0.07152575
156	0x3de4b15c	0.11166641
157	0x3dad9cea	0.084771946
158	0x3da6f0cc	0.08151397
159	0xbd2ec6db	-0.042670112
160	0x3dc7eb18	0.097616374
161	0xbb2d8381	-0.0026476088
162	0xbc80de3d	-0.015730971
163	0xbe24c6a5	-0.16091402
164	0x3cd2616d	0.025681222
165	0xbd668678	-0.056280583
166	0xbdce6d35	-0.10079423
167	0x3db76e93	0.08956637
168	0xbb19705e	-0.0023412923
169	0xbde9eeb9	-0.11422486
170	0xbddbce01	-0.107326515
171	0xbd277074	-0.040878728
172	0x3d42ae49	0.047529493
173	0xbd8fe9f6	-0.070270464
174	0xbdec20f4	-0.11529723
175	0xbda7685c	-0.08174202
176	0xbdbd40cc	-0.09240875
177	0x3d8683ec	0.06568131
178	0x3e009411	0.12556483
179	0xbdf8fd23	-0.12157657
180	0x3d43d3b8	0.047809333
181	0x3db6a956	0.08919017
182	0x3d25e718	0.04050359
183	0xbd17bcb3	-0.037045192
184	0x3db938c3	0.090440296
185	0x3dbb37e2	0.09141518
186	0x3d8d84e8	0.069101155
187	0xbc225d5a	-0.009909952
188	0xbcb1d2e5	-0.021707008
189	0x3d015e37	0.03158399
190	0xbc1a37cc	-0.009412717
191	0xbcd9edd9	-0.026602672
192	0x3df50187	0.11963182
193	0x3e19bb35	0.1501282
194	0x3c363086	0.011119967
195	0xbbde9e47	-0.0067937705
196	0x3cfa896d	0.030583108
197	0x3ca07660	0.019587696
198	0x3d7f440a	0.062320746
199	0x3d899e21	0.06719614
200	0xbdcd5950	-0.10026801
201	0xbcb8f860	-0.022579372
202	0x3e1b67ca	0.15176311
203	0x3daf4085	0.08557228
204	0x3cd49252	0.025948677
205	0xbd5d5622	-0.05403722
206	0xbd62599e	-0.055261247
207	0xbdc5f731	-0.09666289
208	0xbda354e0	-0.07975173
209	0x3c553487	0.013013012
210	0x3d6b76e6	0.057486437
211	0x3d04a3a8	0.032382637
212	0xbe2724c8	-0.16322625
213	0xbdfa880c	-0.1223298
214	0xbd71ec3c	-0.05906318
215	0x3dd69395	0.10477368
216	0xbc3cdaa7	-0.01152674
217	0xbd925b92	-0.07146372
218	0x3ccbb994	0.024868764
219	0xbdb545a9	-0.08851177
220	0xbdfd445d	-0.12366555
221	0x3d95f219	0.07321567
222	0xbdc8346f	-0.09775626
223	0xbd7212bc	-0.059099898
224	0xbe07a23d	-0.13245483
225	0x3ddabcab	0.10680517
226	0x3df378dd	0.11888287
227	0x3d7d5edb	0.06185804
228	0xbdb7204c	-0.08941707
229	0xbe05b0f5	-0.13055785
230	0xbdd897c6	-0.105758235
231	0x3df0e936	0.117632315
232	0x3da7868a	0.08179958
233	0x3e0a5a99	0.13511123
234	0x3db602e9	0.08887274
235	0x3d462bda	0.048381664
236	0x3c5bf402	0.013424875
237	0xbdc14d65	-0.0943859
238	0xbddd22de	-0.10797666
239	0xbdf6321e	-0.12021278
240	0x3cf55a5d	0.029950315
241	0xbdc94ef8	-0.09829515
242	0xbd660f3d	-0.056166876
243	0xbde31689	-0.110882826
244	0xbd60aa7f	-0.054850098
245	0xbe03f6af	-0.12887071
246	0xbdf79b31	-0.12090147
247	0x3cab9a78	0.02094768
248	0xbd922c1f	-0.07137322
249	0x3d7bf6cc	0.06151466
250	0xbd953bd5	-0.07286803
251	0xbe075474	-0.1321581
252	0xbd629174	-0.055314496
253	0xbdc9efef	-0.09860217
254	0xbd93ae8d	-0.07211027
255	0xbe2902f0	-0.16505027

patch_to_token.bias f4 [16]
0	0xbda64250	-0.08118117
1	0x3e1cf856	0.15329108
2	0x3da452b1	0.08023585
3	0x3da2bd5e	0.07946275
4	0xbda6f739	-0.08152623
5	0xbd6d5d86	-0.05795052
6	0xbcafc633	-0.021456813
7	0xbd04d8f1	-0.032433454
8	0xbe0eb776	-0.13937172
9	0x3d2169ee	0.039407663
10	0x3c31d013	0.010852831
11	0xbd9af645	-0.075665034
12	0x3d08befc	0.033385262
13	0xbdf56b58	-0.11983365
14	0x3d4a3ed0	0.04937631
15	0x3d243277	0.04008719

transformer_blocks.0.norm1.weight f4 [16]
0	0x3f7be1bc	0.9839132
1	0x3f864406	1.0489509
2	0x3f814faf	1.0102443
3	0x3f843217	1.0327786
4	0x3f841b60	1.0320854
5	0x3f865ddf	1.0497397
6	0x3f7f4eae	0.9972943
7	0x3f83948c	1.0279708
8	0x3f7fa27c	0.99857306
9	0x3f85be17	1.0448636
10	0x3f86a3e8	1.051877
11	0x3f78fb50	0.9725847
12	0x3f8853fc	1.065063
13	0x3f7496eb	0.9554278
14	0x3f84d090	1.0376148
15	0x3f7e47d7	0.9932837

transformer_blocks.0.norm1.bias f4 [16]
0	0xbc5a72ce	-0.013333036
1	0x3a423578	0.000740848
2	0x3bd7bcd1	0.006583788
3	0x3c29deae	0.010368032
4	0xbce39d50	-0.027784973
5	0x3a329ddf	0.0006813686
6	0x3c119677	0.008885971
7	0xbc211be9	-0.009833314
8	0xbc6d87ce	-0.01449771
9	0xbc21831e	-0.009857921
10	0xbc54d888	-0.012991078
11	0xbd21b7c8	-0.039481908
12	0x3b8e2869	0.0043383134
13	0xbd1f7a66	-0.038935088
14	0x3c0ab8a5	0.008466874
15	0xbb3cad9b	-0.002879

transformer_blocks.0.multi_head_attention.Q_mappers.0.weight f4 [8, 8]
0	0xbdae88fd	-0.08522222
1	0x3dfeb5b2	0.124369994
2	0xbeaa3a77	-0.3324773
3	0x3e4e734b	0.20161168
4	0xbde9a39b	-0.114081584
5	0xbe8417a5	-0.2579929
6	0x3d3ddc26	0.046352528
7	0x3e349371	0.1763437
8	0x3e967433	0.29385528
9	0xbe41f95c	-0.1894278
10	0xbe3b76bf	-0.18307017
11	0x3d7d0fa9	0.061782513
12	0x3dbb564e	0.09147321
13	0x3e15b213	0.14618711
14	0x3e44c481	0.19215585
15	0xbd9dde82	-0.077084556
16	0x3e3a203c	0.18176359
17	0x3e8e9e48	0.27855134
18	0xbdddc4f2	-0.1082858
19	0x3e8073d5	0.25088373
20	0x3e2ae012	0.16687039
21	0x3ea53756	0.3226878
22	0xbe547337	-0.20747076
23	0xbe2bf600	-0.1679306
24	0xbddbebee	-0.107383594
25	0x3d5fcd69	0.054639254
26	0x3e5e9bde	0.21739146
27	0xbe420e01	-0.18950655
28	0x3e2b02e8	0.16700327
29	0xbdf940ce	-0.12170564
30	0x3e544346	0.20728788
31	0xbbffdabf	-0.007808059
32	0xbe9482d9	-0.2900608
33	0xbe82fa93	-0.25581798
34	0xbe7cee3e	-0.24700257
35	0x3e2fde7d	0.17174716
36	0xbe6a6f23	-0.22893958
37	0xbd802921	-0.06257845
38	0x3d9fce9a	0.07803078
39	0xbe5469e7	-0.20743524
40	0x3e022b58	0.12711847
41	0xbebfbef8	-0.37450385
42	0xbe79a8fe	-0.24380872
43	0xbe9e6dd1	-0.30943158
44	0xbdcb7bc9	-0.099357195
45	0xbe292b46	-0.16520414
46	0x3d2d8a70	0.042368352
47	0xbdad9c92	-0.08477129
48	0x3e0680f6	0.13135132
49	0x3eab0e25	0.3340923
50	0x3df9772a	0.12180932
51	0xbe0754a7	-0.13215886
52	0xbeb259c0	-0.348341
53	0x3e232261	0.15931083
54	0xbe35017a	-0.17676345
55	0x3e4b12d1	0.19831397
56	0x3e71fa95	0.23630746
57	0x3e42f534	0.1903885
58	0x3eac9a64	0.3371154
59	0x3eb19e37	0.3469102
60	0x3d966fd1	0.07345546
61	0xbe818e25	-0.2530376
62	0x3ea09008	0.31359887
63	0xbe2423f3	-0.16029339

transformer_blocks.0.multi_head_attention.Q_mappers.0.bias f4 [8]
0	0xbe1f5a44	-0.15561777
1	0x3e9c3e6d	0.30516377
2	0x3e92d351	0.28676847
3	0x3ddef62b	0.108867966
4	0x3c98ebb1	0.018667074
5	0xbe9cfd3c	-0.30661952
6	0xbcc66464	-0.024217792
7	0x3eaa2a32	0.33235317

transformer_blocks.0.multi_head_attention.Q_mappers.1.weight f4 [8, 8]
0	0x3d880ad3	0.066426896
1	0x3cc2db62	0.02378625
2	0xbd8c59ed	-0.068530895
3	0xbe2eec76	-0.1708239
4	0x3e6034b8	0.2189511
5	0x3b5c0ed6	0.003357818
6	0x3e728a0e	0.23685476
7	0xbd9c72fb	-0.07639118
8	0x3e37fb5d	0.17966981
9	0x3e01d69f	0.12679528
10	0x3d4b0be8	0.0495719
11	0x3e5713f2	0.21003702
12	0x3e81287f	0.2522621
13	0x3e9f634d	0.31130448
14	0x3ea20623	0.31645307
15	0xbdfc8605	-0.1233025
16	0xbea08fdf	-0.31359765
17	0x3d8ead82	0.06966688
18	0xbd03fdab	-0.03222434
19	0xbcdbe0ca	-0.026840586
20	0xbdf2cb07	-0.11855131
21	0x3da4f269	0.080540486
22	0x3e4e8b2b	0.20170276
23	0x3e301818	0.17196691
24	0xbe1b5ae4	-0.15171391
25	0xbe1c49e8	-0.15262568
26	0xbd8fd7e2	-0.07023598
27	0xbe24324c	-0.16034812
28	0x3ea46b38	0.3211305
29	0x3e355838	0.17709434
30	0x3ea3cabe	0.31990618
31	0xbba23ef7	-0.0049513537
32	0x3daa949a	0.08329125
33	0x3dd5e999	0.10444946
34	0xbec1e697	-0.3787124
35	0x3da3b683	0.07993796
36	0xbd86d306	-0.06583218
37	0xbe0e625b	-0.13904707
38	0xbe99ae26	-0.30015677
39	0x3eb651f4	0.356094
40	0x3e9c311e	0.30506223
41	0x3e13edbd	0.14446159
42	0x3e99cd07	0.30039236
43	0xbdc767a7	-0.09736567
44	0xbdc0e1cb	-0.094180666
45	0x3e2745ed	0.16335268
46	0xbd9dc5be	-0.07703732
47	0xbd313899	-0.043266866
48	0xbea2f1dc	-0.3182515
49	0x3db7c4c5	0.08973078
50	0xbe363052	-0.1779187
51	0xbc323bd8	-0.010878526
52	0x3eb613f9	0.35562113
53	0xbdfb902d	-0.12283359
54	0xbddae6f0	-0.10688579
55	0x3e4f5725	0.20248087
56	0xbe15d58b	-0.14632241
57	0x3abca72b	0.0014393082
58	0x3eba9ebb	0.36449227
59	0xbe3d3fad	-0.18481322
60	0xbe6afb70	-0.22947478
61	0xbe6e35f8	-0.23262775
62	0xbdbe47e5	-0.092910565
63	0xbe3d4f1e	-0.18487212

transformer_blocks.0.multi_head_attention.Q_mappers.1.bias f4 [8]
0	0xbe4df1e2	-0.20111802
1	0x3dea7d0d	0.11449633
2	0x3dfd6676	0.123730585
3	0xbdf62c50	-0.12020171
4	0xbe5f873d	-0.21828933
5	0xbdaf464e	-0.085583314
6	0xbe22683d	-0.15860076
7	0xbe0ac92a	-0.135533

transformer_blocks.0.multi_head_attention.K_mappers.0.weight f4 [8, 8]
0	0xbea326f7	-0.31865665
1	0x3d942ef2	0.072355166
2	0xbe9049e0	-0.28181362
3	0xbe77bc8c	-0.24193019
4	0xbe9345ea	-0.28764278
5	0x3de41d00	0.11138344
6	0xbe39aaa3	-0.18131499
7	0xbe09f583	-0.13472562
8	0x3e83fef9	0.25780466
9	0x3e50e8b0	0.20401263
10	0x3e62da03	0.22153477
11	0xbeaab8a4	-0.33343995
12	0xbe83d5b2	-0.25748974
13	0xbe07db92	-0.13267353
14	0x3e8604c2	0.26175505
15	0x3d8a743f	0.067604534
16	0xbe88c729	-0.26714447
17	0x3c033a4f	0.008009507
18	0xbe8f4050	-0.27978754
19	0xbd9509dc	-0.07277271
20	0xbdd2dbbf	-0.102958195
21	0x3e9a83fe	0.30178827
22	0x3e07a1eb	0.1324536
23	0xbdb2bdec	-0.08727631
24	0x3d828f4b	0.06374987
25	0xbdd42fcd	-0.1036068
26	0x3e103915	0.14084275
27	0x3e0666c1	0.13125135
28	0x3dc77b69	0.097403355
29	0xbe0235ac	-0.12715787
30	0x3e8f7fc4	0.28027165
31	0xbd0f8efd	-0.035048474
32	0xbe1df5af	-0.15425752
33	0x3e674281	0.22583963
34	0x3e97e95c	0.29670227
35	0x3eb15cbd	0.34641066
36	0x3db0cdaf	0.08632981
37	0xbde35e49	-0.11101968
38	0x3e48ade6	0.19597587
39	0x3e938aff	0.28816983
40	0xbeb07f7f	-0.34472272
41	0xbd337274	-0.043810323
42	0xbe74a6b8	-0.23891723
43	0x3d828ff3	0.063751124
44	0x3e1f7576	0.15572152
45	0xbd9b7479	-0.07590575
46	0xbd5a2382	-0.05325652
47	0x3e428f09	0.18999876
48	0xbd64025f	-0.055666324
49	0xbe984b72	-0.2974506
50	0x3e8d3805	0.27581802
51	0xbe348d6c	-0.17632073
52	0xbd1abca2	-0.03777755
53	0x3ce4d8bc	0.027935378
54	0x3b517de9	0.0031965917
55	0xbebc9842	-0.36834913
56	0x3e268a28	0.1626364
57	0xbe2eaa8b	-0.17057244
58	0xbe3d657e	-0.18495747
59	0x3dbaddc4	0.0912433
60	0xbe301b44	-0.17197901
61	0xbe30953c	-0.17244428
62	0xbe0d34fd	-0.13789745
63	0xbdacf6cd	-0.08445511

transformer_blocks.0.multi_head_attention.K_mappers.0.bias f4 [8]
0	0xbe1733e7	-0.14765893
1	0xbdc33da8	-0.09533244
2	0x3dbc4295	0.09192387
3	0xbe927343	-0.28603563
4	0xbe5b32c1	-0.2140608
5	0x3ba9ddcc	0.005183911
6	0x3d48eb1a	0.049052335
7	0x3e4803ae	0.19532654

transformer_blocks.0.multi_head_attention.K_mappers.1.weight f4 [8, 8]
0	0xbe8a7286	-0.270405
1	0x3e229a05	0.15879066
2	0x3e64ef6d	0.22356959
3	0x3e0fea2b	0.14054172
4	0xbe8dd4a5	-0.27701297
5	0xbdb3e69c	-0.087842196
6	0xbeaf2e39	-0.34214953
7	0xbe8691fa	-0.26283246
8	0x3e5a53a1	0.21320964
9	0xbd17986f	-0.037010606
10	0x3e277ff2	0.16357401
11	0xbe8100f4	-0.2519604
12	0x3dc83f79	0.097777314
13	0xbe4c5972	-0.19955996
14	0x3e264cea	0.16240278
15	0xbe32aebc	-0.17449468
16	0xbda8aa6a	-0.08235629
17	0xbeb609ca	-0.35554343
18	0xbcdae33a	-0.026719678
19	0x3ecb65b6	0.39726037
20	0x3df9adbc	0.1219134
21	0xbe6547b2	-0.22390631
22	0x3d230580	0.039800167
23	0x3b7ee58c	0.0038894145
24	0xbe9c2028	-0.30493283
25	0x3ea50948	0.32233644
26	0x3ce43f20	0.027862132
27	0x3ca0f1f2	0.019646619
28	0xbdb925c4	-0.09040406
29	0xbdf5051e	-0.11963867
30	0x3cab7b9c	0.020932965
31	0x3dbdd0eb	0.092683636
32	0x3dc15ca0	0.09441495
33	0xbe5abe5b	-0.21361677
34	0x3ea54ec8	0.32286668
35	0xbb46906e	-0.003029849
36	0xbe8a4d2d	-0.27012005
37	0xbe512701	-0.20425035
38	0x3ec389f1	0.38191178
39	0x3d03c76a	0.032172598
40	0xbd7b9a5a	-0.061426498
41	0xbdc9a4ea	-0.09845908
42	0xbdabf532	-0.08396377
43	0xbeaa5d3d	-0.3327426
44	0xbe68a969	-0.22720875
45	0x3e71aafb	0.2360038
46	0x3e861dfa	0.26194745
47	0x3ea35d07	0.31906912
48	0xbe86d7b6	-0.2633645
49	0x3e81c54d	0.2534584
50	0xbe4f5754	-0.20248157
51	0x3e188a8f	0.14896606
52	0x3ea30eb1	0.31847146
53	0x3ea16b31	0.31527093
54	0x3e4681e2	0.19385484
55	0x3e365542	0.17805961
56	0xbd0f690d	-0.035012294
57	0x3e591167	0.21198045
58	0xbde1c6de	-0.11024259
59	0x3dce219b	0.100650035
60	0xbd64094b	-0.055672925
61	0x3d3ec014	0.0465699
62	0xbebb2110	-0.36548662
63	0xbe08998a	-0.1333982

transformer_blocks.0.multi_head_attention.K_mappers.1.bias f4 [8]
0	0xbe3e796a	-0.18601003
1	0xbdf45307	-0.11929899
2	0xbe672201	-0.22571565
3	0xbea2de40	-0.31810188
4	0x3cbd1919	0.023083257
5	0x3e6af291	0.22944094
6	0x3ea4da52	0.32197815
7	0x3e533f21	0.2062955

transformer_blocks.0.multi_head_attention.V_mappers.0.weight f4 [8, 8]
0	0xbe465f72	-0.19372347
1	0xbec73761	-0.38909438
2	0x3dc6d192	0.09707941
3	0x3e3f2668	0.18666995
4	0xbeaf928d	-0.34291497
5	0x3db4415a	0.08801527
6	0x3e863f0b	0.26219973
7	0xbc8f6008	-0.017501846
8	0xbe3cfb98	-0.1845535
9	0x3e7b5a8f	0.24546264
10	0x3e1c7fd0	0.15283132
11	0x3e8c7b16	0.27437657
12	0xbe6b3971	-0.22971131
13	0x3e1ba15e	0.15198275
14	0xbe99502a	-0.29943973
15	0x3ebe15a3	0.37125883
16	0xbe047d3d	-0.129384
17	0x3e275608	0.16341412
18	0x3d8f7957	0.070055656
19	0x3dfdcf01	0.123929985
20	0xbd4a768e	-0.04942947
21	0x3db0471d	0.08607314
22	0xbe51f03a	-0.20501795
23	0xbea4478d	-0.3208584
24	0xbe2009ed	-0.15628786
25	0x3ea843ed	0.32864323
26	0xbdd6c545	-0.10486845
27	0x3dac592c	0.08415446
28	0xbe066b0a	-0.1312677
29	0x3ea4de1d	0.3220071
30	0x3e8ca640	0.2747059
31	0x3df432a7	0.11923724
32	0xbe20caec	-0.15702409
33	0xbea8ccdd	-0.32968798
34	0x3cae882c	0.021305166
35	0xbe341cb6	-0.17589077
36	0x3e995c5c	0.29953277
37	0xbec619f3	-0.38691673
38	0x3dd4e88f	0.103959195
39	0x3ebbafac	0.36657465
40	0x3e5969b0	0.21231723
41	0x3dcf9d71	0.101374514
42	0xbea126e8	-0.31474996
43	0x3ebe508b	0.37170824
44	0xbce36159	-0.02775638
45	0xbeb58433	-0.35452422
46	0x3e9eb4a4	0.30997193
47	0xbde956a8	-0.113934815
48	0xbd81be89	-0.0633517
49	0x3ebc5160	0.36780834
50	0xbe86aa74	-0.2630192
51	0xbe95cd52	-0.2925821
52	0x3d162e23	0.036665093
53	0x3be3c673	0.006951147
54	0x3e110cb7	0.14165007
55	0xbea44a1f	-0.320878
56	0x3baa836d	0.0052036555
57	0xbdf9989f	-0.12187313
58	0xbe2d8e95	-0.16948922
59	0xbea7a7ad	-0.32745114
60	0x3e585f2a	0.21130052
61	0x3dd9c29f	0.10632824
62	0xbe80536c	-0.25063646
63	0x3e9d3c9c	0.30710304

transformer_blocks.0.multi_head_attention.V_mappers.0.bias f4 [8]
0	0x3e195113	0.14972334
1	0x3d8e919c	0.069613665
2	0xbe476345	-0.19471462
3	0x3d152ac8	0.036417753
4	0x3eaffdbc	0.3437327
5	0x3e59ffaf	0.21288942
6	0xbe88c433	-0.26712188
7	0x3e961adf	0.29317376

transformer_blocks.0.multi_head_attention.V_mappers.1.weight f4 [8, 8]
0	0x3ca163f5	0.019700984
1	0x3e2e50f9	0.17023076
2	0x3e612aae	0.21988937
3	0x3e9369a7	0.28791544
4	0xbeabc4ce	-0.33548588
5	0x3e97bf6c	0.2963823
6	0xbe4e71fe	-0.20160672
7	0x3c1bd4bb	0.009511168
8	0xbe78b89c	-0.24289173
9	0xbd917591	-0.07102502
10	0x3cebd2a3	0.028786963
11	0xbd1de442	-0.03854776
12	0xbbaa8e15	-0.005204926
13	0x3cee95a4	0.029124089
14	0x3ea1025a	0.31447107
15	0x3e5b4ee8	0.21416819
16	0x3e3bffbe	0.18359277
17	0x3e3000a7	0.17187749
18	0x3ea6f32d	0.32607403
19	0xbd0b2c22	-0.033977635
20	0x3dbec8e2	0.09315659
21	0x3d70d448	0.058796197
22	0xbeb0a2b6	-0.3449914
23	0xbe98428a	-0.29738265
24	0x3ca9c8f3	0.020725703
25	0xbdd78146	-0.10522704
26	0x3cdc8725	0.02691991
27	0xbde524ef	-0.11188685
28	0x3ddcb739	0.107771344
29	0x3e4b3d7c	0.19847673
30	0xbe05453b	-0.1301469
31	0x3e82c94f	0.2554421
32	0x3ea019a7	0.3126957
33	0xbe9fb824	-0.31195176
34	0xbe9e7a6d	-0.30952778
35	0xbe7f2525	-0.24916513
36	0xbe817ed5	-0.25292078
37	0xbdc94f21	-0.09829546
38	0xbbfe245e	-0.0077558
39	0xbd4a497d	-0.04938649
40	0xbe49f434	-0.19722062
41	0xbdc0c766	-0.09413032
42	0xbdcd782e	-0.10032688
43	0x3ea935e5	0.3304893
44	0xbdc0045a	-0.0937583
45	0xbe8e3b29	-0.2777951
46	0x3e171eb1	0.14757802
47	0xbd18b5d9	-0.0372828
48	0x3e81a43b	0.2532061
49	0x3e814c2f	0.25253436
50	0x3ec01e32	0.37523037
51	0xbe90300e	-0.28161663
52	0x3e944d9b	0.28965458
53	0x3e8decdc	0.27719772
54	0xbe52ead3	-0.20597391
55	0x3e9cf9ea	0.3065942
56	0x3e8ad94a	0.27118903
57	0xbcb70f80	-0.022346258
58	0x3df2dd3a	0.11858602
59	0xbdee50fd	-0.11636541
60	0xbebdd8fd	-0.3707961
61	0x3dbd656e	0.09247862
62	0x3e11a0d9	0.14221515
63	0xbe6b9309	-0.23005308

transformer_blocks.0.multi_head_attention.V_mappers.1.bias f4 [8]
0	0x3e12d2df	0.14338253
1	0xbe905191	-0.2818723
2	0x3e9c7b70	0.30562925
3	0x3ea43bad	0.3207678
4	0x3e0099c3	0.12558655
5	0xbe7025f5	-0.2345198
6	0x3e2a62bc	0.16639227
7	0x3d4a48b8	0.049385756

transformer_blocks.0.norm2.weight f4 [16]
0	0x3f82f78a	1.0231793
1	0x3f805982	1.0027316
2	0x3f81afad	1.0131737
3	0x3f7feab7	0.9996752
4	0x3f83ace7	1.0287141
5	0x3f81be7e	1.0136259
6	0x3f834e32	1.0258238
7	0x3f79a198	0.975122
8	0x3f82ed9e	1.0228765
9	0x3f76690a	0.96254027
10	0x3f893f0d	1.0722367
11	0x3f81fd72	1.015547
12	0x3f82e8aa	1.0227253
13	0x3f856d0b	1.0423902
14	0x3f831c6d	1.024305
15	0x3f8284ff	1.0196837

transformer_blocks.0.norm2.bias f4 [16]
0	0x3d0bbe0e	0.034116797
1	0xbb67ae2e	-0.0035351622
2	0xbc88dc97	-0.016706748
3	0xbd1a95ea	-0.037740625
4	0xbc3876d3	-0.011258799
5	0xbb9dc871	-0.0048151542
6	0x3bbd7c4d	0.00578264
7	0xbcbcb143	-0.023033744
8	0x3c319842	0.010839524
9	0x3d05483d	0.032539595
10	0xbb86798f	-0.0041038464
11	0x3cd266f7	0.025683863
12	0xbc260d0c	-0.010134947
13	0x3a0cea40	0.0005375482
14	0x3c7ce761	0.015436024
15	0x3af038c9	0.001832747

transformer_blocks.0.mlp.0.weight f4 [64, 16]
0	0x3d461c67	0.04836693
1	0x3dd16266	0.10223846
2	0x3e615499	0.22004928
3	0xbe20b64b	-0.15694539
4	0xbd56a613	-0.052404474
5	0x3d975ce0	0.073907614
6	0x3bc73b0a	0.006080036
7	0x3e591c86	0.21202287
8	0xbdf6cad9	-0.12050409
9	0xbce584da	-0.02801745
10	0x3ddd192d	0.107958175
11	0xbd5566b9	-0.052099917
12	0x3e2433e5	0.16035421
13	0xbc3219e8	-0.010870434
14	0xbe397a92	-0.18113163
15	0xbcd3d13d	-0.025856609
16	0xbdf02f69	-0.11727793
17	0x3cef1120	0.02918297
18	0xbd1a7d92	-0.03771741
19	0xbe91f00c	-0.28503454
20	0xbd02ba66	-0.031916045
21	0xbbdf9e84	-0.0068243165
22	0xbdc4348f	-0.09580337
23	0x3e752b02	0.23942187
24	0xbd865d03	-0.06560709
25	0x3e1f7df3	0.1557539
26	0x3df458fd	0.11931036
27	0xbe5c239b	-0.21497957
28	0x3d3cf689	0.04613355
29	0x3e2d254e	0.16908762
30	0xbdf089bc	-0.11745021
31	0xbe2e9f27	-0.170529
32	0x3e52edcd	0.20598526
33	0x3e14ac6e	0.14518902
34	0xbe4b09e9	-0.19827999
35	0x3e49b9de	0.19699809
36	0xbd92d215	-0.07168976
37	0xbe4f1b72	-0.20225313
38	0xbc46fe56	-0.012145599
39	0x3decaa75	0.115559496
40	0xbca14445	-0.019685874
41	0x3d56daba	0.052454688
42	0xbe8d2559	-0.27567557
43	0x3e637c68	0.22215426
44	0x3e2d259e	0.16908881
45	0x3e493ccb	0.19652097
46	0xbc947ce7	-0.018125964
47	0x3e070a7c	0.13187593
48	0xbe5b3262	-0.21405938
49	0xbcfa849e	-0.030580815
50	0xbd601b1f	-0.054713365
51	0xbe1ee157	-0.15515648
52	0xbe480595	-0.1953338
53	0x3e47d6b7	0.19515501
54	0x3e179690	0.14803529
55	0xbe50d003	-0.2039185
56	0x3db31624	0.08744457
57	0x3d7a7366	0.06114521
58	0x3e876636	0.26445168
59	0x3e33d229	0.17560638
60	0x3e461949	0.19345583
61	0xbdc139e6	-0.094348714
62	0x3e4dd5ac	0.2010104
63	0x3e660d8e	0.22466108
64	0xbe8aca0e	-0.2710728
65	0xbe75275d	-0.23940797
66	0xbc0febe5	-0.008784269
67	0x3e444c73	0.19169788
68	0xbe32a3ee	-0.17445347
69	0x3d82f606	0.063945815
70	0xbd56ccaf	-0.052441295
71	0x3de05a34	0.10954705
72	0xbd97fbc9	-0.07421071
73	0x3dc04cd0	0.09389651
74	0x3e0145ce	0.12624285
75	0xbdeb835d	-0.11499665
76	0xbd2c9892	-0.04213769
77	0x3a003ce6	0.0004891887
78	0x3caebde7	0.021330787
79	0x3e933941	0.2875462
80	0x3d20a621	0.039220933
81	0xbc905501	-0.017618658
82	0x3e572f0b	0.21014039
83	0xbde88472	-0.11353387
84	0xbd81c04f	-0.06335508
85	0x3d190d21	0.037366036
86	0xbe334656	-0.175073
87	0x3cedfbd5	0.029050747
88	0xbe25f3b7	-0.16206251
89	0xbbaa3f54	-0.0051955376
90	0x3cd1a93b	0.02559339
91	0x3d63656f	0.055516656
92	0xbe7d57ab	-0.24740474
93	0xbe6bb1ef	-0.23017095
94	0x3e159dbf	0.14610957
95	0x3e626baa	0.22111383
96	0xbe6ae0b1	-0.22937275
97	0x3de4bc33	0.11168709
98	0xbe326a63	-0.17423396
99	0xbc09a42f	-0.008400961
100	0x3e7582c8	0.2397567
101	0x3e4ca670	0.19985366
102	0xbe46808e	-0.19384977
103	0x3e253416	0.1613315
104	0x3defe2c4	0.11713174
105	0xb92916c8	-0.00016125583
106	0x3e9912a7	0.29897043
107	0xbdd5356f	-0.10410582
108	0xbd820c45	-0.063499965
109	0xbe2b34ac	-0.16719311
110	0x3d8e5fa7	0.06951838
111	0x3d714805	0.058906574
112	0x3c549473	0.012974846
113	0xbe0806d8	-0.1328386
114	0xbddc9169	-0.10769922
115	0x3dfb38ea	0.12266715
116	0xbe766c5c	-0.24064773
117	0xbd18cb15	-0.03730305
118	0x3c66abe2	0.014079066
119	0xbddc5f01	-0.10760308
120	0x3dd3af8f	0.103362195
121	0x3c68becf	0.014205649
122	0x3dedf172	0.11618318
123	0xbc981b81	-0.018567802
124	0xbe257dc8	-0.16161263
125	0x3e63cae5	0.22245367
126	0xbc81f9e7	-0.015866233
127	0xbd65fd83	-0.05614997
128	0xbe1ededf	-0.15514706
129	0x3d7c542c	0.06160371
130	0xbe70ba32	-0.23508528
131	0x3dd9bd55	0.10631815
132	0x3de158f4	0.110032946
133	0xbe6438ae	-0.22287247
134	0xbe0bba09	-0.13645186
135	0xbe466344	-0.19373804
136	0x3e570d83	0.21001248
137	0x3e64e2e8	0.22352183
138	0xbd4bec10	-0.049785674
139	0x3e676932	0.22598723
140	0xbd9d55f7	-0.07682412
141	0xbe42ece9	-0.19035687
142	0x3d01ce26	0.03169074
143	0x3dbd7f17	0.09252756
144	0x3e50be62	0.20385125
145	0xbb062428	-0.0020468328
146	0x3e1c96c4	0.15291888
147	0x3e217cdf	0.15770291
148	0x3e13260b	0.14369981
149	0xbe570204	-0.20996863
150	0x3e829018	0.2550056
151	0xbe59af24	-0.21258217
152	0x3e799770	0.24374175
153	0xbcd8e036	-0.0264741
154	0xbe91e7f6	-0.28497285
155	0x3db85c47	0.090019755
156	0xbdd96a82	-0.10616018
157	0xbe2920a4	-0.16516358
158	0xbde32189	-0.11090381
159	0x3d84dc02	0.06487276
160	0x3e456c30	0.19279552
161	0xbdbdbe13	-0.092647694
162	0x3e173800	0.14767456
163	0x3d93bbac	0.0721353
164	0xbca3cc93	-0.01999501
165	0x3d5b2954	0.05350621
166	0xbe271194	-0.163153
167	0xbe4a10bf	-0.1973295
168	0xbd9d97ba	-0.07694955
169	0xbe592a34	-0.21207505
170	0xbe368fdd	-0.17828317
171	0xbab4a787	-0.0013782837
172	0xbe22aca6	-0.15886173
173	0xbd9f2f18	-0.07772654
174	0xbdc93759	-0.0982501
175	0xbc5bc653	-0.013413983
176	0xbdd9b0d5	-0.10629431
177	0xbb75c24f	-0.003749985
178	0xbcf08d6a	-0.029364306
179	0x3d9c908f	0.0764476
180	0x3cbcb91b	0.023037484
181	0xbe02cb58	-0.12772882
182	0xbd9bd3e8	-0.07608777
183	0xbc9d28d7	-0.019184513
184	0xbe330944	-0.17484003
185	0x3d4648d8	0.048409313
186	0xbc640b67	-0.013918734
187	0x3d889cd0	0.066705346
188	0x3dc85b43	0.09783032
189	0x3e45c3cc	0.19312972
190	0xbc833619	-0.016017007
191	0xbe5ab577	-0.21358286
192	0x3d9f2346	0.077704
193	0xbe46470e	-0.19363043
194	0xbd984f4e	-0.07437001
195	0xbca47f06	-0.0200801
196	0xbe1170b9	-0.14203157
197	0xbd7611ef	-0.060075697
198	0x3e507531	0.20357205
199	0x3e36904b	0.17828481
200	0x3dedd67d	0.11613176
201	0x3e4c31b1	0.19940831
202	0xbe98730c	-0.29775274
203	0x3da8c36b	0.08240398
204	0x3df88956	0.1213557
205	0x3e5d5428	0.21614134
206	0xbe874e0f	-0.2642674
207	0x3e0d4255	0.13794835
208	0xbe3b793e	-0.18307969
209	0xbae85d7c	-0.0017728056
210	0xbdab94fd	-0.08378027
211	0xbe566eed	-0.20940752
212	0xbe8d0dfa	-0.27549726
213	0xbe02d76c	-0.1277749
214	0x3df5a7ec	0.11994919
215	0x3e0875c9	0.13326181
216	0xbe496269	-0.19666447
217	0xbe05dee4	-0.13073307
218	0xbd41425e	-0.047182433
219	0xbe3c2a4f	-0.18375514
220	0x3dbd63ba	0.09247537
221	0x3e845d1f	0.25852296
222	0x3d3c5409	0.04597858
223	0xbe0bf40e	-0.13667318
224	0x3d91f6b3	0.07127132
225	0x3d9ae2d8	0.07562798
226	0x3e46dcaf	0.19420122
227	0xbda982ef	-0.08276927
228	0xbe59e44f	-0.21278499
229	0x3dd34841	0.10316516
230	0x3d350756	0.04419645
231	0xbdcb46ab	-0.09925588
232	0xbdf448b1	-0.11927927
233	0xbde0b477	-0.10971921
234	0x3e1936cf	0.14962314
235	0xbd8053a4	-0.06265953
236	0x3e47758b	0.19478433
237	0x3e89a8b0	0.2688651
238	0xbcc5a833	-0.024128055
239	0x3d2d8f7d	0.04237317
240	0xbd6ddb53	-0.058070492
241	0x3e26e062	0.16296533
242	0xbe72ea11	-0.23722102
243	0x3df9681e	0.12178062
244	0xbd91a629	-0.07111771
245	0x3e1630dc	0.14667076
246	0x3cbb9dc9	0.022902386
247	0xbda4c330	-0.080450416
248	0x3b839007	0.004014972
249	0x3dd6751b	0.10471555
250	0xbe749456	-0.2388471
251	0xbe0ad28d	-0.13556881
252	0xbda89214	-0.08230987
253	0xbcf7b261	-0.030236425
254	0x3d6629db	0.05619226
255	0x3e4ab95b	0.1979727

transformer_blocks.0.mlp.0.bias f4 [64]
0	0xbceeaeed	-0.029136145
1	0xbdc67117	-0.09689539
2	0x3d45e8a4	0.048317567
3	0xbe2f4519	-0.17116202
4	0xbdc3758a	-0.09543903
5	0x3c120d90	0.008914366
6	0x3e62ea17	0.2215961
7	0xbd9e8cff	-0.077417366
8	0x3de55bfa	0.11199184
9	0xbda5d9a6	-0.08098154
10	0xbd8e713f	-0.06955194
11	0xbe867e6b	-0.26268324
12	0x3e7c62b8	0.24647033
13	0x3e8ac040	0.270998
14	0xbccb680e	-0.02482989
15	0x3e36d4a0	0.17854548
16	0x3e6d6464	0.23182827
17	0x3defe2d2	0.117131844
18	0x3e1774c7	0.14790641
19	0xbe770099	-0.24121322
20	0xbe5217c3	-0.20516877
21	0xbe5874fb	-0.21138375
22	0x3da6d599	0.08146209
23	0xbe4d9acf	-0.20078586
24	0xbe6c859f	-0.23097847
25	0xbd8917e5	-0.06694011
26	0xbe54cd5b	-0.20781462
27	0x3b92440a	0.0044636773
28	0x3c85c8a0	0.016331017
29	0xbe019299	-0.12653579
30	0x3e3303de	0.17481944
31	0xbdd814be	-0.10550831
32	0xbdb5bd70	-0.08874023
33	0x3e49a554	0.19691974
34	0x3e6f5992	0.23374012
35	0xbcac7082	-0.021049742
36	0xbe32c6d3	-0.17458658
37	0xbda26b63	-0.07930639
38	0x3d07611b	0.03305159
39	0x3e0c663a	0.13710871
40	0x3e137147	0.1439868
41	0xbdb84887	-0.089982085
42	0xbe66e146	-0.22546872
43	0xbe3e79d7	-0.18601166
44	0xbdabc025	-0.08386258
45	0x3c37a1d2	0.011208015
46	0xbde32b84	-0.11092284
47	0xbe421c10	-0.18956017
48	0x3c5a22cf	0.013313963
49	0xbe471d6e	-0.1944482
50	0xbe2da0a0	-0.16955805
51	0xbe247940	-0.16061878
52	0xbc54feec	-0.013000231
53	0x3e6041b5	0.21900065
54	0x3dfee6b1	0.12446345
55	0xbcd94eb9	-0.026526796
56	0x3d6c6374	0.057712033
57	0x3e002736	0.12514958
58	0x3ce1001f	0.027465878
59	0xbe3e7bec	-0.1860196
60	0xbe19ee69	-0.15032353
61	0xbe39514a	-0.18097416
62	0xbce11fe9	-0.027481036
63	0xbe79d1c5	-0.24396427

transformer_blocks.0.mlp.2.weight f4 [16, 64]
0	0xbd408f56	-0.047011696
1	0xbd03f55c	-0.032216415
2	0x3dc35c1e	0.09539054
3	0x3df68af3	0.12038221
4	0x3dbc1b95	0.09184948
5	0x3cf31da8	0.029677227
6	0xbc5e5231	-0.013569401
7	0x3cf9dce1	0.030500831
8	0xbd8cbc54	-0.06871858
9	0xbd4c9d4c	-0.049954697
10	0xbd68bd71	-0.05682129
11	0xbd4bd739	-0.0497658
12	0xbe1a7d09	-0.1508676
13	0x3d424536	0.047429286
14	0x3dbdbd2e	0.09264599
15	0xbd78aa57	-0.060709324
16	0x3cb7dd5b	0.022444418
17	0x3b4ebea4	0.0031546736
18	0xbc0b006d	-0.008483988
19	0x3cf22566	0.029558849
20	0x3db45195	0.08804623
21	0xbced9033	-0.028999424
22	0xbd885585	-0.066569366
23	0xbaffe8f6	-0.0019524384
24	0x3d381fd0	0.044952214
25	0x3d8be5a4	0.0683091
26	0xbc4a1fa9	-0.01233665
27	0x3b78a4dc	0.003794006
28	0xbdd181e1	-0.102298506
29	0xbd1a4f10	-0.037673056
30	0xbd840e7b	-0.064480744
31	0xbba773d2	-0.0051102424
32	0x3bd3db14	0.006465325
33	0x3e009d23	0.12559943
34	0x3c9d2780	0.019183874
35	0x3caad172	0.020851824
36	0x3dcce6cb	0.10004958
37	0x3d880ccf	0.06643068
38	0x3d39348f	0.04521614
39	0x3ce3c921	0.027805867
40	0xbbe71ef8	-0.0070532523
41	0xbe0e1859	-0.13876475
42	0xbc73458b	-0.014848123
43	0xbc07c2c9	-0.0082861865
44	0x3df3bfe9	0.11901838
45	0x3de2c829	0.11073334
46	0x3d2958a3	0.041344296
47	0x3dca5c45	0.0988088
48	0xbd900afb	-0.07033344
49	0x3dc34de8	0.09536344
50	0x3dfeca87	0.12440973
51	0xbcd830ef	-0.02639052
52	0xbddea56b	-0.10871395
53	0x3a2e0c9f	0.0006639454
54	0xbd0589e3	-0.032602202
55	0x3d12b576	0.035817586
56	0xbddb9c67	-0.10723191
57	0x3ba54f1e	0.005044832
58	0xbc81ae9c	-0.01583033
59	0xbd6eed96	-0.05833205
60	0xbd1bc432	-0.038028903
61	0xbcc1ee5f	-0.023673235
62	0xbdf9ee16	-0.122036144
63	0xbda1ee82	-0.0790682
64	0x3c107ab0	0.0088183135
65	0x3d90b8a9	0.07066471
66	0x3dea8c3c	0.11452529
67	0xbdb901fd	-0.09033582
68	0x3cebf4a3	0.028803175
69	0xbd86826e	-0.06567846
70	0xbda6104d	-0.08108578
71	0x3bbbd38c	0.0057320055
72	0xbd40b578	-0.047048062
73	0xbdf701da	-0.120609
74	0xbdaa6c50	-0.0832144
75	0xbd860390	-0.06543648
76	0x3d7bfe12	0.061521597
77	0x3d986d87	0.07442766
78	0xbd2b70f8	-0.041855782
79	0xbdef345d	-0.116799094
80	0xbd56419b	-0.05230866
81	0xbce3a85c	-0.027790241
82	0x3b76b03e	0.003764167
83	0x3d6a9a9b	0.05727635
84	0x3dd26b59	0.10274381
85	0xbd41ac8d	-0.047283698
86	0x3d9dec4c	0.07711086
87	0xbdbcb5df	-0.09214377
88	0xbdbca0b8	-0.09210342
89	0xbc7aeeed	-0.015315753
90	0xbd15e165	-0.036591906
91	0x3db65002	0.08901979
92	0x3dc51cbf	0.096246235
93	0xbdc67f64	-0.096922666
94	0xbde5c97c	-0.11220071
95	0x3d821149	0.06350953
96	0xbde4b136	-0.11166613
97	0x3db29366	0.0871952
98	0xbc81ffca	-0.01586904
99	0x3d4c1e8c	0.04983382
100	0xbe0dda5e	-0.13852832
101	0xbd67c40e	-0.056583457
102	0xbc01a4be	-0.007912813
103	0x3da36ade	0.07979368
104	0x3e17af8c	0.1481306
105	0x3e270dba	0.1631383
106	0x3ccfe41e	0.02537733
107	0xbd8b3f53	-0.067991875
108	0x3b4dba70	0.0031391643
109	0xbd65189e	-0.05593168
110	0x3d4ebb15	0.050471384
111	0xbe18f6d3	-0.14937906
112	0xbd85f1e1	-0.06540275
113	0x3d9320cf	0.07183992
114	0xbddbe73e	-0.10737465
115	0x3de7d143	0.113192104
116	0x3d9ec934	0.0775322
117	0x3cd2762e	0.025691118
118	0x3e1818e0	0.14853239
119	0xbd3001f0	-0.042970598
120	0x3bb61d6f	0.005557708
121	0x3d747aa3	0.059687268
122	0x3dbad770	0.09123123
123	0xbe0653ca	-0.131179
124	0x3b96750e	0.0045915907
125	0xbda617be	-0.08109997
126	0x3c5d270c	0.013498079
127	0x3dd879e8	0.10570127
128	0xbc6bfc62	-0.0144034345
129	0x3cb4ff00	0.02209425
130	0xbd36babe	-0.044611685
131	0x3e0172fa	0.12641516
132	0x3d979593	0.07401576
133	0x3d264c21	0.040599946
134	0xbd4efc48	-0.050533563
135	0xbda3a34c	-0.07990131
136	0x3dd5eb4f	0.10445272
137	0x3db84eb1	0.08999384
138	0x3d1f56a1	0.038900975
139	0xbdd3b9a0	-0.103381395
140	0x3d2eb403	0.04265214
141	0xbbc7d529	-0.0060984087
142	0x3dc7b9f7	0.09752267
143	0x3dc2fccf	0.09520876
144	0x3cfe8914	0.031071223
145	0xbd308832	-0.043098636
146	0x3e013d18	0.12620962
147	0xbd3a18cc	-0.045433804
148	0x3da94eeb	0.082670055
149	0xbe155a44	-0.14585215
150	0xbcfc3dad	-0.030791128
151	0xbd898c2a	-0.06716187
152	0xbd72c0ee	-0.059266023
153	0x3d9ee835	0.07759134
154	0xbdbbf7c0	-0.09178114
155	0xbd9c527c	-0.0763292
156	0x3d15a53e	0.03653454
157	0x3d7fc72a	0.062445797
158	0xbc2961c0	-0.010338247
159	0xbdfee387	-0.12445741
160	0xbd2a5ffe	-0.04159545
161	0xbcc67226	-0.024224352
162	0x3df10189	0.11767871
163	0xbcc8283b	-0.024433246
164	0xbcfba441	-0.03071797
165	0xbd4f5738	-0.050620288
166	0xbd2e7641	-0.042593244
167	0x3d5def74	0.05418344
168	0x3dd2cfdd	0.10293553
169	0x3bb56002	0.0055351267
170	0xbd33f966	-0.043939017
171	0x3dd07f17	0.101804905
172	0x3d2cbd02	0.04217244
173	0xbd8a4403	-0.067512535
174	0xbc7c1775	-0.015386452
175	0xbd39604f	-0.045257863
176	0x3d97d623	0.0741389
177	0x3d3c0932	0.045907207
178	0x3da88aac	0.082295746
179	0xbc4b0580	-0.012391448
180	0x3dfd3626	0.123638436
181	0xbcb49b85	-0.022046814
182	0xbd019b7e	-0.03164243
183	0x3b83f137	0.004026558
184	0xbde19c6c	-0.11016163
185	0xbdaaa607	-0.083324485
186	0xbd994be5	-0.07485179
187	0xbd4b082c	-0.04956834
188	0x39a18312	0.00030805968
189	0xbd181820	-0.037132382
190	0xbdaa45cd	-0.08314095
191	0x3dd715ee	0.1050223
192	0xbd23311e	-0.039841764
193	0x3cd8aab4	0.026448585
194	0x3de6bcd0	0.11266482
195	0xbdc25c9d	-0.09490321
196	0xbcb7d9bc	-0.022442691
197	0x3d507f4f	0.05090266
198	0x3dce73f9	0.10080714
199	0x3c55fe04	0.01306105
200	0x3dec9bcf	0.11553156
201	0xbdef9450	-0.1169821
202	0xbd5eeef1	-0.05442709
203	0x3dde1ed7	0.10845726
204	0x3d06af94	0.032882288
205	0x3df1d625	0.11808423
206	0x3c00771f	0.007840901
207	0xbd47bfa8	-0.048766762
208	0x3e146469	0.14491428
209	0x3e16df62	0.14733651
210	0x3cec51b4	0.028847553
211	0xbdbe8047	-0.09301811
212	0x3c58dd22	0.013236316
213	0xbd03ec33	-0.03220768
214	0x3dafa4f6	0.08576386
215	0xbd16b710	-0.036795676
216	0x3cf6cd87	0.0301273
217	0x3cd83388	0.02639176
218	0x3d6fcd62	0.058545478
219	0xbdafcff4	-0.08584586
220	0x3e29826b	0.16553657
221	0x3d62c36b	0.055362146
222	0xbdb0bfb1	-0.08630312
223	0x3e0f0cd4	0.13969737
224	0x3d04555b	0.032307964
225	0xbd3296ba	-0.043600775
226	0xbdd089ec	-0.101825565
227	0xbd1f5d37	-0.038907256
228	0xbe08107f	-0.13287543
229	0x3d3a8270	0.04553455
230	0x3d97f91a	0.07420559
231	0xbc1f1635	-0.009709884
232	0x3e159b5d	0.14610048
233	0xbca2b8fe	-0.019863602
234	0x3d161416	0.03664025
235	0xbdbd8293	-0.09253421
236	0xbd758948	-0.059945375
237	0x3d820e35	0.06350366
238	0x3d1090d2	0.03529436
239	0x3c8656e8	0.016398862
240	0xbd694850	-0.05695373
241	0x3d9583c2	0.073005214
242	0x3da309e6	0.07960872
243	0x3cf28cf0	0.02960822
244	0xbd6cc261	-0.05780256
245	0x39bff894	0.00036615564
246	0x3c757907	0.014982468
247	0x3daa526a	0.083165005
248	0x3c5004fb	0.0126965
249	0x3d185f77	0.037200417
250	0xbc9f9411	-0.019479783
251	0x3dc50acc	0.096212
252	0xbc22a046	-0.0099259075
253	0x3de7d147	0.11319213
254	0x3d65bb60	0.056086898
255	0xbda7e203	-0.08197405

transformer_blocks.0.mlp.2.bias f4 [16]
0	0xbd3e9422	-0.04652799
1	0x3d664847	0.056221273
2	0xbd2032ff	-0.039111134
3	0xbd9c0dfd	-0.076198556
4	0xbd723be3	-0.059139144
5	0xbd65798a	-0.05602411
6	0x3e016bf9	0.12638845
7	0x3b9c0346	0.0047611324
8	0xbc163704	-0.00916839
9	0x3cdd08d5	0.02698175
10	0xbda3dda5	-0.0800126
11	0x3d8e9b28	0.069631875
12	0xbb207e45	-0.0024489325
13	0xbd2bfcd5	-0.041989166
14	0x3dba248d	0.09089003
15	0xbd9b2fc2	-0.075774685

transformer_blocks.1.norm1.weight f4 [16]
0	0x3f7fa82a	0.99865973
1	0x3f7b43af	0.9815015
2	0x3f846b17	1.0345181
3	0x3f816ceb	1.0111364
4	0x3f859213	1.0435203
5	0x3f7be1d1	0.98391443
6	0x3f82e148	1.0225
7	0x3f837511	1.0270101
8	0x3f786a65	0.97037345
9	0x3f7b3edf	0.9814281
10	0x3f886392	1.0655386
11	0x3f7aea75	0.98014003
12	0x3f83b3a5	1.0289198
13	0x3f7b7e3e	0.98239505
14	0x3f87fbdd	1.0623738
15	0x3f8540b3	1.041037

transformer_blocks.1.norm1.bias f4 [16]
0	0xbc118780	-0.008882403
1	0x3c2663fb	0.010155673
2	0xbd085854	-0.03328736
3	0x3af6e16e	0.0018835494
4	0x3ab9ca41	0.0014174656
5	0x3c6e1950	0.014532402
6	0xbba1ed3d	-0.004941611
7	0xbc5ea95c	-0.013590183
8	0xbd03576d	-0.032065798
9	0x3c98cea7	0.018653227
10	0xb8d2cb00	-0.00010051392
11	0xbcae5042	-0.021278504
12	0xbc0686b0	-0.008210823
13	0xbd27341c	-0.04082118
14	0xbb19f17a	-0.0023489879
15	0x39d7cd4f	0.00041160962

transformer_blocks.1.multi_head_attention.Q_mappers.0.weight f4 [8, 8]
0	0x3d8a5de8	0.067561924
1	0xbea7490e	-0.32672924
2	0x3e29f74e	0.16598246
3	0x3e11470c	0.14187258
4	0xbe9861e5	-0.29762188
5	0x3e6117b7	0.21981703
6	0x3d1af691	0.0378328
7	0xbe3531e2	-0.1769481
8	0x3ea325ab	0.31864676
9	0x3e068200	0.13135529
10	0x3dff5ab2	0.12468471
11	0xbde3a687	-0.11115747
12	0xbe54abd7	-0.20768677
13	0xbe3b4c49	-0.18290819
14	0x3e1d4a50	0.15360379
15	0x3db133eb	0.08652481
16	0xbe49e7de	-0.19717357
17	0x3ea1e2de	0.31618398
18	0x3e60d514	0.21956283
19	0xbdf51a1b	-0.1196787
20	0x3e28f9bd	0.16501518
21	0xbe16a1b6	-0.14710125
22	0x3e142601	0.14467622
23	0x3e93f67a	0.28898984
24	0xbea6ac7a	-0.32553464
25	0xbe4892be	-0.19587228
26	0xbcc6442f	-0.024202434
27	0x3d909de3	0.070613645
28	0xbea420f7	-0.320564
29	0xbe56fe74	-0.20995504
30	0xbcb33c39	-0.021879302
31	0xbd0c927e	-0.034319393
32	0x3dd3ac3c	0.103355855
33	0x3d0a7266	0.033800505
34	0x3db679cf	0.08909952
35	0x3d13fcf0	0.036129892
36	0x3ce7d5bf	0.028300164
37	0xbcad3a9b	-0.02114611
38	0x3e2ac922	0.16678289
39	0x3e6431f8	0.22284687
40	0xbe21ea6b	-0.1581208
41	0xbe49f966	-0.19724044
42	0x3e276f11	0.16350962
43	0xbe69818a	-0.22803321
44	0x3e529976	0.20566353
45	0x3e2dc27b	0.1696872
46	0x3da97101	0.08273507
47	0xbe254956	-0.16141257
48	0xbc8e00ea	-0.01733442
49	0xbe89a9a3	-0.26887235
50	0xbea8a44b	-0.32937846
51	0x3eb2de63	0.34935293
52	0xbeae4382	-0.3403588
53	0xbe914f8f	-0.2838101
54	0xbe22d833	-0.15902786
55	0x3d3bd452	0.04585678
56	0x3daa22b5	0.08307401
57	0xbe1ca365	-0.15296705
58	0xbcf3151a	-0.029673148
59	0xbdc87811	-0.09788526
60	0x3ea59032	0.32336575
61	0x3e93a918	0.28839946
62	0x3e01cc89	0.1267568
63	0xbc2f897c	-0.010713931

transformer_blocks.1.multi_head_attention.Q_mappers.0.bias f4 [8]
0	0x3e8bc70a	0.27300292
1	0xbe92c003	-0.28662118
2	0x3e1574b3	0.14595298
3	0xbe43f289	-0.19135489
4	0x3e870cba	0.26376897
5	0xbea0557d	-0.31315222
6	0x3e1c806e	0.15283367
7	0xbe9abe42	-0.3022328

transformer_blocks.1.multi_head_attention.Q_mappers.1.weight f4 [8, 8]
0	0x3e7daa40	0.24771976
1	0x3c4d73d2	0.012539821
2	0x3e874719	0.2642143
3	0xbe5a0f40	-0.2129488
4	0x3e34c9b6	0.17655072
5	0xbe9285b5	-0.28617635
6	0xbe6994c8	-0.22810662
7	0x3e400c3a	0.18754664
8	0xbd8ed071	-0.06973351
9	0xbe8a37f7	-0.26995823
10	0xbe860796	-0.26177663
11	0xbdd66c6c	-0.104698986
12	0x3dd10aa1	0.102071054
13	0x3eb96ab3	0.36214218
14	0x3e9359fb	0.28779587
15	0xbc9d0732	-0.01916847
16	0xbe6cc575	-0.23122199
17	0xbe950692	-0.29106575
18	0x3eb3e77c	0.35137546
19	0xbe61086f	-0.21975873
20	0xbd3f5b07	-0.04671767
21	0xbe719160	-0.23590612
22	0xbe63a79f	-0.22231911
23	0x3d1daf76	0.03849741
24	0xbdf24f3c	-0.11831519
25	0x3ce68a3e	0.02814209
26	0x3d502554	0.05081685
27	0x3c68947b	0.014195557
28	0xbd80bec4	-0.06286386
29	0x3b7873d2	0.003791083
30	0x3e516f74	0.20452672
31	0x3e757d23	0.23973517
32	0x3ea97ea6	0.33104438
33	0xbe8a6f0d	-0.2703785
34	0xbeb8b2d8	-0.36073947
35	0xbd3ba3ec	-0.045810625
36	0xbd0ed2d8	-0.034869045
37	0x3e227258	0.15863931
38	0x3e8c4985	0.2739984
39	0x3def2ad4	0.11678091
40	0xbe5d8b3c	-0.21635145
41	0xbd041e63	-0.03225554
42	0x3e2a0890	0.16604829
43	0x3e171f47	0.14758025
44	0xbe88768f	-0.26652953
45	0xbcc011f4	-0.02344606
46	0xbeccf886	-0.40033358
47	0xbdde8b2a	-0.10866387
48	0x3e5785a6	0.21047077
49	0xbde979b9	-0.1140017
50	0x3e8a5da3	0.27024564
51	0xbea8b7e9	-0.32952812
52	0x3eb27ef5	0.34862486
53	0x3e63c805	0.2224427
54	0x3e8de32c	0.2771238
55	0x3d4106d0	0.047125638
56	0xbc87e239	-0.016587364
57	0xbe35dcd7	-0.17760025
58	0xbe077408	-0.13227856
59	0xbe872f9f	-0.2640352
60	0x3ea18a6a	0.31550914
61	0xbdae7cb4	-0.08519879
62	0x3d8defe9	0.06930525
63	0xbebcf028	-0.36901975

transformer_blocks.1.multi_head_attention.Q_mappers.1.bias f4 [8]
0	0x3e15a6c2	0.14614394
1	0xbe0a2bf5	-0.13493331
2	0xbe9cd505	-0.3063127
3	0x3d0056ae	0.031332664
4	0xbe9eb75c	-0.30999267
5	0xbc2c4756	-0.010515055
6	0xbeaa34f3	-0.33243522
7	0x3e467120	0.19379091

transformer_blocks.1.multi_head_attention.K_mappers.0.weight f4 [8, 8]
0	0xbe8cf5b6	-0.27531213
1	0x3d28d607	0.041219737
2	0x3e450bb7	0.1924275
3	0xbea6adbe	-0.3255443
4	0x3e3b3185	0.18280609
5	0x3ea1f219	0.31630018
6	0xbe44b513	-0.192097
7	0xbc3b9499	-0.011449003
8	0x3dfcbfde	0.12341283
9	0x3e88c89f	0.26715562
10	0x3e94d17e	0.2906608
11	0xbe9a85b1	-0.30180123
12	0xbe983b5b	-0.29732785
13	0xbea75488	-0.3268168
14	0xbe102154	-0.14075214
15	0xbd29da6e	-0.041468076
16	0xbdf1ce23	-0.118068956
17	0x3e77f98c	0.24216288
18	0xbe8f3a93	-0.27974376
19	0xbe6b95ee	-0.23006412
20	0xbe67833e	-0.22608659
21	0xbe700b5b	-0.23441832
22	0x3ea39cb2	0.31955487
23	0x3d96d9d7	0.073657684
24	0xbd2bf6a3	-0.041983258
25	0xbdf3c6b1	-0.11903132
26	0xbe947cfc	-0.29001606
27	0xbe0a7414	-0.13520843
28	0x3e2c1767	0.16805802
29	0x3e799524	0.24373299
30	0x3e87b8cd	0.2650818
31	0x3c13e35d	0.009026376
32	0xbe3feafb	-0.18741982
33	0xbe548c6f	-0.20756696
34	0x3ea7defa	0.32787305
35	0xbeabe4e2	-0.3357306
36	0x3d7f6530	0.06235236
37	0xbc4e1c61	-0.012580008
38	0x3eacc672	0.33745152
39	0x3e2d99a0	0.16953135
40	0xbdb2a688	-0.087231696
41	0xbe9b9fc4	-0.3039533
42	0x3d6d79cf	0.057977494
43	0xbe6f0f2e	-0.23345634
44	0xbcc896dc	-0.024485998
45	0x3d9c880b	0.07643136
46	0x3e2fb9ce	0.17160723
47	0xbd8cd62e	-0.06876789
48	0xbe787aaf	-0.2426555
49	0xbe93ad6c	-0.28843248
50	0xbeb10e28	-0.34581113
51	0x3d004ec8	0.03132513
52	0xbe6936af	-0.22774766
53	0x3cdd477a	0.027011622
54	0xbe2aa152	-0.16663101
55	0xbe895bf2	-0.2682796
56	0x3e702d5d	0.23454805
57	0x3e477b03	0.19480519
58	0x3e8942b2	0.26808697
59	0x3eb13bb9	0.34615877
60	0xbe7f6acb	-0.24943082
61	0xbe414478	-0.18873775
62	0xbe86330b	-0.26210818
63	0x3e80f90f	0.25190017

transformer_blocks.1.multi_head_attention.K_mappers.0.bias f4 [8]
0	0x3e555499	0.20833053
1	0x3e92b9b0	0.28657293
2	0xbe7d52af	-0.24738573
3	0xbe422895	-0.18960793
4	0x3eb079a7	0.34467813
5	0xbe8fbd36	-0.28074044
6	0xbe712c60	-0.23552084
7	0x3e055051	0.1301892

transformer_blocks.1.multi_head_attention.K_mappers.1.weight f4 [8, 8]
0	0xbe8efdd9	-0.27928045
1	0xbd8bb9d2	-0.06822552
2	0x3dd9be17	0.1063196
3	0x3e8bea19	0.2732704
4	0xbd988dc3	-0.07448914
5	0xbe9068c7	-0.2820494
6	0x3e240c43	0.16020302
7	0x3ecad62b	0.39616522
8	0xbe713ee5	-0.23559149
9	0xbd32011b	-0.043458086
10	0xbe612c7f	-0.2198963
11	0xbe5d90a7	-0.21637212
12	0x3e2927b5	0.16519053
13	0x3e5561c9	0.20838083
14	0x3e333743	0.1750155
15	0xbebe7130	-0.3719573
16	0xbd8a57fe	-0.067550644
17	0x3dfc770e	0.123273954
18	0x3ac3f610	0.0014950652
19	0xbe09623a	-0.13416377
20	0xbe12d816	-0.14340243
21	0x3ebb292a	0.36554843
22	0xbe81fabd	-0.2538661
23	0xbea03d44	-0.31296742
24	0x3e617a0f	0.22019218
25	0xbe697c55	-0.22801335
26	0x3e684f04	0.22686392
27	0xbe1bdfb4	-0.15222055
28	0xbd92ed24	-0.07174137
29	0xbe665f1f	-0.22497223
30	0x3e9cb118	0.30603862
31	0x3e784fa6	0.24249133
32	0xba9f7ea7	-0.0012168483
33	0x3c8247a8	0.015903309
34	0xbe0ddae5	-0.13853033
35	0xbe20d184	-0.15704924
36	0xbe21dc4d	-0.15806694
37	0x3dcfc435	0.101448454
38	0xbd88c40b	-0.06678017
39	0x3e80e636	0.25175637
40	0x3c5baaaa	0.013407389
41	0x3c97a049	0.018509047
42	0xbe6feedc	-0.23430961
43	0x3e3abdcc	0.18236464
44	0xbebc2258	-0.36744952
45	0x3cdc48cb	0.02689018
46	0x3df65f77	0.12029927
47	0x3dab91f9	0.083774514
48	0x3e8e0dd1	0.27744916
49	0x3d81a0af	0.06329476
50	0xbd8ca763	-0.06867864
51	0xbe9463e6	-0.28982466
52	0xbe912aae	-0.28352875
53	0x3e677234	0.22602159
54	0x3e5e3318	0.21699178
55	0xbe9d1b5d	-0.3068494
56	0x3e02832e	0.12745354
57	0xbe0dc687	-0.13845263
58	0x3e9e38ce	0.30902714
59	0xbe2592ae	-0.16169235
60	0x3ea8a440	0.32937813
61	0x3e9b4288	0.30324197
62	0x3e4e814b	0.20166509
63	0x3e64a9a2	0.22330335
